research/lightning_logs/version_10/checkpoints/epoch=4-step=250.ckpt (torch, 300447 bytes, 33 tensors)

model.param_proj.proj.0.weight f4 [1, 40]
0	0xbe212697	-0.15737377
1	0xbd84524d	-0.0646101
2	0x3e340e7d	0.17583652
3	0xbe6f3331	-0.23359372
4	0x3e8dcfba	0.27697545
5	0x3e836646	0.25663966
6	0xbe1218e6	-0.1426731
7	0x3d7bee58	0.0615066
8	0xbe3e03e0	-0.18556166
9	0xbccc522c	-0.024941526
10	0x3d11148b	0.035419982
11	0xbd381152	-0.044938393
12	0x3e7ce9b9	0.24698533
13	0x3d294644	0.041326776
14	0xbd598cd0	-0.053112805
15	0xbc9a82f8	-0.018861279
16	0xbea7c2e9	-0.32765892
17	0x3e5da126	0.21643505
18	0xbdb93c95	-0.09044758
19	0xbdfba757	-0.12287777
20	0xbe8feedb	-0.2811192
21	0xbba6707e	-0.005079328
22	0x3d797de2	0.060911067
23	0x3d88177b	0.066451035
24	0xbe22b443	-0.15889077
25	0xbd7e01b9	-0.06201336
26	0x3e3d9ee0	0.18517637
27	0xbe9b0c2a	-0.30282718
28	0x3e5053e7	0.20344506
29	0x3d52bd2d	0.051449943
30	0x3dd8115a	0.105501845
31	0x3e072567	0.13197862
32	0x3e10fdbd	0.14159293
33	0x3e07cba6	0.1326128
34	0x3eac07d7	0.3359973
35	0x3e3ad54b	0.18245427
36	0x3d87fb45	0.06639723
37	0xbe51fe3f	-0.20507143
38	0x3e4240e6	0.1897007
39	0x3e20ced6	0.15703902

model.param_proj.proj.1.weight f4 [1, 40]
0	0xbdbad2a9	-0.091222115
1	0xbdefafb2	-0.11703433
2	0x3d481d59	0.048856113
3	0xbddfce8e	-0.10928069
4	0x3e1394ef	0.14412282
5	0xbbc6f277	-0.0060713845
6	0xbc03f154	-0.008053143
7	0x3e20f7f9	0.15719594
8	0xbda26af2	-0.079305544
9	0xbe1d6658	-0.15371072
10	0x3e0cfb68	0.13767779
11	0x3dad8eb6	0.084744856
12	0xbddb5d56	-0.10711162
13	0x3d62f39a	0.055408098
14	0x3e0bb075	0.13641532
15	0x3defcf71	0.11709488
16	0xbe10c869	-0.1413895
17	0x3e26936d	0.16267176
18	0x3dc31700	0.09525871
19	0x3db3773a	0.08762975
20	0xbd31141a	-0.04323206
21	0xbe042eb0	-0.12908435
22	0xbe12612c	-0.1429488
23	0x3e06ca78	0.13163173
24	0xbdbc6f94	-0.09200969
25	0xbe29ddee	-0.16588566
26	0x3dafc54d	0.08582554
27	0xbd931760	-0.07182193
28	0x3d362f43	0.044478666
29	0xbe5a2617	-0.21303593
30	0x3e3c3ce2	0.183826
31	0xbe1054a4	-0.14094788
32	0x3aa534a0	0.0012604184
33	0x3deb7801	0.11497498
34	0x3c88b227	0.016686512
35	0x3dabdae0	0.083913565
36	0xbdaeaafc	-0.085287064
37	0xbdbe5808	-0.092941344
38	0xbd8b403d	-0.06799362
39	0xbe025bf8	-0.12730396

model.param_proj.proj.2.weight f4 [1, 40]
0	0x3e602972	0.2189081
1	0x3e3bed8b	0.18352334
2	0xbd844464	-0.06458357
3	0x3e515994	0.20444328
4	0xbe2f2817	-0.17105137
5	0xbdfce8c3	-0.12349083
6	0x3e4c52b1	0.1995342
7	0x3cc6e35a	0.024278332
8	0x3d9fa320	0.077947855
9	0x3db3d98f	0.087817304
10	0xbe14c43b	-0.14527981
11	0x3d0bd005	0.03413393
12	0xbe4f000c	-0.20214862
13	0xbe17286a	-0.1476151
14	0xbb011234	-0.0019694688
15	0xbcfa451e	-0.030550536
16	0x3d92fd18	0.0717718
17	0xbe35780a	-0.17721573
18	0x3e404ce9	0.18779339
19	0x3e1d8fec	0.15386933
20	0x3d302a49	0.043009076
21	0xbda1d049	-0.07901055
22	0xbdacd6d9	-0.084394164
23	0xbd1ff3c8	-0.039050847
24	0xbc025527	-0.007954872
25	0x3e5b8f3c	0.21441358
26	0xbe4e1d8a	-0.20128456
27	0x3e3f46e0	0.1867938
28	0xbdc279a0	-0.094958544
29	0xbc94e0b6	-0.018173557
30	0x3d2ec5a1	0.042668942
31	0xbda4c187	-0.08044725
32	0xbdf5e76c	-0.12007031
33	0x3d416de4	0.04722394
34	0xbcaec1c9	-0.021332638
35	0xbe07117b	-0.13190262
36	0xbe080a0f	-0.13285087
37	0xbd1c5ed0	-0.038176358
38	0x3d0c2a5d	0.03422009
39	0xbd9cf6f0	-0.07664287

model.rnn.weight_ih_l0 f4 [160, 21]
0	0xbdec91c6	-0.115512416
1	0x3c10c155	0.008835156
2	0x3db7d614	0.08976379
3	0xbe1c398d	-0.15256329
4	0xbd20eaf8	-0.039286584
5	0xbe632410	-0.22181726
6	0xbe0a5875	-0.13510306
7	0xbb8bcd69	-0.00426643
8	0xbe08c1e8	-0.1335522
9	0xbd4db967	-0.05022564
10	0x3d029357	0.031878795
11	0xbdb69301	-0.089147575
12	0xbddf42ea	-0.10901435
13	0xbdbd916c	-0.09256253
14	0xbd7be84e	-0.06150084
15	0x3dcb1976	0.09916966
16	0xbe08028a	-0.13282219
17	0xbdc79683	-0.09745505
18	0x3dddd5de	0.108318076
19	0xbdc36271	-0.095402606
20	0xbd8a3a50	-0.067494035
21	0x3d9f92ca	0.0779167
22	0x3e27e4b7	0.16395842
23	0x3e4ec04d	0.20190544
24	0xbc9d539c	-0.019204907
25	0x3c74344d	0.014905048
26	0xbdcf5675	-0.10123912
27	0xbdb1a53a	-0.086740926
28	0xbdb0ee80	-0.0863924
29	0x3e1cd6c4	0.15316302
30	0xbda74a16	-0.08168428
31	0x3e264e2f	0.16240762
32	0xbdbf502b	-0.09341463
33	0x3e1a60cc	0.15075988
34	0x3dd00b93	0.101584576
35	0xbd014be0	-0.0315665
36	0x3e2b52c9	0.16730799
37	0xbe081437	-0.13288961
38	0x3de2d553	0.110758446
39	0x3e64d7cc	0.22347945
40	0xbd9ad31a	-0.07559796
41	0xbd358f01	-0.044325832
42	0x3dd96188	0.10614306
43	0x3e6b9780	0.23007011
44	0x3e23290e	0.1593363
45	0x3e02deb8	0.12780273
46	0x3dc5d123	0.0965903
47	0x3ce76f14	0.028251208
48	0x3e01209f	0.126101
49	0x3db993d5	0.090614
50	0x3cf62582	0.030047182
51	0x3d954a1a	0.072895244
52	0x3dc2a51c	0.09504148
53	0x3ddf7930	0.109117866
54	0x3d6249d7	0.0552462
55	0x3d897af1	0.06712902
56	0x3e19c440	0.1501627
57	0x3dc9c456	0.09851901
58	0x3d623120	0.05522263
59	0xbd857cfc	-0.065179795
60	0x3dcc382e	0.09971653
61	0xbe901ac8	-0.28145432
62	0x3ddc0491	0.107430585
63	0xbc4f36af	-0.012647315
64	0x3e46ca59	0.19413127
65	0xbcd8e3b2	-0.026475761
66	0x3db3eaf3	0.087850474
67	0x3d83aa7e	0.06429003
68	0x3e30cef0	0.1726644
69	0x3e242be4	0.16032368
70	0x3e063305	0.131054
71	0xbbeb3481	-0.00717789
72	0x3daa5b15	0.08318154
73	0x3cf39fee	0.029739346
74	0x3dfe8dd3	0.124293946
75	0x3e0e6745	0.13906582
76	0xbdaabda8	-0.08336955
77	0x3d4b3fdf	0.04962146
78	0x3d9ff3d4	0.078101784
79	0xbd6bda9e	-0.057581536
80	0x3de9fe4a	0.11425455
81	0x3d91d67d	0.071209885
82	0xbdf10a18	-0.11769503
83	0xbc27f191	-0.010250465
84	0x3e04122c	0.12897557
85	0xbcbacbba	-0.022802223
86	0x3d41f551	0.047353093
87	0x3e79501c	0.24346966
88	0x3e01b695	0.12667306
89	0x3d13dd53	0.036099743
90	0x3e01fb66	0.12693557
91	0x3d169931	0.03676719
92	0xbce3ce4f	-0.027808337
93	0x3e28a61d	0.16469617
94	0xbd923ca5	-0.07140473
95	0x3d38f9b6	0.045160018
96	0xbc5e189b	-0.013555671
97	0x3e20840c	0.15675372
98	0xbd35342f	-0.04423922
99	0x3de77e34	0.11303368
100	0xbe584a4a	-0.21122089
101	0xbc2c0f23	-0.010501656
102	0xbd375939	-0.044762824
103	0xbc9d6885	-0.019214878
104	0x3e2251eb	0.15851562
105	0x3d913b52	0.070913926
106	0x3e55e655	0.20888646
107	0x3daccc80	0.08437443
108	0x3d467f7e	0.04846143
109	0x3d5a7041	0.05332971
110	0x3e6115e0	0.21981001
111	0x3e70b81b	0.2350773
112	0x3cbf087e	0.02331948
113	0x3df07a42	0.11742069
114	0x3e3deaf4	0.18546659
115	0x3d82cb8c	0.0638648
116	0x3e0acd1f	0.1355481
117	0x3e64091b	0.22269098
118	0xbd347a93	-0.04406221
119	0x3e2b759f	0.16744088
120	0x3d6c88e4	0.057747737
121	0xbd86f9aa	-0.065905884
122	0xbd446ea2	-0.04795707
123	0x3e1ceb24	0.15324074
124	0xbdd4c73d	-0.10389564
125	0xbcb44791	-0.022006782
126	0xbd61fe62	-0.05517424
127	0x3e075e7c	0.13219637
128	0x3e307083	0.1723042
129	0xbda402fe	-0.08008383
130	0xbc813c17	-0.015775723
131	0x3bbf5a2f	0.005839608
132	0x3c273a49	0.010206767
133	0xbdc04c60	-0.093895674
134	0xbd86034b	-0.06543597
135	0xbdec81c9	-0.11548192
136	0x3d737ac2	0.059443243
137	0x3e069381	0.13142206
138	0x3d4ef84b	0.05052976
139	0xbcf55bc3	-0.029950982
140	0x3e355b2f	0.17710565
141	0x3e04b5a6	0.12959918
142	0xbe025afc	-0.1273002
143	0x3dc516b7	0.09623473
144	0xbdb11132	-0.08645858
145	0x3e255148	0.16144288
146	0x3d0d4706	0.03449156
147	0x3dc88535	0.09791032
148	0xbd0bc286	-0.03412106
149	0x3e0b1418	0.13581884
150	0xbdcca66b	-0.09992679
151	0x3c3ddc50	0.011588171
152	0xbdc24b8e	-0.09487067
153	0x3db32132	0.08746566
154	0x3e3e3e4d	0.18578453
155	0xbda0af9e	-0.07845996
156	0x3df2ff9d	0.118651606
157	0xbdb742c9	-0.08948285
158	0xbe111ad1	-0.14170386
159	0x3d571037	0.052505698
160	0xbe0fb35d	-0.14033265
161	0xbdd6618b	-0.104678236
162	0x3c2366d1	0.009973244
163	0xbd5f565a	-0.05452571
164	0x3d17bd43	0.03704573
165	0xbdad60e2	-0.084657446
166	0xbe2cd543	-0.16878228
167	0xbd8b7476	-0.068093225
168	0xbca7a1b0	-0.02046284
169	0x3e184b46	0.14872465
170	0xbda43a1b	-0.08018895
171	0x3db267b7	0.08711188
172	0xbce1a7bc	-0.027545802
173	0x3d29228e	0.04129272
174	0x3cb5d3dd	0.02219575
175	0xbd209cf3	-0.03921218
176	0x3dc7cb87	0.09755617
177	0x3dad8e53	0.08474412
178	0xbd476aee	-0.04868596
179	0x3d61492f	0.055001434
180	0x3df87e56	0.12133472
181	0xbe030e1e	-0.12798354
182	0xbe2d7079	-0.16937436
183	0x3d3d274b	0.04618005
184	0xbd60811a	-0.05481062
185	0xbdfe74d2	-0.124246255
186	0xbda4c616	-0.080455944
187	0xbeac0349	-0.33596256
188	0xbddc7591	-0.107646115
189	0x3cb8b6a4	0.022548027
190	0x3e3605ad	0.17775603
191	0xbd7d1a40	-0.061792612
192	0xbdab7c4b	-0.083733164
193	0x3cf4b8e8	0.029873326
194	0x3da72b2c	0.08162531
195	0x3d968164	0.07348898
196	0x3e385bfc	0.18003839
197	0x3d8d8fbe	0.06912182
198	0xbda5f730	-0.08103788
199	0x3e31a407	0.17347728
200	0x3db9b643	0.09067967
201	0xbddd1312	-0.10794653
202	0x3b170478	0.0023043435
203	0xbcec27e2	-0.028827611
204	0x3e0d655b	0.13808195
205	0xba40ea04	-0.000735909
206	0x3cfb4d91	0.030676635
207	0x3c77ff14	0.015136499
208	0xbdc5df21	-0.09661699
209	0x3e11eec5	0.1425124
210	0x3b8c4bc2	0.004281492
211	0x3e3e09b6	0.18558392
212	0x3e32aec8	0.17449486
213	0xbce4f718	-0.027949855
214	0xbcbda73d	-0.023151034
215	0x3e2dc93b	0.16971295
216	0xbd07ce08	-0.03315547
217	0x3e4ed3ab	0.20197932
218	0x3cc8d3eb	0.024515113
219	0x3dd4a5a6	0.103831574
220	0x3dbbe7ed	0.09175096
221	0x3bbe00c5	0.0057984316
222	0x3de1b4df	0.110208265
223	0x3cefb311	0.02926019
224	0xbdaa9619	-0.0832941
225	0xbe027a38	-0.12741935
226	0xbcd2ca7f	-0.025731323
227	0x3da3ca6b	0.079975925
228	0x3e2068a0	0.15664911
229	0xbdf8bf9e	-0.12145923
230	0xbd3f1d2d	-0.046658684
231	0x3e7f0c57	0.24907051
232	0xbd561140	-0.052262545
233	0x3e10afb2	0.14129522
234	0xbcad05b5	-0.021120885
235	0x3e0a71d1	0.1351998
236	0xbd8f2fe4	-0.06991556
237	0xbd948252	-0.07251419
238	0x3cdfb70e	0.027308967
239	0x3d083f56	0.033263527
240	0x3e4f8755	0.20266469
241	0x3daf065b	0.08546134
242	0x3e5df2e5	0.21674688
243	0x3d72a9cb	0.05924396
244	0x3d83bf4a	0.0643297
245	0xbd2b79ba	-0.041864134
246	0x3d88237b	0.06647392
247	0xbcd2fa6c	-0.025754176
248	0x3ca420ea	0.020035226
249	0x3e25b489	0.1618215
250	0xbd9d4286	-0.07678704
251	0x3c89a25e	0.016801056
252	0x3e24ed25	0.16106088
253	0x3e28b7c6	0.16476354
254	0x3ccc7849	0.0249597
255	0x3e6a733f	0.22895525

model.rnn.weight_hh_l0 f4 [160, 40]
0	0xbddc3be7	-0.10753613
1	0x3de9d51d	0.11417601
2	0xbd580f48	-0.05274895
3	0x3da73fbe	0.08166455
4	0xbe12ca84	-0.14335066
5	0x3bb1f7fc	0.0054311734
6	0x3ccc0220	0.024903357
7	0x3cbeb4d0	0.023279577
8	0xbdfac25c	-0.12244102
9	0x3e14a17f	0.14514731
10	0xbd5a544a	-0.05330304
11	0x3da1510c	0.078767866
12	0xbcadd606	-0.021220218
13	0xbdce34cf	-0.10068666
14	0x3dde2e9e	0.10848735
15	0xbe007c4a	-0.12547413
16	0x3e7e2b75	0.24821265
17	0xbbe5a967	-0.0070087197
18	0xbe2b3ef6	-0.16723236
19	0xbe000199	-0.1250061
20	0x3dd2d777	0.10295003
21	0x3dd8c213	0.10583892
22	0x3da8563a	0.082195714
23	0xbd47fc1e	-0.048824422
24	0x3e0e445f	0.13893269
25	0xbe0e2e0d	-0.13884754
26	0x3da48087	0.08032327
27	0x3d80471f	0.06263565
28	0xbd408111	-0.046998087
29	0x3e17cdac	0.14824551
30	0xbdafb8d7	-0.08580177
31	0xbdb265e6	-0.08710842
32	0x3cdbaf8e	0.02681711
33	0x3d9de509	0.077097006
34	0x3e0f4021	0.13989307
35	0x3dd53020	0.1040957
36	0x3d629cdc	0.055325374
37	0xbe0cee98	-0.13762891
38	0xbda20c38	-0.07912487
39	0x3dcc7341	0.099829204
40	0x3dc87155	0.09787241
41	0xbdd7a73e	-0.10529946
42	0xbe2aed47	-0.16692077
43	0x3d6db3de	0.058032863
44	0x3c30e59b	0.01079693
45	0xbd8117c7	-0.06303363
46	0x3de3832a	0.11109002
47	0xbe18cbb5	-0.14921458
48	0xbbe0d33f	-0.00686112
49	0x3dd5eae2	0.10445191
50	0x3e1b2418	0.15150487
51	0xbbc7cfda	-0.006097776
52	0xbcd17c7b	-0.025572052
53	0xbc09b384	-0.008404616
54	0xbd1cc514	-0.038273886
55	0x3de25f01	0.11053277
56	0x3b6b89f6	0.0035940385
57	0x3e1118cf	0.1416962
58	0xbda04616	-0.07825868
59	0xbda848a5	-0.08216981
60	0xbbbe7f8c	-0.0058135446
61	0x3d6832af	0.05668896
62	0xbdd6c98d	-0.104876615
63	0xbc4532b1	-0.012036012
64	0x3db6c26f	0.08923804
65	0xbe0aaea7	-0.13543187
66	0x39a6ff49	0.0003185219
67	0x3e19c0d6	0.15014967
68	0xbdc2e63e	-0.095165715
69	0xbdd31051	-0.103058465
70	0xbd02d1be	-0.031938307
71	0x3d20943d	0.03920387
72	0xbd1473f7	-0.036243405
73	0x3e3379d0	0.17526937
74	0xbe2399f5	-0.15976699
75	0xbdd7e9fd	-0.105426766
76	0xbcbb95f3	-0.02289865
77	0x3c9bda5a	0.019025017
78	0x3d2b5c4f	0.04183608
79	0xbe152943	-0.14566521
80	0xbce261d5	-0.02763454
81	0xbdbea309	-0.0930844
82	0x3cdb9f3a	0.026809324
83	0x3e4634ff	0.19356154
84	0xbc45e81e	-0.012079267
85	0xbd0627bc	-0.032752737
86	0x3e19084d	0.14944573
87	0x3e0c37d7	0.13693176
88	0xbc83bf24	-0.016082354
89	0xbe1ab841	-0.1510935
90	0xbda49f12	-0.08038153
91	0xbe0c07f0	-0.13674903
92	0x3d9a70e6	0.07541065
93	0xbda4a6f6	-0.08039658
94	0xbe0240e5	-0.12720068
95	0x3e3ad576	0.18245491
96	0x3e0a4d43	0.13506036
97	0xbcedd679	-0.029032933
98	0x3e297b51	0.16550948
99	0x3dba418e	0.09094535
100	0xbda539a4	-0.08067635
101	0xbdeefc3b	-0.11669203
102	0x3d8612e5	0.065465726
103	0xbe15cfcf	-0.14630054
104	0x3db7d7f0	0.08976734
105	0xbe19f97f	-0.15036581
106	0xbdbfdcdc	-0.093682975
107	0xb8dc24f4	-0.000104973005
108	0xbe1c6fac	-0.15276974
109	0x3d2d4a2d	0.042307068
110	0x3e1a96b1	0.15096547
111	0x3df856b0	0.12125909
112	0xbc97faf5	-0.018552283
113	0xbda7f9e3	-0.08201959
114	0xbd474d79	-0.048657868
115	0x3dd1b720	0.102400064
116	0xbd0812d2	-0.033221073
117	0x3e23220c	0.15930957
118	0xbdba2ecc	-0.09090957
119	0x3bec710e	0.0072156256
120	0xbd5448e0	-0.05182731
121	0x3c8ab8f3	0.016933894
122	0xbe18331e	-0.1486325
123	0xbe27b177	-0.16376291
124	0xbd572a2d	-0.052530456
125	0x3e147059	0.14495982
126	0xbe52daff	-0.20591353
127	0x3d9b5192	0.07583918
128	0xbe64f6e5	-0.22359808
129	0x3c0fad83	0.008769396
130	0xbdac2646	-0.084057376
131	0x3e29c5a0	0.16579294
132	0x3dfb4fb6	0.12271063
133	0xbe2275a3	-0.15865187
134	0xbe167378	-0.14692485
135	0x3e0a83c6	0.1352683
136	0x3d106ca6	0.035259865
137	0x3dc7e345	0.09760145
138	0x3e5abbb0	0.2136066
139	0x3cb95782	0.022624735
140	0xbe365fa2	-0.17809919
141	0x3cf22469	0.029558377
142	0x3e645da3	0.22301345
143	0xbe4b3a6f	-0.1984651
144	0x3d32c6c1	0.043646578
145	0xbddaa252	-0.106754914
146	0x3ce1d541	0.027567508
147	0x3d846b07	0.06465726
148	0x3d5fa151	0.054597203
149	0xbdda1b45	-0.106497325
150	0xbe041964	-0.12900311
151	0x3d7567d9	0.05991349
152	0xbdca791c	-0.09886381
153	0x3db01438	0.085976064
154	0x3d445024	0.04792799
155	0xbc215bd3	-0.009848553
156	0xbc24febd	-0.0100705
157	0x3e4a26dc	0.19741386
158	0x3e7341e0	0.23755598
159	0x3d8e684e	0.06953488
160	0xbcfc3648	-0.030787602
161	0xbdfb47bf	-0.12269544
162	0xbcfc0ee5	-0.030768821
163	0xbdd85958	-0.10563916
164	0x3cd80d89	0.026373642
165	0x3c979bda	0.018506933
166	0x3d60a68a	0.054846324
167	0xbdff2275	-0.12457744
168	0xbd18a097	-0.037262525
169	0xbd982a06	-0.0742989
170	0xbe425ad6	-0.18979964
171	0xbce67a47	-0.028134478
172	0xbd7fae1b	-0.0624219
173	0xbc835067	-0.01602955
174	0x3d56246b	0.052280825
175	0x3d67d769	0.056601916
176	0xbe182b07	-0.14860164
177	0x3d4117c9	0.047141824
178	0x3e211761	0.15731575
179	0x3db7ec93	0.0898067
180	0xbdac9b2c	-0.08428034
181	0xbd3e4d9f	-0.046460744
182	0x3ac4a090	0.0015001465
183	0x3dd6178b	0.10453709
184	0xbd3dbe83	-0.046324264
185	0xbe45cfb1	-0.19317509
186	0xbd456dc4	-0.048200384
187	0x3e1ab451	0.15107848
188	0xbd4ac772	-0.049506612
189	0x3cd7dad7	0.026349468
190	0x3d8686db	0.065686904
191	0x3da709c4	0.081561595
192	0x3cd9832f	0.026551811
193	0xbdd99ce8	-0.106256306
194	0x3ce414cd	0.02784195
195	0x3d9319cd	0.071826555
196	0xbd13b4c4	-0.036061063
197	0xbdc967c9	-0.098342486
198	0xbd69e2b9	-0.057100985
199	0x3e1daa97	0.15397106
200	0xbd9de73d	-0.07710121
201	0x3ccb2539	0.024798023
202	0xbcaa68be	-0.020801898
203	0x3dafb699	0.085797496
204	0x3d2f305a	0.04277072
205	0x3e190c60	0.14946127
206	0xbd802fa3	-0.06259086
207	0xbcc99b4b	-0.024610182
208	0xbdc5acc1	-0.09652091
209	0xbbf73c20	-0.0075450093
210	0x3dbf57ed	0.093429424
211	0x3e334b54	0.17509204
212	0xbc44334d	-0.011975122
213	0xbddce002	-0.107849136
214	0xbdcc48d9	-0.09974832
215	0x3c1ba9f6	0.009500971
216	0x3db61cad	0.08892188
217	0x3e051407	0.12995921
218	0x3e04c511	0.129658
219	0xbdc0c860	-0.094132185
220	0x3d8ffc4a	0.07030542
221	0x3dab5301	0.08365441
222	0xbda72296	-0.081608936
223	0xbcd4c6b8	-0.025973663
224	0xbb20e517	-0.002455061
225	0x3c9e6ff5	0.019340495
226	0x3d99be84	0.07507041
227	0xbda87fc0	-0.082274914
228	0xbe49e558	-0.19716394
229	0xbc33c73d	-0.010972795
230	0x3d40d4bb	0.047077876
231	0xbbfd8a8d	-0.007737464
232	0xbe1a0134	-0.15039521
233	0x3cddc688	0.027072206
234	0xbdf61bbc	-0.12017009
235	0x3e0e0ab1	0.13871266
236	0xbe0f1b3a	-0.1397523
237	0xbdaad2da	-0.08340998
238	0xbdb83bca	-0.08995779
239	0xbd73e8eb	-0.0595483
240	0x3d8e5a25	0.069507875
241	0xbc451999	-0.012030029
242	0xbbfd75c1	-0.0077349846
243	0xbc49b4ca	-0.01231117
244	0x3da19e8f	0.07891571
245	0xbd8d4d38	-0.06899494
246	0xbdcabbe8	-0.098991215
247	0xbd22a1f3	-0.039705228
248	0x3c44274e	0.011972262
249	0xbdc28753	-0.09498467
250	0x3e148e0f	0.14507316
251	0x3d8c0e0f	0.06838619
252	0xbdf74015	-0.120727696
253	0xbd855a20	-0.065113306
254	0x3d49afe2	0.04924
255	0xbdb7fc8f	-0.089837186

model.rnn.bias_ih_l0 f4 [160]
0	0x3bb02e8b	0.005376642
1	0xbd633872	-0.055473752
2	0x3e64e2f4	0.22352201
3	0xbd4fa686	-0.05069592
4	0x3d4f56d8	0.05061993
5	0x3d38fca3	0.04516281
6	0x3d762ec3	0.06010319
7	0xbd013049	-0.03154019
8	0x3d1ceaaf	0.03830975
9	0x3d89e362	0.06732823
10	0xbc28834c	-0.01028521
11	0xbcc87e61	-0.024474325
12	0x3c9ee078	0.019394144
13	0x3e22abce	0.15885851
14	0x3e0fd3d9	0.14045657
15	0x3dfc4244	0.12317327
16	0xbbec489b	-0.0072108037
17	0x3e74e44b	0.23915212
18	0x3bb41029	0.0054950905
19	0x3e34bc22	0.17649892
20	0xbe045d99	-0.1292633
21	0xbd3cfbb3	-0.046138477
22	0x3da4bfe7	0.08044415
23	0xbc925b62	-0.01786584
24	0xbd2abc5f	-0.04168355
25	0x3db8da86	0.09026055
26	0x3d848ecf	0.06472551
27	0x3d16d0a8	0.036820084
28	0xbd2ebc66	-0.04266014
29	0x3d99f44f	0.07517301
30	0x3cc91385	0.02454544
31	0x3e477afb	0.19480507
32	0x3d167a24	0.036737576
33	0xbc9ccd63	-0.019140905
34	0x3d99a95b	0.07503005
35	0x3d9de0bb	0.077088796
36	0x3e490b04	0.19633108
37	0x3e3f23b5	0.18665965
38	0x3d90afb4	0.07064763
39	0x3d122b39	0.03568575
40	0x3e1573d7	0.1459497
41	0x3e2a3faf	0.16625856
42	0x3daa986c	0.083298534
43	0xbd95e92a	-0.07319863
44	0x3e06f258	0.13178384
45	0x3d6ee5ed	0.058324743
46	0xbc78346e	-0.015149219
47	0xbdb0a8d2	-0.0862595
48	0x3e33d9bc	0.17563528
49	0xbdfb36d9	-0.12266321
50	0xbca5457a	-0.02017473
51	0x3db8f4d5	0.09031073
52	0x3d033061	0.03202856
53	0xbe0eb8c1	-0.13937666
54	0x3c3c6dca	0.011500785
55	0x3e150dba	0.14556018
56	0xbc74e6c0	-0.014947593
57	0x3cc39b59	0.023877786
58	0xbb60a367	-0.0034277083
59	0x3e261ab7	0.16221128
60	0xbc89903d	-0.016792411
61	0x3d09a79b	0.033607107
62	0x3dd6c98b	0.1048766
63	0x3de8ef0d	0.1137372
64	0xbda6d87e	-0.08146761
65	0xbe0d23aa	-0.13783136
66	0xbd379c76	-0.044826947
67	0x3e287994	0.16452628
68	0x3e1e0990	0.15433335
69	0x3e1a0a7b	0.1504306
70	0x3e2fc94f	0.17166637
71	0xbda7c84a	-0.08192499
72	0x3e2eb4e6	0.17061195
73	0xbda9df52	-0.08294548
74	0xbcf0486f	-0.029331414
75	0x3e1d6365	0.15369947
76	0xbcc81ebb	-0.024428716
77	0x3dc2eb8c	0.09517583
78	0x3d5cf98d	0.053948928
79	0x3dd24046	0.102661654
80	0x3da52c57	0.08065098
81	0xbba380f6	-0.0049897386
82	0xbdd9825d	-0.10620568
83	0xbe1d2d76	-0.15349373
84	0xbc0c13a0	-0.008549601
85	0x3e4f2152	0.20227554
86	0xbda911a8	-0.08255321
87	0x3d6765a5	0.05649342
88	0x3d1c6556	0.03818258
89	0xbe2b717e	-0.16742513
90	0x3c43b7e2	0.011945697
91	0x3e26db3e	0.16294572
92	0x3da2cf73	0.07949724
93	0x3cb5d6a6	0.022197079
94	0x3dafc4d4	0.08582464
95	0x3dd36e75	0.103238024
96	0x3dd12d92	0.1021377
97	0x3d4cf21e	0.05003559
98	0x3d45810d	0.048218776
99	0xbe57261b	-0.2101063
100	0x3d6636bd	0.056204546
101	0xbe0f2874	-0.13980275
102	0x3de50645	0.111828364
103	0xbe0942ce	-0.1340439
104	0x3da430b4	0.08017102
105	0xbe0c25a9	-0.13686241
106	0x3db76684	0.089551
107	0x3e4745e8	0.19460261
108	0x3d084608	0.033269912
109	0xbd1710fe	-0.03688144
110	0x3dbde170	0.092715144
111	0x3e44dc31	0.19224621
112	0xbd0a77d3	-0.03380568
113	0x3d9936d0	0.07481158
114	0xbe156641	-0.14589788
115	0x3dda4db6	0.106593534
116	0xbcb57fe7	-0.022155715
117	0x3e05e792	0.13076618
118	0xbd88d3f5	-0.066810526
119	0xbda5de2a	-0.08099015
120	0xbd7619fd	-0.060083378
121	0x3e04ba17	0.12961613
122	0x3d166f1c	0.036727056
123	0x3dbc63ac	0.091986984
124	0x3d82a437	0.06378978
125	0xbc1d9259	-0.0096174115
126	0xbdacc4b4	-0.08435956
127	0xbd52e6f6	-0.051489793
128	0x3d8b6247	0.06805854
129	0x3e566767	0.20937882
130	0x3db7e78c	0.08979711
131	0xbd3736a1	-0.044729833
132	0xbda67f87	-0.08129793
133	0xbd54e0ae	-0.051972084
134	0x3e5cb811	0.21554591
135	0x3e03da3b	0.12876217
136	0x3e40c18d	0.18823834
137	0x3c2eaec1	0.010661782
138	0x3e11c767	0.14236222
139	0x3e294717	0.16531025
140	0x3d4e3b7b	0.050349694
141	0xbe1e60cf	-0.15466617
142	0x3c21f092	0.009884017
143	0xbd12484c	-0.03571348
144	0xbda74af1	-0.08168591
145	0xbdae6dba	-0.085170224
146	0x3d8e1f57	0.06939571
147	0x3c2ea970	0.010660514
148	0x3afb4421	0.0019170084
149	0x3e13f693	0.1444953
150	0x3db3760e	0.087627515
151	0x3c94dc77	0.018171532
152	0xbc2c2997	-0.010507963
153	0xbddf8734	-0.1091446
154	0xbd6cb410	-0.05778891
155	0x3d5a6445	0.05331828
156	0x3d44cd88	0.048047572
157	0x3df42222	0.11920573
158	0x3ca1e4ed	0.01976248
159	0x3dad7255	0.08469073

model.rnn.bias_hh_l0 f4 [160]
0	0xbda35389	-0.079749174
1	0x3e3669c9	0.17813791
2	0xbc92c510	-0.017916232
3	0x3e5a197c	0.21298784
4	0xbd0f8b29	-0.035044823
5	0x3cc468a5	0.02397568
6	0xbbd09a98	-0.0063660853
7	0xbdde33ee	-0.108497486
8	0xbc732d3d	-0.014842329
9	0x3e05a79f	0.13052224
10	0x3e37ed34	0.1796158
11	0xbd004d62	-0.031323798
12	0x3d74bbfe	0.059749596
13	0x3cc82bc2	0.024434928
14	0x3dccc732	0.09998931
15	0xbdbc55b4	-0.09196034
16	0x3dac41d5	0.08410994
17	0xbb281eff	-0.002565324
18	0x3b9ff7ea	0.0048818486
19	0x3da20d13	0.0791265
20	0x3e1428ad	0.14468642
21	0x3c994a04	0.018712051
22	0xba970e73	-0.0011524692
23	0x3da8146f	0.082070224
24	0x3ddb6b65	0.10713843
25	0x3d4d7f99	0.050170515
26	0x3d3d195d	0.046166766
27	0x3e00850f	0.12550758
28	0x3e6fde1c	0.23424572
29	0xbaa4e309	-0.0012579869
30	0xbd66a25e	-0.05630719
31	0xbc044eca	-0.008075425
32	0x3a95005c	0.0011367905
33	0x3e2409a0	0.16019297
34	0x3d2e0252	0.04248268
35	0x3c89776d	0.01678058
36	0x3d15a944	0.036538377
37	0x3db4ea9a	0.08833809
38	0xbcbda54d	-0.02315011
39	0x3df2e8b0	0.11860788
40	0x3c9c4d37	0.019079788
41	0xbdf63e14	-0.12023559
42	0xbc3290c0	-0.010898769
43	0x3e03b62f	0.12862466
44	0xbdbfee41	-0.09371615
45	0x3df7be44	0.12096837
46	0x3de65324	0.112463266
47	0x3e04b1d2	0.12958458
48	0xbd262970	-0.04056686
49	0xbe07287e	-0.1319904
50	0x3d950b1e	0.07277511
51	0x3df1f4ce	0.11814271
52	0x3903a886	0.00012555913
53	0x3ce4b4e1	0.027918281
54	0xbe0e9779	-0.1392497
55	0x3e063b94	0.13108665
56	0xbdbed5b0	-0.093181014
57	0x3db7a03e	0.08966111
58	0x3c6e12fd	0.014530894
59	0x3da26e39	0.079311796
60	0x3d8a3c18	0.06749743
61	0x3d295146	0.041337274
62	0x3e044e48	0.12920487
63	0x3db6a966	0.08919029
64	0x3d423436	0.047413073
65	0xbc8f7aa9	-0.017514544
66	0x3bbf0e17	0.005830537
67	0x3e00200e	0.12512228
68	0x3d91a343	0.07111218
69	0x3e06f92e	0.13180992
70	0xbd522b5b	-0.05131088
71	0x3e235baf	0.15952943
72	0x3e1bf8d5	0.1523164
73	0x3d546ce0	0.051861644
74	0xbdf4c69a	-0.11951943
75	0x3d8ada28	0.06779891
76	0x3d8b5e6c	0.06805119
77	0xbda3892c	-0.07985148
78	0x3d730e98	0.05934009
79	0x3ca82850	0.020527035
80	0xbdbb9e76	-0.091610834
81	0xbdf60fbf	-0.12014722
82	0xbe3a681b	-0.18203776
83	0xbd32d57a	-0.04366062
84	0x3e5372ec	0.20649308
85	0x3e0f7961	0.14011146
86	0x3e1715c9	0.14754404
87	0xbe39e58d	-0.18153973
88	0xbdaf8e4c	-0.08572063
89	0xbe488261	-0.19580986
90	0xbe1aceed	-0.15117998
91	0xbcaae0df	-0.02085918
92	0x3e3358b5	0.17514308
93	0x3d6a2047	0.05715969
94	0x3d0511e9	0.032487784
95	0x3db90db6	0.09035818
96	0xbd417e7b	-0.04723976
97	0x3da625dc	0.0811269
98	0x3e5dca0e	0.21659109
99	0xbe320681	-0.17385294
100	0xbd9de0f2	-0.077089205
101	0x3b8d9ca5	0.004321652
102	0x3c969132	0.018379781
103	0xbe3ba17c	-0.1832332
104	0xbdf891fe	-0.12137221
105	0x3dc82c24	0.09774044
106	0xbe31544b	-0.17317311
107	0xbdce0678	-0.100598276
108	0xbe2a5621	-0.16634418
109	0xbd15411d	-0.03643905
110	0x3c1b1d88	0.00946749
111	0x3e2ff394	0.17182761
112	0x3d2a5e6f	0.041593965
113	0xbda1dfae	-0.07903992
114	0xbd61e26d	-0.055147577
115	0x3dfe6a5d	0.12422631
116	0xbe298ecf	-0.16558383
117	0x3d03a6d1	0.03214151
118	0xbe0fc0d5	-0.14038403
119	0x3d222efc	0.03959559
120	0xbd5df118	-0.054185003
121	0x3d94d978	0.07268041
122	0x3e3018bc	0.17196935
123	0x3ac8a163	0.0015306886
124	0x3b5d6d68	0.0033787135
125	0x3c696d44	0.014247242
126	0xbdc17893	-0.09446826
127	0x3c1674e5	0.009183143
128	0xbd927c41	-0.07152606
129	0x3d5d60a6	0.05404725
130	0x3dfe7648	0.12424904
131	0x3df0d252	0.117588654
132	0x3d2c59f9	0.042077992
133	0x3e3338ed	0.17502184
134	0x3c9ba859	0.019001173
135	0x3e0e0e59	0.1387266
136	0x3d615dc4	0.055021062
137	0xbdad5dcd	-0.08465157
138	0x3bc65524	0.00605263
139	0x3dae5046	0.08511405
140	0xbdf0d146	-0.11758666
141	0x3e0c37e1	0.13693191
142	0x3e283dd5	0.16429837
143	0xbd4c14e3	-0.049824607
144	0xbdfbff3b	-0.12304541
145	0xbcfc1a67	-0.030774308
146	0xbc53f3b8	-0.012936525
147	0xbda37486	-0.079812095
148	0x3dbe0209	0.09277732
149	0xbd9f5f44	-0.07781842
150	0x3dabd876	0.08390896
151	0x3e1ea1b2	0.1549137
152	0xbd703371	-0.05864281
153	0x3c62b9d1	0.013838247
154	0xbd1c2afd	-0.038126934
155	0x3e27fea8	0.16405737
156	0xbd517dd7	-0.0511454
157	0xbdb4019f	-0.08789372
158	0x3ddfd149	0.1092859
159	0xbe04c155	-0.12964375

model.rnn.weight_ih_l1 f4 [160, 40]
0	0xbd4689f7	-0.048471417
1	0xbccef593	-0.025263583
2	0x3cf18bbb	0.029485574
3	0xbe2d6290	-0.1693213
4	0x3e4e85a0	0.20168161
5	0x3d88ad95	0.06673733
6	0xbd9a0c00	-0.0752182
7	0x3d267c12	0.040645666
8	0xbe433f38	-0.19067085
9	0x3caec02a	0.021331865
10	0xbd0920ec	-0.033478662
11	0x3ded7019	0.115936466
12	0x3e09ef29	0.13470139
13	0xbe210d20	-0.15727663
14	0xbd997c6b	-0.07494434
15	0x3d8256ae	0.06364189
16	0xbdc484ed	-0.09595666
17	0xbb965c9a	-0.0045886757
18	0x3e270055	0.1630872
19	0xbdbb28a9	-0.09138615
20	0x3dd03ce0	0.10167861
21	0xbc511c9c	-0.012763169
22	0x3e2b7d7f	0.16747092
23	0x3d00cf2d	0.03144758
24	0xbe031113	-0.12799482
25	0xbe6f964a	-0.23397174
26	0xbd1ff2a5	-0.039049763
27	0x3dc067b0	0.09394777
28	0x3be1c24f	0.0068896185
29	0xbd808800	-0.0627594
30	0xbe2ae2ff	-0.16688155
31	0x3dc81996	0.09770505
32	0xbe74c457	-0.23903023
33	0xbd240d30	-0.04005164
34	0xb9a25e17	-0.0003096915
35	0xbd883926	-0.06651525
36	0xbe249e7e	-0.16076085
37	0x3e822ccd	0.25424805
38	0x3e679d10	0.22618508
39	0x3d88da4f	0.06682264
40	0x3d45824e	0.04821997
41	0xbd812961	-0.063067205
42	0xbe455e22	-0.1927419
43	0x3d70456b	0.058659952
44	0xbd6b0f54	-0.057387665
45	0x3dbdfded	0.09276948
46	0xbc766f0f	-0.015041127
47	0xbdeb1092	-0.1147777
48	0x3d9ca63f	0.076488964
49	0xbe0a89d0	-0.13529134
50	0xbe1b1a93	-0.15146856
51	0x3e5e8103	0.21728902
52	0x3d9441af	0.07239091
53	0x3d4c1a11	0.049829546
54	0x3d591179	0.05299518
55	0x3d9059b1	0.07048357
56	0x3bf3b9f1	0.0074379374
57	0x3b8d276e	0.004307679
58	0xbd38bf7b	-0.045104485
59	0xbde3af9e	-0.11117481
60	0x3d8624bc	0.06549975
61	0xbc77be63	-0.015121075
62	0x3c0a225f	0.008431046
63	0xbd29b8d6	-0.04143604
64	0xbcfe2a1e	-0.031025942
65	0xbe431ac1	-0.19053175
66	0x3ba9e8f7	0.0051852423
67	0x3d8c3c23	0.06847408
68	0xbe303797	-0.17208706
69	0xbe35c00b	-0.1774904
70	0xbcd14ddf	-0.025549827
71	0x3db57e79	0.08862013
72	0xbe4a5e3a	-0.19762507
73	0xbd345577	-0.044026818
74	0xbe24f497	-0.16108929
75	0x3e2ae141	0.1668749
76	0xbdd276bf	-0.10276555
77	0x3e695e88	0.22789967
78	0x3e739ba2	0.23789838
79	0x3e143259	0.14472331
80	0x3d944b5a	0.07240935
81	0xbdf5b32c	-0.11997065
82	0x3c4b5abf	0.012411772
83	0x3bd6d3cf	0.0065560113
84	0x3c9fef68	0.019523337
85	0x3e5aa910	0.21353555
86	0xbd8b1bf5	-0.06792442
87	0xbdcfdd51	-0.10149635
88	0xbd949236	-0.0725445
89	0xbe5952ec	-0.21223038
90	0xbe8f1bfb	-0.27951035
91	0x3de1da7b	0.11028
92	0x3b6e0a93	0.003632222
93	0xbcdde523	-0.0270868
94	0xbc943899	-0.018093394
95	0x3d24773f	0.040152784
96	0xbdfca2ec	-0.123357624
97	0x3e57b5e6	0.21065482
98	0xbd62bc61	-0.055355433
99	0x3cbc7ee8	0.023009732
100	0xbe0e3178	-0.13886058
101	0xbe05f38c	-0.13081187
102	0x3d9ba2cc	0.075994104
103	0xbd30466c	-0.04303591
104	0xbe2a3767	-0.16622697
105	0xbe123784	-0.1427899
106	0xbe6d3a0e	-0.23166677
107	0x3e133057	0.14373909
108	0xbe3a7b4f	-0.18211101
109	0xbe58dbd5	-0.2117761
110	0x3c30ded1	0.010795311
111	0x3dc5f426	0.09665708
112	0xbcfecf93	-0.031104838
113	0x3df8caee	0.12148081
114	0xbde58eaf	-0.11208855
115	0x3d318f5e	0.043349616
116	0xbc0458c9	-0.008077809
117	0x3e052a71	0.13004471
118	0x3da9bf75	0.08288471
119	0x3e323de5	0.17406423
120	0x3c9eb199	0.019371795
121	0xbe6af691	-0.2294562
122	0x3d37fa58	0.04491648
123	0xbdaa9fd6	-0.083312675
124	0x3d560a90	0.052256167
125	0xbd22b657	-0.039724674
126	0xbe4c44ef	-0.19948171
127	0xbe2a5b7d	-0.16636463
128	0x3d65ef9e	0.05613672
129	0xbe67dff1	-0.2264402
130	0x3c909327	0.017648293
131	0x3b767e42	0.0037611877
132	0x3e3413d7	0.17585693
133	0xbd3f78a8	-0.046745926
134	0xbe1d18e1	-0.15341522
135	0x3e80bf46	0.2514593
136	0xbc4aca5f	-0.012377351
137	0x3e189530	0.1490066
138	0x3e213be3	0.15745501
139	0xbd813398	-0.06308669
140	0xbe09ba66	-0.13450012
141	0x3d725311	0.05916125
142	0x3e2cd6e9	0.16878857
143	0xbe2a1215	-0.1660846
144	0xbdc38818	-0.09547442
145	0x3da1c90c	0.07899675
146	0xbd8ef8bc	-0.06981036
147	0xbcffe719	-0.031238126
148	0xbd135e65	-0.035978694
149	0xbe5f7d78	-0.21825206
150	0xbe2815a9	-0.16414513
151	0x3e250067	0.16113435
152	0xbe791a72	-0.24326494
153	0x3d7a0618	0.061040968
154	0xbe14b11a	-0.14520684
155	0xbd7e4296	-0.06207522
156	0xbe7d957c	-0.24764055
157	0x3e1124a1	0.14174129
158	0x3e26b77c	0.16280931
159	0xbdf3b697	-0.119000606
160	0xbdc0e07b	-0.09417816
161	0x3d674fbf	0.056472536
162	0xbd14e736	-0.036353312
163	0xbd0eac59	-0.034832332
164	0x3dd56fac	0.1042169
165	0x3dde0f63	0.108427785
166	0xbd0ab016	-0.033859335
167	0x3cfb0dcf	0.030646233
168	0xbe1507d2	-0.14553764
169	0xbda3c483	-0.07996466
170	0xbe35573b	-0.17709057
171	0x3d47f1db	0.048814636
172	0xbdffbebb	-0.12487551
173	0x3d5dfd18	0.054196447
174	0xbd670af7	-0.05640694
175	0x3b99feb2	0.0046995515
176	0xbd142568	-0.036168486
177	0x3e2e97d2	0.17050102
178	0xbe03a50b	-0.12855928
179	0x3e0cb6ed	0.13741656
180	0x3e12bd66	0.14330062
181	0x3db40dd5	0.08791701
182	0xbd033b32	-0.032038875
183	0x3cb9437a	0.022615183
184	0xbde3da4a	-0.1112562
185	0xbe0d6716	-0.13808855
186	0xbe16e2fd	-0.14735027
187	0xbb8eade2	-0.0043542245
188	0xbd9630fa	-0.0733356
189	0x3d75c257	0.05999979
190	0x3d18aadd	0.037272323
191	0xbd823b6b	-0.06358989
192	0x3dd556c8	0.10416943
193	0xbd714bf0	-0.05891031
194	0xbdd18964	-0.10231283
195	0x3d135f77	0.035979714
196	0x3dda0e5d	0.10647271
197	0xbe123177	-0.14276682
198	0xbdc3eaec	-0.09566292
199	0x3de8a1c7	0.113589816
200	0xbe285be5	-0.16441305
201	0xbe58a08c	-0.21154994
202	0xbd48b3c8	-0.048999578
203	0x3dc688e1	0.09694076
204	0x3e4be9b9	0.19913377
205	0xbd4de2fe	-0.050265305
206	0xbe59ee4d	-0.21282311
207	0xbd910cc9	-0.07082517
208	0xbdb60a03	-0.08888628
209	0xbd2f11b7	-0.042741504
210	0xbd83b545	-0.06431059
211	0xbd5c23f7	-0.053745236
212	0xbc88b025	-0.016685555
213	0xbe4db671	-0.20089127
214	0x3d3825b6	0.04495784
215	0x3e5cd6f6	0.21566376
216	0x3aca01b9	0.001541189
217	0xbd80682c	-0.06269869
218	0x3ca8d661	0.020610036
219	0xbe532b46	-0.20621976
220	0xbdb01dad	-0.0859941
221	0xbd2576bd	-0.04039644
222	0xbca03b0e	-0.01955941
223	0xbd9529e5	-0.072833814
224	0x3dbb2881	0.09138585
225	0x3dc23fc9	0.09484822
226	0x3d468457	0.048466053
227	0x3c59bf3c	0.013290223
228	0xbe2370f4	-0.15961057
229	0x3d137776	0.0360026
230	0xbe02f925	-0.12790354
231	0x3d30767e	0.043081753
232	0xbe7308e2	-0.23733857
233	0xbd6f09bb	-0.05835889
234	0x3c8e8182	0.017395739
235	0x3d6856cf	0.056723412
236	0xbe39003f	-0.180665
237	0x3e210458	0.15724313
238	0xbdaf3ef4	-0.08556929
239	0xbd8ee7a1	-0.069777735
240	0xbe084480	-0.1330738
241	0x3d661b22	0.05617822
242	0xbe056cb7	-0.13029753
243	0x3df36767	0.11884957
244	0x3c12e294	0.008965153
245	0x3b657c8f	0.003501687
246	0xbd832ec9	-0.06405408
247	0x3dd61f7b	0.10455223
248	0x3d9af4bd	0.075662114
249	0x3d9fff1d	0.07812331
250	0xbc0dee36	-0.008662751
251	0x3cb8e427	0.022569729
252	0x3e0e6e29	0.1390921
253	0xbe413bbe	-0.18870446
254	0xbc7cbbd7	-0.015425644
255	0x3e29cb46	0.16581449

model.rnn.weight_hh_l1 f4 [160, 40]
0	0xbd9fa3b5	-0.077948965
1	0xbdd6566e	-0.10465704
2	0x3db2eb9d	0.08736346
3	0x3d2d2778	0.04227397
4	0xbb4a8b1d	-0.0030905672
5	0xbd236cfd	-0.03989886
6	0xbc8a6466	-0.016893577
7	0x3d89ad08	0.06722456
8	0x3d972b78	0.07381338
9	0x3d18a04a	0.03726224
10	0x3da718aa	0.08159001
11	0x3e36fcb3	0.17869835
12	0x3e24c476	0.16090569
13	0x3ddc9a06	0.10771565
14	0x3dcba5b2	0.09943713
15	0x3dbac543	0.09119656
16	0x3d936af0	0.07198131
17	0xbca5ac9b	-0.020223906
18	0xbcab28cf	-0.020893482
19	0x3e0720a0	0.13196039
20	0x3d9d5480	0.07682133
21	0xbd88fa37	-0.0668835
22	0x3cda5e46	0.026656281
23	0x3d020465	0.031742472
24	0xbdfb73e9	-0.122779675
25	0xbd6f37f1	-0.05840296
26	0xbd49351d	-0.04912292
27	0xbd499c07	-0.049221065
28	0xbd994d2c	-0.074854225
29	0x3ddf1435	0.10892526
30	0x3e31641d	0.17323346
31	0x3e1d9362	0.15388253
32	0x3dca156e	0.09867369
33	0x3c8a98f5	0.016918639
34	0x3e405bf8	0.18785083
35	0xbd1fa685	-0.038977165
36	0xbdf62f9b	-0.12020799
37	0xbdac736a	-0.08420451
38	0x3d01338c	0.0315433
39	0x3d9d24b4	0.07673016
40	0xbdd7409d	-0.10510371
41	0x3c86f95b	0.016476324
42	0x3e06c948	0.1316272
43	0x3cb97b0c	0.022641681
44	0xbd91086e	-0.07081686
45	0xbd02a111	-0.031891886
46	0x3cb9a8a8	0.02266343
47	0x3d859ce1	0.06524063
48	0xbdc030ba	-0.09384294
49	0xbe324d84	-0.17412382
50	0xbbfb5854	-0.0076704416
51	0xbd383456	-0.044971786
52	0xbd9711b9	-0.07376427
53	0x3c8f70c7	0.017509831
54	0x3cc8e7ab	0.02452453
55	0x3e23b7d8	0.159881
56	0x3d5f7525	0.054555077
57	0x3d61d43b	0.05513404
58	0xbe08bc93	-0.13353185
59	0x3dfb3558	0.12266034
60	0x3d0be6d1	0.03415567
61	0xbdcbd02f	-0.09951817
62	0x3dbbe06c	0.091736645
63	0xbd98875a	-0.07447691
64	0x3c08dbb7	0.008353165
65	0x3c097af2	0.008391129
66	0xbda62123	-0.08111789
67	0xbc6f1cf1	-0.0145943025
68	0xbc6d7c70	-0.014495
69	0xbe0f4259	-0.13990153
70	0xbd84c3ff	-0.06482696
71	0xbdff5db2	-0.12469043
72	0x3cd7f455	0.026361624
73	0x3e3256cb	0.17415921
74	0xbd9483b2	-0.072516814
75	0x3c252e41	0.010081829
76	0x3ccb50ec	0.02481886
77	0xbd22b0b1	-0.039719287
78	0x3c329c5f	0.01090154
79	0x3d970183	0.07373335
80	0xbe2dad99	-0.16960754
81	0x3ce5194d	0.027966166
82	0xbd96578b	-0.07340916
83	0x3db8fcd4	0.09032598
84	0x3de5a2a5	0.112126626
85	0xbd869580	-0.065714836
86	0xbde7dd32	-0.113214865
87	0x3ccc87ff	0.024967192
88	0x3da988bf	0.08278035
89	0xbd96a212	-0.07355131
90	0x3d63ee6a	0.05564729
91	0xbd8784b2	-0.066171065
92	0x3e221b01	0.15830614
93	0xbc8d7d06	-0.01727153
94	0xbd711184	-0.058854595
95	0x3e0239bd	0.12717338
96	0xbe11a0d5	-0.14221509
97	0xbd8f645c	-0.07001564
98	0x3c517e02	0.01278639
99	0xbce1e739	-0.027576076
100	0xbe153e19	-0.1457447
101	0x3d4e313b	0.05033992
102	0xbd875421	-0.06607843
103	0x3de02fdd	0.10946629
104	0xbe24df73	-0.16100864
105	0xbe38d91f	-0.18051575
106	0xbb9c9017	-0.004777919
107	0x3d663e37	0.056211676
108	0xbd8d5783	-0.06901457
109	0x3d8657c6	0.0655971
110	0x3cd539ae	0.02602848
111	0xbdfccdb6	-0.12343924
112	0x3dc5f0c2	0.096650615
113	0x3d91acb3	0.07113018
114	0x3d31de24	0.04342474
115	0xbdcb7196	-0.09933774
116	0x3c7491cf	0.014927342
117	0xbe3be5cf	-0.18349384
118	0xbdb3ee92	-0.08785738
119	0xbde012d3	-0.109410904
120	0xbdcb500b	-0.09927376
121	0xbc89eedd	-0.016837532
122	0xbd8985b0	-0.06714952
123	0xbe0b8720	-0.13625765
124	0xbdc8e0dd	-0.09808514
125	0xbdba4c8f	-0.09096634
126	0x3c156852	0.00911911
127	0xbe0ef9b7	-0.13962446
128	0x3dd75929	0.10515053
129	0xbe36705f	-0.17816304
130	0x3e580eee	0.21099445
131	0x3c839232	0.016060922
132	0xbd6ed906	-0.05831244
133	0x3e1cc038	0.153077
134	0x3d41073f	0.04712605
135	0x3d9b4229	0.075809784
136	0xbdcd4f18	-0.100248516
137	0x3d213461	0.039356593
138	0x3d60e11f	0.054902192
139	0xbddf3ae3	-0.108999036
140	0xbda949f9	-0.08266062
141	0xbe2a64a5	-0.16639955
142	0x3c378b7a	0.011202687
143	0x3e29bb6b	0.165754
144	0xbdfb9f55	-0.122862495
145	0xbd0976e6	-0.033560656
146	0x3ce7a8d3	0.028278744
147	0xbe08fc0e	-0.13377401
148	0x3e00251d	0.12514158
149	0x3da5d8ba	0.08097978
150	0xbd729435	-0.059223372
151	0xbd38f1c6	-0.045152448
152	0x3e3aeda1	0.1825471
153	0x3e0766b0	0.13222766
154	0x3e4276a9	0.18990578
155	0x3dcff1c9	0.10153539
156	0x3ccb7dce	0.024840262
157	0xbdaab6ea	-0.08335669
158	0x3e17e68e	0.14834043
159	0x3e06eff4	0.13177472
160	0x3e0e8b10	0.13920236
161	0x3e16ccdc	0.14726585
162	0x3dd3bd31	0.1033882
163	0x3dc16a1a	0.094440654
164	0x3d8e8fc0	0.06961012
165	0x3de0d66a	0.10978396
166	0xbe159dae	-0.14610931
167	0x3d999b39	0.075003095
168	0xbc325651	-0.010884837
169	0x3ba16119	0.004924905
170	0xbd995373	-0.0748662
171	0x3d8081cc	0.06274757
172	0x3c4c840b	0.012482653
173	0xbd52b1c9	-0.05143908
174	0xbdbcfc98	-0.09227866
175	0xbe0bd14a	-0.13654056
176	0x3d8ba469	0.06818468
177	0xbc99df79	-0.018783318
178	0x3dbd0456	0.09229343
179	0xbe299f42	-0.16564658
180	0x3c92b2ca	0.017907519
181	0xbda9364b	-0.08262309
182	0x3d7e104d	0.062027264
183	0x3d3f3f99	0.04669151
184	0x3da7d98f	0.08195793
185	0xbc15889a	-0.009126807
186	0x3e373def	0.1789472
187	0xbd0f56ed	-0.03499501
188	0x3e01b22c	0.12665623
189	0xbc585a66	-0.013205146
190	0xbdad1b2e	-0.0845245
191	0x3e0e69cf	0.1390755
192	0xbd4d8a6d	-0.05018084
193	0xbd32bbf6	-0.043636285
194	0xbddbda4e	-0.10734998
195	0x3e0ae73d	0.13564773
196	0x3df5b4d0	0.11997378
197	0x3e197d86	0.1498929
198	0x3d2c0837	0.04200002
199	0xbcb0da83	-0.02158857
200	0xbe2f7ecc	-0.17138213
201	0x3bd95336	0.006632234
202	0xbca08d78	-0.019598708
203	0xbe38976f	-0.18026517
204	0xbd8a0e1b	-0.06740972
205	0x3e2c475e	0.168241
206	0xbe138225	-0.14405115
207	0x3d35c221	0.04437459
208	0x3d9b826f	0.075932376
209	0x3d9ad308	0.07559782
210	0xbad93c50	-0.0016573761
211	0x3d399844	0.045311227
212	0x3e076227	0.13221036
213	0x3d25d6de	0.040488116
214	0xbd2486bb	-0.04016755
215	0x3ddcf189	0.10788257
216	0xbe330582	-0.1748257
217	0x3e19523f	0.1497278
218	0xbde79236	-0.113071844
219	0xbe1cd65d	-0.15316148
220	0xbd7a77c7	-0.061149385
221	0x3dab5a71	0.0836686
222	0x3e1c9eed	0.15295
223	0x3de302b5	0.11084501
224	0xbded60c8	-0.11590725
225	0xbd8f98b8	-0.07011551
226	0x3cd39871	0.025829526
227	0xbe307df6	-0.1723555
228	0x3de47e9a	0.1115696
229	0xbd92e3b5	-0.07172338
230	0x3d6132fb	0.05498026
231	0xbd624bd8	-0.05524811
232	0xbd8936dd	-0.066999175
233	0x3dbf5b36	0.09343569
234	0xbd57965e	-0.052633636
235	0x3e36bda5	0.17845781
236	0xbd617938	-0.055047244
237	0x3d1b5739	0.03792498
238	0x3c0abd2c	0.008467954
239	0x3dc9d57d	0.09855173
240	0xbe3289ea	-0.17435423
241	0xbc402269	-0.011726954
242	0x3c7150cf	0.014728739
243	0x3c6423a8	0.013924517
244	0x3cd0c5a7	0.025484873
245	0xbd7eb523	-0.062184464
246	0xbd967e2c	-0.07348284
247	0x3e18267b	0.14858429
248	0x3ca7f98c	0.020504735
249	0xbcfdca75	-0.030980328
250	0x3dedefc3	0.116179965
251	0xbd8ed118	-0.06973475
252	0x3cbc0dae	0.022955742
253	0x3d57ccd8	0.05268559
254	0x3e35a7e3	0.17739825
255	0xbc3e3589	-0.011609443

model.rnn.bias_ih_l1 f4 [160]
0	0x3db728af	0.08943307
1	0x3e2025fa	0.15639487
2	0x3e46c26b	0.19410102
3	0x3dfc117b	0.12308022
4	0x3ccc6d15	0.024954358
5	0xbda7f0a3	-0.08200195
6	0x3d9031f8	0.07040781
7	0x3d63b47c	0.055592045
8	0xbdf601c6	-0.12012057
9	0xbdd343ee	-0.10315691
10	0x3e48d063	0.19610743
11	0x3e0d8e74	0.13823873
12	0xbb22a1c1	-0.002481565
13	0x3c37dcd6	0.011222085
14	0x3b1bd2fc	0.002377688
15	0x3e43adb9	0.19109239
16	0x3e0304c6	0.1279479
17	0x3d847663	0.06467893
18	0x3e4c2741	0.19936849
19	0xbd8fb68e	-0.070172414
20	0x3deb919d	0.11502383
21	0xbd2d62b4	-0.04233046
22	0x3e17018c	0.14746684
23	0x3d183748	0.037162095
24	0xbda8a988	-0.082354605
25	0xbc6aa8b5	-0.014322449
26	0x3e15c531	0.14626004
27	0xbb958241	-0.0045626466
28	0xbd93dd9e	-0.072200045
29	0x3e3abe30	0.18236613
30	0x3deda842	0.11604358
31	0xbd8b071b	-0.06788465
32	0x3e68ddbf	0.2274084
33	0x3d41af82	0.047286518
34	0x3e04677c	0.12930101
35	0x3e65df30	0.2244842
36	0xbe02d428	-0.12776244
37	0x3d969e9d	0.07354472
38	0xbd93271b	-0.07185193
39	0xbd8f7e8d	-0.070065595
40	0x3e24ec01	0.16105653
41	0x3cc7bde2	0.024382535
42	0x3dddc5cf	0.108287446
43	0x3cf83070	0.030296534
44	0xbdc362c2	-0.09540321
45	0xbcb5ff74	-0.022216536
46	0x3d5cf592	0.05394513
47	0xbdc11a8d	-0.09428892
48	0x3d44a8c1	0.0480125
49	0xbe0f2cae	-0.13981888
50	0xbdb99e27	-0.09063368
51	0xbd9b106c	-0.075714916
52	0x3d5956b2	0.053061195
53	0xbdc67cac	-0.09691748
54	0xbdbf1854	-0.09330812
55	0x3d08be69	0.033384714
56	0xbcb22409	-0.021745699
57	0x3cab8efa	0.0209422
58	0x3e315683	0.17318158
59	0x3dbbf33a	0.09177251
60	0x3dbb7a4f	0.09154188
61	0xbdd78b83	-0.105246566
62	0x3b8c3f99	0.0042800424
63	0x3e2ed97f	0.17075156
64	0x3d1f385d	0.03887211
65	0xbc37b163	-0.011211726
66	0x3d8c9db2	0.068660155
67	0xbdaab321	-0.083349474
68	0x3ddecc8d	0.10878859
69	0x3e014948	0.12625611
70	0x3be8ea81	0.007108033
71	0xbd7dad45	-0.06193282
72	0xbb3a7c0a	-0.002845528
73	0xbdc361fb	-0.09540173
74	0xbe07d947	-0.13266478
75	0xbcc52ab5	-0.024068216
76	0xbded1865	-0.115769185
77	0x3d56aa7d	0.052408684
78	0x3e06d642	0.1316767
79	0xbc03fb5a	-0.008055532
80	0xbdc97c9b	-0.0983822
81	0xbe205ecc	-0.15661162
82	0x3e461af4	0.1934622
83	0xbb94337e	-0.00452274
84	0xbca2fc5b	-0.019895723
85	0x3c9eabcc	0.019369029
86	0xbd7312f4	-0.059344247
87	0x3d77843e	0.06042885
88	0xbda40d1f	-0.08010315
89	0xbd03baa8	-0.03216043
90	0x3cac4d7e	0.021033045
91	0x3d82e22a	0.063907936
92	0x3e239018	0.15972936
93	0xbd37db1e	-0.0448867
94	0x3d3de0f5	0.046357114
95	0x3e0021f1	0.12512948
96	0xbe39696b	-0.1810662
97	0x3d2527c3	0.040321123
98	0x3ddf9337	0.10916751
99	0x3da89e6f	0.08233344
100	0x3d171465	0.036884684
101	0xbd600059	-0.05468783
102	0xbe091a01	-0.13388826
103	0x3e374a0e	0.17899343
104	0xbe317a2c	-0.17331761
105	0xbe05c04b	-0.13061635
106	0xbc2f7d99	-0.010711097
107	0xbda14e5a	-0.078762725
108	0x3d6dc5f3	0.058050107
109	0xbe2b9372	-0.16755465
110	0x3e3c27ee	0.18374607
111	0x3dbef570	0.09324157
112	0x3c473052	0.012157517
113	0x3df6e22a	0.12054856
114	0xbd97b988	-0.07408434
115	0x3dfdc060	0.12390208
116	0xbcd6532c	-0.026162706
117	0xbd88c3e0	-0.06677985
118	0x3ddf8114	0.109132916
119	0xbd96f1fa	-0.07370372
120	0x3da3d876	0.08000271
121	0x3e0f9bf0	0.14024329
122	0x3e1abaf8	0.15110385
123	0x3e4b95bd	0.1988134
124	0xbe147132	-0.14496306
125	0x3da4b13d	0.08041618
126	0x3e36c390	0.17848039
127	0xbd7a3d72	-0.061093755
128	0x3e389b1a	0.18027917
129	0xbdadc445	-0.08484701
130	0x3e4d308c	0.2003805
131	0xbdfb5e4c	-0.12273845
132	0x3e114247	0.14185439
133	0xbdaf348c	-0.085549444
134	0x3dea7c1e	0.11449455
135	0x3ba00749	0.004883681
136	0x3b130470	0.0022433065
137	0x3d2098e6	0.039208315
138	0x3d84cd18	0.06484431
139	0xbc821f54	-0.015884079
140	0x3d3e2cdf	0.04642951
141	0x3da3270a	0.079664305
142	0x3d87044a	0.06592615
143	0x3de800e4	0.11328295
144	0xbc8344bc	-0.016023986
145	0x3e6227de	0.2208552
146	0xbd1f53bb	-0.03889821
147	0xbd092b84	-0.033488765
148	0xbcfaae56	-0.030600708
149	0x3df6d0e8	0.120515645
150	0xbd560c44	-0.05225779
151	0xbe023dab	-0.12718837
152	0x3e59d0d8	0.21271074
153	0x3d592fa8	0.053023964
154	0x3e2c6bb0	0.16837955
155	0x3e01979a	0.12655488
156	0xbc9c5b80	-0.0190866
157	0x3df6b062	0.12045361
158	0xbce2911e	-0.027657088
159	0x3e1c454c	0.1526081

model.rnn.bias_hh_l1 f4 [160]
0	0x3e3acd94	0.18242484
1	0x3e7d3f36	0.24731144
2	0x3e611bed	0.21983309
3	0xbd76372a	-0.060111202
4	0x3d165284	0.036699787
5	0x3e4e3fbb	0.20141499
6	0x3e689dd0	0.2271645
7	0xbdcb8bb9	-0.09938759
8	0x3e31c487	0.17360125
9	0x3d6d2e86	0.057905696
10	0x3e8429e4	0.2581321
11	0x3e259b56	0.16172537
12	0x3e23aec8	0.15984643
13	0x3db8610b	0.090028845
14	0x3db03d3d	0.0860543
15	0xbd959bcd	-0.07305107
16	0xbddeaeba	-0.1087317
17	0x3d838674	0.06422129
18	0x3da09c13	0.07842269
19	0x3da3a6cb	0.079907976
20	0x3d6ba588	0.05753091
21	0xbcb312b7	-0.02185951
22	0x3da3ffdc	0.08007786
23	0xbdf23411	-0.11826337
24	0x3e17516b	0.14777152
25	0x3e54863d	0.20754333
26	0x3e38e4ff	0.18056105
27	0x3e0c2ad0	0.13688207
28	0x3e5201ed	0.20508547
29	0x3e03adb4	0.12859231
30	0x3ca2de04	0.019881256
31	0x3de8f0c6	0.11374049
32	0x3e15a565	0.14613874
33	0x3d81b83a	0.063339666
34	0x3d4f5c57	0.05062517
35	0x3de2b557	0.11069744
36	0x3c24844c	0.010041308
37	0x3d3a6f45	0.04551627
38	0xbd905577	-0.07047551
39	0x3d83ee7b	0.06441971
40	0x3b76aed7	0.0037640834
41	0x3ddbe6ff	0.107374184
42	0x3e413115	0.1886638
43	0x3db52f36	0.088468954
44	0x3c0b53c3	0.008503857
45	0x3d97a764	0.07404974
46	0xbdad37c3	-0.08457901
47	0x3df7673a	0.12080236
48	0xbd3b3c30	-0.045711696
49	0x3df8c17d	0.1214628
50	0x3d0dfc72	0.03466458
51	0xbd3e7f79	-0.046508286
52	0x3c450399	0.0120247835
53	0x3e2f5b95	0.1712478
54	0xbe17d8b0	-0.14828753
55	0xbd74a1a9	-0.059724484
56	0x3e36940d	0.17829914
57	0xbde5c4b8	-0.11219162
58	0x3d7f59b7	0.062341418
59	0xbb3ac1e2	-0.002849691
60	0x3dd2c414	0.10291305
61	0x3d4e5254	0.050371483
62	0xbe229369	-0.15876545
63	0xbcbf0ebb	-0.023322454
64	0xbd0c925a	-0.03431926
65	0x3e28b7d7	0.1647638
66	0x3d2fba86	0.042902492
67	0x3e05bdd3	0.13060693
68	0x3e169007	0.1470338
69	0xbcfcd98c	-0.030865453
70	0x3dddf57e	0.108378395
71	0xbd8cebed	-0.06880937
72	0x3d72deb8	0.059294432
73	0xbe1b7f4b	-0.15185277
74	0x3e14f146	0.14545164
75	0x3cfbabd0	0.030721575
76	0x3ce0c100	0.02743578
77	0xbd2486f8	-0.04016778
78	0x3df7cf13	0.12100043
79	0x3db64c91	0.08901323
80	0xbe36cbe6	-0.17851219
81	0xbe24f37c	-0.16108507
82	0xbcd2133a	-0.025643934
83	0xbd986485	-0.074410476
84	0x3ca628a2	0.020283047
85	0x3d85eeac	0.06539664
86	0xbd8317ec	-0.06401047
87	0xbd4c1dbc	-0.049833044
88	0x3d8b4460	0.06800151
89	0x3d8f9c5b	0.07012244
90	0x3e143b7a	0.14475814
91	0xbc9a97c0	-0.018871188
92	0xbc5c789f	-0.013456493
93	0x3e2c9d2b	0.1685683
94	0x3d4cf397	0.050036993
95	0x3e181dca	0.14855114
96	0x3cf7d8f6	0.030254822
97	0x3e10aec9	0.14129175
98	0xba791b2f	-0.0009502647
99	0xbce8872a	-0.028384764
100	0x3c91354f	0.017725615
101	0xbc42755f	-0.011868804
102	0xbc0157ae	-0.00789444
103	0x3bfe0b41	0.0077528064
104	0xbdb434e6	-0.08799152
105	0xbdd682e0	-0.10474181
106	0x3de206a8	0.11036426
107	0x3d2e555e	0.04256188
108	0xbcb7d825	-0.022441933
109	0x3d921ae1	0.07134033
110	0x3e3e5fc8	0.18591225
111	0xbcf01d04	-0.02931071
112	0x3cff4fa5	0.031165907
113	0x3d0cbe52	0.03436119
114	0x3e018f52	0.12652329
115	0x3d53e3f9	0.051731084
116	0x3d9c8bea	0.07643874
117	0xbe0316a0	-0.128016
118	0xbe0b2cd1	-0.13591315
119	0xbdfe88fd	-0.12428472
120	0x3e11bc2d	0.1423194
121	0x3c70e9b4	0.014704157
122	0x3cf6c477	0.030122979
123	0x3d5bd0f3	0.053666066
124	0x3dc4c60a	0.096080855
125	0x3db2d19f	0.08731388
126	0x3d84f0c1	0.06491233
127	0xbdb3699f	-0.0876038
128	0x3df85fa5	0.12127618
129	0x3cdf8b09	0.027287977
130	0x3e41bfbd	0.18920799
131	0xbc7196ff	-0.014745473
132	0x3d9be739	0.076124616
133	0x3e292c43	0.16520791
134	0xbda290d9	-0.07937784
135	0x3e2e2684	0.1700688
136	0x3d0dff2b	0.034667175
137	0xbd16b6c0	-0.036795378
138	0xbb371657	-0.00279369
139	0xbddb74af	-0.10715615
140	0xbd9bef79	-0.07614035
141	0xbda5bfd5	-0.0809323
142	0xbda2d240	-0.07950258
143	0x3e2788b5	0.16360743
144	0x3d47ccf1	0.04877943
145	0x3ccd2b45	0.025045047
146	0xbd88ef50	-0.0668627
147	0x3c4e2fc0	0.012584627
148	0x3e5de14e	0.21667978
149	0x3e427cc3	0.18992905
150	0x3da21925	0.07914952
151	0xbdedd510	-0.11612904
152	0x3da84ded	0.08217988
153	0x3d62de86	0.055387996
154	0x3dafe628	0.08588821
155	0x3dd2c238	0.102909505
156	0xbb5e0168	-0.003387535
157	0x3e09e074	0.13464528
158	0xbdbd4787	-0.092421584
159	0xbdf208d8	-0.11818093

exp_avg f4 [1, 40]
0	0x3b35a368	0.0027715806
1	0x3b3a1134	0.0028391602
2	0xbb20892a	-0.0024495819
3	0x3b18093d	0.0023198866
4	0xbaab61c5	-0.0013075402
5	0xbb2726d9	-0.0025505333
6	0x3b27f298	0.0025626775
7	0xba338e4a	-0.0006849511
8	0x3a95984a	0.0011413184
9	0x3aa50745	0.0012590667
10	0xbb16df0b	-0.0023021128
11	0x39ef597f	0.00045652312
12	0xbabc9b11	-0.0014389475
13	0xbb13db8d	-0.0022561282
14	0xb73f3e4f	-1.13989945e-05
15	0x39887293	0.00026025306
16	0x3af34c2e	0.0018562132
17	0xbb0f6a87	-0.0021883564
18	0x3b26deb0	0.0025462322
19	0x3ae7ab7c	0.0017675008
20	0x3a0a4c9c	0.0005275698
21	0xba60a651	-0.0008569705
22	0xba3beff0	-0.00071692374
23	0xba9d653f	-0.0012008323
24	0x3a956ee5	0.0011400847
25	0x3b29e4d3	0.0025923743
26	0xbb2d4419	-0.0026438294
27	0x3b0cd8d1	0.0021491537
28	0xbb2035c6	-0.0024446114
29	0xba2b97e9	-0.00065457687
30	0xba7667c9	-0.00093996205
31	0xba4e64c7	-0.00078732934
32	0xbb3281c0	-0.0027237982
33	0x39273c2d	0.00015948778
34	0xbb208ab2	-0.0024496731
35	0xbb232d13	-0.0024898692
36	0xba10a7b8	-0.0005518156
37	0x3a6df285	0.0009076971
38	0xba84a271	-0.0010119212
39	0xba96962c	-0.0011488847

exp_avg_sq f4 [1, 40]
0	0x3780b2e1	1.5342086e-05
1	0x3772ede9	1.4479717e-05
2	0x3723dbdd	9.766748e-06
3	0x370fb925	8.5665715e-06
4	0x35edf418	1.7728917e-06
5	0x3710e203	8.635691e-06
6	0x371407cb	8.823302e-06
7	0x3458959f	2.0171e-07
8	0x361c23a4	2.3266557e-06
9	0x366816e4	3.4584018e-06
10	0x372b5303	1.0211722e-05
11	0x34fcd981	4.7096913e-07
12	0x362bff61	2.5629636e-06
13	0x36cbd6ef	6.074893e-06
14	0x34856691	2.4847807e-07
15	0x3625cae3	2.4705012e-06
16	0x36e5c6e1	6.8478844e-06
17	0x37150431	8.882068e-06
18	0x373d29f7	1.1275049e-05
19	0x369f5e71	4.7495637e-06
20	0x33a36815	7.6092114e-08
21	0x35857caa	9.945554e-07
22	0x35f40abd	1.8182542e-06
23	0x3672100d	3.6070153e-06
24	0x35de1f41	1.6549385e-06
25	0x373ae8bb	1.1140651e-05
26	0x37399445	1.1061381e-05
27	0x36ff7c5f	7.614071e-06
28	0x37086c5f	8.131464e-06
29	0x356c1c44	8.7957983e-07
30	0x366ae4b8	3.500185e-06
31	0x347245f4	2.2563455e-07
32	0x375c1117	1.3117001e-05
33	0x358122de	9.621397e-07
34	0x36cb814d	6.064924e-06
35	0x374c7e85	1.2188805e-05
36	0x34d62db6	3.9893865e-07
37	0x35e194ac	1.6807076e-06
38	0x352ad5e7	6.3641204e-07
39	0x360400fc	1.9670106e-06

exp_avg f4 [1, 40]
0	0xbd8e6791	-0.069533475
1	0xbd93a282	-0.0720873
2	0x3d5702cf	0.052492913
3	0xbd6652b5	-0.05623122
4	0x3c6ee5ea	0.014581183
5	0x3d8ce700	0.06879997
6	0xbd8d1f2f	-0.068907134
7	0x3bd15fa0	0.006389573
8	0xbce0c534	-0.027437784
9	0xbcf21178	-0.029549345
10	0x3d3d58f9	0.04622743
11	0xbc96dd81	-0.018416168
12	0x3d4bb7fc	0.049736008
13	0x3d409f53	0.047026943
14	0xbc3ffde4	-0.011718247
15	0xbc85ca92	-0.016331945
16	0xbce55f09	-0.027999418
17	0x3d46a8a2	0.048500665
18	0xbd9be325	-0.07611684
19	0xbd4c92d7	-0.049944725
20	0xbaed08bc	-0.0018084268
21	0x3da03d6f	0.078242175
22	0x3d2194b6	0.039448462
23	0x3c83602b	0.016037067
24	0xbc01ce67	-0.007922745
25	0xbd7eb6cc	-0.062186047
26	0x3d9357f8	0.07194513
27	0xbd32f9c0	-0.04369521
28	0x3d84d150	0.06485236
29	0x3db57264	0.08859709
30	0x3bb5a0c3	0.005542846
31	0x3d52a96b	0.0514311
32	0x3d92dd94	0.07171169
33	0xbc802706	-0.015643608
34	0x3d8208f1	0.06349362
35	0x3d743b78	0.059627026
36	0x3ca8feba	0.020629276
37	0xbca13e1a	-0.019682933
38	0x3d59f2a9	0.053209934
39	0x3d50a7a0	0.05094111
