research/lightning_logs/version_4/checkpoints/epoch=4-step=250.ckpt (torch, 300447 bytes, 33 tensors)

model.param_proj.proj.0.weight f4 [1, 40]
00000000: 167d 0b3d 142a d43c a3d5 e7bc fe7b 423c
00000010: a6f1 18be efb1 183c 70c4 00be 6a16 ee3d
00000020: 423d a23c de8a 86bd 71ef 30be b63c 0cbe
00000030: b518 8d3c 93ec 483e aee9 da3d 5596 9a3c
00000040: 2e73 72bc 5ca2 5c3e 69d5 e33d ca10 e4bc
00000050: d4ce e5bd d095 1e3d 06cc 15be ed78 563e
00000060: 3ee5 093e 04d6 bdbd eef6 41be 9f38 ae3c
00000070: 212a edbc b37c a4bd f701 4abd ca21 6fbd
00000080: 5a5b a23c 2812 283e 86eb 263e 4ec2 6c3d
00000090: 969b b6bb 564f 153d 98f5 a03d 01e9 2bbe
0.034054838 0.02589897 -0.028300112 0.011870382 -0.14935932 0.009319766 -0.12574935 0.11625369
0.0198046 -0.065694556 -0.1727884 -0.13695034 0.017223695 0.19621496 0.10689102 0.018870512
-0.014797969 0.2154631 0.11124689 -0.027840037 -0.1122109 0.03871709 -0.1462861 0.20944567
0.13466355 -0.09269336 -0.18941852 0.021267233 -0.028950753 -0.08031597 -0.04931828 -0.058381833
0.01981895 0.16413176 0.16300783 0.05780249 -0.0055727465 0.036452614 0.07859343 -0.16788103

model.param_proj.proj.1.weight f4 [1, 40]
00000000: 1bd5 8b3d 18eb 14be b775 0c3e 825f 38bd
00000010: c4e2 cabd 7a25 183d fe90 0abd 1908 e93d
00000020: 3dec 18be cc89 11be 4838 a83b 62da 01be
00000030: d60a 26be 46c4 063e 3a58 0d3d d34f cfbd
00000040: 3fa8 84bd 5974 2b3e be50 61bc 98dc 4abd
00000050: d8fa 403d 0bdb 4b3d be58 01bd 27a7 223e
00000060: 6088 fc3d c37e 97bd c116 1dbd ef12 5c3d
00000070: ee69 52be 9f34 2a3d e332 3a3d 92bf 773d
00000080: 98a4 ea3d 4cd0 113e 5513 583e a86c 1abe
00000090: 31ef 1cbe fb37 ebbd f4ab 19be 97ba 00be
0.06827756 -0.14542806 0.1371678 -0.04501296 -0.09906533 0.037145115 -0.03382968 0.11378498
-0.14933868 -0.14212722 0.0051336624 -0.12680963 -0.16215071 0.1316081 0.034507968 -0.10122647
-0.06477403 0.16743602 -0.013752161 -0.04952678 0.047114223 0.049769443 -0.03157877 0.15884076
0.12330699 -0.07397225 -0.038351778 0.053728994 -0.20548221 0.04155409 0.045458686 0.06048543
0.11457175 0.14239615 0.21101125 -0.15080512 -0.1532562 -0.11485287 -0.15007001 -0.12571178

model.param_proj.proj.2.weight f4 [1, 40]
00000000: 93b8 27be 29c8 b5bc af96 25be 7b80 353e
00000010: 3502 673e a589 1f3e ad7e 45be dbad 8fbe
00000020: 0890 163c 7ede 3f3e e83d 283e 4f84 133e
00000030: 685c 3d3e d452 68be 6b2f 443e bcbe 28be
00000040: a6fc ac3d 40d0 2abd 4ac4 3fbe d205 13be
00000050: be43 55be b80f a7bd f0fb 2e3e 23bf c83d
00000060: c62e c5ba a679 733e c2b4 0b3e a527 653e
00000070: 9958 ce3c b8f7 563e 4592 7ebe 5d2a fd3d
00000080: 102a 1f3d d049 b7bd 57a8 6b3d dbf0 d3ba
00000090: 509b d13d f848 dabd 72fc 30bd 9511 6c3e
-0.16379003 -0.02219017 -0.16170762 0.17724793 0.22559436 0.15579851 -0.19286604 -0.2806233
0.009189613 0.18737218 0.16429865 0.1440594 0.18492281 -0.22687846 0.19158714 -0.1647901
0.08446626 -0.04170251 -0.18727222 -0.14357689 -0.20826623 -0.08157295 0.17088294 0.098020814
-0.0015043847 0.23776874 0.13643172 0.22378404 0.025188731 0.20992935 -0.24860485 0.12361596
0.038858473 -0.089496255 0.05753359 -0.0016169803 0.10234702 -0.10658449 -0.0432095 0.23053582

model.rnn.weight_ih_l0 f4 [160, 21]
00000000: 30ba 583d 612e 113e 6632 9e3c 23c2 523e
00000010: 774f 6e3d 266a fa3d 9c38 713e 79ff 16bc
00000020: 9403 d33d 5ccd a03d 1962 10bd 40c2 cc3d
00000030: 2f4c bd3d 40ad a43d 8a38 533e 76cd 86bd
00000040: d002 7c3e a78d abbd dad7 7c3d ec4e bd3d
00000050: fb6b 333d d63b 103e 76e9 4d3e 3bdb 133e
00000060: b944 343e 0a4a b93d 0593 793e ff8a b7bc
00000070: 129c 443e 9649 403e 90d5 313e f6e1 1bbb
00000080: ef79 6a3e 66d8 283d 5387 53bd 0491 023d
00000090: c537 383e 8977 823e f321 ef3d 18e5 5b3e
000000a0: 32b9 90bd 3173 44bc 8e6d 6b3e 6852 333e
000000b0: 9982 413d fd8a bd3d 88d4 d8bc 9b20 103e
000000c0: f1ff be3d 1fc5 753e 7c37 153e 54ce 5c3e
000000d0: 8af4 2abd e665 013e d4c9 37bd 681a a13d
000000e0: ad8b a8ba 989a 183e 4717 ee3d 4e5f 25bb
000000f0: 83fb d4bc 2770 293b dc19 353d 346f 5d3e
00000100: 9c48 143e 1fa8 9b3c c041 1e3e ad9b da3d
00000110: 7588 103e 37b6 073e fcd5 ea3c 8c27 0a3e
00000120: b13c 543b 63b0 2e3e 10bb f83d dee6 a73d
00000130: bb23 2b3c 65b5 033d 09e3 b7bc a4d2 85bc
00000140: 67a8 b8bd f99c 5f3d 41e6 20be a6b8 663e
00000150: 189b 773e 9fe9 5fbd e3f1 2bbd 1e47 3cbc
00000160: 6226 423e 6a2b 663c 0ba9 c73d ae79 1b3e
00000170: 0ee2 d53c 6541 723c 3991 703e cc21 81bd
00000180: ae6f 6c3d 3752 603e 62f4 963d a71e 6c3e
00000190: 118c f23d 9b3c 583d ac3e df3d ec11 c3bd
000001a0: 3aa9 c63c 75a9 423e 4842 aebc e5a5 8cbd
000001b0: 4ae5 1e3e 7f84 e13d 33de 6a3e b8d5 763e
000001c0: d236 523e 9681 e93c 8045 073e e7f1 a23d
000001d0: 93d5 93bd 4776 55bd 30ca 073e 74b0 96b8
000001e0: 346e e2bd 9fa1 24bd 1c5c a4bd dd7e 333e
000001f0: 58bd aa3c 0a31 13bb df3f 5b3d e7f6 fe3c
00000200: f53e 283e 511a d33d 9d6f fb3c 8aa5 823e
00000210: 5cf5 6c3e 6ff3 0f3d 755d 113e e765 4b3e
00000220: 88eb 263e 4558 893c 296a 40bd cb0a b53d
00000230: ac63 243e bcc1 7bbd 670e fc3d eb01 af3c
00000240: 7874 69bc edcc 83bc c222 593e 731c 113e
00000250: 8daf 803e 0103 253d 74f2 b53d a1c7 22bd
00000260: 9b63 2f3e 1ccd 713e 08c8 383e 4141 36bd
00000270: dc5c 503e bf16 51bd e6b6 523e 56dc 4e3b
00000280: d384 083e 9fb5 5f3e feab 54bd 5cda 8c3e
00000290: 7e01 7a3d c619 e938 587b 13be 72a2 133e
000002a0: 82d3 253e 5176 ee3d 2656 203d f557 5f3e
000002b0: e010 4a3e 51b9 753d 60b5 553e f57e 503c
000002c0: 617f 1abd e27b 53bc f123 a03d a36a 3e3e
000002d0: e542 4e3d d609 8f3d 028b 4c3e fe2d 803b
000002e0: a07b 7f3e 384a c6bc ced4 5b3e 7a64 b5bd
000002f0: 50a4 103d a4ec 753b c3aa 6fbc f530 f93d
00000300: 6378 053d e8df b83d 8c2e 003e 8713 b23d
00000310: dbaf d13c 3502 0f3e b30b 1e3d 23f0 3f3d
00000320: 7786 603d 6f42 493e 594b 0a3e 9493 8cbd
00000330: d819 1f3e 4d41 a63d d7f7 863d 22fb 263e
00000340: 1623 bebd 1ff1 763e e06b 43bc a47e 973d
00000350: c45f 7e3e c392 e9bc 119c 793e 0fb7 a83d
00000360: be36 0a3e 1553 713e 2751 d8bc e81a 27bd
00000370: b87d f43d 8aef 6e3e 006a e1bc 96eb b0bc
00000380: 63ba 4bbd 89f5 133e a71a 903b 726a 953d
00000390: 79aa 673e 9d1c 78be 9079 823e 872e 6b3e
000003a0: 6c39 c13a 4da3 0e3e 18c7 1bbd e319 f1bc
000003b0: fa65 e13c 137f 463e b461 3b3e db3e 033d
000003c0: a414 053e 5f6d 0e3e b6c4 233d 0605 793e
000003d0: c508 62bd 58e5 883d fb47 cf3d 31f3 aa3d
000003e0: 050f 413c a063 8c3e 227a 18be d534 253e
000003f0: c9c5 0b3c 9fb2 3bbd cfd3 0c3d 7ee1 483e
0.052911937 0.14177848 0.019311141 0.2058187 0.058181252 0.122272775 0.23556751 -0.009216183
0.10303417 0.07851669 -0.035249803 0.09997988 0.092430465 0.08040857 0.20627037 -0.06582157
0.24610448 -0.083766274 0.06172929 0.09243569 0.04380415 0.14085326 0.2010859 0.14439099
0.1760434 0.09047325 0.2437249 -0.022405146 0.19200161 0.18778071 0.17366624 -0.0023785806
0.22898076 0.041222 -0.051642727 0.03187658 0.17990024 0.25481823 0.11676397 0.21474111
-0.07066573 -0.011990354 0.2299101 0.17511904 0.04724369 0.092550255 -0.02646853 0.14074938
0.09326161 0.24000977 0.14571947 0.21563083 -0.041737117 0.12636527 -0.044870213 0.07866365
-0.001285901 0.14902723 0.116255336 -0.0025233808 -0.025998836 0.0025854202 0.044214115 0.21624452
0.14480823 0.019001065 0.15454769 0.10674224 0.14114554 0.13253103 0.028666489 0.13491648
0.0032384808 0.17059474 0.12145054 0.08198331 0.0104455305 0.032155413 -0.022447126 -0.016335793
-0.09016495 0.05459306 -0.15712835 0.22531375 0.24180257 -0.054666158 -0.041978728 -0.011491565
0.18959954 0.014048437 0.09749039 0.15183136 0.026108768 0.014786099 0.23492898 -0.06305274
0.057723694 0.21906362 0.07370831 0.23058568 0.11843122 0.052792173 0.109006256 -0.09524903
0.024250615 0.19009955 -0.02127184 -0.06867579 0.15517154 0.110116 0.22936325 0.24104965
0.20528725 0.028504174 0.13210106 0.079562955 -0.072184704 -0.05211475 0.13260722 -7.185424e-05
-0.11056176 -0.040193196 -0.08025381 0.17528863 0.02084224 -0.002245965 0.05352771 0.031123592
0.16430266 0.10307754 0.03069287 0.2551692 0.23140472 0.035144266 0.14195807 0.19863091
0.16300786 0.016765723 -0.046976242 0.08839949 0.16053647 -0.061464056 0.123074345 0.02136322
-0.01424896 -0.016088927 0.21204665 0.14171009 0.25133935 0.040286068 0.08884135 -0.039741162
0.1712784 0.236134 0.18045056 -0.044495825 0.20347923 -0.051047083 0.20577583 0.0031564436
0.13331918 0.21846627 -0.051921837 0.27510345 0.06103658 0.000111151065 -0.1440252 0.14417437
0.16193965 0.11643661 0.039144658 0.21810897 0.19733 0.059991185 0.2086997 0.012725581
-0.037719134 -0.012907954 0.07819355 0.18595366 0.050356764 0.06984298 0.19974902 0.0039117327
0.24949503 -0.024205312 0.21467897 -0.08857055 0.03531295 0.0037525082 -0.014628115 0.12167541
0.032585513 0.09027082 0.12517756 0.08695131 0.02559655 0.13965686 0.038585376 0.04685987
0.054815736 0.19654249 0.13505305 -0.06864086 0.15537202 0.08117924 0.065902404 0.16306737
-0.09284036 0.24115418 -0.011927575 0.07397202 0.24841219 -0.028512364 0.24375941 0.08238041
0.13497445 0.2356685 -0.026405884 -0.040797144 0.119380414 0.23333564 -0.027516365 -0.021596711
-0.0497383 0.14449133 0.0043977085 0.072956935 0.22623624 -0.24229665 0.2548337 0.22966968
0.0014741844 0.13929482 -0.038031667 -0.029431289 0.027514447 0.19384412 0.1829899 0.032042366
0.12996155 0.1390891 0.03998252 0.24318323 -0.055184145 0.06684369 0.10121151 0.08347166
0.011783366 0.27419758 -0.1489034 0.16133435 0.008531042 -0.045824643 0.034381684 0.19617268

model.rnn.weight_hh_l0 f4 [160, 40]
00000000: 46ac 05be 2733 1abe 6c25 813c f57d 073e
00000010: 7678 15be ebde bebc 38be 8c3a 40d5 bebd
00000020: d56f 3dbe 57f0 2bbe 88c4 ce3b be69 40bd
00000030: 4b78 be3d ac6f df3c bc51 823d 7735 1b3e
00000040: 9812 2c3e 73fe 823d 6574 c13d a23e fa3d
00000050: 00c2 27be bc7f a1bb d27d 08be 2e04 063e
00000060: 93d8 3a3d e6d7 1d3d f97b 31be 0a10 50be
00000070: e9b1 c83c 028c 123d 6bfc 19bd 1bed debd
00000080: 764e 52bd a433 fdbd 4365 36bd b978 0dbe
00000090: 17fb d2bd b534 823d 2515 e4bd 2602 f53c
000000a0: 6805 81bc dfa1 53be 2419 023e dc15 27bd
000000b0: cb1c 0d3d fd25 273e 1d07 893d b746 a6bc
000000c0: 6dcf 11be 6c10 d73d 4955 123d e514 d53d
000000d0: 09a5 313e c1ce 953d 9280 4e3d 9624 e13c
000000e0: 0b78 87bd 6923 d4bd 9744 183e f9e1 78bd
000000f0: 1156 0bbd e94c 51bd eb34 09bd 2b67 be3d
00000100: 8b6a 363e d3b0 39bd 7505 18be 3c97 353d
00000110: 064f c93c 79b8 c1bd f5fb 20be 1020 17bd
00000120: 5cd6 cb3d 7865 663d fa2a c8bd 42b4 43be
00000130: 3dfb 7dbd bbc8 3d3e 861c 063e 0d0a ec3d
00000140: 6d3c a93d 0ef4 45bb 39d6 b9bc d3e5 f43d
00000150: 67a1 98bd fadb cabd 57f8 dbbb 564f ae3d
00000160: fcd0 883c 61f8 b1bd fa17 2d3d a4ef 48bd
00000170: a6fc 923d bf0e 33be 8263 e9bc f957 bc3d
00000180: 3b56 eebd a055 d63d 3711 0d3d 155e 4abc
00000190: 6ff3 cd3d 1023 133c 3c15 c6bb e5dd ebbd
000001a0: 9466 66bd 17cf ca3d 7101 27bc 2ca1 b83d
000001b0: 4ae0 8abd 9287 0dbd cba7 cbbd 780d 293d
000001c0: 3ad1 74bd 1ec5 0ebc 284b d33c 83ea d1bd
000001d0: d62a 1dbd 1777 973c 4fb8 1a3d 6958 333e
000001e0: 0e91 15bd 6d33 e4bc 2e2b 0e3d 1222 573d
000001f0: 0bce 21be ef80 713e 68e0 67bc 2e73 633e
00000200: 30e5 56be 2d56 4bbe a43a ecbd 43a1 09be
00000210: 3bf0 663e 91bf 183a 3acb d0bc 5331 273e
00000220: 3169 4f3e faa7 df3d 94e9 0ebe 4e96 15bd
00000230: 646f 1abe 5417 fb3d e9d1 7d3d 7877 28be
00000240: 0b3d 1e3e 6707 243e 2dfa 00be 5927 d8bd
00000250: 7ed7 7ebc 271a 7b3d ed16 25be b045 bb3d
00000260: 62e3 a53d d3d4 cebc 5081 2c3e 85d8 a13d
00000270: 2519 e8bd 440a ab3d 7085 6b3c d92f d33d
00000280: 16f1 05be 5a19 13be 13ca 55bd 5c0e 31be
00000290: f9c5 abbd 989f 2b3e 06ee 44be 96f0 1e3c
000002a0: d709 24bd b808 9cbb 60e1 4cbe c402 eabd
000002b0: 95a0 55bd c2bc 95bd d461 c73d 2a2f 213d
000002c0: f7e3 743c 8955 cd3d 23b1 873d a860 efbd
000002d0: 4314 553d 81ea 273e 788e 043e c383 84bd
000002e0: 82bc cc3d 1d4e 7e3c aff9 893d 3acd dfbd
000002f0: 89c6 823c c530 f0bd 36d5 7dbd 1fcc 163e
00000300: 7037 473e 8c5e 0abb f651 f23d b159 b5bd
00000310: c2ac 2cbe 60f2 9e3d 8514 e63d f3dc ee3c
00000320: 8697 11be 2737 96bc 77b5 863c 463b 58bd
00000330: edb9 70bd 9fa8 ac3d 4774 aabd 83a6 4e3d
00000340: 1ff4 af3d 2bdf 823d 4ae1 fb3c 79a6 b2bd
00000350: 2578 cebb a9b7 2cbd 0451 343e 73cb fc3d
00000360: 56ad 01be 3339 f3bc 9652 ed3c 03c5 023e
00000370: 2455 153d 28b2 003d 2536 36bd 0f43 323d
00000380: cecf 0a3e 0b88 cfbd ef43 193e 1fc7 133e
00000390: 33ba 0c3e 9701 34be 7bd9 093e 8067 513d
000003a0: 5129 20be b2c8 f63d 4ca7 32be f14a 733c
000003b0: 22fa aabc 3af4 a7bd e143 a3bd 0965 d9bd
000003c0: ac8c 203d 0e9e 56be dd9a dcba f078 55be
000003d0: cfff 4abd 71f7 483d e804 e3bd e0c5 623e
000003e0: d5e5 a3bd 2f76 d2bd 0fdf 54bd 7b29 4f3d
000003f0: 683e 64bd 8830 893d 0426 4ebe e871 913d
-0.13053998 -0.15058576 0.015764914 0.13231643 -0.14596733 -0.023299655 0.0010737842 -0.09318018
-0.18499692 -0.16790901 0.0063100494 -0.046975844 0.09300288 0.027274929 0.06363246 0.15157114
0.16803968 0.063961886 0.094460286 0.122189775 -0.16382599 -0.004928557 -0.13329247 0.13087532
0.045616698 0.038535975 -0.17332448 -0.20318618 0.024498897 0.035778053 -0.03759424 -0.10885068
-0.051344357 -0.12363365 -0.044530164 -0.13815583 -0.10301798 0.06357709 -0.111368455 0.029908251
-0.015749648 -0.20667218 0.12704903 -0.04079233 0.034451287 0.16323085 0.0669081 -0.020297391
-0.14239283 0.10501179 0.035725866 0.10404376 0.17348112 0.07314826 0.050415583 0.027483266
-0.06614693 -0.103583165 0.14869915 -0.06076238 -0.034017626 -0.051098738 -0.033497732 0.092970215
0.1781408 -0.04533465 -0.14845832 0.04433368 0.024573814 -0.094590135 -0.15721114 -0.03689581
0.09952995 0.056249112 -0.09773822 -0.19111732 -0.062007178 0.18533604 0.13096818 0.115253545
0.082634784 -0.0030205282 -0.022685157 0.11957898 -0.0745266 -0.099052384 -0.006712954 0.08511226
0.016701214 -0.08689953 0.042259194 -0.049056664 0.07177095 -0.17486094 -0.028489832 0.09196467
-0.11637541 0.104655504 0.034440245 -0.0123515325 0.10056197 0.0089805275 -0.006045012 -0.115169324
-0.05625017 0.099027805 -0.010193215 0.09015116 -0.06781061 -0.034553118 -0.09944113 0.04127261
-0.059769846 -0.008713989 0.025792673 -0.10249808 -0.03837093 0.018489404 0.037773427 0.17514195
-0.036515288 -0.027856553 0.034709148 0.052522726 -0.15801255 0.2358434 -0.014152624 0.22211906
-0.20985866 -0.19857092 -0.11534622 -0.13440423 0.22552578 0.00058268855 -0.025487531 0.1632741
0.20254971 0.10920711 -0.1395629 -0.036520295 -0.15081555 0.12260309 0.061967764 -0.16451824
0.15452974 0.16018449 -0.12595434 -0.1055438 -0.015554307 0.061304238 -0.16122027 0.09144151
0.081000105 -0.025247967 0.16846204 0.07902626 -0.11332921 0.083515674 0.014375076 0.103118606
-0.13080248 -0.1436514 -0.052194666 -0.17290634 -0.0838737 0.16760099 -0.19231424 0.009700915
-0.040048447 -0.0047617815 -0.20007849 -0.11426309 -0.052155096 -0.07311393 0.09735456 0.03935162
0.014946929 0.1002608 0.06625583 -0.116883576 0.052021276 0.1639805 0.12944973 -0.06470444
0.099968925 0.015521553 0.067370765 -0.10927816 0.01596381 -0.11728052 -0.061970912 0.14726304
0.19454741 -0.0021113483 0.11832039 -0.08854998 -0.16862777 0.07761073 0.112343825 0.029158091
-0.14217958 -0.018336846 0.016443951 -0.052790903 -0.058771063 0.084305994 -0.083229594 0.050451767
0.08591484 0.06390222 0.030747075 -0.087231584 -0.0063009434 -0.04216734 0.1760903 0.12343492
-0.12663779 -0.02969036 0.028970044 0.12770467 0.03645815 0.031419903 -0.04448523 0.043520983
0.13555834 -0.1013337 0.14967321 0.14431427 0.13742904 -0.17578731 0.13461868 0.051124096
-0.15640761 0.12049998 -0.17446631 0.01484941 -0.020871226 -0.082008794 -0.07971931 -0.10614974
0.039196655 -0.2095873 -0.0016830821 -0.20846915 -0.049560364 0.049064104 -0.1108492 0.22145796
-0.08002821 -0.10276448 -0.051970538 0.05057667 -0.055723578 0.0669871 -0.2013169 0.07101804

model.rnn.bias_ih_l0 f4 [160]
00000000: 3b62 943d b815 f23c d391 c73d 1f4a 5a3e
00000010: 7949 1a3e 4c26 923d 1935 273e 2d7b 883e
00000020: 4b52 543c bef6 773e 7441 c03d 52dd 353e
00000030: 5366 e93d ab17 443e 045a 463e b144 6f3c
00000040: 800c 323e 7186 113e 5db8 403e b7ca 863d
00000050: d54f 613d e913 9c3d 5e77 2d3e 6a28 8d3e
00000060: c9a9 fb3d 1e71 c43c 9e54 e03d f99e 4a3e
00000070: ad01 703e 6866 f43d cf07 ab3d 9eca 0bbd
00000080: 53b5 873e 11b9 4e3e 3891 803e f522 ae3d
00000090: 0d27 5c3d a19f 843e 81fe c5bb beae 4c3e
000000a0: 9949 b5bd 6fd3 1c3d 9d97 a53c ee94 433d
000000b0: 5cd1 283d b955 ecbd 1d85 ad3c 9ad2 f83d
000000c0: 0900 dcbd 307e 9c3b 31af c3bd 3a75 16bd
000000d0: d794 a43c 7cef d2bd a413 f53b a0e9 dd3d
000000e0: 50b4 fa3d 873b 763d 320d 8c3d 0e86 713d
000000f0: 7b8f 05bb 77d9 babd 4769 a83d 7832 6d3d
00000100: 9293 853d d263 7aba 0241 d3bc a2bf ce3c
00000110: 7647 bbbd 2565 7e3d be91 cd3d 367f 05bc
00000120: f097 423e 2339 c53d 686b 0d3e d403 90bd
00000130: bdb6 263e 150f 193e 8195 443d 7d59 02be
00000140: 7bba 06be 6df1 c43c faa5 893d fa4a f5bd
00000150: 826a 7e3d 5a0d 473e 0b6e 263d 8bae cf3d
00000160: 84c6 463d eaae 26be 5569 36bd 9623 f8bd
00000170: fc07 2d3e ef32 05be e088 8bbd e8a7 603e
00000180: fe75 1f3d d354 573d 9e21 a0bd 20b3 213e
00000190: 06a4 62be 8cb1 463e df58 cebc 1e30 49be
000001a0: d8a6 283e ae3d 2a3e 464c e9bd 423a 72be
000001b0: a24f 61bd 5326 5bbd fc40 67be 5ac6 0839
000001c0: 002f 133e 95ff fcbd d3c4 98bd aa89 efbd
000001d0: 8bf0 eebd 078a f93d 1750 953c e96f 903d
000001e0: 5093 fa3d 3a93 283e 3997 803d b92c 413e
000001f0: 69f8 123e a748 b03d 3a51 f53d 1017 573e
00000200: 4a47 973d 4a5b 9e3d 821a d83c 79e3 633e
00000210: b6bf 2d3e a50a df3d 2d36 553e 074a 713e
00000220: 3820 0c3e 121d 8b3e 3815 233e 0e8c 103e
00000230: f393 7dbd ecce fa3d cdf3 8c3d fe74 80bc
00000240: 58f6 403d e340 2e3e f91f 563e 538d 643d
00000250: 766d 863e 3eec d13d 07fb ef3d 5759 7a3e
00000260: 457d 43bc 528c a03c 367e 033d e132 623d
00000270: e1c7 123d 7142 603e de61 1d3e 6c5c 663d
0.072452985 0.029551372 0.09744611 0.21317337 0.1506709 0.07136211 0.16328849 0.26656476
0.012959073 0.24215218 0.09387484 0.17760208 0.1139647 0.19149654 0.19370276 0.01460378
0.17387581 0.14211442 0.18820329 0.065816335 0.055007774 0.07620985 0.16940066 0.27569896
0.12288243 0.02397972 0.109536394 0.19787206 0.2343814 0.11933595 0.08351099 -0.034128778
0.26505527 0.20187785 0.25110793 0.08502761 0.05374818 0.25903037 -0.006042302 0.19988534
-0.08851928 0.038287576 0.020213896 0.047749452 0.041215286 -0.11539788 0.021181637 0.12149544
-0.10742194 0.004775785 -0.095548995 -0.03673289 0.020090504 -0.10299584 0.007479148 0.10835576
0.12241423 0.060115363 0.06838454 0.058965735 -0.002037971 -0.091235094 0.08223205 0.05790946
0.065222874 -0.00095516175 -0.025787834 0.025237862 -0.091444895 0.062108178 0.10037564 -0.008148005
0.19003272 0.096300386 0.13810503 -0.0703198 0.16280647 0.1494716 0.04799414 -0.1272945
-0.13157074 0.024040902 0.06721111 -0.11977191 0.062113293 0.19438687 0.04063229 0.10140713
0.048529163 -0.16277662 -0.044534046 -0.121161625 0.16897577 -0.13007711 -0.06813216 0.21939051
0.038930885 0.05257113 -0.07818912 0.15790987 -0.22132882 0.19403666 -0.025188861 -0.19647262
0.16469896 0.16625091 -0.11391501 -0.23655036 -0.055007584 -0.053503346 -0.22583383 0.00013043862
0.14373398 -0.12353436 -0.07459416 -0.11696179 -0.11666974 0.1218453 0.018226666 0.07052595
0.12235129 0.16462412 0.062788434 0.18864717 0.14352573 0.08607607 0.11978383 0.21004891
0.07386644 0.07732256 0.026379827 0.22254743 0.16967663 0.10890702 0.20821448 0.23563395
0.13684165 0.27170616 0.15926063 0.14115927 -0.061908673 0.122464985 0.06882439 -0.015680786
0.04710993 0.1701694 0.20910634 0.05579884 0.26255387 0.10250138 0.117178015 0.24448143
-0.011931722 0.01959816 0.032102786 0.055224303 0.03583515 0.21900345 0.15369365 0.056240484

model.rnn.bias_hh_l0 f4 [160]
00000000: 44da 803d bff1 613d 9a18 433e f20e 683e
00000010: 11ef 96bc 6e42 553e 72c2 2b3e 45a2 4e3e
00000020: acd9 b93d 22e8 acbc ce24 843e 1eeb 953d
00000030: 9d3c 1c3e c25b 4e3e 6283 1a3e 4984 e43d
00000040: 2f00 723e 796b 1a3e b83e e53c 94a5 873e
00000050: e3e4 813e bce6 0d3e f87d 103c 4e50 813e
00000060: 93ad 273e 8013 d03c 9922 173e 980d 70ba
00000070: 8f9a 6e3e b053 613d 1d90 e8bc 6844 ce3c
00000080: b0e3 263e fc15 e53d f1f1 723d aceb dc3d
00000090: 90db 383d 653a 97ba fc35 543e 1fe6 0e3e
000000a0: f82f 7d3d 6191 da3d c748 153e 602d 65bd
000000b0: e578 283d f829 1fbc 0307 b33d 3ba1 4d3e
000000c0: 81e1 003e b279 423e 9c11 173e 5f48 c0bd
000000d0: 1d35 89bd b63b 323e 8ec2 e2bd b7e1 a53d
000000e0: ca21 373e 8187 16bd 4b09 403e 291d 44bd
000000f0: a3ba ac3d 7f03 0f3e 1ecb afbd d433 213e
00000100: 30d4 ce3c 1255 4d3d 858c 903c 349c bfbb
00000110: aef4 223c a8f1 583b 416b 093e 4196 82bc
00000120: 5876 833b e166 18be d6b9 263e 68b6 de3d
00000130: f56b 053e d710 873d 9802 cfbd 7351 633d
00000140: 7fe3 07be 12ba 923d 6f84 043e 2bb1 243d
00000150: 2ea2 d0bd 9b86 023e 3bae 80bd a4e3 99bd
00000160: 2b1d 5d3d cc96 253b d38e 27be 3779 513b
00000170: 4373 cd3c 78c6 873d ea15 49bc 9e2a 3d3e
00000180: b0b2 013e 510b 733d 6259 633d 8ee0 08bd
00000190: d315 20be 9dcd 563e 8c6f 2dbd b633 f3bc
000001a0: cb7a 263b 0677 44bd f7b5 a0bd 627b 65be
000001b0: 9fd1 ecbd c55c 3c3d 2e71 77be 5d3b 193e
000001c0: 7aa2 0e3d 0e84 1d3c 2958 b43d 065e c8bd
000001d0: d8cc 88be 54ca 153e 1bb4 d83d 4ad0 2a3e
000001e0: b73d a73c ac5e 663e a002 d53d 0e0e 823d
000001f0: 0bc3 783e 1fe6 963d 2107 3d3e 2164 3f3d
00000200: 978a f93d 0fef 683e e500 883d 1c7c cf3c
00000210: ac87 733e 9e9e d0bc b94a 4a3e 32d6 de3d
00000220: 3cd1 733e 5887 f03d 08de 583e 21d3 e23d
00000230: e67b c23d b961 753e ea42 983c aac5 473e
00000240: aa22 8abc d5c7 c03d bb92 563e 9596 c23d
00000250: ab2b d43c f77f 2ebd 4723 453e 3e65 c73c
00000260: de9d 3a3e 892c 193e 55a9 d33d 45dd 773b
00000270: 1f4d 70bc f0ee 8fbb 7178 aa3d 50c2 373d
0.06291631 0.055162188 0.19052354 0.22661951 -0.018424543 0.20826122 0.16773394 0.20179088
0.09074721 -0.021106783 0.2580933 0.07320236 0.15257497 0.2015219 0.15089181 0.11158044
0.23632883 0.1508006 0.027984008 0.26493514 0.2536994 0.1385755 0.008819096 0.2525658
0.16374807 0.025399923 0.14759292 -0.0009157299 0.23301147 0.05501145 -0.028389031 0.025179103
0.16297793 0.11185834 0.059312765 0.10787138 0.045131266 -0.0011537789 0.20723718 0.13954972
0.061813325 0.1067226 0.14578544 -0.055951476 0.04113092 -0.009714596 0.08741572 0.20081036
0.12586023 0.18991736 0.14752811 -0.09388804 -0.06699584 0.1740559 -0.110722646 0.08099692
0.17883983 -0.03675032 0.18753545 -0.04787937 0.08434036 0.13966177 -0.085836634 0.15742427
0.025247663 0.050129957 0.01764513 -0.0058474783 0.0099460315 0.0033103023 0.1341982 -0.015940787
0.0040119104 -0.14882995 0.16281828 0.10874635 0.13029464 0.06595009 -0.101079166 0.055497598
-0.13270377 0.07164396 0.12941144 0.040208023 -0.10187183 0.1274666 -0.06283232 -0.07514122
0.053982895 0.0025266884 -0.16363077 0.0031963119 0.025079375 0.06629652 -0.012273291 0.18473288
0.1266582 0.059336964 0.055505164 -0.033417277 -0.15633325 0.20976873 -0.042342708 -0.029687744
0.002540278 -0.047965072 -0.07847207 -0.22410348 -0.115634196 0.04598691 -0.24164268 0.14964052
0.03482292 0.009614004 0.08805878 -0.097835585 -0.26718783 0.14627963 0.105812274 0.16681018
0.02041517 0.22497052 0.10400891 0.06350337 0.24293153 0.07368111 0.1845975 0.04672635
0.12184637 0.22747444 0.066407956 0.025327735 0.23782223 -0.02546626 0.19755067 0.10880698
0.23810285 0.11744565 0.21178448 0.11075426 0.09496288 0.2396306 0.018586595 0.19508997
-0.016862232 0.09413115 0.2095441 0.095013775 0.025899729 -0.042602506 0.19251738 0.024340268
0.18224284 0.14958395 0.10335032 0.0037821096 -0.014666825 -0.0043924972 0.083237536 0.044863045

model.rnn.weight_ih_l1 f4 [160, 40]
00000000: 774e 8abe dc02 2ebe 63fd 803d c314 81be
00000010: 631d 5dbe 1566 0b3e c9f4 aabd 4bfc 0c3e
00000020: 7ace 8abe 2424 bebd 0cef a1bb 76fd 3bbe
00000030: 9068 dfbc 63c8 3bbe b1d5 41bd 5bc0 1b3e
00000040: ba37 6b3c d5ba 353e e014 11be 1c7e 0f3c
00000050: e99c fabd 4551 453e 3de0 263e 5464 bbbd
00000060: 2448 973e 1759 ac3d 745b 36be 4fe6 45bd
00000070: e451 0f3c 21a6 193d 88b9 40be 2b90 833d
00000080: be18 7e3d cf2c 7dbe b3ae 0e3e 9f54 90be
00000090: 4394 c9bd fe64 943e 2457 a03d 8694 833d
000000a0: c70d 8abd bb26 d7bd 1a05 e0bc fb74 eabd
000000b0: 66ff 17bd acdb 95bd 1a78 f7ba 1029 f83d
000000c0: 88ac 273d e5d6 233e a3de 843c a65d 5b3c
000000d0: 5fe3 8bbd 6d6e babc 2b67 343e 31b8 f53d
000000e0: 5cb2 c93d 1269 a5bd 1cb3 0c3e 5952 22be
000000f0: f554 ee3d a4c1 76bd 3cba 2bbe 98e2 473d
00000100: 6f43 503c 1e4e 2abe d11b 8cbd c44a db3c
00000110: 3571 853d f835 2d3d 1b8f 90bd 5a84 85bd
00000120: 7583 033d 70c0 f63c 013b 2ebd f31b 9f3b
00000130: b964 9b3d edaf 093e 2fa4 9cbd 4da8 f4bc
00000140: 26d4 55be 3430 2abe 5754 5b3e 549d 4dbd
00000150: f4b6 52bd b78d c1bc 8283 2dbe e667 723e
00000160: 2879 56bd 4d7b 83be 5f42 23be 7ae0 66be
00000170: cb80 8a3c b8e7 a6bd dce8 dabd a452 d03d
00000180: a1e6 0d3e a174 183e 058e 19be a932 e2bb
00000190: 4ce8 15be 2be4 713e 4857 6b3e f6e9 ecbd
000001a0: 6295 7c3e 904f 133e 1fb7 cc3b d3e9 f3bd
000001b0: 54b7 4bbd e17d 3d3d 9856 2cbe 4c72 883e
000001c0: 1e2c 0e3e 1fce b2bd c2b0 163b 81f6 78be
000001d0: cf54 9abe 17d4 263e 9aef 1f3e 8bb0 b1bb
000001e0: bde6 81be bcde 16be b37c 953e 18ce 82be
000001f0: 79b1 19be eb81 683d c22c 85be 7c70 d23c
00000200: 73a5 d0bd 2907 09be 81bb cbbc f9c6 47be
00000210: 9d23 8e3d 19a5 66bd 874b 4ebe b735 333d
00000220: d822 4139 a707 1b3e 2937 98bd 94c0 973e
00000230: fb57 6fbe 388f 18bc df2d 143e ee06 11be
00000240: ce36 a43e 7e58 e73d e429 87ba a5a1 143c
00000250: f561 b8bd 1169 853e 1d4c 83bd 275a 8d3e
00000260: 8aca d3bb e417 95bd 8b3a a13c 5866 1cbe
00000270: 581e 34be 3a70 03bc f75a e93b 4bca 303e
00000280: 752e 92be 75c5 5cbe d58f 893d cfa3 0abd
00000290: c53d 1e3d 2630 7f3e 2437 58be b7c1 143e
000002a0: 68f8 2b3b 013d 3fbe 5dba cebd 76bd 8a3c
000002b0: accb 233e eedb c63c 58d6 5dbe 4909 0a3d
000002c0: 2eec 213d e6c9 893e 0a02 8f3d a547 833e
000002d0: 9280 2fbe fa5e ac3c b4a6 463e 5fe1 febd
000002e0: 8d64 7a3e 5f4b b03d 91dd 8abe a8f3 57be
000002f0: c370 3ebe 9c50 8f3e 0896 ae3c 16c3 643e
00000300: 958c 0f3e 8ea8 61be 85d8 ed3c 2029 2dbe
00000310: 41e2 85be 4aa4 853e 2a61 333e 3662 d13b
00000320: 4781 cabd 8705 38bd 0b26 543e b26f b2bd
00000330: 52d1 bfbd e31f 1b3e 93f1 0ebe c2b9 163e
00000340: d806 01be 062f b9bc 6b06 553d f3d3 623d
00000350: ba4f d63d 5660 45be 94ba 663d 9124 963d
00000360: 18c6 e43b 4bdd 083e a2da d23c c53b 803c
00000370: 50ab 1bbe a53f 8c3d 2fb9 083d 22c9 23be
00000380: 7e46 413e dcd0 ff3c f103 38be 6538 52bd
00000390: 78c8 a9bd f74c 613e 71ff 15be 92ba 663d
000003a0: f3e3 5c3e 089f 5dbb cbbf 003e 35cb e9bb
000003b0: 7512 edbd 013f ccbc 017a 4e3e 856b 0bbd
000003c0: 4c05 e23b 9f5d 1e3d 9700 313e 5f6e ac3b
000003d0: ae26 74bd 72a7 483d e0d0 4f3d 71e0 283e
000003e0: be45 e7bd 644e 3f3d ef0a da3d 0c52 033e
000003f0: 16df 51bd 3684 b2bd ab1d 97bd 5e9b 3c3e
-0.2701299 -0.16993278 0.0629833 -0.25211152 -0.21593241 0.1361316 -0.0834747 0.13768117
-0.27110654 -0.09284237 -0.0049418267 -0.18358406 -0.027271539 -0.1833816 -0.047322933 0.15210097
0.014356548 0.17747052 -0.1416812 0.008758094 -0.122369595 0.19269283 0.16296478 -0.091499954
0.29547226 0.0841543 -0.17808324 -0.048315343 0.008747552 0.03751195 -0.18820775 0.06423982
0.062035315 -0.24724124 0.1393383 -0.2818956 -0.09842732 0.289833 0.07829121 0.06424813
-0.06740909 -0.10505434 -0.027346183 -0.114480935 -0.0371088 -0.0731729 -0.0018880398 0.12117207
0.040936023 0.15999945 0.016219443 0.013389027 -0.06830477 -0.022757733 0.1761748 0.11998022
0.098484725 -0.08076681 0.137402 -0.15851726 0.11637298 -0.060243264 -0.16770262 0.04880008
0.01271139 -0.16631362 -0.06841243 0.02676905 0.06515733 0.042287797 -0.07058545 -0.06519385
0.03210779 0.030121058 -0.04253674 0.0048556267 0.07587571 0.13446017 -0.07648503 -0.029865408
-0.2088171 -0.1661995 0.21418892 -0.050198868 -0.05144401 -0.023627145 -0.16944697 0.23672447
-0.052361637 -0.2568001 -0.15943287 -0.22546569 0.016907116 -0.081496656 -0.10688946 0.101720124
0.13857509 0.1488824 -0.14995582 -0.006903012 -0.14639395 0.23622195 0.22982514 -0.11568062
0.2466636 0.1438582 0.0062474157 -0.11909833 -0.049735382 0.046262626 -0.16829908 0.26649702
0.13884017 -0.08730721 0.002299354 -0.24312784 -0.3014283 0.16291843 0.15618744 -0.005422657
-0.25371352 -0.14733404 0.291967 -0.25547862 -0.15009107 0.056764524 -0.2601071 0.025688402
-0.10187807 -0.13381638 -0.024869682 -0.19509496 0.069403864 -0.056309793 -0.20145999 0.0437524
0.00018418895 0.15139638 -0.07432396 0.29639113 -0.23373406 -0.00931149 0.14470623 -0.141628
0.32073063 0.112961754 -0.0010312167 0.009071742 -0.09003059 0.26056722 -0.06411002 0.27607843
-0.0064633535 -0.072799474 0.019681236 -0.15273416 -0.175897 -0.008022362 0.0071214396 0.17264669
-0.2855107 -0.21559699 0.06716887 -0.033847626 0.038633127 0.24920711 -0.21114784 0.14527021
0.002624059 -0.18675615 -0.1009414 0.016936045 0.15995663 0.024274793 -0.21663797 0.03370026
0.03953188 0.2691185 0.06982811 0.25640598 -0.1713889 0.021041382 0.1939953 -0.1244533
0.2445242 0.08608126 -0.27122167 -0.21089041 -0.18597703 0.27991188 0.021311775 0.22340044
0.14018472 -0.22036955 0.029033909 -0.16910219 -0.2614918 0.26101905 0.17517534 0.0063898815
-0.09887939 -0.044927146 0.20717637 -0.087127104 -0.093660966 0.15148883 -0.13959341 0.14719298
-0.12600267 -0.02260543 0.052008074 0.05537791 0.104644254 -0.1927503 0.05633028 0.07331193
0.0069816224 0.13365667 0.025739018 0.0156535 -0.1520207 0.06848077 0.03337973 -0.15994695
0.18874547 0.031227522 -0.17970254 -0.051323313 -0.082901895 0.22002016 -0.14648224 0.05633027
0.2157133 -0.0033816714 0.12573163 -0.00713482 -0.11575786 -0.024932386 0.20163728 -0.034038085
0.006897604 0.038663503 0.17285381 0.0052621807 -0.0596072 0.048987813 0.050736308 0.16491868
-0.11292599 0.04670562 0.10646617 0.12824267 -0.051238142 -0.087166235 -0.073787056 0.18418643

model.rnn.weight_hh_l1 f4 [160, 40]
00000000: a21b 9c3d 84fe 90bd 3ed6 283e 4933 02be
00000010: 6148 ebbd b02c dcbd a6dc 1cbe 5597 b63c
00000020: 9bce 33bd f4f3 26be abab 593d 7e8d 4dbc
00000030: f790 47be f8b3 54bd 3e5b 2e3e 7237 983d
00000040: d6b6 5abe 7c88 143e f293 c83d 0f49 38bd
00000050: c4e0 093e e2dd 81bd 7873 2cbc 5b11 1d3e
00000060: 31bb b13d b22c ad3d 6c03 46be ce4f 383d
00000070: 5868 d1bb 0c02 e4bc ff92 09be 3822 2cbd
00000080: 6056 c3bc 01ff 4d3d 08af c5bd fc4d 0ebe
00000090: d80b 273e 11c5 003d 7145 bebd 9d4b 1dbe
000000a0: 5428 06be 1bf7 f8bc cbc8 dc3c 3090 193e
000000b0: 9d12 d93d dcb6 903c dd97 b33d d729 15bd
000000c0: 1557 c8bd 6c5b 9cbc 17bc 5d3e 79ae 0d3d
000000d0: e051 223e b87b 1a3d ebf6 20be 6d37 f83d
000000e0: f18c 183e d761 aa3d 9b9f 98bd eac0 043e
000000f0: 14a1 f3bd 39dc 023d 2c68 c43d fbb0 be3d
00000100: 2272 9ebd 77a3 c83d 7ce9 85bd 8060 fcbd
00000110: bb4d 943b 040e 393d 1883 293d 68d2 9e3d
00000120: 1e75 15be 00fd 813d 8ebf c7bd 98f5 373e
00000130: a557 393d e92e ae3c 5e18 903d dfe0 943d
00000140: 098c 303e f81b cc3d 8b4d b0bc 10aa 44be
00000150: 97e8 713d 45e4 b7bc a58b 2ebe c622 6b3d
00000160: fc90 083c 33df 9dbc c9e8 bdbc 79b2 c23c
00000170: f6be 42be fd2f a53a e185 013d f611 c23d
00000180: 07e3 40bd 781d 043e 20a8 9dbb ba4f b5bd
00000190: 757e 31be 59b7 e73d 5634 033d 8255 ff3d
000001a0: 7bfa c9bc ae8e 4b3d 676c 06be 68af 303c
000001b0: 6008 023e 5043 8cbd ecf5 e63d 03bf 103e
000001c0: 9c65 06bd 3ec8 8d3d 53b4 013e 0249 45be
000001d0: b1c0 293e 9e90 35be 4691 ffbd c6e6 45be
000001e0: a86c 5d3e fbc6 023c f743 1cbc c4ed c4bd
000001f0: 3409 08bd 61dd 62bd cc35 3cbe c034 f23d
00000200: 1654 91bd 3186 72be 2458 d4bd ad39 1fbb
00000210: 4711 32be 2178 cb3c 195e 273e cf1f aabd
00000220: 9a79 9b3d ad15 1a3d db8c 523d e2e6 dc39
00000230: fd79 52bd 7031 623e ed20 40be 4cc6 91bb
00000240: 4c81 2f3e 3d2b 92bc 6b0f 99bc 0645 11bd
00000250: c5e2 453c 07ce 89bd 0b98 2f3e 14bb a63d
00000260: 021e 2a3e 1571 8d3d c3f7 96bc 381f febd
00000270: add0 a4bd 8690 3a3c cb6d a8bc 4065 0bbe
00000280: 57bb 6abd 16a6 46bd b0d1 463e 3530 d6bd
00000290: 6081 4dbe 95f6 9c3b a58d eabd ac88 c5bd
000002a0: 1208 86bd c1c2 52be d983 e13c 068f 1dbd
000002b0: 6816 12be ea8d 86bd d503 983d b66b 72bd
000002c0: 3d29 a93d b9e9 1f3e 25b0 d03d f6d0 e03d
000002d0: 8e81 903c ba42 483e f914 9d3c 31a6 443e
000002e0: 419c aabd c7bf 65bd c5ac 073d d606 a8bd
000002f0: fa68 c93d 8937 85bd ad7d fbbd 1353 ca3d
00000300: 3a4e f2bd f731 de3d dab9 3c3e 65b2 973d
00000310: 790f a13d 4477 d03d 7749 803d 853b e5bd
00000320: c8d5 683d 88c8 9dbd 0e35 d03c f2ba ddbc
00000330: af5c 22be 147f 63be db26 e63d 39f8 1c3d
00000340: d10e 0ebe fd58 57be a1dc 2fbe c881 213d
00000350: 5931 c0bd b939 5d3e 1eb4 663d 6ba5 093e
00000360: d3d6 07be 4836 26bc c41f ab3c 3bf0 8a3c
00000370: 8828 42bd 7545 51bd 3aa4 fdbc cd00 2d3e
00000380: e9d6 853d a46e 02be 04fd 17bd 71cf 2b3d
00000390: 1ad8 36bd ea9c 1ebe e7a8 be3d ef69 c3bd
000003a0: 2dd4 0a3d f8cd 1d3e 8c7c 253e 8a24 69bd
000003b0: 1f4b 713c ba1c f8bb e5e6 ef3c 7170 973d
000003c0: 3579 50bd 8ae5 003e 1c6d 0c3e 28ba 8c3d
000003d0: fc8f d73c 9ca8 ebbd 938a 5f3d bdf6 c4bd
000003e0: 94ce 073c f94c 15be aa1a 803d a2aa f93d
000003f0: fc24 903d b235 e0bc 5670 b8bd fd59 333e
0.07622458 -0.07079795 0.16487977 -0.12714876 -0.114884146 -0.10750711 -0.15318546 0.022288958
-0.043898206 -0.16303998 0.05314223 -0.012545941 -0.19488893 -0.051929444 0.17026994 0.0743245
-0.21358809 0.1450519 0.09793843 -0.04499155 0.13464648 -0.06341149 -0.010525577 0.15338652
0.08678282 0.084557906 -0.19337243 0.044997983 -0.0063906126 -0.027833007 -0.13434981 -0.04202482
-0.023844898 0.05029202 -0.09652525 -0.13896936 0.16313112 0.031437937 -0.09290589 -0.15360875
-0.13101321 -0.030391267 0.026951214 0.1499641 0.10599253 0.01766532 0.087692 -0.036416855
-0.097822346 -0.019086562 0.21653782 0.03459022 0.15851545 0.037715644 -0.15719192 0.12119947
0.14897515 0.08319443 -0.07452317 0.12964216 -0.118959576 0.031948302 0.09590182 0.093111
-0.07736613 0.097968034 -0.06538674 -0.123230934 0.0045258678 0.045179382 0.041384786 0.077549756
-0.14595458 0.06347084 -0.09753333 0.1796478 0.0452496 0.021262603 0.07035898 0.07269453
0.17240919 0.09966272 -0.02152135 -0.19205499 0.059059706 -0.022447715 -0.17045458 0.05740621
0.008335348 -0.019271469 -0.02318229 0.023766743 -0.19018158 0.0012602803 0.031621817 0.09476082
-0.04709151 0.12901866 -0.004811302 -0.08853097 -0.17333396 0.11314268 0.032032333 0.12467481
-0.024655571 0.049696617 -0.1312729 0.010784008 0.12698507 -0.06848776 0.112773746 0.14135365
-0.032811746 0.06922959 0.12666444 -0.19266132 0.16577412 -0.17730948 -0.124788806 -0.19326314
0.2162348 0.007982011 -0.009537688 -0.09615663 -0.0332119 -0.055386905 -0.18379897 0.118264675
-0.07096116 -0.23684002 -0.10368374 -0.0024295852 -0.17389403 0.024837555 0.16344489 -0.08306848
0.07591553 0.037618328 0.05140386 0.0004213369 -0.05138587 0.22089171 -0.1876256 -0.0044486877
0.17139167 -0.017842883 -0.01868411 -0.035466217 0.012077992 -0.0672875 0.17147844 0.08141151
0.1661301 0.06906334 -0.018428689 -0.12408298 -0.08047614 0.011386996 -0.020560166 -0.13612843
-0.057307567 -0.048498236 0.19415927 -0.104584135 -0.20068884 0.004790137 -0.11452798 -0.09645209
-0.06544508 -0.20582105 0.02752869 -0.038466476 -0.1426636 -0.06570037 0.07422606 -0.059184752
0.08259819 0.15616502 0.10189847 0.10977356 0.017639901 0.19556704 0.01917504 0.19204022
-0.08330584 -0.056091096 0.03312375 -0.08204429 0.09834476 -0.06504733 -0.1227983 0.098791264
-0.11831327 0.10849374 0.18430272 0.07407073 0.07864279 0.10178998 0.06264012 -0.11192993
0.056844503 -0.07704264 0.025415923 -0.027066682 -0.15855668 -0.22216445 0.1123788 0.03832266
-0.1387284 -0.2103004 -0.17174007 0.03943041 -0.09384412 0.2160405 0.056324117 0.13442008
-0.13265543 -0.010144778 0.02088917 0.016960254 -0.047401935 -0.05109163 -0.030962098 0.16894837
0.065351315 -0.12737519 -0.03710653 0.04194588 -0.044639684 -0.15489545 0.09309559 -0.095416896
0.033893753 0.15410602 0.16160792 -0.056919612 0.014727383 -0.007571784 0.029284904 0.07394493
-0.050896842 0.12587562 0.13713497 0.06871444 0.026313774 -0.11506769 0.054575514 -0.09617374
0.008288998 -0.14580144 0.06255086 0.12190749 0.07038304 -0.027369354 -0.090058014 0.17514797

model.rnn.bias_ih_l1 f4 [160]
00000000: 8155 173d c777 7d3b 1aaa 5a3e da24 3c3e
00000010: da72 0d3e e7a1 d8bc af15 373d 488e 213e
00000020: 4132 e03b 209d 143d 8663 033e a98c 31bd
00000030: 2f46 013e c8c7 313e 5894 3bbb 7765 b53d
00000040: df70 1c3e 49f9 91bd ef17 933b 21b0 f6bd
00000050: a941 113e f7e0 5b3e dd03 13bc 6fb3 a0bd
00000060: f092 923d 4ba4 1c3e 13db 4c3e af11 3a3d
00000070: 3396 283e 8e2e f73d fc61 123d 610f 3ebc
00000080: 831c 893b c194 853d 7367 f73d 02e5 e03d
00000090: 1f79 073e 3d12 593c c6fe 0f3c 6094 c8bb
000000a0: f182 c0bd a20b f5bd d55c 29bd b753 613d
000000b0: 7007 e43d 815a c2bc a1c6 10be 5233 813c
000000c0: 857f bebd 1451 42bd 929a 923d 1f53 02be
000000d0: 5c3a a33d 5ff2 57bd ba25 073e fc00 d3bc
000000e0: 64c2 0c3e ba80 22be f0f7 06bd dd59 7d39
000000f0: d8d1 b3bd 5a06 093e b0d1 d43a d94b d93d
00000100: e6ff cb3d 60b1 383d 817d bc3d 5ae6 c23d
00000110: 061b c63d 8eb9 4d3e afae 2bbd c715 b3bd
00000120: dc68 b03d 61ce 0c3e b22b b1bd 22c1 03be
00000130: 247c 003e bf56 01be 7e32 393c 1d2e 253e
00000140: 9940 0b3d 856a e83d c0d8 f33c fd3b 34be
00000150: 4c05 7bb9 ba42 653d a65c 06be 73f3 fa3d
00000160: 370e 0fbc 990b 14be 5871 bebc d2c9 50be
00000170: 932e b73d 79c8 e43d ac89 21bd e9aa babd
00000180: 7f1f 2fbe 89ad 0b3d 7e8f 063e 2013 f33d
00000190: 1599 eebc 2379 1f3e f357 febd edb8 2abd
000001a0: ed1b 053e 71d8 8abd e0f9 e7bd b3ac 85bc
000001b0: dce9 b83d 3145 af3d 8df0 13bd 13ca bc3d
000001c0: f61e b0bd 0d2b 093e 382d af3d d6bf e2ba
000001d0: b7d9 dc3d c5ec e2bd 4cc1 333d 4f53 28be
000001e0: 07e0 483d fb05 203d 0bb9 4a3e 9e1b 133e
000001f0: e9a9 4e3d 94e8 643e 4e40 163e 330e f8bc
00000200: 907c ba3d e6b3 053e 2150 1f3d db58 a1bd
00000210: 7b86 263e 8038 d53b 7b5d c53c cacf 73bd
00000220: 2567 9a3d 5db5 1fbd 1576 fc3d 6e8f 553d
00000230: dcc5 463e db3a 4cbd 0e15 673d 8092 833d
00000240: 815e 2c3e 872c 523d 445a 8e3d e557 df3d
00000250: eaef febd 14f9 873d f038 4d3e 745b b43d
00000260: a071 2ebe 27c8 a9bd 0478 cabd 7aab 063e
00000270: 0036 acbd 894e 1cbd 88ca 8ebd 7864 da3d
0.036946777 0.003867613 0.21353951 0.18373433 0.13813344 -0.026444389 0.044698413 0.15776932
0.006841928 0.03628266 0.12830934 -0.043347035 0.12624429 0.17361367 -0.0028622355 0.088572435
0.15277432 -0.071276255 0.004488937 -0.12045313 0.14185204 0.21472536 -0.008973089 -0.07846724
0.07156932 0.15297048 0.20005445 0.04542702 0.16463546 0.120694265 0.035737976 -0.011600346
0.004184307 0.06522513 0.12080278 0.1098118 0.13229798 0.013248977 0.00878877 -0.0061212033
-0.09399975 -0.119651094 -0.041348297 0.055011477 0.11134231 -0.023724796 -0.14138271 0.015771542
-0.09301666 -0.047440603 0.07158388 -0.1272702 0.079701155 -0.052721377 0.13197985 -0.025757305
0.13746029 -0.15869418 -0.032951295 0.00024161437 -0.08780259 0.13381329 0.0016236808 0.1061017
0.09960918 0.045091033 0.092036255 0.09516592 0.09673123 0.20090315 -0.041914638 -0.08744388
0.0861375 0.13750602 -0.08650912 -0.12866643 0.12547356 -0.12630747 0.011303542 0.16130872
0.033997152 0.11348442 0.02976644 -0.17601009 -0.00023939199 0.05597184 -0.1312128 0.122534655
-0.008731416 -0.14457549 -0.023247406 -0.20389488 0.0894443 0.111710496 -0.039437935 -0.0911463
-0.17101859 0.034101043 0.13140675 0.11868882 -0.02912573 0.15573554 -0.12419119 -0.041680265
0.12998934 -0.06779564 -0.11326957 -0.016317701 0.0902898 0.08558119 -0.03611808 0.0921823
-0.08599655 0.13395329 0.08553547 -0.0017299603 0.10783713 -0.110803165 0.043885514 -0.1643803
0.049041774 0.039068203 0.19797151 0.14366004 0.050455008 0.22354347 0.14672968 -0.030280208
0.0910579 0.13056907 0.038894776 -0.07878276 0.16262238 0.0065069795 0.024092427 -0.059524335
0.075392045 -0.03899132 0.1232721 0.05213874 0.19411415 -0.049860816 0.056416564 0.06424427
0.16832925 0.051311996 0.069508106 0.109054364 -0.12448104 0.06639305 0.20041251 0.08806506
-0.17035532 -0.08290129 -0.098861724 0.1315135 -0.08408737 -0.038160834 -0.069722235 0.10663694

model.rnn.bias_hh_l1 f4 [160]
00000000: 9841 2a3e 22a4 243d d132 793d 8969 25bb
00000010: 2e38 043e 45f5 cabc adfe f23d f30c 663d
00000020: 8ade b6bd 4e59 483e 0caa 0a3e 8791 4d3e
00000030: 36dc 653e 67ea f13d 98c6 223e 8245 ed3c
00000040: 9dc6 f5bc ff22 97bd f22f 0f3d 63bc 51bd
00000050: 6900 4f3e 3b8d 273e 9466 433d 29ec 533d
00000060: c6e0 383e 7c8d 0fbd 10a0 2abd 7c01 7fbd
00000070: 3973 a9bd 4371 523e 8b23 243e bce1 bfbd
00000080: 32c0 08be 0852 5b3c a418 d33b d983 6fbd
00000090: 87b9 2739 834c dfbd bea4 12bd 3ca4 373c
000000a0: ea66 a4bd ab1e 2dbe 3cd7 a5bd 40be 0c3e
000000b0: f2f9 053e e3ed 21bc 8e3c ef3d 0805 c4bd
000000c0: 5876 8b3c b823 b1bd 5b92 4c3e 2c9a eabd
000000d0: b1e9 013e 7c12 d03d d43a 473d 456d 6e3d
000000e0: 6ed3 023e 8750 0abe ebf8 e13c 3a51 0cbe
000000f0: 0b2e e33d d110 763c b79d ec3d 76e6 0b3d
00000100: 9413 53bd d74b 3a3e bbfc ffbb 27c4 043d
00000110: 44b8 25bd 7cfe a7ba 8e62 3b3e 5329 e23d
00000120: e88e ca3d d3e9 453d a7e0 ad3d dc2c 3ebd
00000130: fa89 043e 0f79 c03d 4feb 1cbe 41ca b53b
00000140: e7e0 213e 23cf 01bd a527 5f3c 8371 1dbe
00000150: 127c d2bd d37a a3bc ee73 193e 97d8 fbbc
00000160: b4af 353d 12d3 c4bd 9b97 35be 4840 f0ba
00000170: 4011 5cbc 7836 973b 3899 25be 7191 923d
00000180: 6c4e 963d 9f26 8a3c 05b9 223d 8557 fdbd
00000190: c744 74bd b8e5 383e 80cd 31be e588 b23d
000001a0: 15e4 353e 6406 8b3c ddc9 1bbe 1ca9 b03b
000001b0: 0d4a 4fbb 5753 00be fff9 5f3d 1c70 41be
000001c0: 0ec2 7abd 6cc9 d73d a1aa 143e a99d 34bc
000001d0: e337 fcbd 6828 7cbd 8184 4abe 79f6 c83b
000001e0: 19c8 d53b e624 a73d 227d 663e 80b5 633e
000001f0: 09fa 483d 5188 a43d 7e5b 80bd 07c3 fb3b
00000200: 6920 01be 8703 aa3d 6d5b 863b 4486 273e
00000210: 2f60 e8b8 b0ce 8c3e cab4 76bd 3a82 e7bd
00000220: d5c6 9c3d 5bf1 b23d b1ab 8d3d 197d 2f3e
00000230: 8597 043e 111f 4a3e e345 913e 8d70 94bc
00000240: 49d6 233d 5ac6 993d 2d4c 933d a0e3 143e
00000250: e99e b23d 5e3e c73d 42f3 35bb b97c 053e
00000260: fde0 c03d e5ad 5d3c b260 1bbd 8c75 133d
00000270: a06c 97bd 7512 1ebd ce81 c2bb 412f 8a3e
0.16626585 0.04019559 0.060839478 -0.0025239906 0.12912056 -0.024775157 0.11864982 0.056164693
-0.08929165 0.19565317 0.1354143 0.20075046 0.22447285 0.11812287 0.1589607 0.028963808
-0.030001933 -0.07379722 0.034957834 -0.05120505 0.20215 0.16362469 0.047705248 0.05173889
0.18054494 -0.03504704 -0.041656554 -0.062257275 -0.0827393 0.20551018 0.16029184 -0.09369227
-0.13354567 0.013386257 0.0064421464 -0.05847535 0.00015995475 -0.10903265 -0.03580164 0.01120859
-0.08027442 -0.1690623 -0.08097693 0.1374445 0.13083628 -0.009883377 0.11681472 -0.09571272
0.017024204 -0.08649391 0.19977705 -0.11455187 0.12686802 0.101597756 0.048640087 0.058209676
0.12775967 -0.13507281 0.027584514 -0.1370286 0.110927664 0.015018658 0.11553519 0.03415533
-0.051532343 0.18192993 -0.0078121102 0.032413628 -0.040458933 -0.0012816931 0.18299314 0.11043038
0.098905385 0.048318695 0.08490115 -0.0464295 0.12943259 0.0939809 -0.15324138 0.005547792
0.1580845 -0.03169168 0.013620292 -0.15375333 -0.10277571 -0.019956028 0.1498563 -0.030742927
0.044357017 -0.09610571 -0.17733614 -0.0018329704 -0.013431847 0.0046146475 -0.1617173 0.07156647
0.073391765 0.01686412 0.03972723 -0.12370209 -0.059635904 0.18056381 -0.17363548 0.08717517
0.17762788 0.01697082 -0.15213723 0.005391253 -0.003162983 -0.12531792 0.054681774 -0.18890423
-0.06122022 0.10536465 0.14518215 -0.011023917 -0.12315347 -0.061561972 -0.19777109 0.0061328975
0.0065240976 0.08161335 0.22508672 0.22237206 0.049066577 0.08033813 -0.06267451 0.007683161
-0.1261002 0.08301454 0.0041002543 0.16359812 -0.00011080538 0.2750144 -0.060231008 -0.113041356
0.07655112 0.08737441 0.06917513 0.17137565 0.12948425 0.19738413 0.28373632 -0.018120075
0.03999928 0.07508536 0.07192264 0.14539957 0.08721716 0.097286925 -0.00277634 0.13035859
0.09417913 0.013530229 -0.037934013 0.036000773 -0.073937654 -0.03859182 -0.005935884 0.26989177

exp_avg f4 [1, 40]
00000000: 111f 1e3b e151 cd38 7a04 113b fa82 1fbb
00000010: 4f3b 1fbb 0ded 28bb 9884 ec3a dd6a 213b
00000020: d90a 0339 5871 22bb d445 24bb 5ab0 7f38
00000030: 60b0 19bb 0d18 1f3b d18b daba ae4c 493a
00000040: 9db9 15ba 26bb b8b8 566d 2a3b 0429 803a
00000050: b065 253b 2336 b639 d602 21bb fcef deb8
00000060: c0c2 14b9 9e23 1fbb d3a6 21bb 01d1 2cbb
00000070: d4d7 1439 1e2b 25bb d0ae 223b 0380 29bb
00000080: 51a7 87b8 cd31 6839 257a 27b9 d7a5 8438
00000090: 26df 9f38 be8b 3c38 7dba 8039 d530 1fbb
0.0024127404 9.790413e-05 0.0022127912 -0.0024339543 -0.0024296825 -0.002577606 0.0018044887 0.0024630346
0.00012497175 -0.0024786796 -0.0025066035 6.0960978e-05 -0.0023451075 0.002427581 -0.0016673749 0.00076789677
-0.00057115575 -8.808663e-05 0.002600511 0.0009777849 0.0025237612 0.0003475408 -0.002456834 -0.000106304855
-0.0001418693 -0.0024282704 -0.0024666085 -0.0026369693 0.00014194782 -0.0025202702 0.0024823435 -0.0025863654
-6.468467e-05 0.00022143796 -0.00015971863 6.3251406e-05 7.6232755e-05 4.4952838e-05 0.00024553007 -0.002429058

exp_avg_sq f4 [1, 40]
00000000: b64c 8337 6d6c f334 fadc 0437 4ada 5c37
00000010: cd79 7c37 cae2 1237 ed06 3b36 c762 3037
00000020: 099a e935 d5da 5237 0cdb 0e37 7710 8534
00000030: 246d 2e37 f9fc 5537 ff09 2336 3466 e634
00000040: f5e3 ed35 d58e 0633 658d 7a36 81df 6c35
00000050: 16d0 0537 cd87 1836 bc81 4f37 1530 8e35
00000060: 081a e535 7e19 7c37 24b2 4c37 87b6 d736
00000070: 7d10 7234 fb17 2e37 f5dd 1537 bc62 1137
00000080: 1060 7d33 8c6e 5d36 f7cb a135 0002 3036
00000090: 3d70 1733 5ec7 c534 d5f7 6b34 1fbb 6537
1.5652138e-05 4.5341167e-07 7.919263e-06 1.3163846e-05 1.5048729e-05 8.755082e-06 2.7869203e-06 1.0513416e-05
1.7404683e-06 1.2567926e-05 8.51486e-06 2.478516e-07 1.03966195e-05 1.2754689e-05 2.4294711e-06 4.29152e-07
1.772422e-06 3.132921e-08 3.7335205e-06 8.824209e-07 7.9758665e-06 2.2728811e-06 1.2368368e-05 1.0593818e-06
1.7069406e-06 1.5026306e-05 1.2200824e-05 6.4287483e-06 2.2544005e-07 1.0376792e-05 8.9327705e-06 8.665662e-06
5.899352e-08 3.2995913e-06 1.2054796e-06 2.6227208e-06 3.5259507e-08 3.6839168e-07 2.1976241e-07 1.3693031e-05

exp_avg f4 [1, 40]
00000000: 1bf4 87be 3bf1 893b 2bab 75be b83a 873e
00000010: 37a7 873e 9ed6 853e f54d 44be ad8b 87be
00000020: a854 763c 02ec 863e d419 863e 3ad5 0e3b
00000030: 3ef5 813e ca31 87be b494 393e 5909 b9bd
00000040: 3774 353d 68f1 34bb 8dba 85be dfab 12be
00000050: b1fb 85be 8b61 39bd a931 873e 1cd6 a6ba
00000060: 3e9a 30bc 90d5 873e 83e3 863e 4b41 853e
00000070: ac10 7c3b 972d 863e 2b09 87be 77da 843e
00000080: b2a8 6eba 5f56 36bd aafa 02bb 2025 313c
00000090: bd66 7f3b 13a5 1539 3a5e 4fbc 4269 873e
-0.26553425 0.004209665 -0.23991077 0.26411986 0.26494762 0.26140302 -0.19170363 -0.26473752
0.015034832 0.26351935 0.2619158 0.0021794573 0.25382417 -0.26405174 0.18123132 -0.09034986
0.044300284 -0.002760971 -0.2611889 -0.14323376 -0.26168588 -0.04525904 0.26405075 -0.0012728604
-0.010778962 0.26530123 0.26345453 0.26026377 0.0038462086 0.26206657 -0.26374182 0.25947925
-0.0009104117 -0.044515964 -0.0019985833 0.010812074 0.003897115 0.00014271242 -0.012656743 0.26447493

exp_avg_sq f4 [1, 40]
00000000: c534 2e3f 49d9 4d3a 3e75 013f 812f 2d3f
00000010: c26e 2d3f e166 273f e0fc 933e 9888 273f
00000020: 728d 3f3b 814e 243f e792 283f 0e7d 2b3c
00000030: 51c2 113f 45d7 273f ac9b 923e c118 4a3d
00000040: 0bd4 8e3d 9567 d139 0a21 0a3f 27e1 d33d
00000050: 739a 243f c7de 693d 6a04 2d3f 2484 5b3a
00000060: 6411 393b 5e77 2e3f b814 2a3f 2343 1e3f
00000070: 0315 1c3a f365 2a3f 0cf1 273f 3412 253f
00000080: 7317 5839 a373 3b3d 7d77 963a 1fbb a43b
00000090: 8b32 323a 8401 a639 7044 2f3b 4cfa 2c3f
0.6804927 0.00078525074 0.5056952 0.6765061 0.6774713 0.65391356 0.28903866 0.654428
0.0029228595 0.6418229 0.65849155 0.010466827 0.5693713 0.6556285 0.28634393 0.049340013
0.06974038 0.0003994076 0.53956664 0.10345679 0.6429817 0.057097223 0.6758486 0.00083738775
0.0028239125 0.6815089 0.66437864 0.6182119 0.0005954059 0.6656181 0.65602183 0.644809
0.00020608101 0.045764577 0.0011479702 0.0050271894 0.00067976926 0.00031663117 0.0026743673 0.6756942

exp_avg f4 [1, 40]
00000000: dfe0 323b 8df0 b7bb bbc5 ab3a c6b9 f0ba
00000010: 9d09 f3ba 80df 8d3b 76a6 86bb ee50 ddb8
00000020: b560 16bc 4b19 c13a 5770 ac3a a0ea 46bc
00000030: fe41 b5b9 45ec be3a 4c7d 043b a040 a4bb
00000040: 47bb 83bb de12 9f3b 8096 f6bb 1a4d 34bb
00000050: fa4e 07bb 6530 173c 2a10 67ba f076 9b3b
00000060: 0681 1d3c 24fe 14bb 21c6 fab9 1894 f73b
00000070: 8b9e e1bb 0cfd cd3a 77b0 1eba 9a9e 9f3b
00000080: 1628 5d3b df7a 1d3c 21d6 eb3b f78d ebbb
00000090: 0e9d babb 6c05 abba b7be acbb 52c5 00bb
0.0027294678 -0.0056133927 0.0013105193 -0.0018365912 -0.0018542294 0.004329622 -0.004109199 -0.000105531755
-0.00917833 0.0014732269 0.0013156038 -0.0121409 -0.00034572178 0.0014566263 0.0020216284 -0.0050125867
-0.004020128 0.004854544 -0.007525265 -0.0027511776 -0.002064644 0.009227847 -0.00088143593 0.004744403
0.009613281 -0.0022734487 -0.00047831333 0.007555496 -0.006885355 0.0015715673 -0.0006053517 0.0048712017
0.0033745817 0.009611814 0.007197157 -0.0071885544 -0.005694992 -0.001304788 -0.0052717584 -0.0019648862

exp_avg_sq f4 [1, 40]
00000000: b1eb 423c 49bc 9439 32b5 9c3b 5a4d 2a3c
00000010: a833 3c3c ee01 d23b ceb4 3a3a bfd6 fc3b
00000020: 8ffb ad3a 1474 123c f71e bb3b 7690 3a39
00000030: e6e8 e23b 7387 1b3c 236f 083a 0c89 e738
00000040: 2f7a 8a3a f0cc d337 6236 0b3a e287 7d39
00000050: 66a4 a43b 7f0d 9e3a 9f0e 203c d0d9 183a
00000060: b830 763a 4178 473c fe74 0d3c 8555 663b
00000070: 4aea 1d39 56cd 073c 788f d33b 37a9 cc3b
00000080: 7cc2 4938 76c2 243b 4b6c 2e3a 63f3 e83a
00000090: ecc9 c537 f1c0 3c39 5909 0239 134e 2d3c
0.0118970135 0.00028369043 0.0047823424 0.010394419 0.011486925 0.0064089214 0.0007122279 0.0077160294
0.0013273823 0.008938808 0.0057104784 0.00017792158 0.0069247363 0.009492743 0.0005204549 0.00011040465
0.0010564978 2.5248592e-05 0.0005310533 0.0002417858 0.0050244806 0.0012058466 0.009769111 0.00058307964
0.0009391415 0.012174667 0.00863385 0.0035146188 0.00015059966 0.008288702 0.006456312 0.006245758
4.8103262e-05 0.0025140322 0.000665371 0.001777273 2.3578257e-05 0.00018000953 0.00012401248 0.010577696
