research/lightning_logs/version_18/checkpoints/epoch=9-step=500.ckpt (torch, 300447 bytes, 33 tensors)

model.param_proj.proj.0.weight f4 [1, 40]
0	0xbd1b81d1	-0.0379656
1	0x3e02552a	0.127278
2	0xbddfe141	-0.10931636
3	0x3db3053c	0.08741233
4	0x3de6ab3d	0.1126313
5	0xbd8530ef	-0.06503474
6	0x3e26e055	0.16296513
7	0x3e5d5aa1	0.21616603
8	0x3db7046e	0.08936392
9	0xbdd29440	-0.10282183
10	0xbe44642e	-0.1917884
11	0xbd92a947	-0.07161193
12	0x3dab3fe7	0.08361798
13	0x3dd0b9d5	0.10191695
14	0x3da87c53	0.08226838
15	0xbdb60332	-0.08887328
16	0xbc81a968	-0.01582785
17	0xbe27f96c	-0.1640374
18	0xbd8a2ad4	-0.0674645
19	0x3e804be2	0.25057894
20	0x3e114ed9	0.14190234
21	0xbaf0a171	-0.001835866
22	0xbd186005	-0.037200946
23	0x3dbc7cf3	0.0920352
24	0x3d16947c	0.0367627
25	0x3d99f30a	0.07517059
26	0xbe8c30a4	-0.2738086
27	0xbcb4c8ba	-0.02206837
28	0xbc63d156	-0.01390489
29	0xbe9ec3e9	-0.31008843
30	0x3cf6ddad	0.030135
31	0x3b97385a	0.004614872
32	0x3e2a10bb	0.16607945
33	0xbd61ecc3	-0.055157434
34	0xbe2a5f70	-0.16637969
35	0x3d878c3c	0.066185445
36	0xbd7b2aa7	-0.061319973
37	0xbe468e44	-0.19390208
38	0x3df2c16f	0.11853301
39	0xbdd993c2	-0.10623886

model.param_proj.proj.1.weight f4 [1, 40]
0	0xbe30bebb	-0.17260258
1	0xbdc43273	-0.09579935
2	0xbcdd5400	-0.027017593
3	0x3e22b6b3	0.15890007
4	0xbde0ecf2	-0.10982694
5	0xbe19738a	-0.14985481
6	0x3ce26e4a	0.02764048
7	0xbd9d2613	-0.07673278
8	0x3e25ef38	0.16204536
9	0x3e1a51a9	0.15070213
10	0xbd584a34	-0.05280514
11	0xbda4a619	-0.08039493
12	0x3e227c1e	0.1586766
13	0x3dd9e89e	0.10640071
14	0x3e2158ac	0.15756482
15	0x3e1a5720	0.15072298
16	0xbc4d7608	-0.012540348
17	0xbd6486c0	-0.05579257
18	0x3e13155c	0.14363617
19	0x3e49db93	0.19712667
20	0x38bdfa63	9.0588605e-05
21	0x3e129564	0.143148
22	0xbd095446	-0.033527635
23	0xbe06c55e	-0.13161227
24	0x3c325d58	0.010886513
25	0xbd0af79f	-0.033927556
26	0xbe116f34	-0.14202577
27	0xbd9c928f	-0.07645141
28	0x3e049d7c	0.129507
29	0xbe1cadc6	-0.15300664
30	0xbdff6add	-0.124715544
31	0xbe079d8d	-0.13243695
32	0x3e019a44	0.12656504
33	0xbdcbdcbe	-0.099542126
34	0x3d53eaef	0.051737722
35	0x3d467e3a	0.048460223
36	0xbc6bf37d	-0.014401314
37	0xbe00f64f	-0.1259396
38	0xbcd2715e	-0.025688823
39	0xbdbd70b8	-0.09250015

model.param_proj.proj.2.weight f4 [1, 40]
0	0xbdef0dc9	-0.11672551
1	0x3e73d27e	0.23810765
2	0x3e633dff	0.22191618
3	0x3a73bd79	0.0009297948
4	0x3e11e7a5	0.14248522
5	0x3dc5ba27	0.09654646
6	0xbe280bfa	-0.16410819
7	0x3e57775c	0.21041626
8	0xbe19f0e6	-0.15033302
9	0xbe2646c2	-0.1623793
10	0x3e53f77a	0.20699874
11	0xbe44ab1b	-0.19205897
12	0xbe607d35	-0.21922763
13	0x3e346fbf	0.17620753
14	0xbe0b9b4f	-0.13633464
15	0x3dcf6e7e	0.101284966
16	0xbe19a7bc	-0.15005392
17	0x3e854625	0.2603008
18	0xbe4aef0c	-0.19817752
19	0xbd6a2c86	-0.057171367
20	0x3e879f66	0.264888
21	0xbe677640	-0.22603703
22	0x3e6e6ecb	0.23284452
23	0x3e0eb509	0.13936247
24	0x3e6e016d	0.23242731
25	0x3de5e863	0.11225965
26	0xbe059901	-0.13046648
27	0x3e385681	0.18001749
28	0xbdfb6e38	-0.12276882
29	0xbd61b684	-0.0551057
30	0xbbd6f966	-0.0065604923
31	0x3e66fb31	0.2255676
32	0x3cba17b0	0.022716373
33	0x3e8057eb	0.25067076
34	0xbe88692f	-0.2664275
35	0x3e16da5c	0.14731735
36	0x3e1867d0	0.14883351
37	0xbda23964	-0.07921103
38	0x3e04915d	0.12946077
39	0x3e16f06d	0.14740153

model.rnn.weight_ih_l0 f4 [160, 21]
0	0x3e92e547	0.2869055
1	0x3d7bba23	0.06145681
2	0x3e1e7c76	0.15477166
3	0x3e5cb5bc	0.21553701
4	0x3e259e27	0.16173612
5	0x3e729e9a	0.23693314
6	0x3e8542af	0.26027438
7	0x3dc675ed	0.09690461
8	0x3e1e1fb7	0.15441786
9	0x3cf0e54d	0.029406214
10	0xbd1c7c31	-0.038204376
11	0xbc89df59	-0.016830133
12	0x3d6be6e4	0.05759324
13	0xbceb5053	-0.028724825
14	0x3da3f1c1	0.08005095
15	0xbc1e4edd	-0.009662357
16	0x3e886a41	0.26643565
17	0x3be710d7	0.007051568
18	0x3e6740ff	0.22583388
19	0x3c476fb9	0.012172633
20	0x3e007089	0.12542929
21	0xbd329f8f	-0.0436092
22	0x3d3ad4cb	0.04561309
23	0x3d37e6ed	0.044897962
24	0x3da48056	0.08032291
25	0x3e839f66	0.2570755
26	0x3e515c10	0.20445275
27	0x3d9629ee	0.07332216
28	0xbd19f01f	-0.037582513
29	0x3e3d855d	0.18507905
30	0xbd4d046e	-0.050053053
31	0x3ce8e771	0.028430672
32	0x3d99c497	0.075082
33	0x3e61dc4a	0.2205669
34	0x3dfb9eab	0.12286123
35	0x3e49fff0	0.19726539
36	0x3e4399c3	0.19101624
37	0x3d3f01fa	0.046632744
38	0xbd9ea3c7	-0.07746082
39	0x3e28314e	0.16425058
40	0xbe1df5cf	-0.154258
41	0x3befed97	0.007322024
42	0x3cc0e776	0.02354787
43	0x3e4f7777	0.20260416
44	0x3e0fad58	0.14030969
45	0x3e2eecd1	0.17082526
46	0x3d45f9c8	0.048333913
47	0xbd106db3	-0.035260867
48	0xbd74562b	-0.05965249
49	0x3caa7a2e	0.020810213
50	0x3dffffa9	0.12499935
51	0xbcda0981	-0.02661586
52	0xbdfb82da	-0.12280817
53	0xbb6171e7	-0.0034400166
54	0xbe0ff1bc	-0.14057058
55	0xbcccedcf	-0.02501574
56	0x3d543190	0.05180508
57	0x3dfb7d16	0.122797176
58	0x3dbc09be	0.09181546
59	0x3cbb9a4b	0.022900721
60	0xbd962d16	-0.07332818
61	0x3e34d7cf	0.1766045
62	0x3dbe337a	0.09287162
63	0x3dcf7869	0.10130388
64	0x3e557b8e	0.20847914
65	0x3c8b8d1a	0.017035056
66	0x3e2f0c84	0.17094618
67	0xbd7530c9	-0.05986098
68	0xbd8781fe	-0.06616591
69	0xbd6553be	-0.055988066
70	0x3e32c53a	0.17458048
71	0xbc0b892a	-0.008516589
72	0x3d8faf2a	0.07015832
73	0x3ce5b3fd	0.028039927
74	0xbdb84d8e	-0.089991674
75	0x3e2b952a	0.1675612
76	0x3d9876fe	0.07444571
77	0x3ce0aadd	0.027425224
78	0xbcfe3108	-0.03102924
79	0x3e3e9dd8	0.186149
80	0x3daedbb5	0.085379995
81	0x3d93b0f0	0.072114825
82	0x3dbe5ade	0.09294675
83	0x3e33b286	0.1754857
84	0xbcc68c71	-0.02423689
85	0x3db8aa06	0.090168044
86	0x3b72fcd1	0.003707696
87	0x3db7b050	0.08969176
88	0x3e3499fa	0.17636862
89	0x3e3e640a	0.1859285
90	0x3dafb520	0.08579469
91	0x3d96b5dd	0.073589064
92	0x3e23444a	0.15944019
93	0xbb48d105	-0.0030642163
94	0x3ddeea0d	0.108844854
95	0xbd235d24	-0.039883748
96	0x3d7c05a2	0.06152881
97	0x3e043ed4	0.12914592
98	0x3daa0c11	0.08303083
99	0x3de455f6	0.11149208
100	0x3e470a85	0.19437607
101	0xbcf468c4	-0.029835112
102	0xbce8e87c	-0.02843117
103	0xbe227474	-0.15864736
104	0x3e1836e2	0.14864686
105	0x3d5f7e79	0.054563973
106	0x3e544410	0.20729089
107	0xbcf0f0eb	-0.029411754
108	0x3dba354d	0.090921976
109	0xbd2797a5	-0.040916104
110	0x3e17228b	0.14759271
111	0x3dceb9b2	0.10094012
112	0x3e47c4c0	0.19508648
113	0x3e2ba274	0.1676119
114	0x3da02e46	0.07821326
115	0x3e4e8d02	0.20170978
116	0x3da73f78	0.081664026
117	0x3e7b26e2	0.24526551
118	0x3da167ea	0.07881148
119	0xbd0bcfe7	-0.034133818
120	0xbd4c7c84	-0.049923435
121	0x3ce3dc04	0.027814873
122	0xbd75df5b	-0.06002746
123	0x3e876dd0	0.26450968
124	0xbe037cf1	-0.1284063
125	0x3db0577a	0.08610435
126	0x3e85ec7a	0.2615698
127	0x3d43816c	0.04773085
128	0x3e0ddffb	0.13854973
129	0x3d9a1322	0.075231805
130	0x3e8451d4	0.2584368
131	0x3e67d2e4	0.22639042
132	0x3e08790e	0.13327429
133	0x3dfb7e43	0.12279942
134	0x3e477e04	0.19481665
135	0x3da43f48	0.080198824
136	0x3db3d51d	0.087808825
137	0xbb7295a9	-0.0037015474
138	0x3e0acc9b	0.13554613
139	0x3a823176	0.0009932953
140	0x3dd7b045	0.105316676
141	0x3e514f9f	0.2044053
142	0x3df0ec05	0.11763767
143	0x3d4ac3e5	0.049503226
144	0x3e4c4737	0.19949041
145	0xbd89c17d	-0.06726358
146	0xbc8bfde7	-0.017088844
147	0x3e9de2f7	0.30837223
148	0x3e38cb48	0.18046296
149	0x3d371b05	0.044703502
150	0x3e415dfa	0.18883505
151	0x3e684e6f	0.2268617
152	0x3de1ac69	0.11019213
153	0x3e850dd1	0.25987104
154	0x3dc99dcd	0.09844551
155	0x3e49ecdc	0.19719261
156	0x3e450954	0.1924184
157	0x3e813845	0.25238243
158	0x3e7496e9	0.23885693
159	0x3de83687	0.11338525
160	0x3e0f8f65	0.14019544
161	0x3d3c79fc	0.04601477
162	0x3ddaabbe	0.106772885
163	0x3e7376e6	0.23775825
164	0x3d156fc6	0.03648355
165	0x3d13d46c	0.036091253
166	0xbe3b7b3c	-0.18308729
167	0x3e04b47a	0.12959471
168	0x3e727b11	0.23679759
169	0x3cbfacae	0.02339777
170	0x3da90276	0.082524225
171	0x3e3aac67	0.18229829
172	0xbb32dbe4	-0.002729171
173	0x3e1d9366	0.1538826
174	0xbb3be731	-0.0028671736
175	0x3d5de013	0.054168772
176	0x3e07089c	0.13186878
177	0xbcdc4123	-0.026886528
178	0xbd2d38e7	-0.042290594
179	0x3db57a5f	0.08861231
180	0x3e380630	0.1797111
181	0x3dc42c39	0.09578747
182	0xbbedc8a0	-0.0072565824
183	0x3de7ed66	0.11324577
184	0x3e6ae187	0.22937594
185	0x3da8db96	0.08245008
186	0x3d643164	0.055711165
187	0x3e23c587	0.1599332
188	0x3d8dcacc	0.06923446
189	0xbc4562e8	-0.012047507
190	0xbc8a36ec	-0.016871892
191	0x3e4a8c64	0.19780117
192	0x3e709410	0.23493981
193	0xbcc10eef	-0.023566691
194	0x3e809fb3	0.2512184
195	0x3df42b14	0.11922279
196	0x3e60cd2c	0.21953267
197	0x3de28065	0.110596456
198	0x3e4b5b21	0.19858982
199	0xbb0e8a3d	-0.0021749877
200	0xbd13bf03	-0.036070835
201	0x3ca22846	0.019794594
202	0x3e0ccac1	0.1374922
203	0x3d321d87	0.04348519
204	0x3dd2ef6b	0.102995716
205	0x3e1bc2d6	0.15211043
206	0xbcf8cd2a	-0.030371267
207	0x3e698c4a	0.22807422
208	0xbe4398fb	-0.19101326
209	0x3e25b565	0.16182478
210	0x3d57a1b2	0.05264444
211	0xbe039fd3	-0.12853937
212	0xbdeb856e	-0.11500059
213	0xbe101e2a	-0.14074007
214	0x3e107413	0.14106779
215	0xbd729b14	-0.059229925
216	0x3e2056ec	0.15658158
217	0x3cc9739b	0.024591258
218	0x3dc99278	0.0984239
219	0x3e2be729	0.167874
220	0x3d100223	0.035158288
221	0xbdea781d	-0.11448691
222	0xbe613ecf	-0.21996616
223	0xbd1fa78b	-0.03897814
224	0xbde6b84b	-0.1126562
225	0x3d5bc1ec	0.053651735
226	0xbe215efd	-0.15758891
227	0x3dc67286	0.09689812
228	0xbdbd1cc9	-0.09234006
229	0x3e7f4495	0.24928506
230	0xbe230e93	-0.15923528
231	0x3d6d5a07	0.057947185
232	0x3db9a7be	0.090651974
233	0xbc8f43eb	-0.01748844
234	0x3ccadc6c	0.024763308
235	0xbcc86e3a	-0.024466623
236	0x3e87d47e	0.26529306
237	0x3de1c84d	0.110245325
238	0xbbb1bcec	-0.0054241326
239	0x3e32227b	0.17395966
240	0x3d6ee0f1	0.05831999
241	0x3d26dabb	0.04073594
242	0x3e02b323	0.12763648
243	0x3d8f6b21	0.07002855
244	0x3a32ff39	0.0006828192
245	0x3e64883b	0.22317593
246	0x3e5d6279	0.21619596
247	0xbc34e48a	-0.011040816
248	0x3d35375f	0.04424226
249	0x3e64bd4f	0.2233784
250	0x3d6911f2	0.05690188
251	0x3e852e95	0.26012102
252	0x3cbab99b	0.022793582
253	0x3e77a5a0	0.24184275
254	0x3e140ff0	0.14459205
255	0x3e6f8eb7	0.23394285

model.rnn.weight_hh_l0 f4 [160, 40]
0	0x3d076057	0.03305086
1	0xbdc3408b	-0.09533795
2	0xbe0ddbe6	-0.13853416
3	0xbd782015	-0.06057747
4	0xbe482164	-0.19543988
5	0xbe4fa2e3	-0.2027698
6	0xbe1efa0f	-0.15525077
7	0x3e1033f6	0.14082322
8	0xbd1ee002	-0.03878785
9	0xbda882e8	-0.082280934
10	0x3d10570f	0.035239276
11	0x3d260cf0	0.040539682
12	0xbd818bb7	-0.063254766
13	0x3d8a999f	0.06767582
14	0xbc67165d	-0.014104453
15	0x3c416756	0.011804422
16	0x3d05c25c	0.03265606
17	0xbe0f62d1	-0.14002539
18	0x3dd5bd3f	0.104364865
19	0xbd29a74a	-0.041419305
20	0xbe141c28	-0.14463866
21	0xbc726863	-0.014795396
22	0xbb84abd6	-0.0040488048
23	0xbc48bb79	-0.012251728
24	0x3ded7d5d	0.11596177
25	0xbcd3218d	-0.025772834
26	0x3cf9a67e	0.030474897
27	0x3df628f5	0.12019531
28	0xbc09c008	-0.0084076
29	0xbd91ea09	-0.07124717
30	0x3d17af08	0.037032157
31	0xbe1c6b7c	-0.15275377
32	0x3adb8bc7	0.0016750031
33	0x3cbef994	0.023312367
34	0x3e1e72cb	0.15473478
35	0xbc7aab7d	-0.015299675
36	0x3d77e1b0	0.060517967
37	0x3ce51361	0.027963342
38	0x3dcb36e5	0.0992258
39	0x3db18106	0.086671874
40	0xbdb90d1d	-0.09035704
41	0xbe068f59	-0.1314062
42	0xbe14cc92	-0.14531162
43	0x3d6185f7	0.0550594
44	0xbe2cda11	-0.1688006
45	0xbe0b1b15	-0.1358455
46	0xbe062415	-0.13099702
47	0x3e066d88	0.1312772
48	0xbe59adee	-0.21257755
49	0x3da910a7	0.08255129
50	0xbdafc885	-0.08583168
51	0x3db5a742	0.088697925
52	0x3d803548	0.062601626
53	0xbe3fce89	-0.1873113
54	0x3da25f9b	0.079283915
55	0xbe141850	-0.144624
56	0x3d0f515a	0.034989692
57	0xbdedf463	-0.11618879
58	0xbc963b1d	-0.018338734
59	0xbd0ea24a	-0.03482274
60	0x3e2bd456	0.16780218
61	0x3d05011f	0.032471772
62	0x3a057752	0.00050913275
63	0xbd6bd6ea	-0.057578005
64	0xbcbdf102	-0.02318621
65	0xbdb016b6	-0.08598082
66	0xbc55ba5a	-0.013044918
67	0x3e3644e6	0.1779972
68	0xbd4c0bd9	-0.049815986
69	0xbd8b4a54	-0.06801286
70	0x3cfd3114	0.030907191
71	0x3c4832bf	0.01221913
72	0xbd633e44	-0.055479303
73	0xbe1f2d94	-0.1554473
74	0xbd97808c	-0.07397565
75	0x3cff1154	0.031136192
76	0x3dbe446d	0.09290395
77	0xbdb9b804	-0.09068301
78	0x3d42d519	0.047566507
79	0xbd9221d4	-0.071353585
80	0x3cfe0e1a	0.031012584
81	0x3d2cf6f9	0.04222772
82	0x3cf989c6	0.030461203
83	0xbd685fa7	-0.056731846
84	0xbdaf79a4	-0.08568123
85	0x3e0f3b03	0.13987355
86	0x3e0402bf	0.12891673
87	0xbdd248ca	-0.1026779
88	0xbd012157	-0.031525936
89	0xbde230ab	-0.11044439
90	0x3d7b9e25	0.061430115
91	0xbdf4b384	-0.119483024
92	0xbdba7acb	-0.09105452
93	0x3d9b877e	0.075942025
94	0xbe14f57d	-0.14546771
95	0x3cc73cb0	0.02432093
96	0xbe216d50	-0.15764356
97	0xbcbe5170	-0.023232192
98	0xbe020e63	-0.127008
99	0xbd9f792e	-0.07786785
100	0xbd90e9a3	-0.07075813
101	0xbd6f22c1	-0.058382753
102	0x3e20532b	0.15656726
103	0x3e0f0d9b	0.13970034
104	0xbd06904c	-0.032852456
105	0x3e2291d3	0.1587594
106	0x3dc9d27d	0.098546006
107	0x3db6f2d1	0.08933032
108	0xbe1dfd47	-0.15428649
109	0x3cea1843	0.028576022
110	0xbdbcfa1c	-0.09227392
111	0x3e04ee37	0.12981497
112	0xbdfe9e74	-0.12432566
113	0x3dd0d46d	0.10196767
114	0x3d382dee	0.044965677
115	0xbdab6081	-0.08368016
116	0x3e670994	0.22562248
117	0x3de9e535	0.11420671
118	0x3d546b61	0.051860217
119	0x3d491abe	0.04909777
120	0xbd82568b	-0.06364163
121	0x3d042447	0.03226116
122	0xbb138d16	-0.0022514514
123	0xbc72f180	-0.014828086
124	0xbe1f6d2f	-0.15568994
125	0x3e148b3c	0.14506239
126	0x3e145e0d	0.14489003
127	0x3de9849d	0.11402247
128	0x3d5866fc	0.05283259
129	0xbe05eeaa	-0.13079324
130	0xbdbf88ba	-0.093522504
131	0xbd7a63b4	-0.06113024
132	0x3dcf70e9	0.10128958
133	0xbc65ea42	-0.014032902
134	0x3d0d5a0f	0.034509715
135	0xbe1545a8	-0.14577353
136	0xbd6d105a	-0.057876922
137	0x3e0b3fb3	0.13598518
138	0x3d9c8dc2	0.07644226
139	0xbe58929a	-0.21149674
140	0x3cf890b4	0.030342437
141	0x3dc5613e	0.09637688
142	0x3d8da96e	0.06917082
143	0x3cd6dee8	0.026229337
144	0xbd9541e8	-0.07287961
145	0xbdcbc530	-0.0994972
146	0x3d512d1d	0.051068414
147	0x3dc48793	0.09596171
148	0xbe263c0b	-0.16233842
149	0x3d4c8fb6	0.04994174
150	0x3d66d212	0.056352682
151	0x3d69b32e	0.057055645
152	0x3c9893bc	0.018625133
153	0xbe11c3ec	-0.14234895
154	0xbd965fd4	-0.073424965
155	0xbd9c1a64	-0.07622221
156	0xbd919287	-0.07108026
157	0xbc9f2984	-0.019428976
158	0x3d125a04	0.035730377
159	0x3e22ed87	0.15910922
160	0x3916651c	0.00014342781
161	0x3b2fd575	0.0026830111
162	0xbdd34e23	-0.10317638
163	0x3a932e81	0.0011229069
164	0xbda142ac	-0.07874045
165	0xbdf52caa	-0.119714096
166	0xbe0270dc	-0.12738365
167	0x3e0d328f	0.13788818
168	0xbe03c5a5	-0.12868364
169	0x3d2f66dd	0.042822707
170	0x3de6742a	0.11252625
171	0x3c0cb4fc	0.008588072
172	0x3d66222d	0.056184936
173	0xbe171089	-0.14752401
174	0xbcae29f2	-0.021260235
175	0xbdfd2dd1	-0.123622544
176	0x3def43f8	0.11682886
177	0x3d8bf5b5	0.06833974
178	0xbc1be9b9	-0.009516173
179	0x3d807cbf	0.062737934
180	0xbe3624e6	-0.17787513
181	0xbcf5a806	-0.029987346
182	0xbbf45edf	-0.0074575986
183	0xbc94eebc	-0.018180244
184	0x3dfb5286	0.122715995
185	0xbdd73300	-0.10507774
186	0x3d69b38d	0.057056
187	0x3dde8be8	0.10866529
188	0x3e1b7226	0.15180263
189	0xbd05fab4	-0.032709792
190	0xbd53c9c1	-0.05170608
191	0xbc470af6	-0.012148609
192	0xbd73a5bb	-0.059484225
193	0x3de51d8d	0.11187277
194	0x3e028d31	0.12749173
195	0x3ce3bd90	0.027800351
196	0xbdc32f8f	-0.095305555
197	0x3d333cdf	0.043759223
198	0xbdd6385a	-0.10459967
199	0xbcf34b6b	-0.029699048
200	0x3da9c5f0	0.08289707
201	0xbdcd3715	-0.10020272
202	0xbe4a3604	-0.19747168
203	0xbe479970	-0.19492126
204	0xbcfc92f7	-0.030831797
205	0xbe5afae6	-0.21384773
206	0x3d451232	0.048113056
207	0x3c91ddf2	0.017806027
208	0x39c3b9cc	0.00037331728
209	0x3bc1ebc5	0.0059179985
210	0x3e10300c	0.14080828
211	0x3ddfb234	0.109226614
212	0x3e19a7a8	0.15005362
213	0xbd92a77d	-0.07160852
214	0xbcdc8266	-0.026917648
215	0x3ca0c9e6	0.019627523
216	0xbc81043a	-0.015749086
217	0x3d245bcf	0.040126618
218	0x3e3b8981	0.18314172
219	0xbdcfd254	-0.10147539
220	0x3e0914cf	0.13386844
221	0x3e2930d7	0.16522537
222	0xbe2282dd	-0.15870233
223	0x3b23036d	0.0024873868
224	0x3e525ddd	0.20543619
225	0x3dc73ba1	0.0972817
226	0xbdabd525	-0.083902635
227	0xbb248c7f	-0.0025108156
228	0x3dc9a577	0.09846013
229	0xbdfcf029	-0.123504944
230	0xba4f84e3	-0.0007916225
231	0xbd59fe19	-0.053220842
232	0xbd9635ed	-0.07334504
233	0xbdf059fb	-0.117359124
234	0x3c257f20	0.01010111
235	0xbdf20aa4	-0.11818436
236	0x3de9159e	0.11381076
237	0xbd41e52a	-0.04733769
238	0xbdc276e9	-0.094953366
239	0xbde62c81	-0.11238957
240	0xbe1cd94b	-0.15317266
241	0xbc81aff9	-0.01583098
242	0xbe46fe0c	-0.19432849
243	0xbcea2e16	-0.028586429
244	0xbe43461a	-0.1906971
245	0x3d00218b	0.03128199
246	0xb85c6421	-5.254534e-05
247	0x3e4a3396	0.19746241
248	0xbe147c20	-0.14500475
249	0xbde61a92	-0.11235537
250	0xbd46e7f5	-0.048561055
251	0x3caea7be	0.02132022
252	0x3da0fee2	0.07861115
253	0xbe3716e2	-0.17879823
254	0x3e0548f2	0.13016108
255	0xbe406ad0	-0.18790746

model.rnn.bias_ih_l0 f4 [160]
0	0x3e51c213	0.2048419
1	0x3c1ffbf8	0.009764664
2	0x3d8f8ffa	0.07009883
3	0x3e095354	0.13410693
4	0x3d2d1a4b	0.042261403
5	0x3e1b98b3	0.15194969
6	0x3e84849c	0.25882423
7	0x3e904adc	0.28182113
8	0x3e560b2c	0.20902699
9	0x3e614cdb	0.22001974
10	0x3e07f8db	0.13278525
11	0x3e19d01e	0.15020797
12	0x3e645588	0.22298253
13	0x3e7d613d	0.24744125
14	0x3e1cfe83	0.15331464
15	0x3e8bdef2	0.2731853
16	0xbcf3c678	-0.029757723
17	0x3dfe1a27	0.12407332
18	0x3e24f140	0.16107655
19	0x3d64ae9f	0.055830594
20	0x3def4cbd	0.116845585
21	0x3e5ff464	0.21870571
22	0x3dd851ae	0.10562454
23	0x3e44aa0b	0.19205491
24	0x3d9b87d1	0.07594264
25	0x3d9fb9ab	0.07799085
26	0xbcc1a9c9	-0.02364053
27	0x3e0ab87f	0.13546942
28	0x3d8b3077	0.06796353
29	0x3e462262	0.19349054
30	0x3dc0e694	0.09418979
31	0x3e8acb5a	0.2710827
32	0x3e8c7a38	0.27436996
33	0x3e0a34e0	0.13496733
34	0x3e193660	0.14962149
35	0xbd75a19b	-0.059968572
36	0x3ce1395a	0.027493168
37	0x3e6373af	0.22212099
38	0x3e0c740f	0.13716148
39	0x3e659e9a	0.22423783
40	0xbbef1a75	-0.007296855
41	0x3d5bce02	0.05366326
42	0x3d912c3d	0.07088516
43	0xbddc6f31	-0.107633956
44	0x3e149720	0.14510775
45	0xbdaf4452	-0.08557953
46	0xbdaf0b94	-0.0854713
47	0x3d6fde55	0.05856164
48	0xbb117bcd	-0.0022199035
49	0xbc7a970b	-0.0152948005
50	0xbe2e5831	-0.1702583
51	0x3e21fce7	0.15819131
52	0x3e56fc29	0.20994629
53	0x3e3a4bc2	0.18192962
54	0x3d8001e1	0.062503584
55	0xbdffbecc	-0.124875635
56	0xbdbd9996	-0.0925781
57	0x3dbf95ad	0.0935472
58	0x3b814fc6	0.0039462773
59	0xbda288a6	-0.0793622
60	0xbd945004	-0.07241824
61	0x3db48d2f	0.08815991
62	0x3cabb5aa	0.020960648
63	0xbd9c687f	-0.076371185
64	0xbdf52d3b	-0.11971518
65	0x3e186814	0.14883453
66	0xbe06ae9b	-0.13152544
67	0xbde27334	-0.110571295
68	0x3cc2e275	0.023789624
69	0x3e57d7f8	0.2107848
70	0xbd5a7d80	-0.053342342
71	0xbd976bf5	-0.07393638
72	0x3e52cf55	0.20586903
73	0x3de49d87	0.111628585
74	0x3cdeb393	0.027185237
75	0xbd9cd534	-0.07657853
76	0xbdb74748	-0.08949143
77	0x3e118429	0.14210571
78	0x3c14685c	0.009058084
79	0x3d1aaf16	0.03776463
80	0x3d0b4b1c	0.034007177
81	0xbe73c162	-0.23804238
82	0xbe1fb992	-0.15598133
83	0xbd98f712	-0.07469
84	0x3cb620ba	0.022232402
85	0xbdddaebc	-0.108243436
86	0xbe2b1652	-0.16707733
87	0x3e62fc0a	0.22166458
88	0xbb82680d	-0.003979689
89	0xbd0b311a	-0.033982374
90	0xbdcdf283	-0.10056021
91	0x3dae3269	0.08505709
92	0x3e560784	0.20901304
93	0xbe290372	-0.1650522
94	0x3e54c257	0.2077726
95	0xbd4f06df	-0.050543662
96	0x3d845378	0.06461233
97	0xbe073ff8	-0.13207996
98	0x3ce47058	0.0278856
99	0xbd510c3b	-0.051037055
100	0xbe07db26	-0.13267192
101	0x3e4e7965	0.20163496
102	0xbe0d6dd5	-0.13811429
103	0x3e628534	0.22121125
104	0xbd882da3	-0.066493295
105	0xbe492e52	-0.19646576
106	0x3d8f7782	0.07005216
107	0x3e246ef7	0.16057955
108	0x3e7d27f0	0.24722266
109	0xbdd8fbb7	-0.10594886
110	0x3e737540	0.23775196
111	0x3ccaae1c	0.024741225
112	0xbde2b2c2	-0.110692516
113	0xbd38b337	-0.045092788
114	0x3e568a68	0.20951235
115	0xbde0138e	-0.1094123
116	0xbe451856	-0.19247565
117	0xbd8b720d	-0.06808863
118	0x3e639086	0.222231
119	0xbe497aa4	-0.1967569
120	0x3e32468b	0.17409723
121	0x3deec695	0.1165897
122	0xbd4e1304	-0.050311103
123	0x3da7f3ac	0.082007736
124	0x3e2f3bc6	0.17112646
125	0x3d6a1abf	0.057154413
126	0x3e557113	0.20843916
127	0x3c956836	0.018238168
128	0x3d1258ff	0.035729405
129	0x3dcf2533	0.10114517
130	0xbd026c74	-0.03184171
131	0x3ccf409b	0.025299361
132	0x3da4a561	0.08039356
133	0x3ddf1fcd	0.108947374
134	0x3defb6d1	0.11704791
135	0x3e422fca	0.18963543
136	0x3dfa0946	0.122088
137	0x3e3999d9	0.18125094
138	0x3e89ba7c	0.2690009
139	0x3dc7c1ea	0.09753783
140	0xbc750648	-0.014955111
141	0x3e33a8ab	0.1754481
142	0x3e0b3b24	0.13596779
143	0xbc9df831	-0.019283386
144	0x3d62eade	0.055399768
145	0x3e86c81b	0.26324543
146	0x3afb3eea	0.001916853
147	0x3dd3143e	0.10306595
148	0x3d4c0a69	0.049814615
149	0x3e59b480	0.21260262
150	0x3d600d7f	0.05470037
151	0x3dcc9050	0.09988463
152	0x3e8885c5	0.26664558
153	0x3cfbeee9	0.03075357
154	0x3e4c6f72	0.19964388
155	0xbd26c402	-0.04071427
156	0x3e45e92f	0.19327234
157	0x3e801e2c	0.2502302
158	0x3e5878c6	0.21139821
159	0x3de6e996	0.11275022

model.rnn.bias_hh_l0 f4 [160]
0	0x3e5aa276	0.21351036
1	0x3e35a1f1	0.17737557
2	0x3dfd0931	0.12355269
3	0x3e634408	0.2219392
4	0x3df17504	0.11789897
5	0x3e505a13	0.2034686
6	0x3e0e3341	0.1388674
7	0x3da67892	0.08128466
8	0x3e3e957b	0.1861171
9	0x3cabe183	0.020981556
10	0xbdec977a	-0.11552329
11	0x3e76d301	0.24103929
12	0x3e488c74	0.19584829
13	0x3e71e2b0	0.2362163
14	0x3cbd61c8	0.023117915
15	0x3e67e6ba	0.22646609
16	0x3e8530d9	0.2601383
17	0x3dd633cd	0.10459099
18	0x3e0dd825	0.13851984
19	0x3e01767e	0.12642857
20	0x3e78a21f	0.24280594
21	0x3e4e0189	0.20117773
22	0x3de8f54a	0.1137491
23	0x3e6c00b9	0.2304715
24	0x3df0ce01	0.11758042
25	0x3cd80251	0.026368292
26	0x3cf58b89	0.029973762
27	0x3e073c82	0.13206676
28	0x3e0126c2	0.12612441
29	0x3e2b7044	0.16742045
30	0x3e501109	0.20318998
31	0x3e8101c4	0.2519666
32	0xbc5ed005	-0.0135994
33	0x3d5df3e4	0.05418767
34	0x3e2508f5	0.16116698
35	0xbb37c1c8	-0.0028039087
36	0xbc052959	-0.008127534
37	0x3e4efa3d	0.20212646
38	0x3e827887	0.2548258
39	0x3dc82b7b	0.09773918
40	0xbd45589c	-0.048180208
41	0x3e0bad84	0.1364041
42	0x3da1af67	0.078947835
43	0xbbc5f0a3	-0.006040649
44	0x3e206482	0.1566334
45	0x3beda3cc	0.007252192
46	0xbd4bdaf7	-0.049769368
47	0x3debf64f	0.11521589
48	0x3dbf3180	0.09335613
49	0x3e16073a	0.14651194
50	0x3dc634c4	0.09678033
51	0x3d81298f	0.06306755
52	0xbdad29cc	-0.08455238
53	0x3e000b11	0.12504221
54	0x3d8943cd	0.06702385
55	0x3da71fcd	0.081603624
56	0x3e054b79	0.13017072
57	0xbd896cf6	-0.06710236
58	0xbde00b17	-0.10939615
59	0xbd888878	-0.06666654
60	0xbc67bdb8	-0.014144354
61	0x3d8af7cc	0.06785545
62	0x3e4ff147	0.20306884
63	0x3bab6ed5	0.005231718
64	0xbd227a9a	-0.039667703
65	0x3e0cfd49	0.13768496
66	0xbe14b696	-0.14522776
67	0xbe317572	-0.17329958
68	0x3e2917c9	0.1651298
69	0x3e492ffa	0.19647208
70	0x3d75a0be	0.05996775
71	0xbc8747e5	-0.016513774
72	0x3e5405b9	0.20705308
73	0xbe0b2405	-0.13587959
74	0xbdd093a8	-0.10184413
75	0xbe1c1f1c	-0.15246242
76	0xbda78089	-0.08178813
77	0xbd21e06b	-0.039520662
78	0x3c0b800f	0.008514418
79	0x3dd4090f	0.1035329
80	0xbbc733cd	-0.006079173
81	0xbe5c768e	-0.215296
82	0xbe42968d	-0.19002743
83	0xbe5b2d4a	-0.21403995
84	0xbe27667f	-0.16347693
85	0xbdb1737e	-0.086646065
86	0xbe570f03	-0.2100182
87	0x3e4a23f7	0.19740282
88	0xbe1ed729	-0.15511765
89	0x3ce6908b	0.028145095
90	0xbe0fab89	-0.14030279
91	0x3e33af7f	0.17547415
92	0xbc1c481f	-0.009538679
93	0xbe672abe	-0.22574899
94	0x3e451a0b	0.19248216
95	0x3c99372b	0.018703064
96	0x3d4b30b0	0.04960698
97	0xbd8ddcaa	-0.06926854
98	0x3d95ad69	0.07308466
99	0x3b1ce003	0.0023937232
100	0xbe06d703	-0.13167958
101	0x3e5073fe	0.20356748
102	0xbe7dc62f	-0.24782632
103	0x3a8cb09e	0.0010733788
104	0x3e45ccb8	0.19316375
105	0xbe720fba	-0.23638812
106	0x3daf09e1	0.08546806
107	0x3de9a879	0.11409087
108	0x3d36947d	0.044575203
109	0xbc168fee	-0.009189589
110	0xbd11e89b	-0.03562222
111	0xbe53f931	-0.20700528
112	0xbd68e5b1	-0.056859676
113	0xbd55ee49	-0.0522292
114	0x3e093ff9	0.1340331
115	0xbe2d0cf3	-0.16899471
116	0xbe2c5de6	-0.16832694
117	0xbda25e9f	-0.07928204
118	0x3e1bc9d4	0.1521371
119	0xbe4d3364	-0.20039135
120	0x3d86c105	0.06579784
121	0x3da3f65e	0.08005975
122	0x3d66d1d6	0.05635246
123	0xbc382730	-0.011239812
124	0xbb1dde29	-0.0024088717
125	0x3badbe25	0.005302208
126	0x3e781d78	0.24229991
127	0x3d595cf5	0.053067166
128	0x3e7df4e1	0.24800445
129	0xbc458067	-0.012054539
130	0x3c0cf196	0.00860252
131	0x3d5d42a9	0.05401865
132	0x3d3ad7be	0.045615904
133	0x3df6a9df	0.12044119
134	0x3e58b4da	0.2116274
135	0x3ce01900	0.02735567
136	0x3dcef89f	0.101060145
137	0x3e2428f7	0.16031252
138	0xbd042abe	-0.032267325
139	0x3c5d81a4	0.013519678
140	0xbdbbf131	-0.09176863
141	0x3a892714	0.0010463917
142	0x3e8208a0	0.25397205
143	0xbc9cad6a	-0.019125659
144	0x3e0a6368	0.13514483
145	0x3ceef6d3	0.02917043
146	0x3da47fa3	0.08032157
147	0xba3f9c57	-0.0007309368
148	0xbbae8eb6	-0.005327071
149	0x3e51fa4c	0.20505637
150	0x3c9b3379	0.018945443
151	0x3e804808	0.25054955
152	0x3e2d2192	0.16907337
153	0x3dd01799	0.10160751
154	0x3da4a3b8	0.080390394
155	0x3d83da62	0.064381376
156	0x3e39b4fd	0.18135448
157	0x3e5b84c2	0.21437362
158	0x3dd59863	0.10429456
159	0xbd69a73b	-0.05704425

model.rnn.weight_ih_l1 f4 [160, 40]
0	0xbc8a5393	-0.016885554
1	0xbe0fd5ca	-0.14046398
2	0xbdbdefb2	-0.09274234
3	0x3da426a4	0.080151826
4	0x3d0a0cac	0.03370349
5	0x3cf83bb4	0.030301906
6	0xbe4f4bd8	-0.20243776
7	0x3d909c7c	0.07061097
8	0xbe33aaf7	-0.17545687
9	0xbdc7a951	-0.097490914
10	0x3dac9cf5	0.08428375
11	0x3d9d7424	0.07688168
12	0xbdb1de3a	-0.086849645
13	0xbe296514	-0.16542464
14	0x3d5ee443	0.054416906
15	0xbe0628bd	-0.13101478
16	0x3d26454a	0.040593423
17	0x3ddb9e3c	0.1072354
18	0x3e392007	0.18078624
19	0x3decfc62	0.11571576
20	0x3ddb5adb	0.10710689
21	0xbd93a569	-0.07209284
22	0xbd889004	-0.06668094
23	0x3db3d120	0.08780122
24	0x3e27d3b1	0.16389348
25	0xbddc6604	-0.107616454
26	0x3e23955c	0.15974945
27	0x3e1be207	0.15222941
28	0xbc9eec0c	-0.019399665
29	0xbda68575	-0.08130924
30	0xbd9c66bc	-0.076367825
31	0x3dab1edc	0.08355495
32	0xbe187d28	-0.14891493
33	0xbe1477ca	-0.14498821
34	0x3d3b7597	0.04576644
35	0xbe2ea9c4	-0.17056948
36	0xbe32f706	-0.17477044
37	0xbdee56e8	-0.1163767
38	0x3d189a1b	0.03725634
39	0xbcbf99c9	-0.02338876
40	0xbe537d80	-0.20653343
41	0xbe60e503	-0.21962361
42	0xbea1dd4b	-0.31614146
43	0xbd2cd249	-0.04219273
44	0xbd52446e	-0.05133479
45	0xbd48e3cb	-0.049045365
46	0xbe13f36f	-0.14448331
47	0x3e814fcb	0.2525619
48	0xbe347c1f	-0.17625473
49	0xbd667435	-0.056263167
50	0xbe82f560	-0.2557783
51	0x3e4224e4	0.18959385
52	0x3e1ba803	0.1520081
53	0x3ca33918	0.019924685
54	0x3df6ed43	0.12056973
55	0xbd7974f9	-0.06090257
56	0x3dc2ebb7	0.09517615
57	0xbde9b848	-0.11412102
58	0x3e1f0a21	0.15531208
59	0x3e61a290	0.22034669
60	0xbdaa633d	-0.083197095
61	0x3e39b218	0.18134344
62	0xbe784d09	-0.24248137
63	0x3e151c39	0.14561547
64	0x3e5bf966	0.21481857
65	0xbb9cd480	-0.004786074
66	0x3dd312de	0.10306333
67	0x3ca7a7b0	0.020465702
68	0x3e956df1	0.2918544
69	0xbe8afa40	-0.2714405
70	0x3dc1b7d5	0.09458891
71	0xbdceb254	-0.10092607
72	0xbe125b8b	-0.14292733
73	0x3d8af832	0.06785621
74	0x3e0eb2e0	0.13935423
75	0xbe67f4e3	-0.2265201
76	0xbe46d652	-0.19417694
77	0xbd36a41b	-0.044590097
78	0x3e462e92	0.19353703
79	0xbe87bce4	-0.265113
80	0xbe306d0a	-0.17229095
81	0xbbdbfc9f	-0.0067134644
82	0xbe324d9c	-0.17412418
83	0xbb168a2b	-0.0022970538
84	0xbddbd78b	-0.10734471
85	0xbdd9ffc2	-0.10644485
86	0xbd5bb0e4	-0.053635493
87	0x3e86b275	0.26308027
88	0xbe9bd836	-0.30438393
89	0xbdd047f3	-0.10169973
90	0xbd99bff8	-0.07507318
91	0x3e2b6453	0.1673749
92	0x3cc58cd0	0.024114996
93	0xbe8bd677	-0.2731206
94	0x3e8ebc80	0.2787819
95	0xbe8206b8	-0.2539575
96	0x3c9312e3	0.017953342
97	0xbe1a56fe	-0.15072247
98	0x3e64e022	0.22351125
99	0x3e2001c7	0.15625678
100	0xbdc62fef	-0.09677111
101	0x3e8eae1c	0.2786721
102	0xbe1c11a5	-0.15241106
103	0x3e35ad1e	0.1774182
104	0x3dccec95	0.10006062
105	0xbe8dbf87	-0.27685186
106	0x3e4defe5	0.20111044
107	0x3de87afd	0.11351583
108	0x3e900071	0.28125337
109	0xbe6d1cba	-0.2315549
110	0x3e83f43a	0.25772268
111	0xba607118	-0.0008561774
112	0xbe4827f3	-0.1954649
113	0x3e543c6d	0.20726176
114	0x3e94ad76	0.2903859
115	0xbd3f2eca	-0.04667548
116	0xbe997685	-0.29973236
117	0xbda70e7d	-0.0815706
118	0x3c2ada41	0.010428012
119	0xbdadae9b	-0.08480569
120	0x3e0c04cd	0.13673706
121	0x3dc1d921	0.09465242
122	0x3dbe0029	0.09277374
123	0x3dae24d2	0.08503117
124	0xbdabc5ca	-0.08387335
125	0x3deb6d8e	0.11495505
126	0xbde79295	-0.11307255
127	0xbdfbaa5e	-0.12288354
128	0xbc1caada	-0.009562219
129	0x3d13e897	0.036110487
130	0xbdfe6c50	-0.12423003
131	0xbdc79cfd	-0.0974674
132	0x3df65316	0.12027566
133	0xbba67557	-0.005079906
134	0x3c95984d	0.0182611
135	0xbd3f557e	-0.04671239
136	0xbd469a7d	-0.048487175
137	0xbcb7f853	-0.022457277
138	0x3bc747e2	0.006081567
139	0x3d49705e	0.049179427
140	0x3c8a3e31	0.016875358
141	0xbdfd3b2b	-0.12364801
142	0xbdbfcccb	-0.09365233
143	0xbdd4dfce	-0.1039425
144	0x38bb9c08	8.945918e-05
145	0xbe0e3269	-0.13886417
146	0x3c244d7f	0.010028242
147	0xbe0e9db9	-0.13927354
148	0x3df561aa	0.119815186
149	0xbdeb88b8	-0.115006864
150	0x3cfe7d28	0.031065539
151	0xbdabf04a	-0.08395441
152	0xbdfba068	-0.122864544
153	0xbe03d969	-0.12875904
154	0x3cbc006b	0.022949418
155	0x3dfe9fa8	0.12432796
156	0x3ce43262	0.027856056
157	0xbca73d7b	-0.020415058
158	0x3d62119a	0.055192567
159	0xbded0632	-0.11573447
160	0xbdc37ab0	-0.09544885
161	0x3cffc460	0.031221569
162	0xbd18d36d	-0.037311006
163	0xbd8a9b9e	-0.06767963
164	0xbe0e86f7	-0.13918673
165	0x3dbd4c65	0.09243087
166	0xbd02d054	-0.03193696
167	0x3e006f44	0.12542444
168	0x3df2228e	0.11822997
169	0xbcd10ce3	-0.02551884
170	0x3df17335	0.11789552
171	0x3dffe700	0.12495232
172	0x3da42a1d	0.08015845
173	0xbd918dd1	-0.071071275
174	0x3e184615	0.14870484
175	0x3dfe76c4	0.124249965
176	0xbd0f1bf6	-0.034938775
177	0xbe07a7ce	-0.13247606
178	0x3dc7fcbd	0.09765003
179	0xbbd43ec0	-0.006477207
180	0x3e356a97	0.17716442
181	0x3d070d06	0.032971404
182	0x3db16d03	0.086633705
183	0x3d23e67a	0.04001472
184	0xbddc1571	-0.10746277
185	0x3e1dde52	0.1541684
186	0x3dad3fdb	0.08459445
187	0xbd23df36	-0.040007792
188	0x3de9dcbe	0.11419056
189	0x3db23469	0.08701403
190	0x3df28f03	0.118436836
191	0x3d05e47d	0.032688607
192	0xbdef419a	-0.116824344
193	0xbd04562a	-0.032308735
194	0xbc1f59ee	-0.009726031
195	0xbd9596de	-0.07304166
196	0x3de06e87	0.109585814
197	0xbdc2ea11	-0.09517301
198	0xbd90f3bb	-0.07077738
199	0xbd64b333	-0.05583496
200	0x3ded2d51	0.11580909
201	0xbc088b35	-0.008333971
202	0xbe04a8a3	-0.12954955
203	0x3d19fb98	0.037593454
204	0xbde73adb	-0.11290523
205	0x3d222bf4	0.0395927
206	0xbcaf20c7	-0.021377934
207	0xbdecd631	-0.11564291
208	0xbd754436	-0.059879504
209	0xbccc4d53	-0.024939215
210	0xbdc40c2b	-0.09572633
211	0x3d559b83	0.05215026
212	0xbd59d896	-0.053185068
213	0xbd2b2a19	-0.041788194
214	0x3d7069fb	0.05869482
215	0xbd897485	-0.067116775
216	0x3d50ab31	0.05094451
217	0xbe0462fa	-0.12928382
218	0x3d4e1e4a	0.050321855
219	0x3d56ef52	0.052474327
220	0xbde896d1	-0.11356891
221	0x3e0bb83d	0.136445
222	0x3a7e2430	0.00096947234
223	0x3c12ea25	0.008966957
224	0xbc878404	-0.016542442
225	0xbdbf5cf3	-0.093439005
226	0x3e216a0b	0.15763108
227	0x3e26d67d	0.16292758
228	0xbdf86a05	-0.121295966
229	0x3defec45	0.11714987
230	0x3bf4a907	0.0074664387
231	0xbe2298e5	-0.15878637
232	0xbd435eca	-0.04769782
233	0xbe446fed	-0.19183321
234	0x3e206d74	0.15666753
235	0xbdd353da	-0.10318728
236	0x3bf6fe06	0.007537606
237	0xbbee94a2	-0.007280902
238	0xbd81895e	-0.06325029
239	0xbd8a5783	-0.06754973
240	0xbd877a57	-0.06615131
241	0xbcc2550d	-0.023722196
242	0xbe0aae99	-0.13543166
243	0xbcc41351	-0.023934992
244	0xbecac892	-0.39606148
245	0xbbe67170	-0.007032566
246	0xbbf26ca4	-0.007398205
247	0x3e97e2a9	0.29665115
248	0xbe1a7eb1	-0.15087391
249	0xbe2a8a49	-0.16654314
250	0xbdaad432	-0.08341254
251	0x3e5a3dbc	0.21312612
252	0x3e915428	0.2838452
253	0xbe71b04b	-0.23602407
254	0x3db329f0	0.08748233
255	0xbea057ae	-0.31316894

model.rnn.weight_hh_l1 f4 [160, 40]
0	0xbd635bff	-0.055507656
1	0xbd6e19bb	-0.058130007
2	0x3c61a935	0.013773252
3	0xbdcd674b	-0.10029467
4	0x3e1130e1	0.14178802
5	0x3db5a80a	0.088699415
6	0xbdd1c74b	-0.1024309
7	0xbd549199	-0.051896665
8	0x3e0776ce	0.13228914
9	0x3d448f98	0.047988504
10	0x3dffce8e	0.12490569
11	0x3de460b2	0.11151256
12	0x3ddd2e84	0.10799888
13	0xbe101083	-0.14068799
14	0x3d6fa8f0	0.05851072
15	0xbd53bc95	-0.051693518
16	0x3ddcf765	0.10789374
17	0x3de976f0	0.11399639
18	0xbe13a606	-0.14418802
19	0x3e0da181	0.1383114
20	0xbda29810	-0.0793916
21	0xbc3e488a	-0.011613974
22	0xbd9d2fb1	-0.07675112
23	0xbda30ab2	-0.07961024
24	0x3e20d91f	0.15707825
25	0x3dd79097	0.10525625
26	0xbd634045	-0.055481214
27	0x3e0034fd	0.12520213
28	0x3daa0ad7	0.08302849
29	0x3d635cea	0.05550853
30	0x3d3c29fd	0.04593848
31	0x3e0c08a8	0.13675177
32	0x3ddebd32	0.1087593
33	0x3e183b5b	0.14866392
34	0x3da324c9	0.079660006
35	0x3df351fc	0.11880872
36	0x3e1e6d5f	0.1547141
37	0x3dc09c00	0.09404755
38	0x3de6a96f	0.11262786
39	0xbe08057b	-0.1328334
40	0xbe11b19d	-0.1422791
41	0x3d0cef21	0.03440774
42	0xbe0bbbfe	-0.13645932
43	0x3e28a7f2	0.16470316
44	0x3d8d12ca	0.06888349
45	0x3dc9981d	0.098434664
46	0x3ddb1548	0.106974185
47	0xbc64f754	-0.013974983
48	0xbd8113db	-0.06302615
49	0xbd4eca61	-0.050485972
50	0xbdbc601c	-0.09198019
51	0xbd9465a8	-0.07245952
52	0xbb062062	-0.002046608
53	0xbe2795bf	-0.16365717
54	0x3cf9717f	0.030449627
55	0x3e0e5e73	0.13903217
56	0x3d5add69	0.05343381
57	0x3d2a79a5	0.041619916
58	0xbc5c725d	-0.013455001
59	0x3d952e37	0.072842054
60	0xbe3d17d2	-0.18466118
61	0x3d89540d	0.067054845
62	0xbe2ef59d	-0.17085882
63	0xbe0f4f5c	-0.13995117
64	0xbae7fcbd	-0.0017699223
65	0x3d491678	0.049093693
66	0xbd9a3113	-0.075288914
67	0x3dca2bfa	0.09871669
68	0xbd8b638b	-0.06806096
69	0x3e0c54fe	0.13704297
70	0xbe3f6501	-0.18690874
71	0xbd819f96	-0.06329267
72	0xbbcb66b2	-0.0062073106
73	0x3db7534e	0.08951436
74	0xbc1015bf	-0.008794247
75	0xbda75f4f	-0.081724755
76	0xbe5778bd	-0.21042152
77	0xbcf63108	-0.030052677
78	0xbd8449b1	-0.06459368
79	0x3d2e8950	0.04261142
80	0x3db08dba	0.08620782
81	0x3d638097	0.055542555
82	0xbe0c2488	-0.1368581
83	0x3d7221ba	0.059114195
84	0xbe0370ec	-0.12836045
85	0x3d2856b6	0.04109832
86	0x3dc8e655	0.09809557
87	0xbc3c50c0	-0.011493862
88	0x3d80a0f9	0.06280703
89	0x3e638e52	0.2222226
90	0x3dacb235	0.08432428
91	0x3dd330e8	0.103120625
92	0xbd485749	-0.048911367
93	0x3d5f6697	0.054541197
94	0x3d37c1f2	0.044862695
95	0xbd725840	-0.059166193
96	0xbd949edc	-0.072568625
97	0x3bdee971	0.0068027307
98	0x3e65b213	0.22431211
99	0xbc265874	-0.010152925
100	0xbd00dcb0	-0.031460464
101	0x3d9f7a10	0.077869534
102	0xbdaf67f0	-0.085647464
103	0xbe1e64af	-0.15468095
104	0x3ce166d7	0.027514858
105	0xbd98d46d	-0.07462392
106	0xbe381ee8	-0.1798054
107	0xbe0fb1ad	-0.14032622
108	0x3e545c43	0.2073832
109	0xbde7e2a6	-0.11322527
110	0x3dc8ade2	0.097987905
111	0xbd898cf8	-0.06716341
112	0xbdbfcfaf	-0.093657844
113	0x3c55c35d	0.0130470665
114	0x3ca642ba	0.02029549
115	0xbda3198c	-0.07963857
116	0xbd248396	-0.040164553
117	0xbdd381bc	-0.10327479
118	0x3ca3c736	0.019992452
119	0xbe306632	-0.17226484
120	0xbd8fcc8c	-0.07021436
121	0xbcd84e6e	-0.026404586
122	0xbc51720c	-0.012783539
123	0xbe1b63bd	-0.15174766
124	0xbd7e8f8c	-0.062148616
125	0xbdc17dc9	-0.0944782
126	0xbd8ea6b5	-0.069653906
127	0x3e23fd13	0.16014509
128	0xbe6719a9	-0.22568382
129	0xbc0794d3	-0.008275229
130	0xbc380ae4	-0.011233065
131	0xbcd08796	-0.025455277
132	0xbe13dd41	-0.1443987
133	0x3defdbf5	0.11711875
134	0x3bc0638f	0.0058712433
135	0x3ceaf8af	0.028683035
136	0x3d5b7c87	0.053585555
137	0x3c820cc3	0.015875226
138	0x3d3535ee	0.044240884
139	0xbe321a98	-0.17392957
140	0x3e754c80	0.23954964
141	0xbd902609	-0.07038505
142	0x3df72810	0.12068188
143	0x3e25238b	0.1612684
144	0x3daa2f9f	0.08309864
145	0x3d9efe13	0.077633046
146	0x3dc0816e	0.09399687
147	0x3d9efaa1	0.077626474
148	0x3c985cb8	0.0185989
149	0x3b2498b2	0.0025115428
150	0x3c903057	0.017601175
151	0x3d633fef	0.055480894
152	0x3d13519c	0.0359665
153	0x3add3b46	0.0016878627
154	0xbe4cc193	-0.19995718
155	0xbe20fe1b	-0.15721934
156	0x3e62b996	0.22141108
157	0xbd51f2b8	-0.051256865
158	0x3e57b9a6	0.21066913
159	0x3dbb2bb4	0.09139195
160	0xbe1c6d80	-0.15276146
161	0x3e0d6c06	0.13810739
162	0x3d56e71a	0.05246649
163	0x3e11fcd7	0.14256607
164	0xbd5393f5	-0.051654775
165	0xbd77f7a2	-0.060538895
166	0xbd986ad8	-0.07442254
167	0x3d263afb	0.040583592
168	0x3d868904	0.065691024
169	0xbcb6a1af	-0.022293894
170	0xbdba3a38	-0.090931356
171	0xbd3ebb3e	-0.046565287
172	0xbdc543c2	-0.096320644
173	0xbdf6f372	-0.12058152
174	0xbda4aa02	-0.08040239
175	0xbc25b6aa	-0.010114351
176	0xbe15782a	-0.1459662
177	0xbdb623aa	-0.08893521
178	0x3d561c47	0.05227306
179	0xbda858ed	-0.08220086
180	0x3deba9b6	0.11506979
181	0x3b96a8e7	0.0045977714
182	0x3e250221	0.16114093
183	0xbdc35ee4	-0.09539583
184	0xbd2654b5	-0.040608127
185	0xbd8609a6	-0.06544809
186	0xbe0670fd	-0.13129039
187	0xbdc12f0e	-0.09432803
188	0x3db1d0a3	0.086823724
189	0xbc215adf	-0.0098483255
190	0x3e14253b	0.14467327
191	0x3dc65b24	0.096853524
192	0xbe0f8d62	-0.14018777
193	0xbd7927ab	-0.060828846
194	0xbb107917	-0.0022044831
195	0x3dd02951	0.101641305
196	0x3d90e03f	0.070740215
197	0xbcb7a01b	-0.022415211
198	0x3e215c88	0.15757954
199	0x3d31dd6d	0.04342406
200	0x3dd7f40f	0.10544597
201	0x3e138705	0.14406975
202	0xbdc2e304	-0.09515956
203	0xbd572a26	-0.05253043
204	0x3dc4eb01	0.09615136
205	0x3e24904b	0.16070668
206	0x3d985f62	0.07440068
207	0x3d185597	0.037191
208	0xbe125784	-0.14291197
209	0xbcf92263	-0.030411905
210	0x3ccf25c2	0.025286559
211	0x3dc26096	0.094910786
212	0xbd795890	-0.060875475
213	0x3e14948e	0.14509794
214	0xbd955274	-0.07291117
215	0xbda769d8	-0.08174485
216	0xbd8df0c4	-0.06930688
217	0x3c1a4b86	0.00941742
218	0xbdd7dd11	-0.10540212
219	0x3ddbf027	0.10739165
220	0x3df3c0a3	0.11901977
221	0xbd8ab72a	-0.06773217
222	0x3e285104	0.16437155
223	0xbd6c8394	-0.05774267
224	0x3d94820f	0.07251369
225	0xbdd5c9c0	-0.104388714
226	0x3c9bc7c2	0.01901615
227	0xbced0c83	-0.02893663
228	0x3c9218d5	0.017834106
229	0x3dd2138e	0.10257636
230	0xbd79e329	-0.061007652
231	0x3d8dc29c	0.069218844
232	0x3de57773	0.11204424
233	0xbd8f7dc8	-0.07006413
234	0xbdea7918	-0.11448878
235	0xbe123a78	-0.14280117
236	0x3de38258	0.111088455
237	0xbe1bba65	-0.15207823
238	0xbd48acf2	-0.04899306
239	0x3c9b6fc6	0.018974196
240	0xbe2581c6	-0.16162786
241	0x3cc00d83	0.023443943
242	0xbe552989	-0.20816626
243	0x3e138ac7	0.14408408
244	0xbe0a0fec	-0.13482636
245	0xbe3ea51e	-0.18617675
246	0xbd8261d2	-0.06366314
247	0x3cb585a1	0.022158446
248	0x3e54b5b8	0.20772445
249	0x3e206561	0.15663673
250	0xbdde64d1	-0.10859073
251	0x3dad2ccc	0.0845581
252	0x3e0c9ab5	0.13730891
253	0xbe309c68	-0.17247164
254	0x3e2f9f92	0.17150715
255	0x3db8cd32	0.09023513

model.rnn.bias_ih_l1 f4 [160]
0	0x3c1f5458	0.009724699
1	0x3e35ad31	0.17741849
2	0x3daa0c1f	0.08303093
3	0xbd6ed461	-0.05830801
4	0xbceb0f69	-0.028693872
5	0xbdae8cbc	-0.08522937
6	0x3cac322f	0.021020023
7	0xbd2c501b	-0.042068582
8	0xbda27970	-0.079333186
9	0x3e75b356	0.23994192
10	0x3e2f43b8	0.17115676
11	0x3d5bbdda	0.053647853
12	0x3e4b28eb	0.19839828
13	0x3d9639cd	0.073352434
14	0x3e7edd1f	0.24889039
15	0x3c5e8219	0.013580822
16	0x3af751e7	0.0018869013
17	0x3dd8fd17	0.10595148
18	0x3d7a2880	0.06107378
19	0x3d4d9a96	0.050196253
20	0x3d27a19d	0.04092561
21	0x3e5d8175	0.21631415
22	0x3d94b213	0.072605275
23	0xbd378ff7	-0.04481503
24	0x3e6502e7	0.22364388
25	0x3e1fe843	0.15615945
26	0xbd6668e0	-0.05625236
27	0x3dc3b278	0.095555246
28	0xbd137026	-0.035995625
29	0x3df58eb7	0.11990111
30	0x3d874dd8	0.066066444
31	0x3bd13f81	0.006385744
32	0x3cef4e85	0.029212246
33	0x3e12a64e	0.14321253
34	0x3d9a51db	0.07535144
35	0xbe20d424	-0.15705925
36	0x3e8f516a	0.27991802
37	0x3dfc0eb8	0.12307495
38	0x3e1e8c7c	0.15483278
39	0x3e2cf172	0.16888979
40	0x3de7edde	0.113246664
41	0x3d713864	0.05889167
42	0x3d482b56	0.048869453
43	0xbdc8d2ee	-0.09805857
44	0x3d9db0be	0.076997265
45	0xbb41f524	-0.0029595578
46	0x3d8aa040	0.067688465
47	0x3d902d5e	0.07039903
48	0x3d9c4b01	0.07631493
49	0xbd880354	-0.0664126
50	0xbe1ad1d7	-0.1511911
51	0x3d49bc4b	0.049251836
52	0x3ca3b058	0.019981548
53	0x3c17e8c1	0.009271801
54	0xbddb73e6	-0.10715465
55	0x3cce2c10	0.025167495
56	0xbdffbdea	-0.12487395
57	0x3dc44590	0.095835805
58	0x3e299c26	0.16563472
59	0xbe3be498	-0.1834892
60	0x3e61a6a6	0.22036228
61	0x3cf83271	0.03029749
62	0xbd0ebb84	-0.034846798
63	0xbcad67e7	-0.021167709
64	0xbd07831d	-0.033084024
65	0xbd5b290f	-0.053505953
66	0xbda8a556	-0.0823466
67	0xbda0f622	-0.07859446
68	0xbd81ab0c	-0.06331453
69	0xbd3439aa	-0.044000305
70	0xbcd9350a	-0.026514549
71	0x3dc448ec	0.09584221
72	0xbd2c7a9e	-0.042109124
73	0xbd214846	-0.039375566
74	0xbcf1b805	-0.029506693
75	0x3cce4f26	0.025184225
76	0xbbeec9f4	-0.0072872583
77	0x3d7a581c	0.061119184
78	0x3df49468	0.11942369
79	0xbd84c805	-0.06483463
80	0xbdece167	-0.115664296
81	0x3d580398	0.052737802
82	0xbd3f4931	-0.04670066
83	0x3e015e65	0.12633665
84	0xbe4dc4ed	-0.20094652
85	0xbdd6303c	-0.10458419
86	0x3e4f405b	0.20239393
87	0x3d850518	0.06495112
88	0x3dcd198a	0.10014637
89	0x3d368f05	0.044569988
90	0xbdc2daea	-0.09514411
91	0xbbc7d68f	-0.0060985754
92	0x3e043292	0.12909916
93	0xbd100972	-0.035165258
94	0x3e0033fc	0.1251983
95	0x3db762fe	0.08954428
96	0xbdaf10ec	-0.085481495
97	0x3c6e727f	0.014553665
98	0x3de3333b	0.11093756
99	0xbc3a0074	-0.011352647
100	0x3d95df0d	0.07317934
101	0x3e1b5913	0.15170698
102	0xbcb0175c	-0.021495514
103	0xbe16a1ec	-0.14710206
104	0xbdc94901	-0.098283775
105	0x3c9bf9a9	0.019039946
106	0x3e068198	0.13135374
107	0xbd2136a0	-0.039358735
108	0x3e476b0f	0.19474433
109	0xbdbd1dc3	-0.09234192
110	0xbdd3ca39	-0.10341305
111	0x3c8751c9	0.01651849
112	0x3e1419bd	0.14462943
113	0xbe463107	-0.1935464
114	0x3c2937e5	0.010328268
115	0x3b04e056	0.0020275316
116	0x3cf47847	0.029842509
117	0xbe21d174	-0.15802556
118	0xbbe25888	-0.0069075264
119	0xbe63fa28	-0.22263396
120	0x3cbd9ff9	0.02314757
121	0x3df97f70	0.1218251
122	0x3e4d75ec	0.20064515
123	0x3e065474	0.13118154
124	0x3de28d89	0.11062152
125	0xbcdf3e75	-0.027251462
126	0x3caa3d73	0.020781254
127	0x3dc70d44	0.09719327
128	0x3db7b396	0.089698
129	0x3e767af3	0.24070339
130	0xbc762d4d	-0.015025449
131	0x3c8decb6	0.017324787
132	0x3e17fe52	0.14843109
133	0x3e388aee	0.18021747
134	0xbc24be04	-0.010055069
135	0xbd0c6df6	-0.034284554
136	0x3e1ae2da	0.151256
137	0x3cdd21b1	0.026993604
138	0x3cab6d15	0.020926038
139	0x3ddef8ca	0.108872965
140	0x3e11842e	0.14210579
141	0x3db7927b	0.08963486
142	0x3dc87b20	0.09789109
143	0xbbafea87	-0.005368534
144	0x3e7a1feb	0.24426238
145	0x3dcace68	0.0990265
146	0xbdd9816d	-0.10620389
147	0x3d99d11b	0.07510587
148	0xb94b6630	-0.00019397656
149	0x3d9d26bd	0.07673404
150	0xbd8ef306	-0.06979947
151	0x3e246865	0.16055448
152	0xbdaf8566	-0.085703656
153	0x3d562588	0.052281886
154	0x3d0c6c29	0.034282837
155	0xbe012d61	-0.12614967
156	0x3e034400	0.12818909
157	0x3db49bba	0.08818765
158	0x3e32e647	0.17470656
159	0x3e561b11	0.20908763

model.rnn.bias_hh_l1 f4 [160]
0	0xbd4912c2	-0.049090154
1	0x3dc85b29	0.097830124
2	0x3e0a8693	0.13527898
3	0x3c15b6d8	0.009137832
4	0x3e334b1f	0.17509125
5	0xbdc5e974	-0.09663668
6	0x3e2eff05	0.1708947
7	0xbd3fa256	-0.046785675
8	0x3dbcf616	0.09226625
9	0x3dc36ff3	0.09542837
10	0x3d890bf5	0.06691734
11	0xbd8b4306	-0.06799893
12	0x3bca038a	0.0061649727
13	0x3e429e58	0.19005716
14	0x3e01b625	0.12667139
15	0xbdc1da5f	-0.09465479
16	0x3e4fa29b	0.20276873
17	0x3c133920	0.008985788
18	0x3e5f0726	0.2178007
19	0x3ced1765	0.02894182
20	0x3e28ded3	0.1649125
21	0x3e56b8b8	0.20968902
22	0xbba46a10	-0.0050175264
23	0x3d2ae7ba	0.041724898
24	0x3e597e90	0.21239686
25	0x3daf927c	0.085728616
26	0x3d49b1c2	0.04924179
27	0x3da42e63	0.0801666
28	0xbc02b624	-0.007977996
29	0x3c04077b	0.008058424
30	0x3d7347cf	0.059394654
31	0x3c8333a7	0.01601584
32	0x3ce1b0ed	0.027550185
33	0x3d9a757e	0.07541941
34	0x3e2561d9	0.16150607
35	0xbe12a5e4	-0.14321095
36	0x3c89274b	0.01674237
37	0xbda83253	-0.082127236
38	0x3e0cbf36	0.13744816
39	0x3db58532	0.088632956
40	0xbe2a3506	-0.1662179
41	0x3d642e88	0.05570844
42	0x3e51e1d3	0.20496301
43	0x3c75e369	0.015007832
44	0x3d527fb0	0.051391304
45	0x3dd354d4	0.10318914
46	0x3de3906c	0.11111531
47	0x3bbb1c90	0.005710192
48	0xbd49f792	-0.049308367
49	0x3e2f1785	0.17098816
50	0xbe1b18b0	-0.15146136
51	0xbd5b2c26	-0.0535089
52	0xbdc6553a	-0.096842244
53	0x3e0ac28b	0.13550775
54	0x3e206f4b	0.15667455
55	0xbd0a15dc	-0.033712253
56	0x3d8f3a91	0.069935925
57	0x3bb8a43f	0.005634814
58	0x3d832d25	0.06405095
59	0xbd6b8463	-0.0574993
60	0x3998bcc0	0.0002913233
61	0x3e3e213a	0.18567362
62	0x3e1b1e41	0.1514826
63	0x3e2a0297	0.1660255
64	0xbd7702fc	-0.06030558
65	0xbd96e06d	-0.073670246
66	0xbd321202	-0.043474205
67	0x3e05add0	0.13054585
68	0x3c1127d9	0.008859598
69	0xbb22cfa5	-0.0024843004
70	0x3ccf2e7d	0.025290722
71	0xbc66fdd5	-0.014098604
72	0xbe33a0a2	-0.17541745
73	0x3d7e2361	0.06204546
74	0x3e1d5a8a	0.15366569
75	0x3d479997	0.04873046
76	0x3e36f1ca	0.17865673
77	0xbe3f1721	-0.18661167
78	0xbdc4a24e	-0.0960127
79	0x3c864766	0.016391467
80	0xbdc7f7fa	-0.09764095
81	0xbe46fcde	-0.19432399
82	0xbe123c6b	-0.1428086
83	0x3e37eec7	0.1796218
84	0x3d8df395	0.06931225
85	0xbe208383	-0.15675168
86	0x3dd0e448	0.10199791
87	0x3d70329f	0.058642026
88	0xbd6bd2e8	-0.057574183
89	0x3da82dc3	0.08211853
90	0xbe6779cb	-0.22605054
91	0xbc2ee1e5	-0.010673975
92	0x3e09d9b0	0.13461947
93	0x3cffcce0	0.031225622
94	0xbd5f85de	-0.054571025
95	0x3e380ece	0.17974398
96	0x3c71a72e	0.014749331
97	0xbd973343	-0.07382824
98	0x3e1983a1	0.14991619
99	0x3e3e3304	0.18574148
100	0x3c668295	0.014069219
101	0x3e66eb7e	0.2255077
102	0x3d701b88	0.058620006
103	0xbe152268	-0.14563906
104	0xbe1433f7	-0.14472948
105	0xbc8e5fc3	-0.017379647
106	0xbdd3200e	-0.10308848
107	0xbe342cec	-0.17595261
108	0xbccb717e	-0.02483439
109	0xbbb69fd4	-0.005573252
110	0xbd9ad670	-0.07560432
111	0x3c9e3eec	0.019317113
112	0x3dd52650	0.10407698
113	0xbe402995	-0.18765862
114	0x3e03f467	0.12886201
115	0xbd1733e1	-0.03691471
116	0x3c460e38	0.012088351
117	0xbe02f8ba	-0.12790194
118	0xbe1c101e	-0.15240523
119	0x3d8b8ed3	0.06814351
120	0xbd36be10	-0.04461485
121	0x3e40bcbc	0.18821996
122	0x3e64fd4c	0.2236225
123	0xbc45f324	-0.012081895
124	0x3e22bac4	0.15891558
125	0x3dd3c9fd	0.103412606
126	0x3dced7dd	0.100997664
127	0x3d292348	0.041293412
128	0xbc04a818	-0.008096717
129	0x3e4b53f0	0.19856238
130	0xbcb1e2cf	-0.021714596
131	0x3e3f0fa9	0.18658318
132	0x3e25cd29	0.16191544
133	0xb9fe4588	-0.0004849846
134	0x3d3cc948	0.046090394
135	0x3e0efb38	0.1396302
136	0x3da65f78	0.08123678
137	0x3df57e42	0.119869724
138	0x3e0294c9	0.1275207
139	0x3d8a232d	0.067449905
140	0x3e3041c9	0.17212595
141	0x3e44618f	0.1917784
142	0x3dd69318	0.10477275
143	0x3d711db6	0.058866225
144	0x3d1187dd	0.03552996
145	0x3ddceaef	0.107869975
146	0xbc83cb93	-0.016088283
147	0xbb0131e0	-0.0019713566
148	0x3ddd669a	0.10810585
149	0x3de47ed0	0.11157
150	0xbd1ef08c	-0.038803622
151	0xbd20f9db	-0.03930078
152	0x3dccbc1a	0.09996815
153	0x3dde8314	0.10864845
154	0x3e85d07a	0.26135617
155	0xbe02823c	-0.12744993
156	0x3dc6120b	0.0967141
157	0x3d98f797	0.07469099
158	0x3e2d4f07	0.16924678
159	0x3dcf8eaf	0.101346366

exp_avg f4 [1, 40]
0	0xb8db7f9a	-0.000104665014
1	0xb8edf985	-0.00011347517
2	0xb8db7d34	-0.00010466055
3	0xb90d3241	-0.00013465529
4	0x394ac879	0.00019338903
5	0x3994918f	0.0002833721
6	0x38d7df15	0.00010293551
7	0x39098f6a	0.00013118764
8	0xb9a124f9	-0.0003073586
9	0xb7dd46a3	-2.6378146e-05
10	0x39f05127	0.0004583683
11	0x398b52b1	0.00026573756
12	0x3953b428	0.00020189642
13	0xb962964a	-0.00021609027
14	0xb97f6dcd	-0.00024359599
15	0x37a22c90	1.9332656e-05
16	0xb7ee81d8	-2.8432274e-05
17	0x39a1151a	0.00030724035
18	0xb8defc76	-0.000106328094
19	0xb8a4a7fd	-7.85142e-05
20	0xb8df7390	-0.00010654994
21	0x391d5432	0.00015004052
22	0xb8eea996	-0.00011380312
23	0xb87ec214	-6.073907e-05
24	0xb8f5cd7d	-0.000117207856
25	0x398802f0	0.0002594213
26	0xb8852d9a	-6.350428e-05
27	0xb9017f2d	-0.00012349775
28	0xb92f42dc	-0.00016714208
29	0x3811a92b	3.4728244e-05
30	0x3899e7ae	7.338762e-05
31	0x39a9315e	0.00032270973
32	0xb81d00ab	-3.743234e-05
33	0xb9097bdf	-0.00013111484
34	0x38e4215d	0.000108781016
35	0x388cbaae	6.710492e-05
36	0xb8e699f2	-0.00010995929
37	0xb88d2d56	-6.7318484e-05
38	0xb901e169	-0.0001238637
39	0xb91e9a1e	-0.00015125467

exp_avg_sq f4 [1, 40]
0	0x35ef962e	1.7850596e-06
1	0x3731b44f	1.05920035e-05
2	0x374b61de	1.2122529e-05
3	0x354617a8	7.379517e-07
4	0x368eb794	4.253301e-06
5	0x365ac286	3.259776e-06
6	0x372461bb	9.797916e-06
7	0x363affa8	2.7864971e-06
8	0x34d0fccc	3.8926953e-07
9	0x370529be	7.937137e-06
10	0x34b1219e	3.299328e-07
11	0x371737a0	9.013253e-06
12	0x37306cc9	1.0515746e-05
13	0x36e4961f	6.812406e-06
14	0x35d2b72e	1.5699532e-06
15	0x347c28a5	2.3484115e-07
16	0x36f83390	7.3969786e-06
17	0x3419bd2a	1.4318053e-07
18	0x36931744	4.38365e-06
19	0x333e3da3	4.429388e-08
20	0x37439863	1.1658386e-05
21	0x3738ef82	1.1023019e-05
22	0x37339c7f	1.07056685e-05
23	0x36cac5e5	6.043107e-06
24	0x372f0bbd	1.0433546e-05
25	0x35736be4	9.0681556e-07
26	0x359b6729	1.1578423e-06
27	0x37235aa6	9.736663e-06
28	0x340ba033	1.3003664e-07
29	0x35ba9da1	1.3903956e-06
30	0x350d21df	5.257588e-07
31	0x358220fb	9.695353e-07
32	0x3527df8c	6.253765e-07
33	0x37377fb8	1.0937387e-05
34	0x37258390	9.865398e-06
35	0x3328157a	3.913508e-08
36	0x3724be04	9.819403e-06
37	0x3598ba3d	1.1379085e-06
38	0x3708e3f8	8.15931e-06
39	0x37190bfe	9.122303e-06

exp_avg f4 [1, 40]
0	0xbdd924b1	-0.106027015
1	0x3e38e3ed	0.18055697
2	0x3e39eb84	0.18156248
3	0xbc7792c6	-0.015110677
4	0x3e047e5c	0.12938827
5	0x3dbd3121	0.09237886
6	0xbe387c3a	-0.18016139
7	0x3db95d53	0.09051003
8	0xbd23d8c0	-0.04000163
9	0xbe1c2ef3	-0.15252285
10	0x3d35ce11	0.044385973
11	0xbe19a600	-0.1500473
12	0xbe1e3596	-0.15450129
13	0x3e04dd33	0.12975006
14	0xbd8548af	-0.06508004
15	0x3ac758ed	0.0015208997
16	0xbe29652e	-0.16542503
17	0x3d763dca	0.06011752
18	0xbdc9aa19	-0.09846897
19	0xbc50e809	-0.012750634
20	0x3e389089	0.18023886
21	0xbe2c22ca	-0.16810146
22	0x3e38cfc8	0.18048012
23	0x3df24b9f	0.1183083
24	0x3e37aa9f	0.1793618
25	0x3d8a47ef	0.067520015
26	0xbd59ecfe	-0.05320453
27	0x3e25a433	0.16175918
28	0xbccf3342	-0.025292996
29	0xbd94bcbf	-0.07262563
30	0xba871558	-0.0010306044
31	0x3d9c97b8	0.076461256
32	0x3a4f29da	0.00079026597
33	0x3e33a916	0.1754497
34	0xbe36b238	-0.17841423
35	0x3c31e3dd	0.0108575495
36	0x3e3856ee	0.18001911
37	0xbd00a2eb	-0.03140537
38	0x3e355a6b	0.17710273
39	0x3e1aef17	0.15130268
