research/lightning_logs/version_8/checkpoints/epoch=4-step=250.ckpt (torch, 300447 bytes, 33 tensors)

model.param_proj.proj.0.weight f4 [1, 40]
00000000: ea3a 973d 052f 70be ed7d e13c 86cc 33bd
00000010: d67b 24be ae80 e43d ce65 893d 4211 4bbe
00000020: 44fc 9d3d bdc1 8a3d c02e b63e b421 333e
00000030: a9c5 853e f88d 403e 8ad5 6abe a3c3 96be
00000040: 3f72 6c3d 0b72 8dbe c429 2fbe 90e8 26be
00000050: 41b7 5dbe 449e 273c dd3a d33d 42b5 30be
00000060: bae9 733d 4a4d 323d 718f 363e e628 3abe
00000070: ca07 9a3e 6d0a 2f3e f0bc c13d 8e43 b7bc
00000080: c4e7 e8bd e0f8 4dbd d24e a53e 878e 7cbe
00000090: d419 73bc 01e2 803c c1f7 213e 1125 42be
0.07384284 -0.23455437 0.027525866 -0.04389622 -0.16062865 0.11157356 0.06708871 -0.19830802
0.077141315 0.06775234 0.35582542 0.17493325 0.26127365 0.18804157 -0.22933021 -0.29446134
0.05772614 -0.2762607 -0.17105776 -0.16299653 -0.21651937 0.010230605 0.10313962 -0.17256644
0.05954907 0.04353074 0.17828156 -0.18179664 0.30084068 0.17093821 0.09459865 -0.02237108
-0.11372331 -0.050286174 0.32286698 -0.24663745 -0.014837701 0.015732767 0.15817167 -0.18959452

model.param_proj.proj.1.weight f4 [1, 40]
00000000: a63e 00be 59db 813d 589f bfbd e94f 10bd
00000010: 070a 15be 791a 3a3e c8e3 e73c 7ea4 f0bd
00000020: 5546 dc3d dd8f 2c3e da12 2bbc 91d3 363d
00000030: fc2d 153e 066a 1c3c a17d e5bd e4c7 0cbe
00000040: 9469 c83d e56e 6dbd 4c05 683d 47da f4bd
00000050: 2cd9 38bd ad42 02be 859b e63d e7da d5bd
00000060: 1529 3abe 3078 05bd 163d be3d 4ad9 0e3e
00000070: fded 0f3e 2938 993d c90f 26bc e7a9 09be
00000080: e698 0bbe 941b fc3d 7818 923b e16d dcbd
00000090: a2ab 8dbd 1cb9 1ebe 186a ff3d feaf d8bd
-0.12523898 0.06340665 -0.09356564 -0.03523246 -0.14554606 0.18174161 0.028306857 -0.117501244
0.10755602 0.16851754 -0.010441506 0.04463536 0.14568323 0.009546762 -0.112056024 -0.13748127
0.097857624 -0.057967085 0.056645676 -0.119556956 -0.045128986 -0.12720747 0.11260132 -0.10442143
-0.18179734 -0.032585323 0.09288995 0.13950077 0.14055629 0.07481415 -0.010135599 -0.13443719
-0.13632545 0.123099476 0.0044584833 -0.10763145 -0.06917502 -0.15500301 0.12471408 -0.10580443

model.param_proj.proj.2.weight f4 [1, 40]
00000000: 2682 a0bd 1430 7f3d f5ad 87bb 5b1e 7f3d
00000010: 82b0 303d 91dd 8f3d 0476 59be 30a0 023e
00000020: f683 33be f673 b8bb d5ef 2bbe 6043 52be
00000030: eb84 33be 04e8 24be 091f 0c3e de06 a43c
00000040: 7c81 18be 8488 603d 221d 533e 01cf c73d
00000050: a307 0b3e 0aa3 883d e8aa 12be 8c4c b63c
00000060: 75c2 c83c 7e1a 96bd f090 bc3c 0166 e43d
00000070: fdec 3fbe 11ea 6bbd abab 94bd 5f5c a63d
00000080: 964e dcbc ad13 1e3e 3dbc 15be 93e0 113e
00000090: 2779 cebd 41c8 eb3c 97a5 c4bd 92e0 d83d
-0.07837324 0.06230171 -0.0041406103 0.06228481 0.04313708 0.07024682 -0.21236426 0.12756419
-0.17530808 -0.005629058 -0.16790707 -0.20533514 -0.17531173 -0.16104132 0.13683714 0.020022806
-0.14893144 0.05481769 0.20616582 0.0975628 0.13577132 0.06671722 -0.14323008 0.022253297
0.024506787 -0.07329272 0.02301833 0.11152268 -0.18742748 -0.05759627 -0.072593056 0.08123087
-0.026892941 0.15437193 -0.14622588 0.14245825 -0.10081702 0.028782012 -0.09601896 0.105897084

model.rnn.weight_ih_l0 f4 [160, 21]
00000000: 62fa dcbd b5f7 e0bd 0717 dbbd cd62 54bd
00000010: a69d d53c 0d31 a83d a07b e63d feca 30bd
00000020: f0a1 c9bd 960c 1bbe 19ae 1b3c 4c40 523d
00000030: 1bf2 1b3d 120f 663c 6ae5 b03d 2871 c0bd
00000040: fd78 b63d 841e 8e3d 188f f3bd 0ded b43d
00000050: 6a3f 703d 29d7 19bc f200 d13d 02b7 5cbc
00000060: 2dda 1a3e 1c7d 39bd 8db7 b53d 4eb3 263e
00000070: c80c 6ebd 42e3 103e fee4 f33c c8d3 a5bd
00000080: eddd ac3d e83c 243d 7ef9 873d 0d8f 3bbc
00000090: 9e6a 523d 23ef a8bc ba35 e2bd 2032 d7bc
000000a0: 5748 bdbe f603 6e3d bf0c 013d f50b 193e
000000b0: 8e1d 173c e6c6 773d 639f ea3c e4cb 18be
000000c0: 1ec5 b1bd ee3d 613e c0d1 203d b56e 503c
000000d0: 9335 543e 8313 353e 063e bfbd ed16 cf3d
000000e0: 1c19 86bd 18cf 29bd 9bd6 9fbd ba01 4a3d
000000f0: e151 f03c 14fe eb3d 3fae 96bc f2d5 4b3e
00000100: 89f1 66bd 6875 323e bd3d 0d3e 0b0d 83bc
00000110: b086 a73d 9651 d83d 3556 373d 0c71 513e
00000120: ddbf 57bd b5a7 36bd fafc 3f3e f9d2 cabc
00000130: 4e99 303e f231 39bd 5f8a 8f3d fdf1 51be
00000140: b958 c4bd 9723 663e 4b48 69bd 74ce f43d
00000150: 7f01 283e 4d8b a0bd 50b6 dcbb 5f9e 03be
00000160: 32dd 75bc 3db9 b43d 4987 19be 5090 ef3c
00000170: bb64 bd3c 0f82 7a3c 70d2 193e ecc9 9abc
00000180: 09ab 163d c678 c73d f8f4 a93d d97b cd3d
00000190: e58d afbd 5682 9bbd 4e91 1fbd 98f1 32be
000001a0: 6ff2 6cbd 2ead 803d 8401 a23d cff7 073e
000001b0: 238e 87ba 6f22 fdbc 2829 9cbc d28a 7cbd
000001c0: 1b2a 22bb 583c 8d3d 1c70 22bc 0922 653e
000001d0: c65d 88bc 788d 0e3e 0eaf a43d f082 ac3b
000001e0: 07d5 7e3d 984b 30bd 1a67 97bd 8c5c c53d
000001f0: 761b 86bc c3e8 febc 0860 17be 594e c8bb
00000200: 9298 be3d 0beb cf3b 4903 563d af2b 68bd
00000210: d3b8 d73d 149b 2abe b4bd 31bd 4507 393d
00000220: 4947 2dbe 83b7 593d 45ae 9cbd fa7e 1cbb
00000230: 9385 d5bc eb02 183e e8bd 3fbd d12c 94bd
00000240: 10ba d03c 7b81 fc3d d51d ce3d 8050 eb3d
00000250: ed01 c13d 9c55 d0bc e697 2e3e 396c 243e
00000260: f27e c03d b00c 403e 4e4f 033e bb70 fd3d
00000270: 2328 9fbd aeb1 bb3d fb70 ca3d bf0a 56bd
00000280: 54e3 af3d 4582 e93d 510e 61bb 7294 d5bd
00000290: 7952 673c 4a0e 713e ab97 a53d 4429 8e3d
000002a0: f034 3f3e 6224 433e 9fad adbd 7bb5 bdbd
000002b0: 3966 fc3d e0d3 213e 9d29 1dbe 9590 3bbd
000002c0: 47b3 0abc bd61 df3c 1bf5 253e 2d78 3f3e
000002d0: 3f34 01be 32cf dc3c f604 203e a132 19be
000002e0: ba44 1dbe 238b 03bd d20f 113d 403d e73d
000002f0: 27a3 ecbd 02a3 333e 79cf 3a3c 9525 d63d
00000300: cbbd 37bd 0d55 8cbd ad78 173e 8e0e 783e
00000310: fcd8 c83d faea 683e c155 643e 27c6 74bc
00000320: aa37 c83d 30cb d23b d08f dd3d 91ac 3d3e
00000330: 8b8e 313e 6f3e 12be 2b1a efbb 5c12 523e
00000340: 990c 573e ce20 1c3e 6d83 863c e350 7bbd
00000350: 97f0 cdbc 65de c1bd 3152 c73d 8f7c 71bd
00000360: 7b4c 21be ec39 20bd 2afd aa3d bffd a03c
00000370: f787 84bd 70ad 923c 7f41 1f3d 62b1 e03d
00000380: 28f7 c4bc 63cc bf3d 5883 b63d 3144 efbd
00000390: 1b13 0f3e 2d71 b4be 91b0 0dbe 419d 343e
000003a0: e92d e53d 0557 ba3c e20f 9ebc 2f96 a0bd
000003b0: b811 db3d 1064 1d3e 2df4 45bc 7648 5e3e
000003c0: 96e0 dd3d 78c3 f53d 6213 78bd e1c5 cf3d
000003d0: 6331 a03d c07c 1fbd c294 4e3e 7e60 2d3d
000003e0: 019d 733c 890a 1c3e 5896 a63b fe58 0d3d
000003f0: 1139 8dbd fb31 f73d 8516 043d eca7 133e
-0.10789944 -0.10984746 -0.106977515 -0.051852036 0.02607615 0.08212481 0.11254048 -0.04316234
-0.0984534 -0.1514152 0.009501957 0.05133085 0.038072687 0.014041679 0.08637507 -0.09396583
0.089097954 0.06939414 -0.11892527 0.08834276 0.058654226 -0.009389677 0.102052584 -0.013471367
0.1512229 -0.04528533 0.088729 0.16279337 -0.058117658 0.14149192 0.029772278 -0.08097035
0.084407665 0.040097147 0.06639384 -0.01144768 0.05137121 -0.020621842 -0.11045404 -0.026269019
-0.36969253 0.058109246 0.031506296 0.14945967 0.009223355 0.06049242 0.028640455 -0.14921528
-0.08680175 0.2199628 0.039262533 0.012721707 0.20723562 0.17683224 -0.09338002 0.101117946
-0.06547758 -0.041457266 -0.078046046 0.049318053 0.029335918 0.11523071 -0.018393634 0.19905832
-0.05638269 0.174276 0.13793083 -0.01599743 0.081799865 0.10562436 0.044759948 0.2045328
-0.05267321 -0.04459353 0.18748847 -0.024758803 0.17245981 -0.045213647 0.07008814 -0.20502467
-0.09587235 0.22474514 -0.05695371 0.1195344 0.1640682 -0.078390695 -0.0067356005 -0.12853383
-0.01500635 0.08824394 -0.14993013 0.029243618 0.023119321 0.015289797 0.15021682 -0.018895112
0.036784206 0.097398326 0.08298677 0.10033388 -0.08571986 -0.07593219 -0.038956933 -0.17474973
-0.05784839 0.062830314 0.07910445 0.13278125 -0.0010342043 -0.030900208 -0.019062594 -0.061655827
-0.0024744335 0.06896275 -0.009914424 0.22376265 -0.016646277 0.13921154 0.080412015 0.0052646324
0.062214877 -0.04304084 -0.07392712 0.096367925 -0.016370516 -0.031116849 -0.14782727 -0.0061128554
0.09306444 0.006345158 0.052249227 -0.056682285 0.10533299 -0.1666072 -0.043393806 0.04517295
-0.16921724 0.053153526 -0.07650427 -0.0023879395 -0.02606467 0.14844863 -0.046811968 -0.072351106
0.025479347 0.12329384 0.10064284 0.114899635 0.094241954 -0.025431447 0.17050132 0.16056909
0.09399213 0.1875484 0.12823221 0.12375017 -0.07771327 0.09164749 0.098848306 -0.052256342
0.08588281 0.114018 -0.0034340809 -0.10428704 0.014118784 0.23540607 0.08085569 0.069414645
0.18672538 0.19056848 -0.08480381 -0.0926313 0.12324185 0.1580348 -0.15347905 -0.04579218
-0.008465595 0.027268285 0.16206782 0.18698187 -0.12617587 0.026954267 0.15626892 -0.1496072
-0.15358248 -0.032115113 0.035415478 0.112909794 -0.11554556 0.17542651 0.011402004 0.10456387
-0.044858735 -0.0685216 0.14792128 0.24224302 0.098070115 0.22745886 0.22298338 -0.014939821
0.09776242 0.0064329132 0.10818446 0.1852286 0.17339532 -0.14281629 -0.0072968206 0.20514816
0.210009 0.15246889 0.01642009 -0.061356436 -0.025139136 -0.094662465 0.09732474 -0.05895668
-0.15751831 -0.03911774 0.083490685 0.019652246 -0.06471246 0.017904967 0.03888082 0.10971333
-0.024043635 0.093651555 0.089117706 -0.11682928 0.13972132 -0.35242596 -0.13836886 0.17638113
0.11190397 0.022746572 -0.019294683 -0.07841145 0.10696739 0.15370202 -0.012082142 0.21707329
0.10833852 0.12000173 -0.06056536 0.10145164 0.0782192 -0.03893733 0.20173934 0.04232835
0.014868976 0.15238394 0.0050838403 0.034508698 -0.0689565 0.1207008 0.03224804 0.14419526

model.rnn.weight_hh_l0 f4 [160, 40]
00000000: 3bfc 883d 7da3 e0bd 12fa d6bc edb9 3c3c
00000010: ee26 89bd 02ac 2e3d 0424 823d 22fb 71bc
00000020: 3371 07be 1b0b eebd 8f90 a13d c6c6 843b
00000030: b2a6 8bbd ae4a fe3d f6dd f53d 13c1 d8bd
00000040: b298 5dbd 6b9d fd3c 358f babd 6638 2c3c
00000050: 082d 7f3d cd67 523d 79b6 91bd 0314 3f3e
00000060: e3fe 823d dbb9 063e 4b35 113d 911b fa3d
00000070: 63b1 3b3e b7dd 50bd f298 03bd 67a6 c1bd
00000080: 09d1 1a3d 58e4 80bd d2c3 0b3e c307 c63d
00000090: 5807 cfbc 022d 133e 6830 723d a1b7 f0bd
000000a0: 4ceb 3d3e cac1 c33d 16a4 41be 98ee f2bb
000000b0: 9cc6 a1bd 62fb 093e a30e abbd aaef 8abd
000000c0: 25a8 4b3c 8e4b d03d 22c1 ffbd 5d7e c53d
000000d0: 2f9f 9d3c 6012 203e baa9 af3d f75e 82bd
000000e0: 92c4 9abd 0bf2 8abd cf87 da3d 5e43 bcbd
000000f0: bf90 fe3d 7ee2 a73d 7144 503d d65d e3bd
00000100: fe96 5b3d d5a7 133d 3200 663d b1c0 0ebd
00000110: c39a 2abe 842f ff3d ea0b 0e3e 71ca 6f3d
00000120: dea4 153e 33f2 9ebd ccfb 153d 4779 8d3d
00000130: 1d5c ca3c 4922 f5bd c632 e33d e05d 47bc
00000140: 10eb ad3d c2c5 d13d 5217 c5bd 2c4e bb3d
00000150: ecf8 813d 69c4 663e 5324 2c3d 8ae0 afbd
00000160: f46c e1bc 790d 4b3d 466b 52bd c610 053e
00000170: 9dd2 473e e00c 853d edba 2a3c 9bd4 06be
00000180: 5c2e 9fbd fa0a 41be 39cd 563c cbcb b8bc
00000190: b848 1cbd 0a61 0bbd 2f5f 5f3e 6c1d c8be
000001a0: ea4d 473d bc48 d43d cf68 80bd 18b6 3f3d
000001b0: daf4 7abe 41ef 5bbd 1194 c13d c88d 103e
000001c0: e04a aebd ef10 e7bc bc7d 9dbc 9f52 563e
000001d0: 9140 613d 9809 563e 03a4 59be 0676 e9bd
000001e0: 4206 5bbc 35a2 1cbe e756 7ebd da4d c8bd
000001f0: 3e6b 143e ea81 e9bd 9dd3 73bd 1c9a 893c
00000200: fbb5 6dba 7dbd b23d 7928 d2bc 3b31 3dbe
00000210: 5bbb 9a3c 13ce 043d 5889 4a3e 66d8 d3bd
00000220: 12b9 2cbe 3a6a 23bd 5e80 5e3d 560c 6f3c
00000230: 9058 b63d 3fbc 97bd bcec 5b3d 8921 3a3d
00000240: 7cad aebc 3653 f7bd 37ff 723c 63ca 053b
00000250: fbc4 3cbd be26 1d3d 64e3 b83c d6bb a9bd
00000260: 1861 e4bc 3269 0d3e 8e95 15be 0f3e 6a3d
00000270: 2eea 333d 8ded a0bc 7c43 363e 4164 e93c
00000280: 7f50 18bd 3215 b53d e563 363d 64dd d83d
00000290: a696 ac3d fb67 d6bb 090b cbbd 75bf 86bd
000002a0: b31c f1bd a777 b5bd 0347 72bd 78a8 03be
000002b0: b593 fe3d fd5b 59bd 1ff5 623d 6a21 25be
000002c0: eb99 803d 9e2f 34bd ace0 b63d 1231 cd3d
000002d0: d343 7c3d 59cc 29be 89ef c1bd 78a6 3f3d
000002e0: eb13 d03c b2fc 783c 6754 abbd c07b fdbd
000002f0: 7692 463e 6386 bdbd 1bee 46bc 4802 b83d
00000300: 3994 d93d 15d9 263e 7c0b d03c 90c1 a9bd
00000310: 14c6 11be 4532 88bd 77f2 d7bc 6740 863d
00000320: 627f 47be 46b8 26be f9ee 8b3d 9675 2cbd
00000330: ca28 363d b282 5dbb c447 bb3d e1d7 c4bd
00000340: 2ea5 233e 7e85 143e 406e f73d 2948 553c
00000350: 9353 e6bd 3f7b 0cbd 7954 813c f7ca e93d
00000360: 624f bd3c 055b ab3d 6efe eebc 0e58 423d
00000370: 8edd 193d ad64 41bd e008 0e3d e4cf 473d
00000380: f5af 76bc 87c0 3cbe 7238 e8bd bb5f ecbd
00000390: 32df 3dbe 7c37 d4bd 866a aabd 337c 04be
000003a0: d983 de3d 819f be3d 0629 26bd 37b6 53be
000003b0: 3f4d 9a3d c8e2 ea3d ee5a cb3d 0f42 f0bc
000003c0: 2455 503e 89db ecbd 1d87 3abc 197d 37bd
000003d0: ba2d e9bb d53f d23d 1478 9abd da90 aebd
000003e0: 4f7f 34bd 6b83 5ebd 4284 11be 6851 d6bd
000003f0: 4519 913a 973a 08be bdc1 bb3d 5aa3 03bd
0.06688734 -0.10968683 -0.02624229 0.011518938 -0.066968784 0.04264451 0.06354526 -0.014769347
-0.13226776 -0.11623212 0.078889005 0.004052016 -0.06818904 0.12416588 0.12005226 -0.10583701
-0.0541007 0.030958852 -0.09109346 0.010511493 0.062298805 0.051368523 -0.07114882 0.18659978
0.06396272 0.13156836 0.035451215 0.12212289 0.18329386 -0.050992694 -0.032128282 -0.09455567
0.037797008 -0.06293553 0.13648918 0.09669449 -0.025272056 0.14372638 0.059128195 -0.117537744
0.1854679 0.09558447 -0.1891025 -0.0074136965 -0.0789921 0.13474801 -0.08352401 -0.067839935
0.0124302255 0.10170661 -0.12488009 0.096432425 0.019240944 0.1563201 0.08577295 -0.06365769
-0.07557024 -0.06784447 0.10670435 -0.09192537 0.12429952 0.08197497 0.05084652 -0.11101882
0.053610794 0.03604873 0.05615253 -0.034851734 -0.166606 0.12460235 0.13871732 0.058542673
0.14613673 -0.077610396 0.036617085 0.069078974 0.024702126 -0.1196943 0.11093669 -0.012168378
0.084921 0.102427974 -0.096235886 0.091457695 0.06346306 0.22535862 0.04202683 -0.08587749
-0.027517773 0.049573395 -0.051371835 0.1299468 0.19513936 0.06496596 0.010420543 -0.1316704
-0.07772514 -0.18851843 0.013110452 -0.022558114 -0.038155288 -0.03402809 0.21813653 -0.39084947
0.04865829 0.103654355 -0.06269991 0.046804518 -0.24507466 -0.053694967 0.094520696 0.14116585
-0.08510375 -0.028206317 -0.019224994 0.20929955 0.054993216 0.20902097 -0.21253972 -0.11399464
-0.013368191 -0.15296252 -0.062094595 -0.09780474 0.14494035 -0.11401732 -0.059527982 0.016797118
-0.000906795 0.08727548 -0.025654064 -0.18475811 0.018888166 0.03242309 0.19778955 -0.10344009
-0.16867474 -0.039896227 0.05432164 0.014590343 0.08903611 -0.07408952 0.053692564 0.045442138
-0.021322958 -0.12076418 0.014831356 0.0020414821 -0.046086293 0.038367026 0.022569366 -0.0828778
-0.02787833 0.1380966 -0.14607832 0.05718809 0.043924503 -0.019644523 0.17799181 0.028490188
-0.037186142 0.08841933 0.04452886 0.10589102 0.084271714 -0.006543157 -0.09914214 -0.06579486
-0.11773052 -0.088607125 -0.059149753 -0.12857234 0.12430517 -0.053066242 0.055409547 -0.16126028
0.062793575 -0.043990724 0.089295715 0.10019125 0.06158812 -0.16581859 -0.09469516 0.046789616
0.025400123 0.015196966 -0.08365708 -0.12377119 0.19391808 -0.09254148 -0.01214173 0.0898481
0.10623974 0.16293748 0.025396101 -0.08288872 -0.14235717 -0.06650213 -0.026360733 0.065552525
-0.19482186 -0.16281232 0.0683269 -0.042104326 0.044472493 -0.0033799824 0.091445476 -0.09611488
0.1598098 0.14504048 0.120815754 0.013017693 -0.11246409 -0.034297224 0.01578735 0.114156656
0.023109142 0.0836697 -0.029174056 0.047447257 0.037564807 -0.047215153 0.034676433 0.048782244
-0.0150566 -0.18432818 -0.11338891 -0.11541697 -0.18542174 -0.10362145 -0.08321099 -0.12938003
0.10864992 0.09307767 -0.040566467 -0.20674978 0.07534265 0.11469036 0.09929453 -0.029328374
0.20344979 -0.115653105 -0.011384753 -0.044797037 -0.0071160467 0.10266081 -0.07542434 -0.08523722
-0.044066723 -0.05432455 -0.14210609 -0.10464746 0.0011070153 -0.133036 0.09167812 -0.032138206

model.rnn.bias_ih_l0 f4 [160]
00000000: 8424 7b3d 8669 863d 4b5e e1bd a330 cb3d
00000010: 8838 e43d 76fe 383e 7a9a 033e 280b 733e
00000020: 232b b3bd 1eae 58bd 98f2 263e 35f6 dc3c
00000030: 8406 48bd 268e a03d aaab 483e 6898 823c
00000040: ed78 353e 251a fe3d a1e2 b0bd eb84 033d
00000050: f683 aabd ca6d 263e 8237 833c 308b e63d
00000060: 8311 e23c e403 063e 1305 8d3d 61c1 ae3d
00000070: 44d0 24bb e85c fb3a cbae 383e 3068 e53c
00000080: f051 53bd 9b09 8d3d db20 433e 5b07 ab3d
00000090: bdb3 353c 9030 4a3d 69c6 113e df45 5c3e
000000a0: 4b38 073e 0e56 c4bd 1fe3 043e e864 b1bd
000000b0: df71 ff3d 71e0 b5bd e100 203d 8e22 8fbd
000000c0: 62f0 683d 447f 193e 30ba 8cb8 7421 063e
000000d0: 4190 fcbc 065f 333e ca87 3b3e cc70 1a3e
000000e0: fc0b 693d 4c8e da3d e51b 4fbe aef0 e33d
000000f0: ed84 d63d e02a adbd f124 fd3d 059e 3c3e
00000100: 7804 93bd aa7e 48bd 79f2 e7bd 8974 82bd
00000110: e47a e13d 6b20 3ebd 595f 043e 6784 073e
00000120: d59d 263e e843 c8bd dfb9 f0bd 7019 9bbc
00000130: 4c15 0e3e f8a7 d23d c4c0 e5bd 43fa fbbd
00000140: c952 193d 5846 103b c491 2abd 0fd0 c0bd
00000150: 88d2 0d3d d883 1dbe 5db6 0dbe 17a1 70bd
00000160: 5e89 263d 5ff9 ab3d a44e d03d 160b 33be
00000170: ade1 21be 494f e9bd 0968 073e 0f6d e03d
00000180: 6a8d c13b 8179 2e3e 9a8a f7bd 30dc e1bc
00000190: 4c4d 833d 9bfe 20be a946 36be 0e13 063e
000001a0: 9f41 92bd 4373 05be 7d9d 333d 3615 b8bd
000001b0: 9692 183e 3474 0bbe 0eea 4d3e 29d8 dbbd
000001c0: a8a7 0dbe f867 cfbd f468 89bd aec5 ae3c
000001d0: efec 6a3d cd32 48be aca7 513e 63e4 933d
000001e0: a864 5bbd db5d 193e 6e95 12be 3eec e3bc
000001f0: b2ca 1d3e fd89 113e 304f 4c3c b81c 3d3e
00000200: 393f 2c3e 836a 053e de62 0bbe 453b 3e3e
00000210: 0780 dabd aa70 3d3d c8ac 43bd e257 e33d
00000220: 1850 b53c 1879 5a3d 3eca 413d 55f9 4cbd
00000230: b9c0 873d 9079 203e e51d cf3d 30ae 32bd
00000240: 1d74 fa3c e8dd 80bd c59f cbbc cd01 663e
00000250: 63b0 fe3d 50cf 173e 73bd 083e cbed 8c3d
00000260: 0d02 40bb ea44 193d 4b2f d53d 8c02 943d
00000270: a02a 7bbc ef6a 03bd 207a d83d f825 0f3d
0.06131412 0.06563096 -0.11004313 0.09921386 0.11143595 0.18065819 0.12851897 0.23734725
-0.08748462 -0.052900426 0.1630348 0.02697287 -0.04883434 0.07839613 0.19596735 0.015941814
0.17721911 0.124073304 -0.08636976 0.032109182 -0.08325951 0.16252819 0.01601768 0.11257017
0.02759624 0.13087422 0.068857335 0.08532978 -0.002514855 0.0019177468 0.18035428 0.028003782
-0.051591814 0.06886598 0.19055502 0.08351012 0.011090216 0.04936272 0.14235844 0.21511029
0.13205068 -0.09586726 0.12977265 -0.086618245 0.12472891 -0.088806994 0.03906334 -0.06989013
0.056869872 0.14989954 -6.7104e-05 0.13098699 -0.030830504 0.17516717 0.18313518 0.15082091
0.056896195 0.10671672 -0.20225485 0.111298904 0.10474572 -0.084554434 0.12360562 0.18419655
-0.07178587 -0.04894892 -0.11325545 -0.063698836 0.11009768 -0.046417635 0.12926997 0.13234101
0.16271146 -0.09778577 -0.11754202 -0.018933028 0.13875312 0.10285944 -0.11218408 -0.12303593
0.037432466 0.0022014584 -0.04164292 -0.09414684 0.034624606 -0.15382326 -0.13839097 -0.058747377
0.040658347 0.08397173 0.101712495 -0.17484698 -0.15808745 -0.113920756 0.1322328 0.10958301
0.0059067504 0.17038538 -0.12086983 -0.027570814 0.064112276 -0.15722124 -0.17800392 0.13093206
-0.071414225 -0.1303225 0.043851364 -0.08988421 0.14899668 -0.13618547 0.20108816 -0.10734589
-0.13833487 -0.10127252 -0.06709471 0.021334495 0.057354864 -0.19550629 0.20474118 0.07221296
-0.05356279 0.1497721 -0.14314815 -0.02782261 0.15409353 0.14212795 0.012470052 0.18467987
0.16820993 0.13028912 -0.13611934 0.18577297 -0.106689505 0.046250023 -0.0477722 0.11100747
0.022132918 0.05333814 0.047312014 -0.05004247 0.06628556 0.15671372 0.10113124 -0.04362315
0.030572945 -0.06292325 -0.024856457 0.22461624 0.12435987 0.14825177 0.13353519 0.06881293
-0.0029298097 0.037419237 0.10409411 0.07227048 -0.015329987 -0.0320844 0.105701685 0.03494832

model.rnn.bias_hh_l0 f4 [160]
00000000: 3d0c edbd 929d 213e c9b9 b33d 59f7 6e3e
00000010: c42c 40bd 58d2 0ebb 3912 1b3d 0b23 a13d
00000020: 9616 eebd 6fa6 933d f88b b43c f367 b43d
00000030: 7382 8f3d a1f9 f43b 46d1 8c3d 7f57 673e
00000040: b3b6 0d3e fde3 243e 52e7 4dbd 4a2c c43d
00000050: 8d0e 113e b682 c63d 6849 6ebd 11e9 103d
00000060: d340 1c3e e5f5 ae3c d003 18bd 9296 5a3e
00000070: 6333 8fbd 8a0d 8a3d 91ee 993d e8a2 a4bd
00000080: e74d 42bd 15bf fe3d eea2 bbbd 09b4 473c
00000090: ee4f b7bd ff47 533e 6528 bcbb 7fa6 653d
000000a0: fbca 883b 541f ee3d 077f e6bd 4e27 0fbd
000000b0: 22fd 46bd 1103 03be 2229 303e 9e42 933b
000000c0: 9174 263e fac5 9c3a 736b cfbd 0d40 943d
000000d0: f3b1 d3bd a34c 233e 2fad c1bd 76cf f03d
000000e0: c121 9c3d 0da1 f2bc 5c7c 1ebe 18c5 dc3d
000000f0: 1dc3 debc a265 763d a4d1 303c 6c32 2d3e
00000100: 1831 5b3d 0aa9 723d 82c6 3d3b e727 d83d
00000110: 248a f2bc d9bb c83c 1dcc c7bc 2875 493d
00000120: 9763 3fbc 9d6f 72bc 818c fd3d 86a5 333e
00000130: 1adc dd3c ebb3 96bd 7c7b fc3d fd76 eebc
00000140: 48e0 023e a2c5 70bd 83fc 03be 7a9c bf3d
00000150: 4d23 833d ec51 b13c fced cbbd 2b33 9e3c
00000160: 7f58 433e fb1e cf3d 274d 073e 8423 8cbd
00000170: 43e2 f8bc 4bae 403d bba6 093e 556b ca3d
00000180: 2e7a 36be 2db0 413d f68c e13d f9f2 2f3e
00000190: 6115 dd3b 6d76 11be bce5 c5bd ae57 4ebd
000001a0: ea43 a93d dc75 0cbe af1b 08be 6f5a 7a3d
000001b0: 202b 993d e5f9 2ebe 4d0f 093e 1b31 62bd
000001c0: 0eed febd b51c 1d3e 096f 3a3d ee6a 02be
000001d0: 6a3f 5abe f1e7 38be 9b28 983d 67cf 0c3e
000001e0: f5c2 6f3d b6ce 0fbd 28ea 013e 3a42 443e
000001f0: e422 343d e82f 1e3e 9e63 223e 9083 5e3e
00000200: bd29 0d3e 93b9 ecbc 7433 a1bd 57f9 3d3e
00000210: 79ff 003b c26b 91bb 7842 d0bc 623c 4fbb
00000220: 56f2 b43c 322a 293e fbc9 8d3d 9723 f83d
00000230: c442 c13d 417c b4bd 0522 083e dc50 283e
00000240: 4455 b03d 0161 5cbd 80b6 703d 6f84 7e3e
00000250: 8077 c83d 8e86 22bd af26 af3d e904 cd3d
00000260: d706 193e 9b3e ad3c 88d5 bd3d 1c15 ddbc
00000270: a27b 0cbe a6c8 46ba 5ed8 6b3e 1620 083e
-0.115746 0.15782765 0.0877567 0.23336543 -0.04691769 -0.0021792855 0.037859175 0.07868012
-0.11625402 0.07209479 0.022039399 0.08808889 0.07007303 0.007476047 0.06875853 0.22591971
0.13839225 0.16102596 -0.050269432 0.0957876 0.14165707 0.096929 -0.058175474 0.03537852
0.15259103 0.021357486 -0.03711301 0.213465 -0.06992223 0.067408636 0.07516206 -0.080388844
-0.047437575 0.1243879 -0.09161936 0.01218892 -0.08950792 0.20632933 -0.00574212 0.056066986
0.004174588 0.11627069 -0.11254697 -0.034949593 -0.04858125 -0.12794138 0.17203191 0.0044940254
0.16255404 0.0011960857 -0.10127916 0.07238779 -0.103366755 0.15947203 -0.0945686 0.1175832
0.076236255 -0.02961781 -0.15477127 0.1077978 -0.027192647 0.06015552 0.01079217 0.16913766
0.053513616 0.05924324 0.0028957431 0.10554486 -0.029606886 0.024503635 -0.024389321 0.049183995
-0.011681459 -0.0147971185 0.123803146 0.17543611 0.027082492 -0.073585354 0.1232824 -0.029109472
0.12780869 -0.058782227 -0.12889294 0.093560174 0.064032175 0.021645509 -0.09957501 0.019311508
0.19076727 0.10113331 0.13213025 -0.068427116 -0.030381327 0.04704122 0.13442509 0.09883753
-0.17820045 0.047287155 0.11013214 0.1718253 0.0067469333 -0.14205332 -0.09662959 -0.050376587
0.08264907 -0.13716835 -0.1329181 0.0611214 0.074789286 -0.17087515 0.13384743 -0.055222612
-0.12447558 0.15342982 0.045516048 -0.12736103 -0.21313253 -0.18057229 0.0742962 0.13750993
0.058535535 -0.035109244 0.1268698 0.19165888 0.043978587 0.15447962 0.15858313 0.21729875
0.13785453 -0.028897082 -0.07871142 0.18552147 0.0019683524 -0.0044378946 -0.02542232 -0.0031621684
0.022088211 0.16520002 0.0692329 0.12116163 0.09436563 -0.08812762 0.13294227 0.16437095
0.08610013 -0.053803448 0.058767796 0.24855207 0.09788418 -0.039679103 0.085523 0.10010702
0.14944015 0.021148017 0.092692435 -0.026987605 -0.13719037 -0.00075829995 0.23031756 0.1329349

model.rnn.weight_ih_l1 f4 [160, 40]
00000000: fb24 cebc 9b9a 1bbe fd96 07be 1c3f d03d
00000010: 5ba3 943d 19d0 09bc 4c70 8c3c 47d6 31bd
00000020: 9c65 17be b851 1cbd b4fc 2a3d d9e7 e3bd
00000030: 3cd0 febc b818 0d3e dafc 273e 2438 14be
00000040: d111 333d 39a5 3d3c d96f 7cbd 2220 2c3d
00000050: e40e 113e 2962 90bd 7a4d 0bbe 3e98 383e
00000060: a237 15bc 017c 193e 2b62 bcbc 85da 133e
00000070: 6d86 4a3e bb29 20be b85d 44bd 3042 bb3d
00000080: a653 e0ba 5438 fdbd 161a 91bc 4a14 e43d
00000090: 8c7a 123e eb99 1a3e 3580 5d3d 8c18 653a
000000a0: 92b6 25be 2f85 f7bd e59e 8bbc ae19 98bd
000000b0: bebe fabd 8d05 0f3e 08e8 d43d 6e3a 3bbe
000000c0: 07b5 16bc fad7 933d 25fc cdbd 57e0 8ebc
000000d0: 0c3e fabd f4c6 8abd ee4c 92bd 0f5c eb3b
000000e0: 07d8 56bd 6b5d c3bb a4f9 f53d 531f 263e
000000f0: d132 02be 5b83 d53c bc29 61bd e84a 2b3e
00000100: f7ae e03d 380c 69bc 32a8 30be 7b80 e3bd
00000110: c866 c0bc 710e 483d 599f a6bd 93d9 9b3d
00000120: f72d ddbc 88ff f03d 2b07 e9bd eb06 09be
00000130: 29c0 893d dbdb 433d 3927 233e 01e4 5a3d
00000140: 66af fe3d d21f af3d ecdf e03d 2a7d 7bbd
00000150: f372 2c3e 249c b4bd 0515 dfbd 2255 aebd
00000160: 16db d4bd 4342 18be 0ac7 0a3e b72c edbd
00000170: c9cf b73d 4543 003e 40e6 073e a5cf cdbc
00000180: f844 3c3e ad32 a6bd 6113 f83d de6a c5bd
00000190: 8804 85bd e5cc 99bd a8bd 87bd b6ab 66be
000001a0: 3c00 e4bd 262b 823d fa8c 173e f3ba 583d
000001b0: 1f9f b7bc 6569 d5bc 8957 bebd c880 49be
000001c0: 8528 0ebe a28a 8fbd 409b e0bc 1ee3 70bb
000001d0: 7bf9 113e 7219 09be 0c2c a63d 140f f5bd
000001e0: aefb 19be 7357 f4bd 5889 0b3d 5888 89bd
000001f0: 63b6 903d e6cc ffbd c220 743c 0598 d33d
00000200: 8e5d b13d d296 b13c d3e8 18be d0ab a6bb
00000210: d49f 7c3c f85f 18bd 4e47 bcbd 5fe9 263e
00000220: 19bc 173e 2040 2f3e 48bb 4ebc b29e f63c
00000230: d685 23be f07b 0e3e 2920 65bd 5a20 aabd
00000240: 8242 8abd 30fc ef3c 94ec b53d 48ef 84bd
00000250: a23f 80bd 9c26 603d 6059 11be 1c5c 8a3b
00000260: a40e dbbd d26a a43d 0d97 293d 8e06 aa3d
00000270: 2e2b ccbd 01d4 f83b 63a2 6f3d eb6c 64bc
00000280: 7fe8 353e 5d8e b0bd 3fd4 01bd e6b8 1a3e
00000290: 034a 1bbe fa8a 273e 1d50 35be c88c b63d
000002a0: 2cf1 35bd 4a3b 1abd 0c88 c83d e6d3 8c3d
000002b0: 2bb7 153e 1b67 113e 7e3f e5bc a10d 99bd
000002c0: 4a74 e5bd 7e2b 8d3d 52e8 b8bd ebf6 08be
000002d0: b784 3dbd 57a3 e8bd 866a 743d 9ffb 32ba
000002e0: 2362 89bd 0f63 4c3d f485 ec3d ac0d d83d
000002f0: bc4e 963d 3089 e4bc fec4 3c3b 3db2 c2bd
00000300: 19b0 cdbd 8819 abbd 1ea5 2c3d 4de0 00bc
00000310: f4c6 1c3e 3a25 54bd feed 6cbc 54b1 65bd
00000320: 6286 c93d b385 cfbc e81e 283e 7f23 06be
00000330: b858 08be 1295 c7bc 0de1 c8bd 0e28 0e3e
00000340: bed9 90bc cfc1 863c 1f5e 8bbc 972d 163d
00000350: 1dc5 093e 9949 7f3d f0a4 1b3d 5bf0 fabd
00000360: 676a f63d 785d 143d c29b 003d 1ba3 f83d
00000370: 8f45 e7bb d7d9 873d aae1 cf3d a89c 0bbd
00000380: 5357 0ebe f2a2 0dbe aaa7 0cbe 0a0a 453c
00000390: a743 28be 46e3 c03a e854 433c db2d 0ebe
000003a0: bc4e 743d f156 b9bd 85e0 82bb 5533 17be
000003b0: 9cfa 0b3d 59ea b6bd b319 1bbe 5cc8 1fbe
000003c0: 6235 29bd d165 d8bd 6368 1a3d 6beb b8bc
000003d0: 10ce 2a3e e570 40be 4c57 013e cc75 11be
000003e0: 0af3 073e e6de 063b 05a0 513e b933 b6bd
000003f0: 640b f4bd 6d21 1f3d 0960 3d3e f213 0d3e
-0.025164118 -0.15195696 -0.13241191 0.10168287 0.0725772 -0.008411431 0.017143391 -0.04341724
-0.14784855 -0.03816387 0.041744903 -0.11128206 -0.031105153 0.1377896 0.16405049 -0.14474541
0.043718163 0.011575037 -0.061630104 0.04202283 0.14165837 -0.070499726 -0.13603774 0.18026826
-0.009107502 0.1498871 -0.022996029 0.14438827 0.19777842 -0.15640919 -0.04794094 0.09143484
-0.0017114773 -0.12364259 -0.017712634 0.11136682 0.1430456 0.15097778 0.054077346 0.00087393145
-0.16182926 -0.1208595 -0.01704354 -0.07426773 -0.122434124 0.13966961 0.10395819 -0.18284008
-0.009198434 0.07218929 -0.100578584 -0.017440958 -0.12218866 -0.067762285 -0.071435794 0.007182605
-0.052452113 -0.005962064 0.12010506 0.16222887 -0.12714697 0.026063612 -0.05497144 0.16727793
0.10970872 -0.014224105 -0.17251661 -0.1110849 -0.02348651 0.048841897 -0.08135862 0.07609858
-0.026999457 0.11767489 -0.1137832 -0.13381545 0.06726105 0.047817092 0.15932931 0.053440098
0.12435798 0.08550991 0.1098021 -0.061398663 0.16840725 -0.08818844 -0.10892681 -0.085123315
-0.1039335 -0.14869027 0.1355249 -0.11580794 0.08975179 0.12525661 0.13271427 -0.025123427
0.18385684 -0.081151344 0.12113071 -0.09639524 -0.06495005 -0.07509784 -0.06627971 -0.2252644
-0.11132857 0.06355886 0.14799872 0.052912664 -0.022414742 -0.026051233 -0.0929404 -0.19678032
-0.13882644 -0.07008864 -0.027417779 -0.0036756466 0.14255325 -0.13388613 0.0811387 -0.119657665
-0.15037414 -0.11930742 0.034066528 -0.06715459 0.070660375 -0.12490253 0.014900388 0.1033173
0.08660422 0.021678362 -0.14932565 -0.0050863996 0.015418965 -0.037200898 -0.09193288 0.16299962
0.14817847 0.17114305 -0.0126178935 0.030104969 -0.15969023 0.13914466 -0.055938873 -0.08306952
-0.067509666 0.029295057 0.08883014 -0.06490952 -0.06262137 0.05472432 -0.1419425 0.004222406
-0.10696152 0.08028187 0.04140382 0.083020315 -0.09969173 0.007593632 0.058504473 -0.013941984
0.17764471 -0.08620904 -0.031696554 0.15109596 -0.15164952 0.16361609 -0.17706342 0.08913571
-0.044419453 -0.0376542 0.09791574 0.06876354 0.14620654 0.14199488 -0.027984377 -0.07473303
-0.11203821 0.06893061 -0.090286866 -0.13375442 -0.046269145 -0.113592796 0.0596719 -0.00068276556
-0.06708171 0.049899157 0.11548987 0.10549483 0.07339236 -0.027897447 0.002880394 -0.095066525
-0.100433536 -0.08354479 0.042149656 -0.0078659775 0.1531027 -0.051793315 -0.014461039 -0.056077316
0.098400846 -0.025332307 0.1641804 -0.13099478 -0.13315094 -0.024363074 -0.0980855 0.13882467
-0.017681953 0.016449837 -0.017012654 0.03666457 0.13454099 0.062326048 0.037999094 -0.122528754
0.120320134 0.03622195 0.031398542 0.12140485 -0.0070578526 0.066333465 0.10150464 -0.034084946
-0.13900499 -0.1383169 -0.13735834 0.012026319 -0.16432057 0.001471617 0.011922099 -0.1388468
0.0596454 -0.09049786 -0.00399405 -0.14765675 0.034174547 -0.08931417 -0.15146522 -0.15603775
-0.041310675 -0.10566295 0.037697207 -0.022573194 0.16680169 -0.18793066 0.12630957 -0.14205092
0.13276306 0.0020579635 0.20471199 -0.08896584 -0.11916235 0.038850237 0.18493666 0.1377714

model.rnn.weight_hh_l1 f4 [160, 40]
00000000: 30ef 1c3e 5546 82bd 895e fd3d c92f 033e
00000010: a2b2 05be a640 b93a ba9b 16be 410b 073d
00000020: d2ec ea3d 697e 10bd 83f8 20be ac3a 293a
00000030: 1a54 db3d 9669 29bd 36ee b33c f196 18be
00000040: a30d 12be 4d19 f83d d419 1b3d 6fae d73d
00000050: 4de3 373e e0f5 ecbc 07a2 fe3d 671b 0abe
00000060: d09a a33d 47c9 f6bd 2ece ec3d d9f4 bbbd
00000070: d3bb 8f3d 58fb 1bbe e4a0 85bd 5c9c 38bd
00000080: 776e e4bc 21f7 d3bd 6757 533d 9459 113d
00000090: 583b bebd 3143 1b3d f448 c2bd 2796 60bb
000000a0: ec26 03bd 9299 d1bd 5ccf 3fbd 8cc3 1ebe
000000b0: 510c 003e ae07 1d3e 261e f83d c108 2abc
000000c0: dea6 783b ffad fd3c 6e02 c1bd 696a f1bd
000000d0: 68cd d43d c7ac 093e b487 e3bc ed99 14be
000000e0: 3c62 a23d f5db ddbd 2a33 fc3d 212e 963d
000000f0: d217 653d 5b5f afbd 0c4d 1c3e 36b7 1bbb
00000100: b9a1 c8bd 888a e7bd f8d9 f5bd 86d0 cc3d
00000110: c539 6c3a 7020 603d e4c8 a93d 01d8 eabc
00000120: 0766 c33d 86a4 a4bd 68cf 6ebd 11b9 29be
00000130: 162b 083e 7c13 1ebe 04c2 dcbd 0d25 4a3d
00000140: 907f 06be 1da4 133e 6400 b63d e52e 203e
00000150: 4423 283d 355d ffbd 7e1c 3abe aa9f 60bd
00000160: 7eae db3d 3d80 30bd 9a2d 27bd 85f8 aebd
00000170: c554 1b3d dd8a dd3d 88a3 463e b35c 46bd
00000180: 5bf5 bdbd 0058 983d 094b 94bc c0e0 183e
00000190: 3592 123e 4cf7 1d3d 642c f33d cc5c 4b3d
000001a0: 3a2b f03d b92c e53d 1d8f 643d 63b2 08be
000001b0: 85d4 a2bb 5cc9 efbd 11e8 4d3d 7acb 33bd
000001c0: d912 1e3e 138d b1bd 5c32 aabd 390d 033e
000001d0: abba da3d ef6f f9bd d21c 7fbd 2d73 bd3d
000001e0: 2590 0cbd ccdc c83c a32c 42bd cb80 053b
000001f0: ab30 473e c347 0e3e 7e0f 21bd 3424 6d3e
00000200: 4efa cb3d f924 2abd fbe0 11be cbf4 983c
00000210: 3629 ea3d 4844 92bc fcd5 85bc 16c8 98bd
00000220: fac5 c43d fe52 a73d eb18 2e3e b80b 5c3d
00000230: feb8 203e 9da2 3d3e d6b1 1cbb 923d c5bd
00000240: 4221 073e 732a 8bbc 032d 0bbd 70eb cbbd
00000250: c0ff f4bd 0717 1c3c 8138 5c3d b4fb b33d
00000260: 5acd acbd caea 58bc fadb 8ebc 1ba3 34bd
00000270: abc4 c93c a449 3fbd 17b7 023c ed0c 7a3d
00000280: fc93 563d bf69 94bd b171 113d e557 0b3e
00000290: 1b7f 90bd 0c4d 79bd dde8 8dbd ce5a ef3d
000002a0: b782 913d 687a 8abd c298 bfbd 94c7 0ebe
000002b0: 50e5 96bd b357 193d e7a9 debc 1f73 a7bd
000002c0: 4d9b 23bc 7abf 44bd caca a7bd 7c2b 023e
000002d0: 79d6 babc ddb7 583d 28da cf3d aec7 8fbc
000002e0: 21e2 513d 239a 20be 5de2 ecbd 6725 33be
000002f0: 73ae f2bd 944e f2bc 66bf 0cbe fce9 92bd
00000300: 171c a4bd 5ce3 203d e1af 43bd 8b9e 01bd
00000310: f77c ffbd 0238 903d e1e3 b4bd 58f1 eabd
00000320: 3b52 103e d140 0c3e ddc3 d63d 1c9f a03c
00000330: 87ef cebd 6e67 803d 5012 05be 056f 1abd
00000340: 0c69 10be a544 bcbd f713 c6bd 8f58 a53c
00000350: f452 24be 821a 80bb 8181 0ebd 6500 213e
00000360: 2bd1 84bd db29 0dbd a5c0 4a3e 6ef4 b5bd
00000370: bb6b ab3d 6923 a03a c981 843c a2d8 a3bd
00000380: 14b9 0fbd cb76 a5bd ab81 cbbd ef27 8bbd
00000390: 0434 3a3d 087f f2bd 0ccc a7bd d5e8 2d3d
000003a0: 3431 e73c 7e73 e6bd 4384 cb3d 4c65 993d
000003b0: 0c8f 33bd 501d b03d 5143 95bc 0337 a4bd
000003c0: 8f7c cfbd c1ce d0bc f7e9 32bd 43c7 303d
000003d0: d184 28be f281 f93d 0a2a 143e b165 1cbe
000003e0: e03a 013e 432f 313d aaff a73d 8e8c 133d
000003f0: 3c8c 083e 9e66 96bd a7cd bf3d 9cac 443d
0.15325618 -0.06361071 0.12371547 0.12811197 -0.13056424 0.0014133647 -0.14707842 0.032969717
0.11470951 -0.035276804 -0.157198 0.0006455581 0.107094005 -0.04136046 0.021964174 -0.1490133
-0.14263014 0.12114201 0.03786643 0.105313174 0.17957802 -0.028925836 0.12433248 -0.13487016
0.079885125 -0.12050109 0.11562763 -0.0917756 0.070182465 -0.15232599 -0.06524828 -0.04507099
-0.027884705 -0.103498705 0.051597025 0.03548582 -0.09288663 0.037905876 -0.09486571 -0.0034269185
-0.03201954 -0.10234369 -0.046828613 -0.15504283 0.12504698 0.15334961 0.12115125 -0.010378064
0.0037941257 0.030966757 -0.094242916 -0.11787874 0.10390741 0.13444816 -0.02777467 -0.14511843
0.07928893 -0.10832969 0.12314446 0.07333017 0.05593092 -0.085631095 0.15263766 -0.0023760325
-0.09796471 -0.113057196 -0.12004465 0.1000071 0.0009011294 0.054718435 0.0829027 -0.028667452
0.095409445 -0.08039193 -0.058303267 -0.16574503 0.13297686 -0.1543712 -0.10779193 0.04935174
-0.13134599 0.14418073 0.08886793 0.15642889 0.041049257 -0.1246895 -0.18174931 -0.054839768
0.10726641 -0.043091048 -0.040814973 -0.08543495 0.03792264 0.10817502 0.1939832 -0.04842825
-0.092753135 0.0743866 -0.018102186 0.14929485 0.14313586 0.03856592 0.11873701 0.049649045
0.11726995 0.11190171 0.055800546 -0.13349299 -0.004969182 -0.11708328 0.050270144 -0.043895222
0.15436877 -0.08669486 -0.083103865 0.12798013 0.10680135 -0.12179553 -0.062283345 0.09250484
-0.034317154 0.024519347 -0.04740585 0.0020370956 0.19452159 0.13894562 -0.039321415 0.23158342
0.09959851 -0.041539166 -0.1424598 0.018671414 0.114336416 -0.017854825 -0.016337387 -0.07460038
0.096080735 0.081701264 0.17001693 0.053722113 0.15695569 0.18519063 -0.002390971 -0.09630884
0.1319628 -0.016988015 -0.033978473 -0.099570155 -0.11962843 0.0095269745 0.053764824 0.08788243
-0.08437605 -0.013239572 -0.017438877 -0.044100862 0.024629911 -0.04670109 0.007978222 0.061047483
0.052387223 -0.07246732 0.035508815 0.13607748 -0.070554934 -0.060864493 -0.06929181 0.116872415
0.0710501 -0.067616284 -0.09355308 -0.1394332 -0.07367957 0.037437152 -0.027180625 -0.081762545
-0.009985757 -0.04803417 -0.08192976 0.127119 -0.022807347 0.05290972 0.10149032 -0.01755127
0.051241044 -0.15683798 -0.11566613 -0.17494737 -0.1184968 -0.029578485 -0.13744888 -0.07173535
-0.0801317 0.039279327 -0.047775153 -0.03164534 -0.12475007 0.07041933 -0.08832527 -0.11471814
0.14093868 0.136966 0.10486577 0.01960712 -0.1010428 0.06269728 -0.12995267 -0.037703533
-0.14102572 -0.091927804 -0.09671777 0.02018383 -0.16047269 -0.00390941 -0.034791473 0.15722807
-0.06485208 -0.034463745 0.1980005 -0.08884512 0.08370157 0.0012217584 0.016175168 -0.08000304
-0.035088614 -0.080792986 -0.099368416 -0.06794726 0.045459762 -0.118406355 -0.08193216 0.042458374
0.028221704 -0.11252497 0.09937336 0.07490024 -0.043837592 0.08599341 -0.018220576 -0.08018305
-0.101311795 -0.025489213 -0.043680158 0.04315878 -0.16456915 0.12182988 0.14469162 -0.15273167
0.12620115 0.043257963 0.08203061 0.036022715 0.13334745 -0.073437914 0.09365397 0.048016176

model.rnn.bias_ih_l1 f4 [160]
00000000: 0f17 b33d 36ac ebba e3ba 9a3d 644f 873d
00000010: 0557 febd 9ac3 233e 752e 803d 5df5 a4bd
00000020: 8503 073e 5b4f 143c c96b 28bd 55a2 d0bc
00000030: e200 283e dcad 073d 73ef ad3d dd7a 653d
00000040: e58a d43d 09af 91bc 1023 b63d a75a 5b3e
00000050: 1bb7 833e 96c2 843d b033 4d3e 5e09 a6bd
00000060: 40fd 1cbc ee91 1fbd 0d18 20bd bcdb d0bd
00000070: e3dc 8dbc bf9a 823d e804 683d e240 17be
00000080: ea90 6c3d 6e52 b4bc 5211 0b3d 3476 2fbd
00000090: 4df9 413b 9daf 12bd c7b2 f83d 347e 77bd
000000a0: 44da 7dbd 755c e4bd 3d71 86bd 4484 02be
000000b0: 48a0 83bd b90a 5f3d 39d8 8f3d 2140 9ebd
000000c0: 0e2c c93c edbf 83bc 56ab 50bd f62d 2e39
000000d0: 6de9 a9bc 8659 2f3e 76d3 e3bd 7f3a acbd
000000e0: c201 80bd 6ec9 2abe 18cc 93bd 8a2a c2bd
000000f0: f1a1 94bd 9c11 ff3d f746 1a3e 60b9 d73a
00000100: cb91 033e 9eea ea3c 4751 91bd ebc0 1e3e
00000110: 2f3a e4bd a57d 45bd f1e7 283d c442 773c
00000120: f5e0 25be c039 213e 43c2 0c3e 96cb cabd
00000130: c194 163e e34d 04bd afe9 1c3e 2579 bebd
00000140: 21ff b4bd 797a 023e 827d 29be 1a33 923d
00000150: 7187 01be 0666 443e b9ab 673d 2941 0fbe
00000160: ac61 53bc 0d6b 043e a236 df3c 7f54 fc3d
00000170: b3d7 593d 24f0 463e 5f17 463d b5b7 6a3d
00000180: 55c9 053e 3660 42be 1a36 8fbc 9a27 f2bd
00000190: c662 123d 8266 413c 27f2 193e 58cd bdbd
000001a0: 8edd ddbc d9f1 8fbd e9b8 13bd e221 3ebd
000001b0: a015 223e d57f c23d 022f d43d 2a3d a23d
000001c0: 3066 21be fe84 0d3d 5218 c3bb 72e5 c9bd
000001d0: 9da8 01bd 73fe ea3d 1b8c 4c3e a149 fdbd
000001e0: 680f 2f3d ed1a 753c fa93 9cbd 1387 dbbd
000001f0: 48d9 abbd bbc4 e53d ea60 1a3e 3df8 8abd
00000200: 0ba8 ccbd 05d8 0bbb 721c f7bb 2ffb 473e
00000210: b376 1cbd b858 9c3d 3cb3 8bbd 4497 1d3e
00000220: 1711 53bd dd08 473d 6e6a f33d 13c5 9cbc
00000230: e593 563d 6629 6b3d 1272 fabc 7046 b2bd
00000240: a52a fd3d 829a c1bd 8b34 15be cf48 173e
00000250: 5aa5 593c 2b4b 8fbd 485e 723b 18f0 2fbd
00000260: d21f 263e 7268 e0bd 3bb8 9dbd be99 773d
00000270: 7bb0 2bbd 614b 59bd 3a81 d53d 3c21 253c
0.087446325 -0.00179804 0.07555177 0.066069394 -0.124189414 0.15992585 0.06258861 -0.08054612
0.13184936 0.009052123 -0.041118417 -0.025468031 0.16406587 0.03312479 0.08492937 0.056025375
0.103780545 -0.017783659 0.088934064 0.214213 0.25725636 0.06482427 0.20039248 -0.081072554
-0.009581864 -0.03895753 -0.039085437 -0.10198161 -0.017317241 0.06377172 0.056645304 -0.14770845
0.05775539 -0.022011962 0.033952065 -0.042837337 0.0029598058 -0.03581201 0.12143474 -0.06042309
-0.061975732 -0.11150447 -0.06564567 -0.12745768 -0.064270556 0.054453585 0.07023663 -0.07727075
0.02455714 -0.016082728 -0.05094465 0.00016611055 -0.020741189 0.17123994 -0.11124317 -0.08409595
-0.06250335 -0.16678402 -0.07216662 -0.0948077 -0.0725745 0.124545306 0.15066133 0.0016458444
0.12848584 0.028676327 -0.070955805 0.1550328 -0.1114391 -0.048215527 0.04123682 0.015091602
-0.16199096 0.15744686 0.1374598 -0.09902112 0.14705183 -0.03230084 0.15323518 -0.0930045
-0.088377245 0.12742032 -0.16551784 0.07138653 -0.12649323 0.19179544 0.05656025 -0.139897
-0.012901705 0.12931462 0.02724773 0.12320804 0.053184222 0.19427544 0.048362132 0.057304103
0.13065083 -0.18982014 -0.017481852 -0.1182396 0.03573873 0.011804225 0.1503378 -0.09267682
-0.027083185 -0.07028551 -0.036065016 -0.046419032 0.15828562 0.09497038 0.103605285 0.07921822
-0.15761638 0.03455066 -0.005953827 -0.09858216 -0.031654943 0.114743136 0.19975321 -0.12367559
0.042739302 0.014960033 -0.07645412 -0.10719123 -0.083910525 0.11219164 0.15076032 -0.06785629
-0.09992989 -0.0021338474 -0.0075412327 0.19529413 -0.038199138 0.07634109 -0.068212956 0.15389735
-0.05152997 0.048592437 0.11885534 -0.019136941 0.052387137 0.057412528 -0.030571971 -0.08704841
0.123616494 -0.09453298 -0.14570825 0.14773868 0.013284052 -0.06996759 0.0036982466 -0.04295358
0.16223076 -0.10957421 -0.07701155 0.060449354 -0.04191635 -0.053050403 0.10425039 0.0100787245

model.rnn.bias_hh_l1 f4 [160]
00000000: 02ff 69bd f9d2 623d 8f26 da3d 53ba 6a3c
00000010: 84e2 723d 9866 d6bc a70d 0ebd 606a 243e
00000020: cc8a 1c3e b59f 0cbe 0baa 97bc 5e6b 813d
00000030: 7435 fbbb f891 e13d d97d 03bd 7e30 253d
00000040: e13e f2bc 62f0 073e 7ed1 2d3e e693 e53d
00000050: 22a5 0c3e 882e 973d 9b17 fc3d 81fb 213d
00000060: 9b75 c03d 5a85 12be 71e3 febd 01c5 3cbd
00000070: 5a33 f63d d942 443d b5b0 89bd 5c29 c43c
00000080: b8b7 ce3d 7241 dc3a 3838 393e 4fa1 913d
00000090: c7f2 013d ae32 873d e9d2 693e 4cb9 1cbd
000000a0: 71c3 103e 1ed2 72bd deb5 a63d a98e b5bd
000000b0: fef8 8a3c 0c95 90bd a405 953d b779 223e
000000c0: f7b7 8c3d 59ee 043e 01d1 d6bd c0ba f43d
000000d0: 94a3 e2bd 960b 563e 45ae 753d 6aae c03d
000000e0: ac40 e8bd 83e2 cd3d db88 b43b 5222 da3d
000000f0: d220 5fbd a58d b03d ef20 153e c9ea 0fbe
00000100: 9f8f 2ebc a4b2 7d3d e528 09be 532a 5fbd
00000110: 26c4 dcbd ceb2 c7bd 39c4 26be c34f 3abd
00000120: edd0 b73d b761 cdbd 49c4 adbc d0b0 203e
00000130: cd87 0abd 9c8f 45bd b3c6 553d 30da dd3c
00000140: 6cbb 0c3e 48e6 6b3d fa20 9d3c f5a4 a83d
00000150: 28f5 0bbe 91a5 b3bd 608d 81bd a0f9 a33d
00000160: 5c20 fb3d 161e 733d 70cc 1e3e 89d1 27bc
00000170: c454 493e b732 3bbd 6e3b 41be 3e3a 17be
00000180: e45a b0bd eb30 903d c66b ce3d a423 2fbd
00000190: d89b c8bd 73b6 433d 12a2 023e f9da 013d
000001a0: 3c33 f83d ab99 903d 5d41 2f3e 3cf1 253e
000001b0: 372d 923d 8669 dc3d dede 12be ab2b de3d
000001c0: b834 b93d 8b53 d43d a595 1a3e e042 95bd
000001d0: 843e cc3d 3eb6 83bd 87fb 1dbc 3883 13bd
000001e0: 8be2 213e ffd6 8bbd 514d b53d 1995 ee3d
000001f0: 20e4 48bd 3781 db3d c43d 763d 68d5 1bbd
00000200: c380 b2bc 5aa0 9abd 2678 113e 44b3 063c
00000210: a89b ec3d 76ea 623e 73c9 d3bd 8783 703d
00000220: 27f0 fe3d 93a3 323e 3f08 e83d 6b5e 443c
00000230: 4be1 593e aed7 183e f980 f43d d0c0 103b
00000240: 3ac3 7f3d 6ac7 1d3e e8da 8a3d 3693 d4bd
00000250: bba6 353e ee31 903d e559 133c a99e b6bc
00000260: 28e4 f5bd 9167 0d3e a0bd 683e c2e3 9cbd
00000270: 8bcc babd 2704 0c3e 4b5c 823c 6aea 63bd
-0.05712796 0.05537698 0.10651886 0.01432665 0.059298053 -0.026171967 -0.03468099 0.16056204
0.15287322 -0.13732798 -0.0185137 0.06319307 -0.007666284 0.110141695 -0.03210244 0.04032945
-0.029570999 0.13275293 0.16974446 0.1120985 0.13734868 0.07381922 0.1230919 0.039546493
0.093974315 -0.14308682 -0.12445725 -0.046086315 0.12021513 0.047915313 -0.06723157 0.023945503
0.10093635 0.0016804172 0.18087852 0.07110845 0.03172567 0.06601463 0.22834362 -0.03826265
0.14137055 -0.059282415 0.08140157 -0.08865101 0.016964432 -0.070596784 0.072764665 0.15866743
0.06871026 0.12981547 -0.10489083 0.11949682 -0.11066356 0.20902857 0.05998065 0.09408267
-0.1134046 0.10052969 0.0055094785 0.10651077 -0.05447466 0.086207666 0.14563344 -0.14054407
-0.010654359 0.061937943 -0.13394506 -0.054483723 -0.107796 -0.09750901 -0.1628579 -0.045486223
0.08975396 -0.10028403 -0.02121176 0.15692449 -0.033820916 -0.04823266 0.052191447 0.027081579
0.13743371 0.05759266 0.019180764 0.08234588 -0.13667738 -0.08771814 -0.06325793 0.080065966
0.122620314 0.059354864 0.15507674 -0.010242828 0.19661242 -0.045702662 -0.18870327 -0.14768311
-0.08611086 0.0704058 0.1007915 -0.0427586 -0.0979535 0.04778142 0.12757137 0.03170297
0.12119147 0.0706056 0.17114778 0.16205305 0.0713753 0.107623145 -0.1434283 0.10848173
0.090432584 0.10367497 0.15096147 -0.07288146 0.099728614 -0.06431244 -0.009642488 -0.03601381
0.15809076 -0.068281166 0.088526376 0.11649532 -0.049045682 0.10718005 0.060117498 -0.038045317
-0.021789914 -0.07550116 0.14205989 0.008221451 0.115531266 0.22159752 -0.10341158 0.058719184
0.12448149 0.17445211 0.11329698 0.011985402 0.21277349 0.14926025 0.11938662 0.0022087581
0.062442042 0.15408102 0.06780034 -0.10379641 0.17739384 0.07040773 0.0089936005 -0.022292452
-0.12006408 0.13809039 0.22728586 -0.07660629 -0.09121045 0.13673459 0.01591315 -0.055643477

exp_avg f4 [1, 40]
00000000: 5890 b4b9 a94e 093a 7bbc c739 b6c7 bc39
00000010: ad40 213a 159d 8db9 21df aaba b947 953a
00000020: aaf4 b5ba cf22 08b9 4c17 e3ba b86a edba
00000030: 9590 cbba 3152 efba e386 863a 023a 393a
00000040: 41e8 adba 58ea 583a 4906 ca3a 5b85 783a
00000050: 0c13 dc3a 54ca f639 8a62 89ba c96b 183a
00000060: 0b79 1237 7a88 a8b9 a4d7 85b8 81c4 243a
00000070: d966 c5ba 680f 93ba 301c 9bb9 12d5 1a39
00000080: b63a 9c39 f544 8c3a d908 daba d430 bb3a
00000090: 10aa d5b9 7190 8f39 39d1 beba d1c5 2e3a
-0.0003443982 0.00052378565 0.00038096667 0.0003600695 0.00061513 -0.0002701065 -0.0013036468 0.0011389173
-0.001388212 -0.00012982938 -0.0017325669 -0.001811347 -0.001553076 -0.0018258748 0.0010263588 0.0007065834
-0.001326807 0.0008274666 0.001541325 0.0009480321 0.0016790344 0.00047071523 -0.0010481637 0.0005814401
8.730461e-06 -0.0003214514 -6.3821004e-05 0.0006285385 -0.0015060558 -0.0011219801 -0.00029584905 0.0001476596
0.00029798382 0.0010701703 -0.0016634717 0.001428152 -0.00040753232 0.00027382703 -0.0014558203 0.000666705

exp_avg_sq f4 [1, 40]
00000000: 8d72 9335 c662 3935 c62b c135 f45d 4735
00000010: bfbe 8c36 c378 c335 cfeb 7836 278a 7036
00000020: 2ea1 eb36 8351 b434 fe36 0a37 eb52 4c37
00000030: ebe4 3737 6851 5937 d1aa 9536 465d 9636
00000040: 18c7 2637 685a 2b36 c6a7 1137 8c55 bb36
00000050: 6b15 2037 d43b d536 0a87 d936 c987 2636
00000060: e1d6 2136 decc 3135 ee02 a134 baf0 6c35
00000070: 16c6 2a37 f861 6b36 b81a 7e33 a2e1 8d33
00000080: db30 a835 86cd 7236 615f 2637 b82f 2537
00000090: e85f 3335 c58a 8735 2432 2237 7b6a 2a36
1.0985692e-06 6.9061605e-07 1.439236e-06 7.4269997e-07 4.194531e-06 1.4563778e-06 3.7092138e-06 3.5843202e-06
7.0223095e-06 3.358692e-07 8.238245e-06 1.2178653e-05 1.0960949e-05 1.2953162e-05 4.4604317e-06 4.481207e-06
9.940726e-06 2.553361e-06 8.681736e-06 5.5829933e-06 9.54173e-06 6.3548596e-06 6.4828246e-06 2.4814965e-06
2.4115946e-06 6.623576e-07 2.9990719e-07 8.8267154e-07 1.017891e-05 3.5074754e-06 5.9163284e-08 6.6068665e-08
1.2531194e-06 3.618044e-06 9.916578e-06 9.845877e-06 6.682226e-07 1.0098671e-06 9.667627e-06 2.5393954e-06

exp_avg f4 [1, 40]
00000000: c364 733d 0ccf b6bd 92d2 1fbd c47a f6bc
00000010: eb6e 32be 46b9 ff3c 8c88 4d3e 9429 4abe
00000020: 5f99 623e ed68 173d 43b6 8c3e e4cd 8c3e
00000030: 1736 6d3e 1d9f 8e3e 48e7 3bbe b0eb febd
00000040: 5736 613e e412 1dbe b2b1 87be 8cad 13be
00000050: 12fa 84be b0a3 24be 4ae4 223e 0b05 ebbd
00000060: 8315 b13b 1a4e 2d3d 1072 363c dd55 dbbd
00000070: c9ed 783e d1fc 2e3e afe4 1b3d 8092 16bc
00000080: d10a 0cbd 1c32 47be 87c9 893e d9bf 60be
00000090: 162c 823d 8ad8 1dbd 1385 633e 57c0 e8bd
0.059422266 -0.0892621 -0.039019175 -0.030087836 -0.17425124 0.031216275 0.2007162 -0.19742423
0.22128819 0.0369653 0.27482805 0.27500832 0.23165165 0.2785577 -0.18349946 -0.124472976
0.21993385 -0.15339237 -0.26502758 -0.14421672 -0.25972039 -0.16078067 0.15907398 -0.11475571
0.0054041757 0.04231081 0.011135593 -0.107097365 0.24309458 0.1708863 0.038059887 -0.009190202
-0.034190003 -0.19452709 0.26911566 -0.21948184 0.06356065 -0.038536586 0.22218733 -0.11364811

exp_avg_sq f4 [1, 40]
00000000: e39d 393c f9d5 9c3c bd20 c93b 456a b43b
00000010: 2e35 943d aa9d 933b 4873 e33d e38a ca3d
00000020: f959 103e 5be3 c03b 1934 553e 190c 613e
00000030: 5ecd 223e 349e 6a3e 4588 c83d 2344 3b3d
00000040: 0efc 0f3e 7d7a 8c3d 6b1c 473e efae 8d3d
00000050: 7eaa 463e 189b 813d 2e49 ba3d 4a8a ed3c
00000060: c975 8e3b 2aa8 093c 3df2 f839 f19d fb3c
00000070: da8c 2a3e a172 ad3d b394 4e3b cf3c f539
00000080: 752e 8d3b c269 ca3d 87f9 4b3e f1fe 153e
00000090: 5320 463c d10a 8c3b 01e2 123e 589c 143d
0.011329147 0.019144999 0.006137936 0.0055058324 0.07236706 0.004504879 0.111059725 0.09889772
0.14096822 0.005886478 0.20820655 0.21977271 0.15898654 0.22911912 0.09791616 0.045719277
0.14060995 0.068593 0.19444434 0.069181316 0.19400975 0.0632841 0.09095989 0.028996605
0.004347537 0.00840191 0.00047482728 0.03071496 0.16655293 0.08469129 0.0031521737 0.00046775347
0.0043085166 0.09883453 0.19919406 0.14648034 0.012092668 0.0042737504 0.14344026 0.036281914

exp_avg f4 [1, 40]
00000000: 38e5 89ba a988 eb39 c7da f4b9 6188 f1ba
00000010: 885d 403c f517 6b39 c2cd c3ba 5a16 9a3b
00000020: 69c0 89bb aa26 bfbb b47e 59bb 9b8f 08bb
00000030: 184c 0dbb a80b 05bb 2799 a63b b3d7 9e3b
00000040: 3dfd 93bb c74a b73b abf0 833b 9b1d 333b
00000050: 71b1 4c3b 2921 5f3c 6de4 60bb 5890 a13b
00000060: 6e74 873a be7d bc39 3b80 f8b8 107d b03a
00000070: b3ab 8fbb 82e6 50bb 29db 9a3a 47f7 6eba
00000080: 262e 7739 6576 763b 9435 62bb 8312 4c3b
00000090: 47a7 cfb9 dfd6 953a e0ea 2abb b0eb 373b
-0.0010520583 0.00044924513 -0.00046702308 -0.0018427485 0.01174105 0.00022420271 -0.001493864 0.0047023715
-0.0042038453 -0.0058334665 -0.0033187093 -0.0020837549 -0.0021560248 -0.0020301137 0.005084175 0.0048474907
-0.0045162723 0.005593631 0.0040264926 0.0027330879 0.0031233693 0.013618746 -0.003431584 0.004930537
0.0010334381 0.0003595184 -0.00011849446 0.0013465006 -0.004384482 -0.0031875675 0.0011814582 -0.00091158267
0.00023572947 0.003760719 -0.0034516798 0.0031138964 -0.00039606748 0.0011431834 -0.0026079938 0.0028064065

exp_avg_sq f4 [1, 40]
00000000: a59b 2b3a 8386 3f39 d101 5c3a eea3 8539
00000010: 1b32 c43a 8057 493a 8645 e539 2ed4 153a
00000020: bb19 c43a e001 3e39 6a04 8b3a 45e1 3f3b
00000030: 6fd5 5b3b b7ea 573b 28fe 3a3a 8a0d 0a3b
00000040: 6707 4f3b 56f4 a539 26e1 c63a 2db4 013b
00000050: 77e4 fc3a 0299 373b 8ba2 f63a a424 973a
00000060: c8af c03a 6dba 8439 370b 4439 1ddf 0439
00000070: bac2 373b a855 1d3a 1689 5237 5fdb af37
00000080: 3fca 403a 180c 173a 9d5d 103b f6ac 413b
00000090: 82b4 8c39 4732 1e3a 7d23 4a3b 350b 523a
0.0006546325 0.00018265289 0.00083926046 0.00025489874 0.0014968546 0.000768058 0.00043730083 0.0005715516
0.0014961282 0.0001812051 0.0010606174 0.0029278558 0.0033543964 0.0032946297 0.0007133209 0.0021065199
0.0031590106 0.00031653297 0.0015173301 0.001979123 0.0019294162 0.0028014784 0.0018816752 0.0011531305
0.0014700824 0.000253159 0.00018696194 0.00012671617 0.002803965 0.00060018385 1.2548893e-05 2.0963778e-05
0.0007354356 0.0005761995 0.0022028454 0.0029552556 0.0002683737 0.00060347136 0.0030843907 0.0008012534
