research/lightning_logs/version_5/checkpoints/epoch=4-step=250.ckpt (torch, 300447 bytes, 33 tensors)

model.param_proj.proj.0.weight f4 [1, 40]
000000 86 b6 a4 3d 10 d5 39 bd 56 a8 79 3e bc ff 6d 3e
       0.08042626 -0.045369208 0.24380621 0.23242086
000010 21 89 76 3d dd 21 14 be 19 a0 39 3e a3 3b e4 bc
       0.06018937 -0.14466043 0.18127479 -0.027860468
000020 c8 82 47 3d 5e b8 10 bd 6f 37 bc bc 10 33 17 3e
       0.048708707 -0.035332076 -0.022975652 0.14765573
000030 27 e4 01 3d b7 46 58 bd 99 0e 76 bd c5 a8 10 3e
       0.031711724 -0.052801814 -0.060072515 0.1412688
000040 15 1c 4b bd fc 74 14 be c1 48 39 3e d9 60 32 3e
       -0.049587328 -0.14497751 0.1809416 0.17419757
000050 14 ea 04 bd ac d5 76 3d 4a 5f 74 be 4a 7c de bd
       -0.032449797 0.060262367 -0.23864475 -0.1086355
000060 16 f3 51 3b 2b 8e 12 be 37 40 47 be 46 fe 8a 3d
       0.003203576 -0.14312045 -0.1945809 0.0678678
000070 cb a8 89 3d 46 4f 35 3d 5a 62 c1 3d 12 2b 7a 3d
       0.06721648 0.044265054 0.09442587 0.06107623
000080 19 46 f6 3d cf f9 98 3d c3 dd 19 be 8a 08 14 be
       0.12025089 0.07469522 -0.15026002 -0.14456382
000090 fb 7b f6 3b 48 6c 1b be 21 75 0f 3e 27 7a 9d 3d
       0.007522104 -0.15178025 0.14009525 0.07689314

model.param_proj.proj.1.weight f4 [1, 40]
000000 b0 a0 f0 3d 13 6b de 3d d7 1e 2d 3e 3d ab 06 3e
       0.11749399 0.108602665 0.16906296 0.1315126
000010 de 5d 95 bd 15 fe 0a be ed ed a8 3d 0e 45 f2 3d
       -0.07293294 -0.13573487 0.08248506 0.118295774
000020 a7 b3 95 3d 4f e6 13 be a8 7f 35 3e f4 49 fc 3c
       0.073096566 -0.14443325 0.17724478 0.030796982
000030 2b 9c 3a bc 1e 78 bb 3d 6d 3c 03 be 97 fd 34 3b
       -0.011389772 0.0915377 -0.1281602 0.0027616972
000040 44 75 e1 3d ec e6 b4 bd 7b 84 c8 3d 75 e4 3a 3d
       0.11008695 -0.08833107 0.09790894 0.04562803
000050 47 ce 31 3d cd b3 00 be fa 64 06 bd a5 52 9c bd
       0.043409612 -0.12568589 -0.032811143 -0.07632951
000060 4f 77 ee 3d 20 eb 13 be 48 c8 d9 bc a1 c4 ea 3d
       0.1164385 -0.14445162 -0.02658476 0.11463285
000070 b4 a5 d4 3d 0c 15 29 3e 35 a6 f8 3d d8 54 14 bd
       0.10383168 0.16511935 0.121410765 -0.036213726
000080 69 77 4d 3d 64 ef 06 bd 9f ce 6e 3d fb 38 fb bd
       0.050162707 -0.032943144 0.058302518 -0.122667275
000090 46 a4 3f 3e 3a 86 bc bd 89 7e af 3d a9 d6 49 ba
       0.18715009 -0.09205289 0.085690565 -0.00076995284

model.param_proj.proj.2.weight f4 [1, 40]
000000 cf d3 80 be 17 6b 44 be 0f f6 42 be 39 a7 c5 bc
       -0.25161597 -0.19181477 -0.19039176 -0.02412759
000010 4a 50 07 3e 9a 7b c4 3d e7 1f 18 3d 58 2d 6a 3d
       0.13214222 0.095938876 0.0371398 0.05717215
000020 91 5c 07 be fe ad f3 3d 5a 55 5f bd 7a 18 66 3e
       -0.13218905 0.11898421 -0.054524757 0.22470275
000030 91 97 e0 bd 99 6f f4 bd 5e 1d dd bd bf d1 34 be
       -0.10966409 -0.11935348 -0.10796617 -0.17658137
000040 b3 59 6c be f7 91 8e 3e 89 c4 d4 bd f6 55 2b be
       -0.23081093 0.27845737 -0.103890486 -0.1673201
000050 b7 8c 67 3e 3f 45 54 3e 85 bd 1d 3e 59 d0 13 3e
       0.22612272 0.2072954 0.15404327 0.14434947
000060 09 d6 af bc e9 af 1e 3e c3 92 09 be 67 3c 22 be
       -0.021464365 0.15496792 -0.13434891 -0.15843354
000070 0c 97 4c 3e 04 49 82 3d 5d ba 87 3d 7f 12 eb 3d
       0.19979495 0.06361583 0.06627343 0.11478137
000080 87 65 22 be 6c 15 0b be ab 2a 5f 3e 6d fc 65 3e
       -0.15859042 -0.1358239 0.2179362 0.22459574
000090 37 75 fb bc 51 d9 80 3e 7d d5 74 be 77 33 41 3e
       -0.03069554 0.251658 -0.23909564 0.18867289

model.rnn.weight_ih_l0 f4 [160, 21]
000000 22 11 ba bc 5c 72 34 3e 9c 64 46 3e 86 1d 4a 3e
       -0.022713248 0.1762175 0.19374317 0.19737825
000010 2c 8d 6f 3d b1 3b 5f bd f3 c3 13 3e 50 4b ff 3d
       0.05848424 -0.054500286 0.14430217 0.124655366
000020 2e e9 09 3e 6f 84 06 3e 78 6f 38 3d 26 b6 5e 3e
       0.13467857 0.13136457 0.04502818 0.21749172
000030 47 ba b0 3c 9f 11 44 3c a1 63 40 3d c3 f4 27 3e
       0.021573199 0.011967092 0.046970014 0.16401963
000040 fb f3 4f be ed 8d e2 bd 00 70 8b 3e 59 39 2d bc
       -0.20307915 -0.110622264 0.27233887 -0.010572755
000050 2c fc 74 3e 2e 49 29 3e 7f 90 61 3d c9 8e 81 3e
       0.23924321 0.16531822 0.055069443 0.2530425
000060 fc 4c 2f bb 76 0e 21 3e 26 76 6c 3e 8a ac 68 3c
       -0.0026748767 0.15728173 0.23091945 0.014201293
000070 ce 2c 3f 3e 7d 8e dc 3d 90 bd 48 3e c2 3a 60 3e
       0.18669435 0.10769365 0.19603562 0.21897414
000080 eb 77 2a bb df e0 ad bc 25 03 61 3e 1c 03 fb 3d
       -0.0026011418 -0.021225391 0.21973856 0.122564524
000090 ea 9d 98 3d 33 1b 9c 3c 71 5c fe bc 45 10 91 3e
       0.07451995 0.019055938 -0.031049939 0.28332725
0000a0 64 61 6d be ba 3a 5f 3e aa 5b ae 3d 0f d9 23 3d
       -0.23181683 0.21799746 0.08513577 0.040001925
0000b0 40 51 57 3e bb 57 8e 3d 2a 3b b3 bc a2 8e bd 3d
       0.21027088 0.06950327 -0.021878798 0.09255721
0000c0 78 0e 73 3c 1a 22 4b 3d f5 9f 20 3e f1 c5 d8 3d
       0.014834993 0.04959307 0.15686019 0.10584629
0000d0 52 c6 0c 3d 09 d0 6c 3e ef 95 65 3e ce d2 28 3e
       0.03436882 0.23126234 0.22420476 0.16486666
0000e0 58 44 b8 3d 95 a8 d1 3d 5c 7f 8a bc da 3f fe 3d
       0.089974105 0.102372326 -0.016906433 0.124145225
0000f0 1e bf df bc 5d 42 05 be 3c 1e 04 3e 34 05 01 3d
       -0.027312811 -0.13013597 0.12902158 0.031499103
000100 ec bf 53 3d 86 53 3d 3c 71 09 2e 3d 54 d5 1b bd
       0.051696703 0.011555558 0.042489473 -0.038045242
000110 7f 46 e9 3d 7b 85 79 3e 3d a9 87 3d 77 33 84 3c
       0.11390399 0.24367325 0.066240765 0.016137822
000120 40 41 a2 3d 04 41 fc 3d d4 48 42 bd d6 b5 fd 3d
       0.07922602 0.12317088 -0.047432736 0.12388198
000130 fa 32 59 3c 52 f2 e0 bc d5 86 e2 3d 5d d4 51 3b
       0.013256783 -0.027459297 0.110608734 0.0032017448
000140 a9 ae a6 3d 2c 22 b8 bb b4 bf 01 be ac 86 70 bc
       0.081387825 -0.005619308 -0.12670785 -0.014680546
000150 fa 47 68 3e 01 65 bf 3d e2 5c 5e 3e d5 06 03 3e
       0.22683707 0.09345437 0.2171512 0.12795575
000160 ef 84 51 3d cf d6 aa 3b 87 81 6c 3e c8 7e 8e 3d
       0.051152166 0.0052135955 0.23096286 0.06957775
000170 6f 38 15 3e b1 04 6b bd b0 ca 42 3e 95 6b 53 3e
       0.14572309 -0.05737752 0.19022632 0.20646508
000180 6f 19 00 3e 2c 71 37 bd 63 71 00 bd ea 74 0e bd
       0.12509702 -0.044785663 -0.031358134 -0.034779467
000190 e4 36 81 be 64 3d b4 3d bb fe c2 3d e7 05 5e be
       -0.2523719 0.08800772 0.09521242 -0.21681939
0001a0 98 9b 14 3e 75 c8 33 3e da 4a 50 3e c7 c6 cc 3d
       0.1451248 0.17556937 0.20341054 0.09998851
0001b0 59 0b f8 3d bb c2 63 3e aa f1 ff 3d a0 a9 ad bc
       0.121115394 0.22242253 0.12497266 -0.021199048
0001c0 a2 0a 80 bd 34 34 f5 3d a2 19 22 3d fa ba 39 3e
       -0.06252028 0.119728476 0.039575227 0.18137732
0001d0 b9 55 be 3d 77 c4 3f 3d 30 a0 09 bd a3 68 23 3e
       0.09293694 0.046818223 -0.033600032 0.15957884
0001e0 58 c3 5e bd c2 ed 8b bc 3b d2 97 bd be ff 35 3e
       -0.054385513 -0.017081145 -0.07413145 0.17773339
0001f0 8c 4d b4 bd 83 c5 f1 3d fe 67 93 3c 36 54 2c 3e
       -0.088038534 0.118052505 0.017993923 0.16828999
000200 86 b9 51 3d e4 3a bd 3d 3c a9 2d 3e 50 e4 3e 3e
       0.05120232 0.09239748 0.16959089 0.18641782
000210 ed da 43 3d 48 d8 ee bd 78 3c f0 bd 1d bc 0b 3e
       0.047816206 -0.11662346 -0.117302835 0.13645978
000220 1f 35 de 3d 54 bd b8 bd 0e c5 95 3d d4 23 91 3d
       0.10849976 -0.090204865 0.07312976 0.07086912
000230 97 89 fd bc 68 74 81 3d 6e 98 14 be 83 c3 e8 3d
       -0.030949397 0.06321031 -0.14511272 0.11365416
000240 7e fa 5a 3e fb 7c 49 3d 7c af a7 bd 74 9d df 3b
       0.21384618 0.049191456 -0.08187768 0.00682419
000250 aa cf 8d 3d 16 33 64 3e 3a dd 45 3e 57 bd 81 3e
       0.069243744 0.22285113 0.19322672 0.25339767
000260 8f 8a 80 3e d5 1f 44 3e 5f c7 2e 3e f2 4d 3d 3e
       0.25105712 0.19152768 0.17068242 0.18486765
000270 3e 1b 58 3c b1 fe 3a bd 8b b9 00 bd 5b 19 1d bb
       0.013190089 -0.04565305 -0.031426948 -0.0023971412
000280 3f e2 6c 3e 6c aa 3a bd 17 4d 46 3d 4f c9 78 bd
       0.23133181 -0.045572683 0.048413362 -0.060738858
000290 cf ca 39 bd 80 24 77 3e a6 e5 4b be c9 e1 8c 3d
       -0.04535943 0.24135017 -0.19911823 0.068790026
0002a0 1d 62 64 3e 83 4b 1c bd 03 f7 b4 3d a9 0c 52 3e
       0.22303052 -0.03815795 0.08836176 0.20512642
0002b0 e0 f2 7f bc 1a 1b d2 3b e8 ec 62 3e e2 ab 2f 3c
       -0.015621871 0.006411922 0.22160685 0.010722132
0002c0 18 80 49 3e 26 10 5c 3e 22 c8 96 3d 44 1a 0c bd
       0.1967777 0.21490535 0.07362391 -0.034204736
0002d0 43 e7 48 bd 7b 35 a3 3d ca c3 9c 3d ad d4 67 bd
       -0.049048673 0.07969185 0.07654531 -0.056599308
0002e0 c2 8c bd bb 90 3a 18 bd 83 b0 53 3e fc 97 a2 3d
       -0.005784602 -0.037165225 0.20672803 0.07939145
0002f0 fe 77 48 3e 9e b4 59 3e 59 1e 61 3e a8 73 92 3e
       0.19577023 0.21260306 0.21984233 0.28603864
000300 4c 4a 73 3e 4e 60 ca 3d 9a 43 74 3e 31 f0 58 3e
       0.23758811 0.0988165 0.23853913 0.21185376
000310 96 76 d8 bc 34 3d 6c 3e 9a 69 6f 3e 53 62 85 3e
       -0.026423734 0.23070222 0.23380128 0.26051578
000320 76 06 95 bc 71 c3 1b 3e d9 2c 60 3c 7e 56 b1 3d
       -0.018191557 0.15211274 0.0136825675 0.08659075
000330 64 97 45 3e 6a d4 0f 3b bc 11 39 3c 37 76 38 3e
       0.19296032 0.0021946677 0.011295732 0.18013845
000340 d4 4f 16 be 65 72 04 3d 35 27 59 3d eb 7d ce 3d
       -0.1467889 0.032335658 0.053015906 0.10082611
000350 ee 14 bc 3d 37 74 ff bd c7 79 82 3d e9 0d 1b be
       0.091836795 -0.12473338 0.063708834 -0.15142025
000360 5e af 7b bd 19 57 93 bd 5a 58 4b bd 07 58 39 bd
       -0.06144654 -0.07194347 -0.049644805 -0.045249965
000370 58 6e 06 3d 1b 0e ba bc 21 2d ab bd 43 fa ac bd
       0.032820076 -0.022711804 -0.08358217 -0.08446171
000380 d2 6e 19 3c 47 a7 cf bc 69 2a 57 bd 68 af d8 bd
       0.0093648005 -0.025348319 -0.05253068 -0.10580331
000390 95 d5 1e 3e c6 14 c6 bb 4c 23 1d bd cf da 85 3e
       0.15511163 -0.006044957 -0.03836374 0.261435
0003a0 f7 28 bf 3d ae de 6f 3d 46 0c 72 3e 88 c2 09 3d
       0.09333985 0.058561973 0.23637494 0.033632785
0003b0 4d 04 08 3e 1e fd 03 3e a3 45 f5 3d cc 31 7c 3e
       0.1328289 0.12889525 0.11976173 0.24628371
0003c0 6e ec 18 3e 9e be 4c 3d 6c 16 48 3d c2 e9 5f bd
       0.14933941 0.049986474 0.04884951 -0.05466629
0003d0 75 1b 21 3e 8d 3e 0b 3e bd ac ab 3a 07 72 b5 bd
       0.1573313 0.1359808 0.0013097745 -0.088596396
0003e0 99 1d a6 3d 6e 04 6a 3e a5 e8 8a 3d ef 72 39 3c
       0.08111114 0.22853252 0.06782655 0.011318906
0003f0 27 a5 43 3d 86 cf 8a 3d 58 db 97 3d 22 d1 14 3e
       0.047764923 0.06777863 0.074148834 0.14532903

model.rnn.weight_hh_l0 f4 [160, 40]
000000 f3 6f 02 3c 9d 43 05 3e 67 88 99 3d 28 35 05 bc
       0.007961261 0.13014074 0.0749672 -0.008130349
000010 9f d0 14 be 8a b2 dd 3c 38 8c a7 39 ea d9 da bd
       -0.14532708 0.027062673 0.00031957193 -0.10686095
000020 73 eb 98 3d 6f 3f 13 bd c4 ad e9 3d 46 31 e7 3d
       0.074667834 -0.035949167 0.11410096 0.11288695
000030 37 18 2c 3e d9 08 ec 3d 76 d3 83 3c 61 80 f0 3d
       0.16806112 0.11525125 0.016092043 0.11743236
000040 8f 8f e0 3d d3 8e 9c bd 06 a8 b9 bd bb c4 44 3d
       0.10964882 -0.07644429 -0.09065251 0.04803918
000050 f6 cd 2a bd ff ab 2c 3e 73 ff 85 3d a8 65 59 3d
       -0.041700326 0.16862486 0.06542864 0.053075463
000060 5e 1e 4a be aa 3a a7 3d 29 3c 31 3d 0d 0d 80 3d
       -0.19738147 0.08165486 0.043270264 0.06252489
000070 87 13 84 ba a2 09 e0 3d 13 6c 90 3d 3e 48 1a be
       -0.001007662 0.10939337 0.070518635 -0.1506662
000080 b0 4b f0 bd ea 10 e5 bc 64 d4 d7 3d e2 64 2e 3e
       -0.11733186 -0.027962167 0.10538557 0.17030671
000090 1a 0e 6d bd 2d df 08 3e 07 c8 80 3d 06 ca 40 3d
       -0.057874776 0.13366385 0.06288152 0.047067665
0000a0 78 e6 1d 3d e3 53 c3 bb 93 6e 25 3e 6f a2 da 3d
       0.03854987 -0.005960928 0.16155462 0.10675513
0000b0 3f ea 52 bd 7b 74 63 3d a8 27 00 3e 39 9c 85 bc
       -0.051492926 0.055531006 0.12515128 -0.016309844
0000c0 c7 7c 79 3d 4d 7d 20 be bc de df bc ce 7a 5f bd
       0.060910013 -0.15672798 -0.027327888 -0.054560475
0000d0 e5 5f cc ba 7f b1 52 3d c4 bb 03 3e 88 86 dd bc
       -0.0015592544 0.051438805 0.12864596 -0.027041689
0000e0 97 62 79 3c b9 ce fb bd cf a8 05 be 3e 70 34 be
       0.01522126 -0.122952886 -0.13052677 -0.17620942
0000f0 48 e7 80 3d 0c 82 9e bd 86 ee 5f bc 39 3b 5a bc
       0.062941134 -0.07739648 -0.013667708 -0.013319784
000100 42 af a5 3d 50 e3 0c 3e 8a 32 7f 3d 0d ed 77 bd
       0.080900684 0.13758588 0.062304057 -0.060528804
000110 30 6f a4 3d 76 de 3a 3e 80 13 20 bc db e2 0d 3c
       0.0802902 0.18248925 -0.009770274 0.008660044
000120 f0 89 3b 3c d6 67 b9 bd 2e 93 a5 3d 11 12 5e 3e
       0.011446461 -0.09053008 0.08084713 0.2168658
000130 f3 5e be 3d f9 2d f1 3d c6 09 42 3e 1b 53 3b 3e
       0.09295454 0.11776347 0.18949041 0.18293421
000140 59 c8 04 3e 8b 33 1b 3e a2 0e 1c 3d e0 de 39 be
       0.12967052 0.15156381 0.038099892 -0.18151426
000150 f4 2a 8d bc 2e 82 65 3d fc b4 77 bd 33 c4 26 be
       -0.017232396 0.056032352 -0.060475335 -0.16285782
000160 ed 0f 3c be 22 94 07 3e a7 3e bf 3d 7b 81 71 3c
       -0.1836545 0.13240102 0.09338122 0.014740343
000170 3c 98 2b 3e 08 85 53 3d b2 6a e5 bd 2b 33 bb 3d
       0.16757292 0.05164054 -0.11201991 0.09140619
000180 92 49 c2 3d 4c 91 f5 ba b2 8e c7 3d 34 a8 0b 3e
       0.09486689 -0.0018735318 0.09744014 0.13638383
000190 7b 48 ad 3d 2b 9f 06 3e ce 27 07 be ec e8 4a 3d
       0.0846109 0.13146655 -0.13198778 0.049538538
0001a0 08 53 0e bd 21 b5 8f bc 8d c4 e5 3d e3 85 a6 bd
       -0.034747154 -0.017542424 0.1121913 -0.081310056
0001b0 53 26 1c be b3 5e 9c 3d 9d 7a c1 bd 81 f4 1c be
       -0.15248995 0.0763525 -0.09447215 -0.15327646
0001c0 89 39 c5 3d a9 46 4f bc 5d a2 17 3e ae 30 29 3d
       0.096301146 -0.012651124 0.1480803 0.04130619
0001d0 bb e9 30 3e ee 91 e9 3d d0 b1 02 be b9 01 ec 3d
       0.17276661 0.11404787 -0.12763143 0.11523766
0001e0 1c 03 82 3d bc d2 e8 bc a8 c6 68 3d 9f e6 6c 3b
       0.06348249 -0.028420798 0.05683008 0.0036148203
0001f0 71 06 da bd 12 c9 ee 3d 21 8f 99 bd d0 e0 b7 3b
       -0.1064576 0.11659445 -0.07498003 0.0056115165
000200 87 51 23 bd 6c ad af 3d 81 b2 25 3d 34 89 3e bd
       -0.039872672 0.085779995 0.040453438 -0.046517566
000210 f7 7b f3 3d 73 82 37 3d 15 93 f6 bd 2a 64 18 be
       0.11888879 0.04480214 -0.120397724 -0.1488196
000220 0f 05 0b be a1 ba 00 be 9c 94 19 3d 63 50 9e bd
       -0.13576148 -0.12571193 0.03749524 -0.07730176
000230 ec 33 1f be 2f a3 65 3d aa 14 2c 3d b4 fd 05 be
       -0.1554715 0.056063827 0.042011894 -0.13085061
000240 9b bc 47 be 8c e2 83 bd 4b e8 73 bc 60 d5 30 3e
       -0.19505541 -0.06439695 -0.014886926 0.17268896
000250 ed 59 e6 bd bd 63 85 3d c1 b6 f2 3d f9 de a0 3c
       -0.11247621 0.06513164 0.11851264 0.019637572
000260 4b db 31 3d 4f 4b 5e bd 41 a1 f1 bd cd f9 34 be
       0.043422025 -0.05427104 -0.11798335 -0.17673416
000270 15 85 19 bd 01 67 df 3d 55 8e d4 3d 76 3a 3d 3e
       -0.037480433 0.10908318 0.1037871 0.18479332
000280 07 6f 4a 3e a0 6e fa 3d 4f fb 48 3e 60 79 cc bd
       0.19768916 0.12228131 0.19627117 -0.09984088
000290 a5 ff ed bb ba 34 21 3e 41 1b 82 3c 9a 04 50 be
       -0.007263141 0.1574277 0.015882136 -0.20314255
0002a0 08 e0 91 3d 94 c2 8e 3d da c9 2f be d2 80 c0 bc
       0.07122809 0.069707066 -0.17166844 -0.023498926
0002b0 1f 5a 2a 3e af 5d b7 3d fa 57 38 3d 7e 35 52 be
       0.16635941 0.089534156 0.045005776 -0.20528218
0002c0 f6 4a 21 be c5 53 63 3c 85 44 0e be 5a da d7 bd
       -0.15751252 0.013874953 -0.13893326 -0.10539694
0002d0 b0 e2 94 bd e4 2e dc bd 97 fe 2b 3e 4b 0e 14 3c
       -0.072698 -0.10751131 0.16796337 0.009036611
0002e0 a3 22 d8 bd 0e 2a 41 3e 31 f5 2d 3d e9 9a f6 3c
       -0.105534814 0.18863699 0.04247016 0.030103164
0002f0 68 97 97 bd d2 d4 89 3d 22 a0 22 3e a2 32 3f be
       -0.07401925 0.067300454 0.15881398 -0.18671659
000300 fa 7d a7 3d 1d ee b6 3d c3 b5 36 3c d3 82 a0 bd
       0.08178325 0.08932135 0.011151734 -0.07837453
000310 4b bc 70 bd 70 46 0b 3d 23 68 b6 3c 9b b4 53 3e
       -0.05877332 0.03400272 0.022266453 0.20674364
000320 31 3d 99 3d 2c 5b 0a be 7e 4d 16 ba 78 0c 6c 3d
       0.074823745 -0.13511342 -0.0005733593 0.05762908
000330 26 08 b1 bd 67 ec 2e 3d 5b 27 0e 3e a5 49 65 3d
       -0.08644132 0.04270592 0.138822 0.055978436
000340 6f c4 51 3d fb b7 08 be 46 af 24 3c 33 17 d5 3d
       0.051212724 -0.13351433 0.010051554 0.104048155
000350 31 17 22 bd cf 5f 93 3d d2 c8 a0 bd 5f a3 1d bc
       -0.0395729 0.071960084 -0.078508034 -0.00962147
000360 8d b0 e3 3c 35 1d 09 3e 3e 9e b0 bd 9d 79 d4 bc
       0.027794147 0.13390048 -0.08623932 -0.025936896
000370 b6 39 f4 bc ff a9 0a be d8 7c 9c bb a7 5f 26 bc
       -0.029812675 -0.13541411 -0.0047756247 -0.010154641
000380 e4 73 ad 3d 61 a7 c2 3d f6 46 0b 3e 9d 3a 0d bd
       0.0846937 0.09504581 0.13601288 -0.034479726
000390 a7 ab 3b bd d0 07 f4 3d 17 3d b9 3d 43 86 02 be
       -0.045817997 0.119155526 0.09044855 -0.1274653
0003a0 42 5c 03 bd 5f ed e1 3d f8 ec bf bd 7d d1 c8 bd
       -0.032070406 0.11031603 -0.0937137 -0.09805582
0003b0 22 d4 6e bd 80 52 1c bd 0a 18 01 bb 40 2e 40 3d
       -0.058307774 -0.038164616 -0.0019698166 0.046919107
0003c0 ed f8 f2 bd e3 a5 15 3c ac 55 b3 3d fa e5 c6 3a
       -0.11863885 0.009133789 0.08756575 0.001517474
0003d0 81 22 0d 3d b9 e8 02 3e 0c d6 ad bd ef bc c0 bd
       0.034456734 0.12784089 -0.08488092 -0.09411036
0003e0 c3 a1 ba bd 19 72 11 be 0b 8f 5b 3d 02 d3 d3 bd
       -0.09112885 -0.14203681 0.053603213 -0.10342981
0003f0 ee 42 2c 3d aa 0e a3 bd 40 4f 1e be bd f2 69 3d
       0.042056017 -0.07961781 -0.15459919 0.05711626

model.rnn.bias_ih_l0 f4 [160]
000000 f7 15 c5 3c ad b1 9f bb 2a d0 d8 3d c6 fa 13 3e
       0.024058325 -0.0048734755 0.10586579 0.14451131
000010 ba e6 b5 3c e5 63 c8 3d 1b 2c 42 3e 72 cf 6d 3e
       0.022204746 0.09784678 0.18962137 0.23223665
000020 4c 8c 14 bc b4 3a 07 3d 26 f8 29 bd cb 40 63 3e
       -0.0090666525 0.033014968 -0.04149642 0.22192685
000030 df 7a 0e 3e 7c c5 63 3e e3 0c 67 3e d4 2b de 3d
       0.13914059 0.22243303 0.2256351 0.10848203
000040 c2 fc e3 3c 52 6d 24 3e cd 45 78 3e 4b e0 31 3e
       0.027830485 0.16057327 0.24245377 0.17370717
000050 ff ee 43 3e 37 ac 37 3e 52 3f dc bc d1 63 4b 3e
       0.19134139 0.17936788 -0.026885662 0.19862296
000060 a5 ef 37 3e 9f fa 58 3e 57 69 bc 3d b2 03 ac 3c
       0.17962511 0.21189354 0.091997795 0.020997856
000070 71 71 89 3c 4f 41 24 bd 32 f4 6e 3d 22 b5 88 3e
       0.016777726 -0.040101346 0.05833835 0.26700693
000080 09 92 3a 3e 7e 09 bf 3b c0 19 03 3e 25 e0 b8 3d
       0.1821977 0.005829989 0.12802792 0.09027127
000090 d9 8a 53 bd bb f5 92 3b 1b d4 1e 3d 64 b5 23 3e
       -0.051646087 0.0044848598 0.0387765 0.15987164
0000a0 5b 1b f4 3d 16 9a 1a bd 2d fd 45 3d 52 53 d0 3c
       0.1191928 -0.037744604 0.04833715 0.025430355
0000b0 31 84 45 3e 2d 36 c9 3d 81 2a bf bd 4f 88 52 3e
       0.19288708 0.09824786 -0.09334279 0.2055981
0000c0 c2 b2 62 bc 86 6b 93 3d 7f 3b 91 bd dc 5c 53 bd
       -0.0138365645 0.07198243 -0.07091426 -0.05160223
0000d0 be 8a c7 bd ef 0d 8e bc f8 ac 95 3d 34 06 2c 3d
       -0.0974326 -0.017340628 0.07308382 0.041998103
0000e0 ad 80 3b 3d 5c 64 80 bd ef 12 12 bd 24 73 28 3e
       0.04577701 -0.06269142 -0.035662588 0.16450173
0000f0 33 81 28 3e fd 59 e2 3d b4 f3 82 bd de 0f cc 3d
       0.16455536 0.1105232 -0.06394139 0.09963964
000100 ba eb 6a 3d 39 e2 b3 3d 09 88 54 3e 43 aa c8 3c
       0.057353713 0.08783383 0.20755018 0.02449525
000110 be 58 52 bd fd 9f 13 be 1e 56 12 3c ce a6 41 3e
       -0.051354162 -0.144165 0.008931665 0.18911287
000120 61 6d 20 3d af 06 48 bd 06 8d ba bd 85 b2 01 3e
       0.03916681 -0.0488345 -0.09108929 0.12665756
000130 16 86 e5 3d bd 56 d4 3b ec dc e0 bd c7 cb dd bd
       0.112072155 0.0064800666 -0.109796375 -0.10829883
000140 22 a2 22 3e 9b 0c 54 3e f6 fd 5d 3e 72 65 e2 3d
       0.15882161 0.20707934 0.2167891 0.110545054
000150 69 02 6b be d6 60 8f 3d 97 f4 54 bd 16 17 79 be
       -0.22950138 0.07000892 -0.05199107 -0.24325213
000160 cf 60 e8 3c 29 db 90 bc 1b 93 7b bc 4e 66 14 bd
       0.028366474 -0.017682629 -0.015354897 -0.036230378
000170 17 dc 05 3e ef 98 6a bd cc bf 13 bc 6e dc e0 3d
       0.13072239 -0.057274755 -0.009017896 0.109795436
000180 16 b5 b6 bd 8a 60 18 be f6 be 38 be 09 2a 05 bc
       -0.08921258 -0.14880577 -0.18041596 -0.008127698
000190 5b 00 15 be 77 33 31 3e b7 f8 ad 3c 67 de a0 bc
       -0.14550917 0.17304789 0.02123676 -0.0196373
0001a0 cc aa 0a bd 09 26 eb 3d 5a c2 4f 3d 7b d0 38 3d
       -0.03385429 0.11481864 0.050722457 0.045120697
0001b0 1d 1a e0 bd 52 b8 74 3e 63 6c 0c 3c 8b 23 66 bd
       -0.10942481 0.23898438 0.008570763 -0.05618624
0001c0 19 a2 6e be 1d d2 e4 bd 75 3c 08 be d3 49 05 be
       -0.23304023 -0.111728884 -0.13304313 -0.13016443
0001d0 da f9 81 bd 0e 81 7a 3e dc 16 36 3e fa 50 45 3e
       -0.063464835 0.24463293 0.17782158 0.19269171
0001e0 db 92 3c 3e 33 88 29 3e 14 af 5b 3c 19 15 71 3e
       0.18415396 0.16555862 0.013408441 0.23543204
0001f0 5b ad b4 3d 02 66 c5 3d cd 4b 50 bd e9 2a 52 3d
       0.088221274 0.09638597 -0.05085354 0.051310454
000200 f0 e7 e7 3d eb dd e9 3c 01 f0 24 3c 2d e1 2f 3e
       0.113235354 0.028548202 0.010066987 0.17175741
000210 6d 60 40 3e a6 1b 82 3e 7c 2c 67 3d 9d c2 ca 3d
       0.18786784 0.2541172 0.056438908 0.09900401
000220 fe 4c a2 bc b9 30 34 bd 98 ad 80 bc aa dd 01 3e
       -0.019812103 -0.043991778 -0.015707776 0.12682214
000230 c7 d5 af 3d 9b 50 31 3d 97 6f 1b 3e 66 71 39 3e
       0.08585697 0.043289762 0.15179287 0.18109664
000240 dd 84 c4 3d df b0 94 3d e5 26 7c bc 0a ea 97 3d
       0.09595654 0.07260298 -0.015390133 0.07417686
000250 e8 2b 5a bd 58 bb c5 3d 14 b1 5a 3e 89 58 6b 3d
       -0.05326453 0.096548736 0.21356612 0.05745748
000260 ab 7a 8c 3c 6e a1 3b 3e ac 7f 14 3e 36 94 b3 bd
       0.017148336 0.183233 0.14501828 -0.08768503
000270 6d 9a 29 bd a9 54 18 bd ed 35 86 3d 85 c8 78 3e
       -0.041407038 -0.037190113 0.06553254 0.24295242

model.rnn.bias_hh_l0 f4 [160]
000000 e8 a6 40 3e 94 07 5c 3d 94 b2 78 3e ea 57 46 3e
       0.1881367 0.053718165 0.24286872 0.19369474
000010 ba 45 0a 3d 81 0a 80 3e ce a2 83 bd b1 b2 40 3d
       0.033757903 0.25008014 -0.06427537 0.047045413
000020 ee 98 61 3e 27 42 43 3e 37 82 db bd 5b de 75 3d
       0.22030994 0.19068204 -0.10718196 0.060026508
000030 b6 8b b5 3d 3e 1b 79 3e 85 88 35 3e 15 d2 3a bd
       0.08864538 0.24326798 0.1772786 -0.045610506
000040 f7 a8 cb 3d 8e c0 80 3e 17 7f 13 3e ea 71 99 3e
       0.09944337 0.25146908 0.1440395 0.29969722
000050 e5 50 9c 3d 5c 28 a2 3d 99 c4 20 bd 98 3b e8 3d
       0.07632617 0.07917854 -0.03924999 0.113394916
000060 b4 15 d9 3c 61 ce 20 3e 70 1f c3 3c ec 64 89 3e
       0.026499607 0.15703727 0.023818702 0.2683481
000070 86 38 39 3d 65 0b 85 3d 0f 09 85 3d a3 05 37 3e
       0.04521992 0.06496314 0.064958684 0.17873244
000080 17 19 2d 3e 8d 1b 17 3e 8a 39 6b 3e d7 b5 31 3e
       0.16904102 0.14756604 0.22971168 0.17354523
000090 85 c3 18 3e 66 a8 63 3e 71 f6 9e 3b e0 2d 3c 3e
       0.14918335 0.22232208 0.0048511554 0.18376875
0000a0 9c 66 fe 3d 91 eb 24 3e ef 70 d2 bd bd 48 d3 bd
       0.12421915 0.16105486 -0.102754466 -0.10316608
0000b0 84 fa bc 3b 8f 96 0b bb 22 4e 22 be c6 20 de b7
       0.0057671685 -0.0021299457 -0.15850118 -2.6479724e-05
0000c0 1b fb ca bd bb 9c b3 3d e3 d5 b8 3d 8d 1a a4 bc
       -0.09911176 0.08770128 0.09025171 -0.020032192
0000d0 a9 28 47 3e 7a 28 be 3d e9 be 92 3d ca 50 d7 3d
       0.19449104 0.09285064 0.071653195 0.10513456
0000e0 b1 6d 33 bd 4c f0 f4 bd 7b 1f 5c bd eb 66 34 3e
       -0.04380578 -0.119598955 -0.05374096 0.17617385
0000f0 37 b1 9f bd 77 ef 8d bd b5 b9 eb 3d 96 a6 32 3e
       -0.07797473 -0.0693044 0.1151003 0.1744636
000100 43 f6 32 3e 70 7b f0 bb 6f 19 00 3e 91 f2 3b 3c
       0.17476754 -0.0073389336 0.12509702 0.011471407
000110 3c c8 c9 3d b0 2e b5 3d 0b df dd bd 18 be e7 3d
       0.09852645 0.088467956 -0.10833558 0.113155544
000120 60 a9 91 3d 7e 90 72 bd c1 eb 94 bc 6a 22 2f 3e
       0.07112384 -0.05921983 -0.018178822 0.17102972
000130 df 8c 09 3e fb 51 88 bd fd 1a be 3d 33 24 0d 3e
       0.13432644 -0.066562615 0.09282491 0.1378334
000140 2c 68 9e bd 83 1d 68 bc 81 80 e7 bc 5b 9e 0a 3b
       -0.07734713 -0.014167192 -0.028259518 0.0021151516
000150 42 5c 90 bd 23 cc b4 3c fa dd aa 3b c7 21 65 be
       -0.07048847 0.022069996 0.00521445 -0.22376166
000160 f8 41 13 3e 31 f7 81 be f7 69 a7 3c bc 29 96 3b
       0.14380634 -0.25383905 0.02043627 0.004582612
000170 bf 62 59 3e cf f1 c2 bd 56 21 21 bd 4d 85 a4 bd
       0.21229075 -0.095187776 -0.039338432 -0.080332376
000180 6c 7b 47 be ae c2 28 be a4 a7 ac bd 20 25 42 be
       -0.19480675 -0.16480514 -0.084304124 -0.18959475
000190 81 ed b5 bd 0d 19 f1 3d c2 eb d6 bd d4 89 21 be
       -0.08883191 0.11772356 -0.10494186 -0.15775234
0001a0 1b ef 1f 3d c5 06 68 3e 1f 7a 9f 3d 00 01 38 bd
       0.039046388 0.22658832 0.077869646 -0.04492283
0001b0 37 a1 fa bd 5d d0 86 bd 7e 7f 43 3e c9 7c 16 be
       -0.122377805 -0.06582711 0.19091603 -0.1469604
0001c0 be 5f d0 3c e0 c0 22 bc cb 5d 0f be ec 77 26 be
       0.025436278 -0.00993368 -0.14000623 -0.16256684
0001d0 78 66 51 3d 5c fd d6 3b 1a 9d 36 3e ef cb dc 3d
       0.051123112 0.0065609645 0.17833367 0.10781085
0001e0 a1 cc 3a 3e cc c1 5c 3e 97 bb 8e bd 5a 87 ee bc
       0.18242122 0.21558303 -0.06969374 -0.029117275
0001f0 b0 75 5e 3e df f6 37 3d 20 c5 bf 3d 5d 1c 83 3e
       0.21724582 0.04491317 0.093637705 0.25607577
000200 60 33 12 bc e8 a3 80 3e 73 50 34 3b ce ff a7 3d
       -0.008923382 0.2512505 0.0027513772 0.08203088
000210 6e 77 51 3e 3c 20 d4 bc db d2 1d 3e cc 28 8b 3d
       0.20455715 -0.025894277 0.15412466 0.06794891
000220 57 5c 38 3e 51 e5 6a 3e 0c c3 80 3e a5 23 de 3b
       0.18003975 0.2293904 0.2514881 0.0067791515
000230 cd 00 6b 3d 73 f3 55 3e cf 8d ed bd 1e 77 26 3e
       0.05737381 0.2089365 -0.115993135 0.16256377
000240 dd 37 56 3d 7f ed 84 3d ae f1 29 3e 2e 19 3e 3c
       0.05229937 0.06490611 0.165961 0.011602683
000250 d2 06 37 3e 15 66 f6 bc eb fc 5f bd 42 9f c5 3c
       0.17873695 -0.030077973 -0.05468456 0.024123792
000260 37 43 67 3e 1c e7 38 3e ba 83 ce 3d 72 ed 1c bc
       0.22584234 0.18056911 0.100837186 -0.009578096
000270 02 c2 40 bd ae a4 ea 3c c7 7a 21 bd ba 2f 9c bc
       -0.04706002 0.028642979 -0.03942373 -0.019065727

model.rnn.weight_ih_l1 f4 [160, 40]
000000 8f 04 48 3d 50 65 7d 3e ae 8a fb 3d 71 27 3a 3e
       0.048832472 0.24745679 0.122823104 0.18179108
000010 e3 76 d8 bc 46 5a 2d 3e f1 8a 90 3e 77 f4 c6 bd
       -0.026423877 0.16928968 0.28231004 -0.09714597
000020 d4 6e 81 3e d0 f7 89 be 89 37 a2 bd 9b 9a 42 3e
       0.25279868 -0.26946878 -0.07920749 0.1900429
000030 87 0b ff 3d d5 8c 8e be 3e 7e 4e be 31 c3 4d be
       0.124533705 -0.2784182 -0.20165345 -0.20093991
000040 22 a3 2b be 9a e3 89 be ca f2 80 be d7 4c 30 be
       -0.16761449 -0.2693146 -0.25185233 -0.17216812
000050 6b cf bc bd 9c 6f e5 3d 6f e0 0b 3e 1b 2c e1 3b
       -0.09219249 0.112029284 0.13659833 0.006871713
000060 2a 3e 78 be c8 57 ac 3c ef 07 2c 3e 0e da 94 3e
       -0.24242464 0.021037951 0.16799901 0.29072613
000070 b5 19 75 be c0 86 3b 3c a7 69 86 3c f3 cc e5 bd
       -0.23935588 0.011445701 0.0164078 -0.112207316
000080 6c d6 3b be 59 ca 29 be d1 cc a6 bd 7e c9 43 bd
       -0.18343514 -0.16581096 -0.081445344 -0.04779958
000090 3a 00 81 3d 96 b4 9c 3d ee 9b 71 3c 58 80 9e bc
       0.06298871 0.076516315 0.014746649 -0.019348308
0000a0 10 14 cd bd 01 7c 0c bb 6a 83 17 3e c5 30 0b 3e
       -0.10013592 -0.0021436217 0.14796224 0.13592823
0000b0 2d 76 a5 bd da 78 fa 3d 0a b5 2d bd 45 5c dd 3d
       -0.08079181 0.12230082 -0.04240898 0.10808615
0000c0 35 db 4f bd a2 d8 3c bd 0d 43 ef 3c f0 a6 42 3e
       -0.05074616 -0.046105035 0.029206777 0.19008994
0000d0 94 43 96 3d fb f7 cb 3d 58 be 0a be 62 ff cb bb
       0.07337108 0.09959408 -0.13549173 -0.0062255124
0000e0 ea 4d 92 3c 75 e6 f3 bd a8 fd 38 bd d0 81 d2 bd
       0.017859418 -0.119091906 -0.04516378 -0.10278666
0000f0 1e b1 aa bd 47 77 86 3d 39 9d ed 3d c5 2f 8e 3d
       -0.08334564 0.06565719 0.116022535 0.06942705
000100 b1 c1 85 3d bc a3 0c bd 0a 55 9c 3c be ef cc 3d
       0.06531084 -0.034335837 0.019083519 0.10006665
000110 84 06 1a bd 1a 51 44 bd f4 c4 ad bd f2 c1 e1 bb
       -0.03760387 -0.047928907 -0.084848315 -0.006889575
000120 67 2c 0d be 9d 23 b8 3d 9d 46 0e be 82 cc 0e be
       -0.1378647 0.08991168 -0.13894124 -0.13945201
000130 43 2c 7d 3d 86 2b 29 3e 16 0b 97 3b cb e3 9c bc
       0.06180979 0.16520509 0.004609476 -0.019151589
000140 37 44 8a 3e 9e f8 6f 3d 39 fb 99 3b 9c 16 a8 bd
       0.2700517 0.05858671 0.0046991375 -0.082074374
000150 9d 85 5e bd 4d 57 b7 3d 7a 0f 00 3e 95 ba 8b be
       -0.054326642 0.08952198 0.12505904 -0.27290788
000160 56 06 84 3e da 3b 0c be db 65 7d be 54 60 6c 3e
       0.25786084 -0.13694707 -0.24745886 0.23083621
000170 f0 d6 ea 3d eb 1b 73 bd c2 28 7a 3c fb b3 96 bd
       0.11466777 -0.059352797 0.0152685065 -0.07358547
000180 85 6a 1b 3c 09 31 08 be f0 66 f2 3c 81 e9 85 be
       0.009485845 -0.13299955 0.0295901 -0.26154712
000190 01 fc 3f be ef 11 7f 3e 02 e2 88 3d 98 67 84 bd
       -0.18748476 0.24909185 0.066837326 -0.064650714
0001a0 0a 0f 28 3c 15 08 e0 3d 88 6f 0e 3e 94 c6 d1 3d
       0.010257492 0.109390415 0.13909733 0.10242954
0001b0 a6 7c 18 3d a4 c9 d0 3d ea d9 eb 3d e4 cb 6a be
       0.03722825 0.1019471 0.11516173 -0.2292934
0001c0 6a c5 ba bd 49 83 ef 3c 97 a3 81 be 4c a0 a0 3d
       -0.09119685 0.029237406 -0.25320122 0.07843074
0001d0 f8 0f dd 3d 6d 80 06 3e 80 c2 15 3d b9 d0 87 3e
       0.107940614 0.13134928 0.036562443 0.2652643
0001e0 c6 36 2d be a5 d7 11 3e 24 56 41 3d a5 d7 37 be
       -0.16915426 0.14242418 0.04720129 -0.17953356
0001f0 db 7d 93 bd 79 8b 1e 3e bd 8d 6e bc bf 13 ea 3d
       -0.072017394 0.15482892 -0.01456016 0.114295475
000200 28 dd cd bd 12 ae 8e 3b 31 89 e8 bc f1 16 1a be
       -0.10051948 0.004354247 -0.02838573 -0.15047814
000210 44 1e fc bd 44 d4 97 3d 02 8f f6 3d bf 43 89 3d
       -0.1231046 0.07413533 0.12038995 0.06702375
000220 e5 69 4a bd 56 06 cf bd c2 00 c0 bd 40 cd ab 3d
       -0.049417395 -0.1010863 -0.093751445 0.08388758
000230 b6 9d 21 3e 42 28 a6 bc 1f 70 e3 3d 02 e5 1d 3e
       0.15782818 -0.020282868 0.1110537 0.15419391
000240 cc 15 cc bd 7e 42 b5 3d d4 6a cb 3d 9e 8d 09 bc
       -0.09965095 0.08850573 0.09932485 -0.008395581
000250 a7 f8 56 3d 90 f7 0a be eb 29 9b 3d 41 2b cc bd
       0.052483227 -0.13571 0.075763546 -0.099691875
000260 cc 31 08 be 54 7f ab 3d 6c 78 ac 3c 3f 91 2a 3e
       -0.13300246 0.08373895 0.021053515 0.1665697
000270 16 13 3e 3e 51 a4 1d be 16 d1 84 3d 66 72 30 3d
       0.18561968 -0.15394713 0.064851925 0.04307785
000280 6a e9 14 3e a0 4c b6 3b 3a b4 ee bd 91 25 3b 3d
       0.14542165 0.0055633336 -0.11655469 0.045690123
000290 b8 30 d7 3d a6 af 26 be 95 72 0e 3e 8b 70 0c 3e
       0.10507339 -0.16277942 0.13910897 0.13714807
0002a0 69 99 b7 b9 e4 66 bc 3d 11 1a bf bd a6 46 f0 3d
       -0.0003501878 0.09199312 -0.09331144 0.11732225
0002b0 92 c4 b4 3d 59 27 ed 3d be cd 00 3e 6f 5a 5c bd
       0.08826555 0.115797706 0.12578484 -0.05379718
0002c0 87 69 f0 3d 35 27 93 3d 48 e3 7a 3d 1f 7e e9 bd
       0.11738878 0.071852125 0.06125191 -0.11401009
0002d0 be 96 c6 3c 28 2a 07 be 80 9a b9 3c 3b 41 14 bd
       0.024241801 -0.13199675 0.02265668 -0.03619502
0002e0 59 6a 7c bc 0d 2b 04 3e 7c 5e bf bd 90 54 06 3e
       -0.015406215 0.12907048 -0.09344193 0.13118196
0002f0 ac 0e 02 be ed f3 ef bd d2 99 00 be 80 6f 2c bd
       -0.1270091 -0.11716447 -0.12558678 -0.042098522
000300 cf 9d 23 3e dc 5f 82 3d e5 b3 f7 3d ec 68 1a bd
       0.15978168 0.0636594 0.12094859 -0.037697718
000310 8a 66 05 3e 9e 02 33 be e6 bc 23 be 04 a9 87 bd
       0.13027397 -0.17481467 -0.15990028 -0.06624034
000320 f6 fe 57 3d 95 fd b1 bc 88 d3 e1 3d 68 3c a6 3c
       0.052733384 -0.021727363 0.110266745 0.020292476
000330 f1 ea 7f bd a1 19 8c 3d 64 1b a2 3c 8a 27 d4 bc
       -0.062479917 0.06840826 0.019788451 -0.02589776
000340 3b fc fb bd a8 cf 00 be 9e 77 17 be 28 26 86 3c
       -0.123039685 -0.12579215 -0.14791724 0.016375616
000350 22 ca c8 3d e3 de f8 3d 2e a7 af bd e8 45 15 be
       0.09804179 0.12151887 -0.08576809 -0.14577448
000360 ff c7 0e 3d 86 dd 11 be 24 4c 79 3c 97 5d a7 3d
       0.0348587 -0.1424466 0.015215907 0.08172148
000370 35 ab 31 be 90 35 95 bd 8e 40 f7 bc 6b 6c 13 be
       -0.17350467 -0.07285607 -0.03018215 -0.14396827
000380 58 94 75 3d 44 57 d2 bd 86 1e 09 3e 08 fd a6 3d
       0.059955925 -0.10270551 0.1339055 0.08153731
000390 43 ea a4 3c 89 e8 5f 3d b4 3a c1 3d ff bf 88 3a
       0.020131236 0.054665122 0.09435025 0.0010433196
0003a0 06 bb 05 be fb a3 d9 3d 01 67 85 bd 1a 39 92 3d
       -0.13059625 0.1062698 -0.06513787 0.071397975
0003b0 88 50 2c bc c3 b1 32 3e 23 bf b7 bc 0d 76 8a 3d
       -0.010517247 0.17450623 -0.022430008 0.06760798
0003c0 d2 fe 60 3d f6 22 9d bd 21 3d a9 3b cf 4e 74 3a
       0.054930516 -0.07672684 0.005164758 0.0009319605
0003d0 58 65 29 bd 0b 9c 09 3e e6 4f 23 3e 69 cd 3c 3d
       -0.041356415 0.13438432 0.15948448 0.046094332
0003e0 07 4b 50 bd ab ca b3 3d a5 1e 13 be aa da 70 bd
       -0.0508528 0.0877889 -0.14367159 -0.058802284
0003f0 09 55 69 3c de dd a8 bd 5e ff 9e 3d ec a7 b8 bd
       0.014241465 -0.08245443 0.07763551 -0.090164036

model.rnn.weight_hh_l1 f4 [160, 40]
000000 9a 33 61 3d cd 97 63 bc 41 44 5e 3d 44 92 2b 3e
       0.05498085 -0.013891173 0.05426431 0.16755015
000010 24 f4 39 3e 47 96 3c bd 5c 7d 68 bc 6d 98 97 bd
       0.18159539 -0.046041753 -0.014190044 -0.0740212
000020 2f b7 91 3d 10 2b d0 3d fe 7c 12 3e 5c d7 b0 bc
       0.071150176 0.101644635 0.14305493 -0.021587066
000030 d9 7c fa 3d 61 6c 8a 3d c2 f0 4b 3c 24 64 be bd
       0.12230844 0.06758953 0.012447538 -0.09296444
000040 73 71 aa 3d 83 2a 3a be b8 f8 a5 3d 62 d3 c2 3c
       0.0832242 -0.1818028 0.0810408 0.023782436
000050 7a 34 42 be b2 d9 6a bc 19 57 75 3d b1 a6 29 be
       -0.1896533 -0.014334129 0.059897516 -0.16567494
000060 50 d9 cb 3d e5 dd 6b 3c 92 3d 55 be eb d4 1e 3e
       0.099535584 0.0143961655 -0.20824268 0.1551091
000070 ce 7d bf 3d 51 e0 d8 3d 17 0a 1a 3d e7 e0 2b be
       0.09350167 0.1058966 0.03760728 -0.16785012
000080 96 ab 4e 3e fa d7 fc bd 1f 28 57 be 27 2b 8f 3d
       0.20182642 -0.12345882 -0.21011399 0.069906525
000090 ba c9 a3 bd 1d 6e 5d bd b0 40 46 bd f0 c8 24 3e
       -0.07997461 -0.05406009 -0.048401535 0.16092277
0000a0 3c a8 0c 3e a9 15 6d bd 2a fd 4a bd e8 af 10 be
       0.13736051 -0.057881985 -0.049557842 -0.14129603
0000b0 b1 49 fe bd 37 56 cb 3c cf 90 aa bd e6 ad fb bc
       -0.12416399 0.024821384 -0.08328401 -0.03072257
0000c0 40 10 01 3d d2 22 cf 3d 31 e8 90 bd 49 ad 55 be
       0.031509638 0.10114063 -0.07075537 -0.20866884
0000d0 c4 59 98 3d f6 5d 36 3e e6 fd c8 3d d9 ff 9d 3d
       0.074389964 0.17809281 0.09814052 0.07714815
0000e0 30 e6 32 3e 00 40 09 3e 5b 04 54 3d 73 ea 3c 3d
       0.17470622 0.1340332 0.051761966 0.046122026
0000f0 43 f0 a4 3d 43 98 a3 bd 5d 29 2f 3c a5 7d 1c bd
       0.08053639 -0.07988026 0.010691014 -0.03820576
000100 02 4d dc bd 05 1d 9d bd 0c 64 02 be 83 11 d0 3c
       -0.107568756 -0.07671551 -0.12733477 0.025398975
000110 74 7b 02 be 7d bc 94 bd 9d 05 c6 bd ca 5d cc bc
       -0.12742406 -0.07262514 -0.096690394 -0.024947066
000120 1e 64 0d bc 93 02 80 3d b5 d5 dd 3d 47 b9 26 be
       -0.008629827 0.06250491 0.10831777 -0.16281615
000130 93 09 90 3d d0 2a 42 bb b9 57 75 bc 4f 07 fc bd
       0.07033076 -0.002962757 -0.014974528 -0.123060815
000140 5e 35 8e 3d 25 c8 16 3e 95 e4 d9 3c 18 27 6e bc
       0.06943773 0.14724787 0.026598254 -0.014535688
000150 c4 89 ce 3d 20 98 ef bd ae 0b 30 3e b1 96 35 3e
       0.100848705 -0.116989374 0.17191955 0.17733265
000160 9a d5 a4 bc a8 3f 33 be c0 7c 21 3e 92 ef 38 3d
       -0.020121384 -0.17504752 0.15770245 0.045150347
000170 bf 0b 29 bd 58 73 e3 3d 89 0c 3d be c9 32 02 3d
       -0.041270968 0.111059844 -0.18461813 0.031786714
000180 5b 07 b6 3d ae 64 bc bc 2b e3 23 bd 7f 72 87 3d
       0.08888122 -0.022997227 -0.040011566 0.06613635
000190 d1 d9 37 3d 69 cd 4f be 4a c8 d4 bd 2e 72 b2 bd
       0.04488546 -0.20293202 -0.103897646 -0.08713184
0001a0 06 b4 dc 39 c2 2b 36 3d e9 20 4a be 40 c8 25 3e
       0.00042095798 0.044475324 -0.19739117 0.1618967
0001b0 6e bf 2d be 15 48 af bc b5 6c cc 3d de fe a9 bd
       -0.16967556 -0.021396676 0.09981672 -0.08300565
0001c0 b6 5a 64 3d c9 49 30 be 1d 27 ad 3d d8 5b 20 3d
       0.05575057 -0.17215647 0.08454726 0.03915009
0001d0 4a e3 13 3e ac 2f 1a be 17 ba bc bd ca e8 3c 3d
       0.14442173 -0.15057248 -0.09215181 0.046120442
0001e0 1e 86 9a bd da 2e 05 bd 04 7d 17 be 2c 81 f2 3c
       -0.07545112 -0.032515384 -0.14793783 0.02960261
0001f0 27 f5 1b 3e b6 5d c9 3c 71 68 f2 3d 5e 0a 82 3d
       0.15230237 0.024580818 0.11836327 0.06349634
000200 31 bc cd bd 5e 98 f6 3d 9a 67 dd bd ec 1f 6d 3e
       -0.1004566 0.120407805 -0.10810776 0.23156708
000210 c3 3e 80 be e3 0f 8e bc 35 50 1c 3e ad a5 8d bd
       -0.25047883 -0.01734156 0.15264972 -0.06916366
000220 4a 75 87 bd db e6 b4 3d ef a5 07 bd 53 62 be bb
       -0.06614168 0.08833095 -0.03311723 -0.005810061
000230 c0 9f b6 bc b8 02 27 3e 34 3f d7 bc 18 44 81 3e
       -0.022292972 0.16309631 -0.026275255 0.25247264
000240 42 c9 2d be 64 80 42 3d 58 63 96 3d c6 73 d8 bd
       -0.16971305 0.047485724 0.07343167 -0.10568957
000250 1a 03 0d 3e 98 dd d1 bd 40 3e 54 be d9 39 ea 3d
       0.13770714 -0.10247344 -0.20726871 0.11436815
000260 a6 70 50 be e1 ec d8 bd b6 4c 5b 3e 42 b4 43 bd
       -0.20355472 -0.10592056 0.21415982 -0.04777933
000270 3e e2 82 3d 88 fd ce 3c 34 29 34 be 72 e6 e7 bc
       0.063908085 0.025267377 -0.17593843 -0.028308127
000280 7b 8e 5e 3c bd e8 1c 3e dd 6c 21 be c1 00 9d bd
       0.013583775 0.15323158 -0.15764184 -0.076661594
000290 6d 37 10 be 8d 2c 99 3d 6d e9 8b bd 85 8b 37 bd
       -0.14083643 0.074792005 -0.06831632 -0.04481079
0002a0 ea f5 f9 3d 42 fd bf 3d 24 88 c5 3d 9a 80 23 bd
       0.122051075 0.09374477 0.096451074 -0.039917566
0002b0 f7 5d bb 3a ee d0 0d bd f9 df eb 3d b2 83 4b 3c
       0.0014294971 -0.03462308 0.11517329 0.012421535
0002c0 04 53 1c 3e df 72 a9 bc 64 69 c8 3d 65 dc ce bd
       0.15266043 -0.020684658 0.09785727 -0.10100631
0002d0 c9 b8 fd 3b 0e d4 cc bc 16 6a b7 3d fb fa 7e bc
       0.0077429754 -0.02500346 0.08955781 -0.015562768
0002e0 e3 0e 61 3b c6 e0 d8 bd c6 47 29 3e bc 3d ad 3d
       0.0034341149 -0.10589747 0.16531286 0.084590405
0002f0 f4 a1 08 3e fd 15 5b bd d5 d1 ab bd b5 d4 40 3d
       0.1334303 -0.053487767 -0.08389632 0.047077853
000300 e3 d3 25 be 5d c6 9d 3b c7 ee 1b 3e c2 bf c3 3d
       -0.1619411 0.0048149065 0.15227805 0.09558059
000310 4f c5 a7 3d a5 33 03 3e 98 37 c5 bd a5 fa 1e be
       0.081919305 0.1281267 -0.09629744 -0.15525301
000320 46 ec ea bd a4 51 a9 bd f0 47 d1 bd 40 37 89 3d
       -0.11470847 -0.08267525 -0.10218799 0.06699991
000330 42 f4 dd 3d d7 32 2e 3d 5e c6 bd bd 9d 23 f5 3c
       0.10837604 0.042528953 -0.09266351 0.029924208
000340 dc 37 65 3d 21 54 9d bd c0 ec 4a 3d 3c ab 0c 3e
       0.055961475 -0.07682062 0.04954219 0.13737196
000350 88 30 4c bd 64 83 e1 3c 47 d6 c8 3d be ee 86 bc
       -0.04985097 0.027528472 0.09806495 -0.016471263
000360 39 ed 54 3d 2f 9e ba bc b6 c2 e7 bd d7 45 3c bd
       0.051984046 -0.022780506 -0.11316435 -0.045965042
000370 2a 2a f6 bd f6 e7 7b 3d 0d 27 8f 3d 90 d5 0a 3d
       -0.12019761 0.061500512 0.0698987 0.033895075
000380 a7 6a 37 bd 3d 42 92 3c 42 5c 04 be 8f 28 a5 3d
       -0.044779446 0.01785385 -0.12925819 0.080643766
000390 5d f3 da 3d bb 9c d2 3d 99 dc b5 bc b5 d5 f7 bd
       0.10690949 0.102838 -0.022199916 -0.12101308
0003a0 11 d3 e9 bd 39 4c 0b be 5e 1e 49 3b 0c bf 41 3e
       -0.11417211 -0.13603295 0.0030688266 0.18920535
0003b0 e0 e5 28 be 33 68 6f bc fa f9 a6 bb 5d 05 53 3c
       -0.1649394 -0.014612245 -0.0050957175 0.012879697
0003c0 38 16 b4 3d c2 8b 35 bd dc b2 24 3d c7 7e 74 3d
       0.087933004 -0.044322737 0.040209636 0.059691217
0003d0 57 4e c5 3d 62 3b d0 3d ff ef 3f 3d 56 cc 00 be
       0.09634083 0.101675764 0.046859737 -0.12577948
0003e0 a6 a6 32 be e1 65 10 bd fa 44 22 3c d8 8c 52 3e
       -0.17446384 -0.03525341 0.009904141 0.2056154
0003f0 a9 ec 46 be 8f ac f7 3c d5 8b 18 bd 50 b9 aa bc
       -0.19426216 0.03023365 -0.03724273 -0.020840317

model.rnn.bias_ih_l1 f4 [160]
000000 55 61 61 3d 2b dd 14 bd c8 57 7c bc c4 79 0e 3e
       0.055024464 -0.036343735 -0.015401788 0.13913637
000010 df f6 0e be db ba 59 3d d7 00 bf bd c6 dd 1a 3e
       -0.13961361 0.053156715 -0.09326332 0.15123662
000020 dc 71 fa 3d 36 a1 9f bd 12 33 21 3d 2b da 3d 3e
       0.12228748 -0.077944204 0.039355345 0.18540256
000030 8e 2a 27 bd 1b 65 f4 3c c8 31 30 3c 22 30 1b 3e
       -0.040812068 0.029833367 0.010754056 0.1515508
000040 99 dc 0a 3e 6f 45 2a 3e f0 ea 88 bd ab d1 fa 3d
       0.13560714 0.1662805 -0.06685436 0.12247022
000050 66 37 6e bd 7c 29 81 3d e6 e8 eb 3d 6a ef 77 3d
       -0.0581583 0.06306741 0.11519031 0.060531057
000060 f8 3b 2b 3c 8a 0f 15 3e 4c 68 60 3b 9c 9d 1b 3e
       0.010451309 0.14556709 0.0034241853 0.15196842
000070 8a 9b ff 3d 94 c4 30 3e b1 3e 8a bd 6b d6 f5 bc
       0.124808386 0.17262489 -0.06750239 -0.030009469
000080 ad 4d 04 3e 05 9a 26 3e 64 e9 7c bd ae 12 39 3e
       0.12920256 0.16269691 -0.061746016 0.18073532
000090 51 0c 9b bd 10 9f 37 3d 6c 43 80 3e 1f 08 71 bc
       -0.075707085 0.04482943 0.2505144 -0.014711409
0000a0 4b f2 6e bd 7d 63 36 3c 24 e5 ae bc 48 82 ba 3d
       -0.058336537 0.011132118 -0.021349497 0.091068804
0000b0 dc 67 59 3d 7d 37 df 3d 47 a9 d6 3d 95 13 a9 3c
       0.053077564 0.108992554 0.10481506 0.02063922
0000c0 0f 37 04 3e 60 a8 6d 3d a7 b4 17 3e 08 22 2d 3e
       0.12911628 0.058021903 0.14815007 0.16907513
0000d0 9a cc 28 3e f9 d6 94 bd 2d 75 df 3d 0e 85 af 3d
       0.164843 -0.07267565 0.109110214 0.085703
0000e0 0c c9 36 3e 21 53 30 3e 63 92 0f 3e 97 0d d3 bc
       0.17850131 0.17219211 0.14020686 -0.025763316
0000f0 9d 4f 10 3e b1 54 57 3e cd 24 38 3e 81 1d 67 3c
       0.1409287 0.21028401 0.17982788 0.014106155
000100 2d c7 c4 bd 59 ac a6 bd d5 0d 4b bc b7 0f 1d 3e
       -0.09608302 -0.081383415 -0.0123934345 0.15338026
000110 d3 4d 4a 3e 62 d7 fb 3d cb 47 93 bc 36 0f be bd
       0.1975625 0.122969404 -0.01797857 -0.09280245
000120 b7 62 58 3d 54 65 c3 bc 19 e5 23 3e 59 ca a0 bd
       0.052828517 -0.023852028 0.16005363 -0.07851095
000130 c5 84 32 be 49 7e 04 3d ee f0 40 3e 62 02 9b 3d
       -0.1743346 0.032346997 0.18841907 0.07568814
000140 d3 95 3f 3e dd a2 99 bd 04 68 4e 3e 74 02 93 3d
       0.18709497 -0.07501767 0.20156866 0.07178202
000150 1c f0 3e 3d 17 6a 8f bd 7a 76 0e 3e f1 62 d4 bd
       0.046615705 -0.07002657 0.13912383 -0.10370434
000160 2b 1f c6 3d 61 3e a4 bd b1 de b6 3d 5a ad f5 bd
       0.096739136 -0.0801971 0.08929194 -0.11995955
000170 44 43 1a bd 26 81 d4 bd 5e 3f b1 3d 17 6e 16 3e
       -0.037661806 -0.103761956 0.086546645 0.14690433
000180 6d 9c 1b 3e 2f dc 7e 3d 4a 3d 0e 3d 9a be d2 3d
       0.1519639 0.062221702 0.03472642 0.102902606
000190 04 7b c9 bd 0c d6 d5 bd e7 8b c1 bd 22 3a 87 3d
       -0.098379165 -0.10441217 -0.094505124 0.06602885
0001a0 a4 36 18 bd 31 b1 a7 3d 17 fd d4 bd df 77 87 bc
       -0.037161484 0.081880935 -0.103998356 -0.016536651
0001b0 7f a4 f2 3d 7a f0 cb 3c 2c dd e3 bd 6a a9 71 be
       0.118477814 0.024894942 -0.111261696 -0.23599783
0001c0 4e e0 ad 3d fc 64 a4 bd 0f e1 1e bc 01 cc d1 3c
       0.08490048 -0.08027074 -0.009697213 0.025609972
0001d0 cf cc c1 3d 27 d6 22 be e9 95 17 3e 77 6c de bb
       0.09462892 -0.15902005 0.1480328 -0.0067878324
0001e0 15 ce 53 3e 6c ea 99 3d ae e7 00 3e 7f 8b a2 3d
       0.20684083 0.075154155 0.12588379 0.07936763
0001f0 e6 c6 db 3d 06 ba 47 3e bd 02 0a 3e 77 fc 02 3d
       0.10731296 0.19504556 0.13477607 0.03197905
000200 d2 a5 c6 bb 29 51 29 3e 84 6a e6 bc ed 4d 56 3e
       -0.006062248 0.16534866 -0.028126962 0.20928164
000210 4d 5a 5c 3e 38 01 43 3d 38 47 fb bd b9 98 b5 bb
       0.21518822 0.047608584 -0.12269443 -0.0055418876
000220 1a c0 0a 3d 62 15 e9 3c 18 98 67 3d 6f 14 0a 3e
       0.03387461 0.028452579 0.056541532 0.13484357
000230 f8 bc 55 3e 3b 02 fe 3d 3f 7c 15 3e 5a ba 07 3e
       0.20872867 0.12402769 0.14598177 0.13254681
000240 31 25 16 bd 4c d3 bb 3d a2 34 00 3e d7 66 2d 3e
       -0.036656562 0.09171161 0.12520078 0.16933762
000250 3a e1 03 bd 28 37 ff bd c5 ee 87 bd 48 6f 76 3d
       -0.032197215 -0.12461692 -0.066373385 0.06016472
000260 35 0e 20 3d 53 0c 28 bd e0 c9 24 3d 1f 3e ce 3d
       0.03907605 -0.04102738 0.040231586 0.100704424
000270 99 44 6d bc ce 26 02 3e 68 fb 14 3d 8a b7 58 3d
       -0.014481687 0.12710115 0.036372572 0.05290941

model.rnn.bias_hh_l1 f4 [160]
000000 39 b1 d0 3d 32 77 ab bd 4c 8e 56 3e 17 34 07 3d
       0.101900525 -0.08372344 0.2095272 0.03300866
000010 9a 2d a8 bd 7f 7c 99 bd 49 11 ab 3d d8 cb 33 3e
       -0.08211823 -0.07494449 0.08352906 0.17558229
000020 81 95 3e bc 77 85 55 3e ae 70 3c bd 2d d5 6f bd
       -0.011632324 0.20851694 -0.046005897 -0.05855291
000030 47 f0 15 3e d8 dc bc 3c 78 bd cc bd 62 34 ff bc
       0.1464244 0.023054525 -0.09997076 -0.031152908
000040 93 15 79 3e 23 46 bd 3d 35 59 68 3d 4c ff 2f 3e
       0.24324636 0.09241893 0.0567257 0.17187232
000050 7e a5 77 3d 8a 70 70 bc 11 4b 80 3e 9f 0e 26 3e
       0.06046056 -0.014675269 0.2505727 0.16216515
000060 86 85 89 3d 42 13 fb bc 40 33 ff 3d 7f 73 45 bc
       0.06714921 -0.030648831 0.12460947 -0.012051462
000070 9c 52 d4 3d df 1a 34 bb 47 84 14 be 5e e7 9e bb
       0.10367319 -0.0027481837 -0.14503585 -0.0048493585
000080 0f c9 1b 3e f5 8a 96 3d f8 d5 36 3e 77 2b c0 3c
       0.15213417 0.07350723 0.1785506 0.023458226
000090 d4 c3 f1 bc 5f 06 d6 3d 23 18 27 3d e9 61 67 3d
       -0.029512323 0.10450434 0.040794503 0.05648986
0000a0 92 09 35 bd a9 e4 5f 3d ec 46 01 3d 9e 42 2e be
       -0.04419858 0.054661427 0.031561777 -0.170176
0000b0 64 3a 51 3d 73 08 16 be eb 53 3a be 01 dd f3 bc
       0.051081076 -0.1465166 -0.18196075 -0.029768469
0000c0 9a 27 3b 3d 02 51 34 be c3 45 2e 3e 4e 0d eb bd
       0.045692064 -0.17609027 0.170188 -0.11477147
0000d0 24 28 04 bb d5 ce f3 bd 57 1c af 3c b3 f0 fc bb
       -0.0020165527 -0.119046845 0.021375818 -0.0077191233
0000e0 19 5e 1f 3e 1f 0c 40 3d 4f d1 f1 bd 62 6e ce 3d
       0.15563239 0.04688656 -0.118075006 0.100796476
0000f0 a0 94 d6 bd 10 81 c9 3d 96 e7 e5 3d 6a 8c f3 3a
       -0.10477567 0.0983907 0.11225812 0.0018581275
000100 5b bb aa bd b7 c2 b8 bc 3c bf 1b 3d 10 f6 96 bd
       -0.083365165 -0.022553785 0.038024172 -0.073711514
000110 af 01 b8 3d 50 ee ce bd 49 8c 8a 3b 61 f8 10 be
       0.08984696 -0.10104048 0.004228149 -0.14157249
000120 81 97 3a bd 66 19 17 bd d9 e7 c2 bd a1 88 84 3d
       -0.04555464 -0.036889456 -0.09516878 0.064713724
000130 14 1c 1c be f5 19 1a bd 87 4b 20 3e 52 c2 ed bd
       -0.15245086 -0.03762241 0.15653811 -0.11609329
000140 55 b5 cc 3d d5 b7 d6 3d dc 9d 27 3e b7 b9 0a 3e
       0.09995524 0.10484282 0.16368812 0.13547407
000150 c7 66 58 3d a4 d9 52 be a8 00 f6 3d 04 20 2a 3e
       0.05283239 -0.20590836 0.12011844 0.16613775
000160 a6 44 4d 3e a2 82 a9 bd af de 5f 3e b3 40 00 be
       0.20045719 -0.08276869 0.21862291 -0.12524681
000170 47 fb 52 3d e0 5d 6e bc d9 fe 05 be 95 67 16 be
       0.051509168 -0.014548749 -0.13085498 -0.14687951
000180 d0 85 5c bd 10 6f d4 bd 18 fe 9f bd 2c 1f 30 3e
       -0.05383855 -0.10372746 -0.078121364 0.17199391
000190 80 88 1c be 76 72 64 bd 11 a5 22 be 43 e8 69 3d
       -0.15286446 -0.05577322 -0.1588328 0.057106268
0001a0 8f 24 1b 3e e9 c1 47 be e1 f1 c7 bb 76 46 bb 3d
       0.15150665 -0.19507565 -0.0061018323 0.09144299
0001b0 cb 5c 98 bd 41 28 12 3e f6 10 a2 3d f3 67 8e bd
       -0.07439574 0.14273168 0.07913391 -0.069534205
0001c0 7b 6a 8e bd ea 49 26 3c 35 66 5f 3c c0 a2 a5 bd
       -0.06953903 0.010149458 0.013635208 -0.08087683
0001d0 4a 8e 89 bd db 86 89 bd e3 b9 97 bd a9 a2 e5 bb
       -0.067165926 -0.06715175 -0.07408502 -0.007007916
0001e0 bf a3 11 3e 1d c9 43 3e d1 8f 72 3e 60 4a c0 3d
       0.1422262 0.19119687 0.23687674 0.09389186
0001f0 71 3f 67 3d 08 3c 2c 3e bc 02 96 bd 93 5f e6 3d
       0.056456987 0.16819775 -0.0732474 0.11248698
000200 01 f9 ca 3d c1 7e 04 3e 6b c5 9a 3d b6 99 3c 3e
       0.09910775 0.12938978 0.07557186 0.18418011
000210 29 5b 19 bd d6 ea 8d 3d e2 0b 0d 3d df 93 82 3d
       -0.037440453 0.06929557 0.03443516 0.063758604
000220 f6 bd be 3c 82 e0 32 3e e9 3e fb 3d af 7e 50 bc
       0.02328394 0.17468455 0.122678585 -0.012725516
000230 72 f6 65 bc b8 9d 70 3d ce c2 30 3e 8c 86 ab 3d
       -0.014035808 0.058744162 0.17261812 0.08375272
000240 53 06 42 3e bf 46 b3 3c f5 79 50 3d a3 a5 7b bd
       0.18947725 0.02188432 0.050897557 -0.06143726
000250 26 a3 5e bd 4f 7f 11 be 50 50 a6 bd 3c 0e 59 3e
       -0.05435481 -0.1420872 -0.08120787 0.21196836
000260 f3 c7 32 3e 81 82 83 3d de ce 6c 3d ec 84 0c 3b
       0.17459087 0.06421376 0.05781447 0.0021441532
000270 c8 9f b3 3d 64 a1 30 3d 50 de 98 3d 69 05 a4 3d
       0.0877071 0.043122664 0.07464278 0.080088444

exp_avg f4 [1, 40]
000000 3b d4 f9 3a 2c 85 04 3b 4f eb f2 3a 2d 3b 70 b9
       0.0019060442 0.0020220978 0.0018533262 -0.00022910228
000010 70 78 5e b7 57 f4 ca b8 c3 48 48 b9 c8 39 9c ba
       -1.3260273e-05 -9.6776224e-05 -0.00019100592 -0.0011919076
000020 06 bd 2c 3a 14 16 84 39 2c 25 35 b9 f2 d4 04 bb
       0.0006589446 0.0002519345 -0.00017275353 -0.0020268527
000030 27 a5 01 3b be 6c 97 b7 a3 b3 f4 39 fe e5 75 b8
       0.0019782276 -1.805124e-05 0.00046673146 -5.862675e-05
000040 b8 1d 01 3b 9b 41 fb ba d4 0a 43 38 32 aa fd 3a
       0.0019701552 -0.0019169332 4.6501707e-05 0.001935309
000050 ff ea 04 bb f3 91 fb ba 77 ad ff ba bd 2a a7 ba
       -0.002028167 -0.0019193277 -0.0019506653 -0.0012753826
000060 2c 3a c5 b8 ea 1b 44 39 22 da 67 39 8d 6d cd 3a
       -9.4045274e-05 0.00018702415 0.00022111138 0.0015672907
000070 2e 68 0f bb d3 71 cd b8 4c d9 89 b7 09 82 9e ba
       -0.0021882164 -9.796363e-05 -1.643286e-05 -0.0012093197
000080 4c 7c fc 3a 06 89 0b 3b bd 11 06 bb ce 37 fc ba
       0.0019263118 0.002129139 -0.002045735 -0.0019242705
000090 50 16 24 b9 c3 40 01 bb db c1 ff 3a 69 23 01 bb
       -0.00015648571 -0.001972244 0.001951273 -0.0019704944
