research/lightning_logs/version_15/checkpoints/epoch=7-step=400.ckpt (torch, 300447 bytes, 33 tensors)

model.param_proj.proj.0.weight f4 [1, 40]
0.19602694 0.054150492 -0.13349509 -0.101696946 -0.17007731 0.29526255 -0.12018293 -0.07099321
-0.11757715 -0.16254103 -0.120911196 0.08035188 -0.06101841 0.18885264 -0.056577135 0.11880693
0.119413316 0.25470093 0.066490665 0.15169072 0.28800666 0.214024 -0.10482371 0.06518627
-0.08178317 -0.1286638 -0.06508042 0.19944745 0.18285413 0.07691727 0.0021934744 -0.020930694
-0.19952014 -0.16939458 -0.1030123 0.11644398 0.09239933 0.20468903 0.11352385 -0.13385873
00000000: 49bb 483e e8cc 5d3d f0b2 08be 7d46 d0bd
00000010: bf28 2ebe a72c 973e 7822 f6bd e364 91bd
00000020: 4acc f0bd 2871 26be 4aa0 f7bd 878f a43d
00000030: 71ee 79bd 9662 413e 6dbd 67bd 0c51 f33d
00000040: f88e f43d 2968 823e 422c 883d d054 1b3e
00000050: 9c75 933e 1c29 5b3e d0ad d6bd 6180 853d
00000060: ef7d a7bd 71c0 03be e248 85bd f43b 4c3e
00000070: 1d3e 3b3e cd86 9d3d 65c0 0f3b d976 abbc
00000080: 024f 4cbe c675 2dbe 1df8 d2bd 2e7a ee3d
00000090: dc3b bd3d 009a 513e 317f e83d 4312 09be

model.param_proj.proj.1.weight f4 [1, 40]
0.08663644 -0.118062355 -0.108801976 -0.1138577 -0.06741675 0.13449618 -0.10011416 -0.05109827
-0.15112287 -0.16999426 -0.1501659 -0.06685186 -0.123382434 0.12475798 -0.030535076 0.074385
0.2136099 -0.04178809 -0.14118609 -0.01562227 0.08903562 0.2055197 -0.00038573923 0.0029993262
-0.12683631 -0.09839877 -0.14990695 0.033025667 0.15268017 -0.096688166 0.08667243 -0.06988747
0.07932177 0.02718617 0.10025729 0.040719416 -0.119582504 0.18650664 0.16668127 0.0018506354
00000000: 726e b13d adca f1bd 92d3 debd 3a2e e9bd
00000010: cb11 8abd 5eb9 093e a708 cdbd 6b4c 51bd
00000020: f4bf 1abe fa12 2ebe 17c5 19be a1e9 88bd
00000030: eeaf fcbd 1d81 ff3d b224 fabc 2a57 983d
00000040: 8ebc 5a3e fd29 2bbd 1693 10be 8df4 7fbc
00000050: 4f58 b63d c273 523e 0b3d cab9 5890 443b
00000060: 61e1 01be 4b85 c9bd 3581 19be ec45 073d
00000070: 3158 1c3e 7204 c6bd 5181 b13d 2921 8fbd
00000080: 7473 a23d 88b5 de3c b253 cd3d 67c9 263d
00000090: ace7 f4bd 99fb 3e3e 7fae 2a3e 0591 f23a

model.param_proj.proj.2.weight f4 [1, 40]
-0.19805583 -0.047339894 -0.033015933 0.21269476 0.27949387 -0.10511872 -0.092889205 0.22676112
0.09956182 -0.08682543 0.1750926 -0.15552919 0.3160415 -0.1035545 -0.27565575 -0.25725517
-0.032913093 -0.2466405 -0.052860487 -0.23475899 -0.14336957 0.07441497 0.28086612 -0.1669599
-0.13884276 -0.082732394 0.24605913 -0.14577517 -0.27097717 -0.17944054 0.20858039 -0.1903854
0.19259141 0.23538482 0.12048789 -0.21971416 0.014295856 -0.10916003 -0.1316911 0.19592719
00000000: 26cf 4abe 7ae7 41bd b73b 07bd a8cc 593e
00000010: d219 8f3e 7c48 d7bd b23c bebd 1134 683e
00000020: 11e7 cb3d 88d1 b1bd 794b 333e 0b43 1fbe
00000030: 31d0 a13e 6214 d4bd c022 8dbe f3b6 83be
00000040: e1cf 06bd 548f 7cbe 3d84 58bd a964 70be
00000050: 79cf 12be e066 983d afcd 8f3e 89f7 2abe
00000060: cc2c 0ebe 9a6f a9bd edf6 7b3e 1646 15be
00000070: 85bd 8abe 43bf 37be 1996 553e 64f4 42be
00000080: af36 453e b808 713e 5bc2 f63d c0fc 60be
00000090: 2a39 6a3c 4b8f dfbd 08da 06be 23a1 483e

model.rnn.weight_ih_l0 f4 [160, 21]
0.0065021715 0.06427001 0.003289507 0.04162401 -0.11650188 0.12777264 0.013159765 -0.109075695
-0.032868803 -0.013628658 0.06966817 0.017582813 -0.0844544 0.007317174 0.073404685 -0.025812391
0.15936273 -0.0526312 0.21106619 -0.05697136 -0.056041326 -0.07247224 0.20655373 0.09682192
0.10733367 0.112720884 0.050290156 -0.041010566 -0.018014887 0.02672225 -0.06271419 -0.007390538
-0.08967817 -0.06895107 -0.057538364 0.042804636 0.011283974 0.047410015 -0.007578253 0.14827424
-0.14233206 -0.058025144 0.1490312 0.108259305 0.0687083 0.11567057 -0.018821487 0.008445466
0.060184725 -0.10606927 0.060894437 -0.0036293108 0.0028412135 0.04086695 0.04332308 0.04507853
-0.012548441 0.0352964 0.048642166 0.08130362 0.040584646 -0.042679347 -0.07282902 -0.071047634
0.08030971 0.10089584 -0.020806832 -0.012375184 0.21269394 0.16581637 0.09484489 -0.025042161
0.058698937 -0.036395665 -0.05505608 0.09052623 -0.10821573 0.0070903157 0.027688706 0.06657437
0.03877093 0.040972803 -0.22794116 0.17181107 0.16712828 0.10817989 0.041728057 -0.04254513
0.03575015 -0.045148067 0.063143626 -0.10944183 0.034964073 -0.006981824 0.02028332 0.010350397
-0.069543526 0.01738434 -0.052584127 -0.0021834453 0.29106477 -0.074091524 0.29449275 -0.27682707
-0.01545256 -0.040959176 0.042538065 0.06739825 0.15881985 -0.055563234 0.02145571 0.108012155
-0.055116978 -0.006097698 -0.098882094 -0.10838074 0.039027452 -0.10213352 0.09740725 0.017034695
0.037008837 0.14011334 0.0841676 0.10391359 -0.14092651 -0.072801165 0.19854449 -0.04964752
0.012633077 0.15724792 -0.06577035 0.04420046 -0.024781952 -0.15530351 0.006023093 -0.09057382
0.07570572 0.105054766 0.055995826 0.08769812 -0.034300536 0.060319476 0.17539638 0.025127893
0.1243249 -0.20554562 -0.004351987 -0.055272426 0.14674269 0.08211737 -0.00037818737 0.17353743
0.038732722 0.007994143 -0.006807483 0.010998546 -0.052120194 -0.102697 0.09770604 0.02236725
-0.030935751 0.016948652 -0.11001956 -0.046762455 0.04017555 0.19572641 0.029935576 0.19785056
0.23388326 0.18565466 0.20444475 0.22675647 0.20986848 0.27060482 0.1924903 0.12177438
0.09167137 -0.020778494 -0.025846284 0.03878529 -0.06670721 0.024506977 -0.054195315 0.033548564
0.21216032 0.056293026 -0.013823658 -0.05966688 0.25803417 0.16336031 0.07181932 0.024684247
0.009511533 -0.01811678 0.0065063797 -0.040281683 0.090434514 0.05921852 -0.1032635 -0.019977935
-0.08574511 0.015906954 0.0064190617 0.10835662 -0.08279636 0.0053192647 -0.044401214 0.118971705
0.0012337697 0.10998505 0.103714004 0.25779048 0.066148154 -0.01609031 -0.052585326 0.085390374
-0.017545387 0.07403797 -0.02214298 0.06896138 0.039891947 0.0043472853 0.024901168 0.06208956
0.08890549 0.030455805 0.21660255 -0.017628087 0.17385176 -0.023274055 0.1443516 0.23431514
0.18990113 0.27424666 -0.034516864 0.13298061 0.19254853 -0.04568079 -0.16837753 0.10655164
-0.07768561 0.078039505 0.110234685 -0.065162465 0.09102648 -0.046729196 -0.0021230187 0.04094497
-0.09955575 0.1041378 -0.14386395 -0.017968914 0.113271564 0.008228964 0.022562021 -0.06554306
00000000: 2b10 d53b ff9f 833d c594 573b f07d 2a3d
00000010: 8a98 eebd d5d6 023e 0e9c 573c 1463 dfbd
00000020: 70a1 06bd bc4a 5fbc 2fae 8e3d d509 903c
00000030: 6ef6 acbd e8c4 ef3b 3255 963d 8274 d3bc
00000040: fc2f 233e d093 57bd bc21 583e cd5a 69bd
00000050: 978b 65bd 536c 94bd d282 533e 924a c63d
00000060: c1d1 db3d 35da e63d 0dfd 4d3d b2fa 27bd
00000070: f593 93bc 9fe8 da3c 4c70 80bd 542c f2bb
00000080: 30a9 b7bd 3836 8dbd 59ad 6bbd ea53 2f3d
00000090: 6be0 383c 0131 423d fe52 f8bb 34d5 173e
000000a0: 7fbf 11be c6ab 6dbd a39b 183e 0eb7 dd3d
000000b0: f0b6 8c3d b1e4 ec3d 852f 9abc da5e 0a3c
000000c0: 4284 763d d83a d9bd 726c 793d bbd9 6dbb
000000d0: a733 3a3b 1a64 273d 8b73 313d 44a4 383d
000000e0: fa97 4dbc f592 103d 023d 473d 8382 a63d
000000f0: 163c 263d 8ad0 2ebd 6227 95bd 6c81 91bd
00000100: 6b79 a43d 7aa2 ce3d 1773 aabc 49c1 4abc
00000110: 71cc 593e c4cb 293e 0a3e c23d 3825 cdbc
00000120: 4c6e 703d 9f13 15bd 7c82 61bd d165 b93d
00000130: 35a0 ddbd e155 e83b 6dd3 e23c 2558 883d
00000140: 44ce 1e3d 19d3 273d 6869 69be 3eef 2f3e
00000150: ad23 2b3e 6b8d dd3d 0aeb 2a3d cd43 2ebd
00000160: c06e 123d 2eed 38bd 7251 813d 0a23 e0bd
00000170: 7d36 0f3d c9c7 e4bb 3529 a63c b694 293c
00000180: d66c 8ebd 9a69 8e3c 7462 57bd 2218 0fbb
00000190: 7106 953e 4cbd 97bd c1c7 963e 47bc 8dbe
000001a0: bc2c 7dbc cfc4 27bd 653c 2e3d 1808 8a3d
000001b0: aca1 223e 4696 63bd e3c3 af3c 7a35 dd3d
000001c0: 57c2 61bd 33cf c7bb b282 cabd b9f6 ddbd
000001d0: 40db 1f3d 612b d1bd 747d c73d 588c 8b3c
000001e0: 9496 173d df79 0f3e 1060 ac3d a6d0 d43d
000001f0: 0a4f 10be c718 95bd 3f4f 4b3e 335b 4bbd
00000200: f7fa 4e3c 9905 213e 9bb2 86bd 8b0b 353d
00000210: 8503 cbbc e207 1fbe 5e5d c53b c47e b9bd
00000220: 9a0b 9b3d f426 d73d e15b 653d 129b b33d
00000230: b87e 0cbd 8e11 773d 1c9b 333e 03d9 cd3c
00000240: 0e9e fe3d 8d7a 52be 1d9b 8ebb 5765 62bd
00000250: b743 163e 272d a83d 7347 c6b9 ccb3 313e
00000260: 34a6 1e3d def9 023c 4e11 dfbb 3f33 343c
00000270: fc7b 55bd ce52 d2bd 1b1a c83d 863b b73c
00000280: f96c fdbc e6d7 8a3c ef51 e1bd fd89 3fbd
00000290: 1e8f 243d 816c 483e 743b f53c 5699 4a3e
000002a0: 187f 6f3e 411c 3e3e f759 513e d932 683e
000002b0: c3e7 563e b78c 8a3e 2d1c 453e d964 f93d
000002c0: 33be bb3d a937 aabc 96bb d3bc 53dd 1e3d
000002d0: ca9d 88bd dbc2 c83c e8fb 5dbd 386a 093d
000002e0: 8e40 593e 8493 663d a07c 62bc 4265 74bd
000002f0: 0e1d 843e ed47 273e 0216 933d 9e36 ca3c
00000300: 43d6 1b3c a469 94bc 7833 d53b 68fe 24bd
00000310: bb35 b93d 1e8f 723d d07b d3bd c4a8 a3bc
00000320: 229b afbd 4d4f 823c fe56 d23b 13ea dd3d
00000330: 2391 a9bd 3a4d ae3b 0cde 35bd 70a7 f33d
00000340: 71b6 a13a d83f e13d 0268 d43d 1dfd 833e
00000350: af78 873d d3cf 83bc b663 57bd 26e1 ae3d
00000360: 58bb 8fbc 38a1 973d 3265 b5bc a03b 8d3d
00000370: bd65 233d ac73 8e3b 89fd cb3c 9f51 7e3d
00000380: 1514 b63d 747e f93c 0fcd 5d3e c768 90bc
00000390: 3206 323e 3ba9 bebc e8d0 133e 4ff0 6f3e
000003a0: 7175 423e 0f6a 8c3e 8e61 0dbd 122c 083e
000003b0: 712b 453e c81b 3bbd 296b 2cbe bf37 da3d
000003c0: a219 9fbd 2dd3 9f3d b9c2 e13d e673 85bd
000003d0: 176c ba3d 1d67 3fbd 5822 0bbb eab5 273d
000003e0: e3e3 cbbd 3346 d53d 1251 13be 8b33 93bc
000003f0: ecfa e73d c7d2 063c fdd3 b83c 713b 86bd

model.rnn.weight_hh_l0 f4 [160, 40]
0.01939132 -0.22556296 -0.08936059 -0.12788132 -0.17142512 0.19364704 0.1583351 -0.18520723
0.19595894 -0.1980467 -0.13293119 0.085450515 0.10431683 -0.088757545 0.08708839 0.013724436
0.22102967 0.06592734 -0.10317135 -0.16011661 -0.13476378 0.061360378 0.10402142 0.016795706
-0.18181299 0.061248433 0.16725431 0.03133218 -0.0455857 0.094336085 -0.13127275 -0.066388324
-0.1640576 0.0019926112 0.05968212 -0.07060402 -0.050493527 -0.117694154 0.060414173 0.027443424
-0.064896025 -0.08214487 -0.17802925 -0.08977328 -0.20973788 0.05307835 0.02986894 0.07271735
0.18139468 0.010640427 -0.15331742 0.11376651 0.020434272 -0.012271955 0.05347915 -0.14676407
0.11244213 0.095040865 -0.30507603 -0.18953691 0.0127637405 -0.005598822 0.011942709 0.1279899
-0.05789779 0.059222 -0.2695283 0.14278756 -0.10231712 -0.09767647 -0.07372788 0.13719086
0.016004099 -0.019443406 0.124045506 0.07687878 0.043783385 -0.15003416 -0.1201661 0.14088325
-0.09073342 -0.10487052 -0.0046400167 -0.20386952 -0.22423977 0.007946531 0.07916533 -0.11530752
0.033278286 0.031016475 0.030685477 0.022615453 -0.043715797 0.053184338 -0.06841755 -0.052306093
0.00828126 0.10065518 -0.011296863 -0.054487213 -0.13407287 0.18366984 -9.2722585e-05 -0.052029934
-0.25115523 0.011407572 0.06870666 0.087748006 -0.052217536 0.046402458 -0.052866284 -0.0023721994
-0.037612088 0.008339027 0.03127555 0.006210494 -0.094819374 -0.16926923 0.022532588 -0.022715399
-0.0063977856 -0.008781338 0.05864456 -0.09877982 0.038210165 -0.0070925364 -0.035742823 -0.094001114
0.16988085 0.057330552 -0.17507666 0.2186619 0.11331557 -0.17894822 0.13018014 -0.12514533
-0.026762236 0.11142592 -0.00577074 0.03271971 -0.18274258 0.04606535 0.1315413 -0.10670944
-0.13206711 0.05927246 -0.053272534 0.1559253 -0.12164606 -0.069506094 -0.1518395 0.15700932
0.063237965 0.23238488 0.060431384 0.032684166 -0.0630749 0.012088001 -0.17300309 0.120429024
0.006523539 -0.19419555 -0.06705039 -0.17864023 -0.13275284 0.17462984 0.21753198 0.13597625
0.08721927 -0.035729736 0.0048405994 0.10050179 0.21238732 -0.22536838 -0.12150877 0.029641574
0.12685429 0.21793817 0.014777557 0.015480965 0.031410784 0.16662647 0.13924354 -0.04425955
-0.13471144 0.0026120848 -0.07202051 0.043984637 -0.17994006 0.16829963 0.071870856 -0.0608326
0.06309977 -0.011160692 0.07653161 -0.076431856 -0.036163107 0.0063901097 0.042236272 -0.020641938
0.059035275 0.050850533 0.1384973 -0.12360863 -0.0019190066 -0.05202835 -0.09493122 -0.03319552
0.024904616 0.10049017 0.13630323 -0.0036002223 0.12466654 -0.06104361 0.023335706 0.13549592
-0.056139477 0.058520295 0.07004734 0.059181124 -0.08085441 -0.12962446 0.033934563 0.09025073
-0.050750755 0.041703373 0.004901141 -0.14446886 -0.11681513 -0.08100241 -0.07419043 -0.113392696
0.14882088 0.05490016 0.133004 0.021929543 0.14931017 -0.12059273 -0.122141264 -0.094053954
0.07650851 -0.09601945 0.13615687 -0.070982724 -0.14736585 0.033873316 -0.12593773 -0.0014586421
-0.074586466 -0.10072034 -0.035220943 -0.07560833 0.1515355 -0.14468151 -0.15670227 0.12437028
00000000: 8cda 9e3c faf9 66be af02 b7bd 52f3 02be
00000010: 118a 2fbe 694b 463e 9922 223e f7a6 3dbe
00000020: 76a9 483e c1cc 4abe 1d1f 08be ae00 af3d
00000030: 10a4 d53d 84c6 b5bd 665b b23d 75dc 603c
00000040: 9a55 623e ea04 873d 804b d3bd 9cf5 23be
00000050: 84ff 09be 0555 7b3d 2f09 d53d 2697 893c
00000060: 2f2d 3abe a3df 7a3d b744 2b3e 2c56 003d
00000070: 12b8 3abd 4733 c13d 5d6c 06be 9af6 87bd
00000080: b7fe 27be 7896 023b 3d75 743d d798 90bd
00000090: 4dd2 4ebd a209 f1bd da74 773d 08d1 e03c
000000a0: 35e8 84bd 923b a8bd 4d4d 36be 0edb b7bd
000000b0: 87c5 56be af68 593d b5af f43c d6ec 943d
000000c0: 87bf 393e 2f55 2e3c 3eff 1cbe 6afe e83d
000000d0: c665 a73c 4f10 49bc f40c 5b3d 5249 16be
000000e0: 0f48 e63d c9a4 c23d ed32 9cbe f715 42be
000000f0: 021f 513c 5376 b7bb 5aab 433c c90f 033e
00000100: 3c26 6dbd c592 723d 9dff 89be e736 123e
00000110: a38b d1bd 9a0a c8bd a5fe 96bd c37b 0c3e
00000120: 071b 833c c747 9fbc 920b fe3d 9f72 9d3d
00000130: 3556 333d 8ea2 19be a519 f6bd b343 103e
00000140: 71d2 b9bd 5bc6 d6bd 480b 98bb 2cc3 50be
00000150: 1c9f 65be 2b32 023c 6f21 a23d 5926 ecbd
00000160: d04e 083d 4316 fe3c 1c60 fb3c 0b44 b93c
00000170: 560f 33bd d2d7 593d 801e 8cbd ea3e 56bd
00000180: 1fae 073c 4e24 ce3d 7a16 39bc fc2d 5fbd
00000190: 664a 09be f213 3c3e 0f74 c2b8 571d 55bd
000001a0: 6b97 80be d3e6 3a3c 14b6 8c3d 3ab5 b33d
000001b0: 0ee2 55bd 8110 3e3d 518a 58bd e776 1bbb
000001c0: 220f 1abd 6aa0 083c cb1a 003d 6681 cb3b
000001d0: a930 c2bd ea54 2dbe 4396 b83c a515 babc
000001e0: 84a4 d1bb 9adf 0fbc 4735 703d 134d cabd
000001f0: 4382 1c3d 8268 e8bb 1167 12bd a883 c0bd
00000200: 3ff5 2d3e 71d3 6a3d 4c47 33be e8e8 5f3e
00000210: fe11 e83d 343e 37be f14d 053e 1926 00be
00000220: 7a3c dbbc 4633 e43d 7a18 bdbb 1a05 063d
00000230: df20 3bbe 05af 3c3d c3b2 063e 7b8a dabd
00000240: 9a3c 07be aec7 723d 4d34 5abd e2aa 1f3e
00000250: 9221 f9bd 3659 8ebd d07b 1bbe 0dc7 203e
00000260: e882 813d 4df6 6d3e e686 773d d5df 053d
00000270: 6a2d 81bd c00c 463c b927 31be 7ea3 f63d
00000280: 69c3 d53b 33db 46be b751 89bd 77ed 36be
00000290: 5cf0 07be 2ad2 323e b4c0 5e3e 5c3d 0b3e
000002a0: 04a0 b23d 5859 12bd e49d 9e3b e2d3 cd3d
000002b0: 107c 593e f8c6 66be 97d9 f8bd e3d2 f23c
000002c0: 17e6 013e 2f2b 5f3e 911d 723c e0a3 7d3c
000002d0: 98a8 003d 21a0 2a3e dc95 0e3e 8049 35bd
000002e0: ccf1 09be 832f 2b3b 7d7f 93bd 3c29 343d
000002f0: 3542 38be bd56 2c3e 0731 933d 9b2b 79bd
00000300: 743a 813d 56db 36bc 9bbc 9c3d 4e88 9cbd
00000310: c41f 14bd 2064 d13b f1ff 2c3d 4819 a9bc
00000320: f9ce 713d a648 503d 3cd2 0d3e 8526 fdbd
00000330: 2d87 fbba ae1b 55bd 4d6b c2bd 07f8 07bd
00000340: c404 cc3c cacd cd3d 1393 0b3e b5f1 6bbb
00000350: 2c51 ff3d dd08 7abd 862a bf3c 71bf 0a3e
00000360: 82f2 65bd fab2 6f3d fb74 8f3d e867 723d
00000370: ff96 a5bd 46bc 04be f8fe 0a3d 60d5 b83d
00000380: 06e0 4fbd 28d1 2a3d c099 a03b a5ef 13be
00000390: c53c efbd 97e4 a5bd 27f1 97bd 6e3a e8bd
000003a0: 8064 183e fdde 603d 3332 083e 96a5 b33c
000003b0: c4e4 183e 52f9 f6bd 3325 fabd 5c9f c0bd
000003c0: 7eb0 9c3d d8a5 c4bd b56c 0b3e 645f 91bd
000003d0: 13e7 16be bfbe 0a3d d2f5 00be e82f bfba
000003e0: cac0 98bd 7746 cebd d643 10bd 8ad8 9abd
000003f0: 1f2c 1b3e 6427 14be 8f76 20be d8b5 fe3d

model.rnn.bias_ih_l0 f4 [160]
0.198282 0.05974508 0.19852227 0.073439755 0.17165613 0.16040729 0.25368977 0.020054081
0.06422712 0.035051595 0.23574445 0.28539568 0.256852 0.11592175 0.10300025 0.04876616
-0.0023601928 0.11148113 -0.0014752737 0.26866215 0.005543624 0.026913583 0.21349768 -0.049340155
0.20418678 0.27897882 0.06360587 0.20510055 0.2729953 0.12802756 -0.055197794 0.20697112
0.054101773 0.22407556 0.12835164 0.15251258 0.0006758566 0.25773844 0.28586528 0.21854499
-0.12935255 -0.045424093 -0.11885385 0.14399485 0.06644194 0.08177907 -0.122373186 0.03477006
0.09431844 -0.10954624 0.052340195 0.24268512 0.03396996 0.10691929 -0.17529719 -0.05356527
0.088896506 0.109766595 -0.18636952 -0.06121085 0.19195086 0.18102835 -0.04059362 -0.004119768
0.026618484 -0.08450612 -0.09405208 -0.060275644 0.018864967 0.047081593 -0.12964356 0.04643672
0.09640502 -0.010868107 -0.0189794 0.12598789 0.064039215 0.110177785 -0.06981768 -0.05806233
-0.07337276 0.10102428 -0.11097198 -0.2025271 -0.18111737 0.14127879 0.08172973 0.1092018
0.16890016 -0.15917133 -0.030229451 0.24518847 -0.046945274 -0.23189445 -0.09739859 -0.25754264
0.1395616 0.16497499 0.07919087 -0.16945483 -0.04569024 0.12578124 0.25758657 -0.042896297
-0.088918425 0.11172264 0.16765527 -0.0072960895 -0.10013028 0.16417818 -0.23195474 0.15404685
-0.075996704 0.06522978 0.24032718 -0.047461707 -0.10443521 -0.1447788 -0.13481379 0.08355041
-0.11238103 0.05937662 0.049401745 0.16447276 0.058034495 0.15481147 0.19921057 0.16314389
0.019931842 0.11938637 0.23347712 0.00413675 0.21896918 0.14556402 0.0141702555 0.18560445
0.09363457 0.1931501 -0.065024525 0.021965431 0.17406793 0.050533593 0.10810942 0.14680935
0.1253 0.25644907 -0.06872297 0.10079155 -0.001904364 0.15150595 -0.08637465 0.025110675
0.065572836 0.17847167 0.12114174 0.18252592 0.12621176 -0.016664246 0.16652519 0.20476292
00000000: 700a 4b3e 42b7 743d 6c49 4b3e 9567 963d
00000010: a0c6 2f3e cf41 243e a0e3 813e 7548 a43c
00000020: 8289 833d 4392 0f3d fe66 713e 621f 923e
00000030: 1b82 833e 6268 ed3d ccf1 d23d 06bf 473d
00000040: 77ad 1abb 3850 e43d f95d c1ba 168e 893e
00000050: 4aa7 b53b e079 dc3c 239f 5a3e e718 4abd
00000060: 5716 513e 50d6 8e3e cb43 823d e105 523e
00000070: 0ac6 8b3e a819 033e 1517 62bd 3df0 533e
00000080: d299 5d3d 1074 653e 9d6e 033e 422c 1c3e
00000090: f82b 313a 4bf6 833e ef5c 923e 42ca 5f3e
000000a0: ff74 04be 9d0e 3abd a669 f3bd 6373 133e
000000b0: b612 883d c97b a73d cb9e fabd 0d6b 0e3d
000000c0: 072a c13d c759 e0bd ac62 563d 7382 783e
000000d0: 1624 0b3d 80f8 da3d 1b81 33be 4267 5bbd
000000e0: 5f0f b63d 4fcd e03d a7d7 3ebe 3ab8 7abd
000000f0: c48e 443e 7f5f 393e 7f45 26bd 1eff 86bb
00000100: 020f da3c 8b11 adbd 609e c0bd 98e3 76bd
00000110: b48a 9a3c a1d8 403d 48c1 04be 6e34 3e3d
00000120: ff6f c53d 2510 32bc b07a 9bbc f802 013e
00000130: fe26 833d e4a4 e13d 92fc 8ebd c4d2 6dbd
00000140: 7544 96bd d1e5 ce3d 4745 e3bd 4463 4fbe
00000150: d576 39be 63ab 103e eb61 a73d 31a5 df3d
00000160: 2af4 2c3e cffd 22be c1a3 f7bc b012 7b3e
00000170: b049 40bd bd75 6dbe e978 c7bd a1dc 83be
00000180: 3ce9 0e3e 34ef 283e d32e a23d 9185 2dbe
00000190: b025 3bbd cccc 003e 63e2 833e 07b4 2fbd
000001a0: dd1a b6bd d7ce e43d d3ad 2b3e 0914 efbb
000001b0: 1b11 cdbd 531e 283e 8b85 6dbe 75be 1d3e
000001c0: 29a4 9bbd 3197 853d 5418 763e 3567 42bd
000001d0: 21e2 d5bd e540 14be a00c 0abe 7a1c ab3d
000001e0: 0728 e6bd e634 733d 7c59 4a3d 8c6b 283e
000001f0: 94b5 6d3d e686 1e3e dbfd 4b3e 310f 273e
00000200: 1a48 a33c d780 f43d a014 6f3e 938d 873b
00000210: 7539 603e bc0e 153e 5c2a 683c 180f 3e3e
00000220: 7bc3 bf3d 24c9 453e 942b 85bd d9f0 b33c
00000230: dd3e 323e 50fc 4e3d 7968 dd3d 3155 163e
00000240: a54e 003e 4b4d 833e a1be 8cbd cd6b ce3d
00000250: da9b f9ba 6024 1b3e 31e5 b0bd e7b4 cd3c
00000260: 0d4b 863d 47c1 363e 2919 f83d 13e8 3a3e
00000270: a83d 013e 7583 88bc 9485 2a3e 5fad 513e

model.rnn.bias_hh_l0 f4 [160]
-0.06730726 -0.059906274 0.06501506 0.23628166 0.08950283 0.07215694 0.18661107 -0.07604712
0.2647074 0.18221849 0.1252479 0.008033987 0.07324199 0.05026768 -0.12307259 0.06615847
0.14216161 0.23209038 0.053607557 -0.0020367228 0.14998293 0.28281203 0.091855936 0.100619234
0.16154161 0.24499072 0.039663017 0.23012666 0.15356904 0.16200593 0.21800408 0.15364578
0.13989383 0.038072154 -0.020407656 0.22661988 -0.0071603623 0.05560157 0.223992 0.17023957
-0.17289516 0.018044923 0.061443888 0.06662489 0.19916238 -0.102598324 0.1635573 -0.13478732
0.15907943 -0.107935056 -0.059543166 -0.035622448 0.15670113 0.058733404 0.018593552 0.01878015
0.18765692 0.02119122 0.10368901 0.060650516 0.09815851 0.18145478 -0.09599773 -0.18381453
0.049040396 0.20956132 -0.06938925 0.1698385 -0.06229149 0.1767961 0.041384887 -0.102124125
-0.024735633 -0.037502766 0.05255644 -0.0022904223 0.003913285 0.09840566 0.09509789 -0.09687276
0.05797907 -0.008363234 -0.109766774 -0.038453024 -0.03857777 -0.02111314 0.081355475 -0.13362509
0.027434407 -0.11930084 -0.12990679 0.039549083 0.098894544 -0.028175788 -0.11449034 -0.17172024
0.053498536 0.17036147 0.0136829745 0.057939082 -0.17783059 0.19910066 0.25217223 -0.10560529
-0.15565698 0.21798882 0.01566353 0.24606383 -0.015874153 0.074659064 -0.09846848 0.069575526
-0.103453 -0.007755331 0.13291568 0.19338313 -0.24889751 -0.104986124 -0.25360113 0.023865817
0.13766102 0.013790636 -0.068168074 0.18481995 0.16065791 0.072058834 0.038716663 0.19027822
0.24484286 0.22154729 0.18159983 0.2553064 0.19469161 -0.027519379 0.066871874 0.10715011
0.098630235 -0.029033316 -0.094158456 0.1160592 -0.0022832172 0.06363249 0.20066644 -0.040263735
0.08655239 0.06970368 0.13867043 0.08535893 0.009427883 0.17117897 0.17735505 -0.02302557
-0.014046566 0.17669445 0.2511794 0.022014558 -0.027930122 -0.050817493 0.19639441 -0.036310345
00000000: 64d8 89bd 4860 75bd 9e26 853d d2f3 713e
00000010: 424d b73d 05c7 933d f916 3f3e 98be 9bbd
00000020: ba87 873e 7c97 3a3e fc40 003e fca0 033c
00000030: e5ff 953d 7ce5 4d3d 7b0d fcbd 187e 873d
00000040: d092 113e 1aa9 6d3e 9993 5b3d 8a7a 05bb
00000050: 2095 193e bdcc 903e f71e bc3d 7511 ce3d
00000060: 2a6b 253e d9de 7a3e b075 223d 53a6 6b3e
00000070: 3441 1d3e e2e4 253e 763c 5f3e 5255 1d3e
00000080: 5440 0f3e 8cf1 1b3d f52d a7bc 0b0f 683e
00000090: 79a1 eabb 79be 633d 295e 653e 4853 2e3e
000000a0: 6e0b 31be f2d2 933c 96ac 7b3d a172 883d
000000b0: 39f1 4b3e 121f d2bd 917b 273e b005 0abe
000000c0: b8e5 223e 0e0d ddbd 89e3 73bd d8e8 11bd
000000d0: 4376 203e 7092 703d 8151 983c d4d8 993c
000000e0: 2329 403e 3699 ad3c e75a d43d ad6c 783d
000000f0: 5407 c93d 48cf 393e 759a c4bd e039 3cbe
00000100: 95de 483d 3e97 563e f31b 8ebd 25ea 2d3e
00000110: 5d25 7fbd 090a 353e 3383 293d 7426 d1bd
00000120: 62a2 cabc 809c 19bd 6c45 573d e91a 16bb
00000130: 043b 803b e888 c93d afc2 c23d 3a65 c6bd
00000140: 767b 6d3d f205 09bc 67cd e0bd eb80 1dbd
00000150: b903 1ebd 77f5 acbc b39d a63d 04d5 08be
00000160: 1fbe e03c 0054 f4bd 4906 05be 38fe 213d
00000170: 3989 ca3d e9d0 e6bc e979 eabd 6ed7 2fbe
00000180: 4821 5b3d 3d73 2e3e 8e2e 603c 8851 6d3d
00000190: 3919 36be 0be1 4b3e b81c 813e 9647 d8bd
000001a0: 8b64 1fbe 7638 5f3e ce50 803c 28f8 7b3e
000001b0: 830a 82bc dae6 983d d8a9 c9bd 9d7d 8e3d
000001c0: 2bdf d3bd 6f20 febb 0c1b 083e 3a06 463e
000001d0: fdde 7ebe f702 d7bd 02d8 81be 3f82 c33c
000001e0: 03f7 0c3e 1ff2 613c b49b 8bbd 7141 3d3e
000001f0: 8283 243e 9593 933d 5d95 1e3d 4bd8 423e
00000200: 16b8 7a3e 4bdd 623e 4ef5 393e 85b7 823e
00000210: 3d5d 473e 5270 e1bc 1ff4 883d 8471 db3d
00000220: a6fe c93d 47d7 edbc 26d6 c0bd 72b0 ed3d
00000230: 07a2 15bb c051 823d 817b 4d3e 96eb 24bd
00000240: 6142 b13d cec0 8e3d 9fff 0d3e aad0 ae3d
00000250: 6877 1a3c 8a49 2f3e 909c 353e 1fa0 bcbc
00000260: 9123 66bc 64ef 343e 969a 803e e057 b43c
00000270: b6cd e4bc 0126 50bd 9e1b 493e 28ba 14bd

model.rnn.weight_ih_l1 f4 [160, 40]
0.1868343 -0.0048198756 0.035865713 -0.18254901 -0.076376766 0.21731552 0.22174644 -0.18335904
0.2153942 -0.29665172 -0.14455111 0.04617148 0.033564158 -0.05623431 -0.008540292 -0.12045685
0.13969493 0.15613009 -0.031629823 -0.025866918 -0.08165115 0.14025566 0.24331126 -0.19535367
-0.16272943 0.0011504866 -0.0055784034 0.12619135 -0.12553898 0.12540813 -0.16091913 0.035423055
-0.14645502 0.024243955 0.21955618 -0.004721812 -0.15184572 0.0030494796 -0.23958632 0.25199845
0.045984868 -0.02980598 0.13973337 -0.101953395 -0.027070772 -0.14481634 -0.0046641557 0.105699375
-0.07269827 -0.032688756 0.12599754 -0.20567964 0.08446257 0.051984593 0.002747999 0.011398517
-0.11752679 0.1483466 -0.049725283 0.0064461473 -0.07963607 0.0844368 -0.092583865 -0.27627686
0.09513533 0.11266198 0.081300445 -0.16226311 -0.019198906 -0.08045799 0.15060338 -0.15400623
0.12428888 -0.063903496 -0.06714419 0.058613762 0.1101574 0.12579139 0.037373144 -0.088590026
0.22003834 0.12092142 0.24116495 0.09509545 -0.033717547 -0.009170897 -0.0008472885 -0.03917722
0.087670565 0.062434327 -0.17530216 -0.1426283 0.05967271 -0.130939 0.085217685 -0.039669424
-0.12145978 0.10815157 0.22611943 0.0978718 -0.17930014 -0.012460342 0.12518972 -0.021224337
0.08094467 -0.04722298 0.18234189 -0.06944201 -0.028967595 -0.014042595 -0.09870201 -0.002099375
-0.016863685 0.02722586 -0.02430033 0.12864436 -0.06752186 0.04218927 0.07606411 -0.023633597
0.0013986855 -0.092089556 -0.03137657 -0.19195488 -0.19891569 0.02714678 0.032567322 -0.09506737
0.050637636 -0.13289768 -0.2396986 0.19918047 -0.014863687 -0.10352054 0.018644517 -0.057085123
0.10538845 0.033200577 -0.05282999 -0.056731496 -0.006375784 0.112903014 0.008172013 -0.21922489
-0.27554238 0.028360121 0.22325702 0.119432576 -0.24461967 0.27634245 -0.18814874 0.20274653
-0.12148963 0.1857727 0.26902935 0.08021883 -0.2702884 -0.14921123 -0.25533167 0.04293178
-0.12082813 -0.123559214 -0.22549115 0.010939264 -0.013179984 0.121299066 0.10503996 -0.30259004
0.027399186 -0.22556047 -0.24767528 -0.04617159 0.119413316 -0.09177289 -0.17295077 -0.21299815
-0.021963151 0.07777918 0.11939014 -0.08193508 0.07257247 -0.03216779 0.25383258 -0.17967212
-0.15375704 -0.031550445 0.12788083 0.24181746 -0.05287193 0.24118365 -0.26281828 0.1304256
0.04724913 0.23209041 0.114856794 0.032443672 -0.019363755 -0.1299367 -0.17497505 0.054572295
0.057005882 -0.20574906 -0.032261264 -0.022304535 -0.23030058 0.07449182 0.11634467 -0.17163661
0.007910677 -0.19144428 -0.26025853 0.24783395 0.14607899 -0.2688468 -0.044976756 -0.20677492
0.08958562 0.07872784 0.014752459 0.02832974 -0.0013256351 0.2641421 0.2105429 -0.1214723
-0.09208803 0.16066214 -0.042734627 0.15421309 -0.14105158 -0.010689083 -0.04554992 0.007698677
-0.22969986 0.14636429 0.026044527 0.061344635 -0.20420723 -0.18198822 0.022440698 0.16501372
0.20499611 0.19923186 0.10301805 0.06334021 0.022697058 0.15080886 0.1566031 0.04815372
0.0943115 -0.13188605 0.053385094 0.075707324 0.025787126 0.028696321 0.11670365 -0.051965754
00000000: 7e51 3f3e 0cf0 9dbb ede7 123d 21ee 3abe
00000010: 6c6b 9cbd f687 5e3e 8011 633e 79c2 3bbe
00000020: 4c90 5c3e bce2 97be 3505 14be 4e1e 3d3d
00000030: 927a 093d f355 66bd 95ec 0bbc 15b2 f6bd
00000040: 300c 0f3e 91e0 1f3e 468e 01bd dce6 d3bc
00000050: b838 a7bd 2e9f 0f3e 9626 793e cb0a 48be
00000060: 8ba2 26be edcb 963a 0acb b6bb 4e38 013e
00000070: 4a8d 00be fd6a 003e fcc7 24be c417 113d
00000080: 4ef8 15be 429b c63c 56d3 603e 6eb9 9abb
00000090: 727d 1bbe c7d9 473b 1e56 75be f105 813e
000000a0: a15a 3c3d ac2b f4bc 4416 0f3e f1cc d0bd
000000b0: 86c3 ddbc bc4a 14be c6d5 98bb ea78 d83d
000000c0: d5e2 94bd a5e4 05bd 8005 013e af9d 52be
000000d0: b6fa ac3d cced 543d c617 343b d8c0 3a3c
000000e0: e3b1 f0bd 2ce8 173e bdac 4bbd 343a d33b
000000f0: 3c18 a3bd 33ed ac3d 9c9c bdbd 2974 8dbe
00000100: 50d6 c23d 53bb e63d d980 a63d 4d28 26be
00000110: 0647 9dbc 29c7 a4bd c637 1a3e cfb3 1dbe
00000120: 2b8b fe3d d6df 82bd e582 89bd fc14 703d
00000130: 349a e13d 75cf 003e 9514 193d b06e b5bd
00000140: bb51 613e a6a5 f73d f2f3 763e 67c1 c23d
00000150: 691b 0abd 8841 16bc 921c 5eba 4b78 20bd
00000160: a08c b33d 23bb 7f3d 6982 33be 270d 12be
00000170: 5f6b 743d e014 06be 9c86 ae3d 687c 22bd
00000180: e8bf f8bd 927e dd3d da8b 673e 0371 c83d
00000190: 759a 37be 7626 4cbc bc31 003e a9de adbc
000001a0: 52c6 a53d e26c 41bd d5b7 3a3e 9d37 8ebd
000001b0: 734d edbc ea12 66bc 4824 cabd ab95 09bb
000001c0: b625 8abc c408 df3c 7c11 c7bc 59bb 033e
000001d0: e748 8abd a8ce 2c3d 80c7 9b3d 3f9b c1bc
000001e0: 1954 b73a 7399 bcbd b884 00bd d28f 44be
000001f0: 8eb0 4bbe ed62 de3c 5065 053d aeb2 c2bd
00000200: 6969 4f3d 5416 08be 8d73 75be f7f5 4b3e
00000210: d286 73bc 9402 d4bd 63bc 983c 17d2 69bd
00000220: e6d5 d73d 54fd 073d 4264 58bd 495f 68bd
00000230: f4eb d0bb b239 e73d e8e3 053c 7d7c 60be
00000240: e413 8dbe 7c53 e83c 7d9d 643e 1199 f43d
00000250: 947d 7abe c27c 8d3e 10aa 40be c99c 4f3e
00000260: 8ecf f8bd 333b 3e3e 37be 893e c549 a43d
00000270: 3e63 8abe d4ca 18be d5ba 82be 3cd9 2f3d
00000280: bd74 f7bd 9d0c fdbd 27e7 66be 993a 333c
00000290: dcf0 57bc a56b f83d 311f d73d 15ed 9abe
000002a0: 4274 e03c 53f9 66be 979e 7dbe 6c1e 3dbd
000002b0: f88e f43d 6df3 bbbd 021a 31be 301c 5abe
000002c0: 11ec b3bc b14a 9f3d d182 f43d 94cd a7bd
000002d0: e0a0 943d 5fc2 03bd 58f6 813e f8fb 37be
000002e0: 7c72 1dbe 0a3b 01bd 31f3 023e ff9e 773e
000002f0: 3d90 58bd d9f8 763e 1e90 86be 4a8e 053e
00000300: 4e88 413d 1ca9 6d3e 0a3a eb3d a8e3 043d
00000310: bda0 9ebc 200e 05be a92c 33be 3387 5f3d
00000320: 007f 693d e2af 52be 6324 04bd 00b8 b6bc
00000330: ead3 6bbe 2b8f 983d 1d46 ee3d 82c1 2fbe
00000340: c99b 013c f809 44be 9b40 85be 2fc8 7d3e
00000350: bb95 153e 4aa6 89be 8c39 38bd cebc 53be
00000360: aa78 b73d 103c a13d 4cb4 713c c513 e83c
00000370: efc0 adba a23d 873e 8f98 573e 78c6 f8bd
00000380: a698 bcbd 9e84 243e 810a 2fbd 09ea 1d3e
00000390: d36f 10be 4321 2fbc 8e92 3abd 2f45 fc3b
000003a0: 7136 6bbe 85e0 153e 555b d53c 8344 7b3d
000003b0: b31b 51be 1f5b 3abe 8ed5 b73c 5bf9 283e
000003c0: 80ea 513e 7003 4c3e 21fb d23d 83b8 813d
000003d0: 2eef b93c a36d 1a3e 905c 203e d63c 453d
000003e0: 6326 c13d 230d 07be 54aa 5a3d 710c 9b3d
000003f0: 863f d33c 8c14 eb3c 5302 ef3d 0bda 54bd

model.rnn.weight_hh_l1 f4 [160, 40]
0.24261266 0.024330439 -0.229088 0.00053025666 0.012938385 -0.037313975 0.04724636 -0.03945341
-0.035987135 -0.11793803 -0.10479304 0.095866576 -0.057356793 0.16731387 0.029777054 0.106393725
-0.0061069666 0.16218768 -0.09908482 0.07603584 -0.01829296 0.09472902 -0.14546616 -0.052441727
0.025833309 -0.0011704881 0.071175955 0.12137425 0.16286314 0.17643327 -0.05780994 0.08673944
0.15894385 -0.11951682 0.10651487 -0.0625269 0.0313814 0.23526722 -0.061917365 -0.1499998
-0.052728478 0.08345472 -0.07764225 -0.00019314873 -0.027366966 -0.09349112 -0.055891864 -0.04804404
0.14639103 0.14920194 0.22618659 0.09358984 0.015439691 -0.023074662 -0.040335886 -0.1756713
0.04565888 0.06043181 0.12410378 -0.19342458 0.036105756 0.03225984 -0.029854598 -0.16020586
-0.069424495 0.015060649 0.018826753 0.042471558 -0.10164347 0.1898195 -0.16249399 -0.13393213
0.12051232 0.16490008 0.054170735 -0.09569229 0.25551236 0.022912784 -0.11014397 0.21849096
-0.1449068 0.01111759 -0.053699497 -0.06835389 0.07164857 -0.18441531 0.14761244 0.15110305
0.10422075 0.06002163 0.1755101 -0.18160227 0.23178332 -0.111735225 -0.13394707 -0.23958847
-0.010501198 -0.02201805 -0.105874605 0.05971292 0.051360376 -0.1794981 -0.008329072 -0.03232348
0.049738225 -0.07601651 0.07395496 0.05950589 -0.058794048 0.057032418 0.07838031 0.050394997
0.10578992 0.13409467 -0.03079947 -0.1520177 0.19073008 -0.015113372 -0.10249063 0.12270304
0.1799529 0.049715582 -0.091182545 -0.1805779 0.0035989042 0.057958096 0.028957443 -0.042765364
-0.043147177 -0.05416587 -0.06226211 -0.11429806 -0.12365635 -0.05416477 0.047678724 0.12869799
-0.02026726 0.15290876 -0.095731854 0.0557038 0.0067699384 0.18905845 -0.06383858 0.039712656
-0.2141202 -0.021911316 -2.840121e-06 0.04130735 0.17283642 0.065448955 0.18824688 -0.021438912
0.058239914 0.009662394 0.0008297614 0.051638458 -0.14260925 0.23407787 0.11976015 0.08883792
-0.08090702 0.08981123 -0.10918325 0.06220549 -0.14082895 0.19300053 -0.1167425 0.05763651
-0.063349165 -0.10096255 -0.14006369 0.13998225 -0.21623446 0.11482411 0.06011191 0.048487682
-0.000113130336 -0.029112794 -0.062452137 0.18399811 -0.017711034 -0.0629885 -0.030507864 -0.013664854
-0.1516207 -0.10912056 -0.004727565 0.1496372 0.04865523 -0.024502141 0.013446076 0.00079275673
0.08871501 -0.13999845 -0.079779066 0.07285499 -0.094323546 0.10039713 0.032191757 -0.1940816
0.055809338 0.046106674 -0.07447141 0.07570181 -0.071616404 0.03747787 0.0038316867 0.06312335
0.037796 -0.15135376 -0.08694602 0.106471874 0.12089714 -0.022583684 0.07672142 -0.16117367
-0.09730523 -0.13550095 -0.06604831 0.16278593 0.096940495 0.07766247 0.04187234 0.10390117
-0.15700202 -0.06326981 -0.008432785 -0.03873069 0.15227103 -0.08549703 -0.0028875323 -0.0011132322
-0.020952394 0.027588332 0.120840214 0.106497474 -0.02723844 0.1823677 0.06508421 0.17928709
0.06754099 0.018345121 0.13323891 -0.056183815 0.059529524 -0.094964236 0.15260324 0.0786172
0.09656197 0.048667606 0.023140382 0.087559246 -0.022273166 0.13296841 0.10980892 -0.21913745
00000000: 746f 783e a150 c73c 0b96 6abe ec00 0b3a
00000010: 85fb 533c 8ad6 18bd 6685 413d e699 21bd
00000020: 3f67 13bd 7e89 f1bd bc9d d6bd b255 c43d
00000030: f5ee 6abd 5454 2b3e 02ef f33c f4e4 d93d
00000040: f31c c8bb 8714 263e fbec cabd aeb8 9b3d
00000050: 1edb 95bc 4a01 c23d 15f5 14be 23cd 56bd
00000060: 60a0 d33c 106b 99ba b3c4 913d 1093 f83d
00000070: 98c5 263e ecaa 343e 1eca 6cbd 73a4 b13d
00000080: 2dc2 223e 3cc5 f4bd 7824 da3d 1a0e 80bd
00000090: c889 003d e4e9 703e 109d 7dbd 8c99 19be
000000a0: d1f9 57bd 4fea aa3d e602 9fbd f887 4ab9
000000b0: b030 e0bc 4678 bfbd deee 64bd d4c9 44bd
000000c0: 88e7 153e 65c8 183e 759d 673e 08ac bf3d
000000d0: c2f6 7c3c 1307 bdbc 3e37 25bd 2de3 33be
000000e0: ce04 3b3d 5887 773d 1f2a fe3d 1811 46be
000000f0: a1e3 133d e522 043d a191 f4bc 010d 24be
00000100: 6e2e 8ebd f1c0 763c 903a 9a3c a8f6 2d3d
00000110: 742a d0bd 0b60 423e d364 26be 8125 09be
00000120: 2acf f63d 91db 283e 22e2 5d3d 52fa c3bd
00000130: 84d2 823e 97b3 bb3c 2993 e1bd 18bc 5f3e
00000140: 7362 14be 8d26 363c 01f4 5bbd 20fd 8bbd
00000150: 7cbc 923d 5ed7 3cbe b727 173e c2ba 1a3e
00000160: b071 d53d 3ed9 753d ebb8 333e f2f5 39be
00000170: 9b58 6d3e 70d5 e4bd 6c29 09be ae56 75be
00000180: 370d 2cbc 335f b4bc c9d4 d8bd 8995 743d
00000190: 425f 523d 5ace 37be a976 08bc a065 04bd
000001a0: 4fba 4b3d 8bae 9bbd b375 973d 73bc 733d
000001b0: 07d2 70bd d39a 693d db85 a03d fc6a 4e3d
000001c0: 63a8 d83d 1d50 093e 2c4f fcbc 87aa 1bbe
000001d0: bf4e 433e 149e 77bc 9be6 d1bd bb4b fb3d
000001e0: 9345 383e 91a2 4b3d eabd babd 6ae9 38be
000001f0: 98db 6b3b 7865 6d3d 2938 ed3c bc2a 2fbd
00000200: 18bb 30bd 08dd 5dbd 8e06 7fbd 1a15 eabd
00000210: 8a3f fdbd e1db 5dbd c44a 433d 68c9 033e
00000220: 8607 a6bc 1d94 1c3e 100f c4bd ab29 643d
00000230: 5cd6 dd3b 8a98 413e cdbd 82bd bda9 223d
00000240: 5342 5bbe 5c7f b3bc e898 3eb6 e531 293d
00000250: 08fc 303e 1a0a 863d cac3 403e a8a0 afbc
00000260: fa8c 6e3d 054f 1e3c 5884 593a d982 533d
00000270: 2908 12be 1cb2 6f3e cf44 f53d a8f0 b53d
00000280: 94b2 a5bd f3ee b73d 789b dfbd 2fcb 7e3d
00000290: 7735 10be eea1 453e b116 efbd 4314 6c3d
000002a0: 35bd 81bd 74c5 cebd db6c 0fbe 8257 0f3e
000002b0: 916c 5dbe e728 eb3d e837 763d 059b 463d
000002c0: 6340 edb8 f47d eebc d0cd 7fbd 006a 3c3e
000002d0: bb16 91bc 1d00 81bd a1eb f9bc 8de2 5fbc
000002e0: 7542 1bbe 9a7a dfbd b1e9 9abb 7f3a 193e
000002f0: b54a 473d b7b8 c8bc ee4c 5c3c 01d1 4f3a
00000300: 37b0 b53d c15b 0fbe 3563 a3bd ff34 953d
00000310: b42c c1bd 039d cd3d 81db 033d 54bd 46be
00000320: 5598 643d 5ada 3c3d 7784 98bd 8d09 9b3d
00000330: 9fab 92bd 6582 193d 091d 7b3b d146 813d
00000340: facf 1a3d 7bfc 1abe c110 b2bd ed0d da3d
00000350: eb98 f73d 6b01 b9bc 1f20 9d3d b60a 25be
00000360: f747 c7bd c3c0 0abe 5644 87bd 5bb1 263e
00000370: bd88 c63d 800d 9f3d 5582 2b3d 23ca d43d
00000380: 23c5 20be 9a93 81bd aa29 0abc 12a4 1ebd
00000390: f0ec 1b3e 1119 afbd c13c 3dbb e0e9 91ba
000003a0: 5ba4 abbc ed00 e23c 137b f73d 591b da3d
000003b0: 2623 dfbc 99be 3a3e df4a 853d 0997 373e
000003c0: ee52 8a3d 8248 963c c86f 083e 0021 66bd
000003d0: 3bd5 733d 9c7c c2bd 0644 1c3e 0e02 a13d
000003e0: 48c2 c53d af57 473d e690 bd3c 4352 b33d
000003f0: 3776 b6bc df28 083e 80e3 e03d 9165 60be

model.rnn.bias_ih_l1 f4 [160]
0.23126645 0.18376316 0.13607393 0.10610394 0.11455405 -0.002360313 0.03420139 0.14178169
0.23324417 -0.078266166 0.25742722 0.13482915 0.03035739 0.02405678 -0.032535065 0.030858029
0.031252515 0.042114213 0.158984 -0.040322486 0.17699905 -0.08127106 0.18860884 0.22070119
-0.003075188 0.17920224 0.10389004 0.045146573 0.20005901 0.03335181 -0.05071149 0.11053224
-0.104818195 0.13113885 -0.15036878 -0.006710243 -0.025931738 0.1872542 0.0062975893 0.098570816
0.035187226 -0.1833046 -0.12145181 0.02844117 -0.044743128 0.047281165 -0.15863977 0.06674103
0.13997988 -0.041373264 0.02298622 0.14918663 -0.08437395 -0.08657409 -0.09137517 0.096096136
-0.1276719 0.0235909 -0.14975771 -0.049822833 0.10260029 -0.08325627 0.13399944 -0.036376715
-0.07715008 0.09002733 0.07874397 0.20448469 0.022056755 -0.11692891 -0.14245625 -0.03260524
0.12237125 -0.059088726 -0.119726464 0.03197552 -0.091624886 0.19780116 0.17304532 0.037112527
0.20012721 -0.08833303 -0.18481185 -0.22805884 -0.068938576 0.13582468 0.06484493 -0.036074325
-0.044683356 -0.09846233 0.06405482 -0.11962611 -0.010804214 0.031834017 -0.010685546 0.0331002
0.010581074 0.21627429 -0.185548 0.18436405 -0.002837256 -0.018647932 0.07009398 -0.012486558
-0.064265534 -0.19962406 0.041143432 0.15037714 0.10600034 0.11453307 -0.12539124 0.03699882
0.065436065 -0.17895989 -0.108282186 0.019822957 0.080478065 0.14590287 0.084431924 0.03864126
0.22501934 -0.011109102 -0.04081106 0.026839862 0.1205271 0.05302112 0.10624931 0.01598971
0.03854705 0.053819224 0.0577932 -0.10379546 0.14477041 -0.059506137 0.046207935 0.05741991
0.18856488 0.041421965 -0.100481875 -0.014166342 0.051826745 0.08151332 0.008509835 0.13259357
-0.04742533 0.16271223 0.21838747 0.25496304 0.04203299 -0.05183529 0.097927794 -0.0033448283
0.16425154 0.22189729 0.14994141 0.15194163 -0.09406534 0.0292129 0.10209453 0.025833631
00000000: 1dd1 6c3e 692c 3c3e f756 0b3e 064d d93d
00000010: 509b ea3d 7baf 1abb c216 0c3d 382f 113e
00000020: 8fd7 6e3e 034a a0bd 80cd 833e a710 0a3e
00000030: 10b0 f83c b912 c53c 7d43 05bd fac9 fc3c
00000040: a302 003d f47f 2c3d b4cc 223e 3129 25bd
00000050: 3d3f 353e 7171 a6bd ad22 413e 7eff 613e
00000060: 1889 49bb cb80 373e 4dc4 d43d 9deb 383d
00000070: 45dc 4c3e e89b 083d dab6 4fbd ba5e e23d
00000080: ecaa d6bd 4349 063e 46fa 19be 99e1 dbbb
00000090: cc6e d4bc 91bf 3f3e 025c ce3b 7fdf c93d
000000a0: 7b20 103d 33b4 3bbe babb f8bd 75fd e83c
000000b0: 9244 37bd e5a9 413d 7772 22be 85af 883d
000000c0: e356 0f3e 0377 29bd 994d bc3c 61c4 183e
000000d0: 40cc acbd c24d b1bd e822 bbbd 0dce c43d
000000e0: 6cbc 02be b441 c13c 165a 19be 0713 4cbd
000000f0: 1a20 d23d 4382 aabd 2637 093e c0ff 14bd
00000100: dc00 9ebd 4060 b83d 8544 a13d 6f64 513e
00000110: 5eb0 b43c 6d78 efbd 0de0 11be 128d 05bd
00000120: c79d fa3d 0507 72bd 2633 f5bd c3f8 023d
00000130: d4a5 bbbd 638c 4a3e cb32 313e 4e03 183d
00000140: 26ee 4c3e f3e7 b4bd 513f 3dbe 4288 69be
00000150: ab2f 8dbd a015 0b3e 6bcd 843d acc2 13bd
00000160: e505 37bd 9ea6 c9bd 2c2f 833d 89fe f4bd
00000170: 2804 31bc 6364 023d 6e12 2fbc 1394 073d
00000180: 3e5c 2d3c 0277 5d3e 4b00 3ebe eec9 3c3e
00000190: 42f1 39bb 8cc3 98bc 6f8d 8f3d 6c94 4cbc
000001a0: a69d 83bd 406a 4cbe 0486 283d 77fc 193e
000001b0: b516 d93d 5090 ea3d 9066 00be 138c 173d
000001c0: 5803 863d 4341 37be 0dc3 ddbd c163 a23c
000001d0: afd1 a43d 9067 153e a5ea ac3d 4c46 1e3d
000001e0: 786b 663e f302 36bc 8029 27bd 45df db3c
000001f0: ead6 f63d ad2c 593d 3d99 d93d dafc 823c
00000200: 83e3 1d3d 8c71 5c3d 90b8 6c3d b792 d4bd
00000210: b23e 143e b5bc 73bd 8844 3d3d 2431 6b3d
00000220: 2717 413e 14aa 293d 71c9 cdbd f219 68bc
00000230: 4848 543d 75f0 a63d d66c 0b3c 9cc6 073e
00000240: 1041 42bd 099e 263e f7a0 5f3e 848a 823e
00000250: c92a 2c3d 3e51 54bd 5e8e c83d e834 5bbb
00000260: 8e31 283e 0b39 633e 3e8a 193e 9696 1b3e
00000270: 54a5 c0bd e44f ef3c f016 d13d 0da1 d33c

model.rnn.bias_hh_l1 f4 [160]
0.27094895 0.1538792 -0.03140401 -0.00022750696 0.13374074 0.18304108 0.07124606 0.12885326
0.008125306 0.1334274 0.096458994 0.051242586 0.0262389 0.10117555 0.07365598 0.018994344
0.111137755 0.0007429808 0.16114369 0.04730594 0.24289085 0.104947016 0.119209714 0.05431428
-0.1255661 -0.08448016 0.26018918 0.1785251 0.24237517 0.04692303 0.0504258 -0.07990476
0.07863953 -0.025744647 0.13077891 0.16538037 0.034695566 -0.054714568 0.26053426 0.1580405
0.076045215 0.014061112 -0.091382384 0.15641351 -0.06475689 0.15592785 -0.00022530428 0.10507092
0.071522936 0.0079223225 0.14960031 -0.10358738 0.051934205 0.14151832 -0.058714844 0.014930131
-0.072595716 0.02830253 -0.13189197 -0.08791119 -0.050713968 -0.16918382 0.05576411 0.11012349
-0.118167475 -0.059211433 0.17298342 -0.05158895 0.17502546 -0.004797202 -0.15511443 0.120874226
0.14464936 -0.060941264 0.038816307 -0.07970671 -0.015563319 -0.06961646 -0.003501086 0.09481401
0.14239283 -0.110255495 -0.047486242 0.01452474 -0.08709946 0.12619618 -0.023980942 -0.09312635
-0.039030183 -0.06836997 -0.019432172 -0.13781515 0.02982951 0.051140692 -0.09226739 0.051703013
0.051853795 -0.089496545 -0.098120034 0.19077356 0.10459292 0.15830848 -0.20585497 0.046914313
-0.07921848 0.0073907417 -0.2021763 0.18860957 0.24271731 0.030368157 0.14539918 0.030678652
0.033496715 -0.13334447 0.06820792 -0.05144005 0.056734618 0.19923344 0.007417903 -0.06491618
0.16282573 0.16083802 0.013338793 0.16629604 0.24911872 0.12911433 0.04446111 0.16178824
-0.06184754 0.13821447 -0.039015155 -0.04005819 -0.018284274 0.19991057 0.19897507 0.11833877
-0.07268913 0.19015132 -0.03890009 0.21713154 0.09866875 0.037733275 -0.023775054 0.094471306
0.041537095 0.063519925 -0.029932639 0.16072729 0.13952677 -0.041624002 -0.08150471 -0.017632881
-0.029715048 -0.07224608 -0.0809722 -0.003159644 0.12847352 0.24260244 0.25913012 0.047612336
00000000: d2b9 8a3e 8292 1d3e 7ea1 00bd ef8e 6eb9
00000010: 55f3 083e 1f6f 3b3e 74e9 913d 1cf2 033e
00000020: 0120 053c 31a1 083e 4b8c c53d bfe3 513d
00000030: f6f2 d63c 2035 cf3d f2d8 963d 079a 9b3c
00000040: 319c e33d 99c4 423a da02 253e e0c3 413d
00000050: 61b8 783e 76ee d63d 3924 f43d a778 5e3d
00000060: 6694 00be ef03 adbd 8437 853e 49cf 363e
00000070: 3231 783e 5d32 403d 498b 4e3d 1ba5 a3bd
00000080: c30d a13d 70e6 d2bc e8ea 053e 7959 293e
00000090: f01c 0e3d 621c 60bd bf64 853e 5ed5 213e
000000a0: 98bd 9b3d 9460 663c b026 bbbd dd2a 203e
000000b0: 439f 84bd 8dab 1f3e a83f 6cb9 6c2f d73d
000000c0: 9e7a 923d a1cc 013c d330 193e 9f25 d4bd
000000d0: f6b8 543d 2eea 103e fa7e 70bd 829d 743c
000000e0: 10ad 94bd b5da e73c b00e 07be c80a b4bd
000000f0: 73b9 4fbd 863e 2dbe e868 643d 6d88 e13d
00000100: ca01 f2bd b087 72bd 9122 313e ef4e 53bd
00000110: e039 333e d931 9dbb 51d6 1ebe e88c f73d
00000120: f61e 143e 8c9d 79bd d9fd 1e3d 463d a3bd
00000130: 4bfd 7ebc 1393 8ebd 7a72 65bb d92d c23d
00000140: 6dcf 113e a2cd e1bd ef80 42bd 2df9 6d3c
00000150: 3461 b2bd 9239 013e ae73 c4bc 07b9 bebd
00000160: 1dde 1fbd 8e05 8cbd 3830 9fbc 6a1f 0dbe
00000170: 045d f43c e778 513d aff6 bcbd 8ac6 533d
00000180: a564 543d f749 b7bd 28f3 c8bd 255a 433e
00000190: d034 d63d 9e1b 223e a5cb 52be 3929 403d
000001a0: 4c3d a2bd 092e f23b 4e07 4fbe de22 413e
000001b0: e38a 783e a4c6 f83c 86e3 143e cc51 fb3c
000001c0: da33 093d 748b 08be 98b0 8b3d cdb2 52bd
000001d0: 8f62 683d da03 4c3e e111 f33b c6f2 84bd
000001e0: cabb 263e b9b2 243e f48a 5a3c 8249 2a3e
000001f0: fa18 7f3e 8c36 043e da1c 363d d1ab 253e
00000200: d953 7dbd 1888 0d3e 5bce 1fbd 0e14 24bd
00000210: e7c8 95bc 5bb5 4c3e 1fc0 4b3e 995b f23d
00000220: 0ade 94bd 07b7 423e b355 1fbd bb57 5e3e
00000230: d712 ca3d 358e 1a3d e7c3 c2bc 2c7a c13d
00000240: cd22 2a3d bc16 823d 4b35 f5bc b295 243e
00000250: 1be0 0e3e ee7d 2abd f1eb a6bd d572 90bc
00000260: f96c f3bc c1f5 93bd c1d4 a5bd 0812 4fbb
00000270: 908e 033e c66c 783e b4ac 843e 2705 433d

exp_avg f4 [1, 40]
0.0002565517 9.605914e-06 2.6578567e-05 -0.0002597131 -0.00026355853 0.00017651993 5.0509778e-05 -0.0002582154
-2.8887589e-05 5.5382985e-05 -0.0002366569 0.00017340555 -0.00026717933 8.945556e-05 0.00025959694 0.00026853205
1.0768467e-05 0.00026635348 1.2135193e-05 0.00026524547 0.00018428409 -2.878371e-05 -0.00026378944 0.0002638832
4.4909295e-05 0.00018747985 -0.00026011738 0.00025969394 0.0002595038 0.00017338988 -0.00018650129 0.000260669
-0.00024213264 -0.00026670092 -3.3286724e-05 0.0002634922 8.730397e-06 0.00024546948 0.00023824557 -0.00026424322
00000000: c981 8639 1629 2137 0af5 de37 1a2a 88b9
00000010: 3a2e 8ab9 3518 3939 76da 5338 1661 87b9
00000020: a053 f2b7 074b 6838 1a27 78b9 33d4 3539
00000030: 3414 8cb9 179a bb38 831a 8839 c3c9 8c39
00000040: 37aa 3437 5ca5 8b39 4298 4b37 a510 8b39
00000050: 623c 4139 8c74 f1b7 384d 8ab9 ce59 8a39
00000060: fd5c 3c38 3d96 4439 5d60 88b9 8827 8839
00000070: 030e 8839 fecf 3539 8f8f 43b9 67aa 8839
00000080: fce4 7db9 fed3 8bb9 599d 0bb8 5325 8a39
00000090: c578 1237 5bb2 8039 8fd1 7939 208a 8ab9

exp_avg_sq f4 [1, 40]
8.771715e-06 1.2333121e-06 1.2957635e-06 6.718562e-06 3.8136498e-06 3.5268506e-06 6.62501e-07 5.750539e-06
6.512592e-07 1.4575286e-07 2.6443377e-06 6.7364914e-07 3.2612395e-06 1.6208803e-06 1.9896715e-06 2.8134539e-06
5.55315e-07 3.9082424e-06 8.420771e-07 4.134806e-06 1.8060142e-06 9.4767734e-07 3.9549586e-06 3.8018595e-06
5.5552147e-07 9.489479e-07 5.6196604e-06 5.7717357e-06 6.1345336e-06 4.5189697e-07 1.0545699e-06 1.2634689e-06
9.844352e-07 3.655014e-06 2.0907173e-07 3.3386327e-06 5.446365e-08 5.734446e-06 4.0883647e-06 4.2057613e-06
00000000: 3b2a 1337 4888 a535 18ea ad35 0270 e136
00000010: 01ee 7f36 d5ae 6c36 b9d6 3135 c1f4 c036
00000020: 31d2 2e35 3e80 1c34 6075 3136 d1d4 3435
00000030: abdb 5a36 068d d935 4c86 0536 c5ce 3c36
00000040: f510 1535 8c23 8336 190b 6235 b7bd 8a36
00000050: 2d66 f235 e463 7e35 d6b4 8436 7323 7f36
00000060: 251f 1535 34bb 7e35 8490 bc36 d5aa c136
00000070: 3ed7 cd36 3f9c f234 bf8a 8d35 7694 a935
00000080: f020 8435 aa48 7536 337d 6034 460d 6036
00000090: 6beb 6933 846a c036 c92e 8936 371f 8d36

exp_avg f4 [1, 40]
0.2496803 -0.004347153 0.011776567 -0.24946798 -0.24851392 0.17387818 0.042402066 -0.24889807
-0.05061158 0.036139615 -0.22508685 0.14649074 -0.24496111 0.10472184 0.23440544 0.24607879
0.023567043 0.24591091 0.00023185037 0.24612421 0.18339151 -0.019799592 -0.24724433 0.24843852
0.031981856 0.15123406 -0.24936454 0.24916334 0.24949059 0.1391283 -0.15503761 0.21082363
-0.2039755 -0.24586804 -0.023137787 0.2473636 -0.0016336738 0.23148288 0.22764243 -0.24771592
00000000: 31ac 7f3e 9072 8ebb 81f2 403c 8974 7fbe
00000010: 6f7a 7ebe 1f0d 323e caad 2d3d 23df 7ebe
00000020: 174e 4fbd 2207 143d 2b7d 66be ab01 163e
00000030: 16d7 7abe 6778 d63d fb07 703e 14fc 7b3e
00000040: ac0f c13c 12d0 7b3e dc1c 7339 fc07 7c3e
00000050: fcca 3b3e c132 a2bc 9e2d 7dbe ab66 7e3e
00000060: 68ff 023d 1add 1a3e 6b59 7fbe ad24 7f3e
00000070: 767a 7f3e a677 0e3e 2ec2 1ebe 26e2 573e
00000080: f4de 50be d5c4 7bbe 758b bdbc e24c 7d3e
00000090: ff20 d6ba d909 6d3e 191b 693e 3ea9 7dbe

exp_avg_sq f4 [1, 40]
1.1366527 0.0017445935 0.0056795827 1.124984 1.1143589 0.5437005 0.032982577 1.1192731
0.048960473 0.028860655 0.8471401 0.34273762 1.0649972 0.19070175 0.9721779 1.080047
0.011441443 1.0921663 0.0007273198 1.0908759 0.5630906 0.010541916 1.096636 1.1105101
0.024090096 0.40050992 1.1268054 1.1219308 1.1260331 0.34491378 0.41841093 0.8170923
0.7243338 1.0843979 0.010918247 1.0980275 0.00038025898 0.9243299 0.89992416 1.1035715
00000000: d67d 913f d8aa e43a cb1b ba3b 7aff 8f3f
00000010: 50a3 8e3f f52f 0b3f bd18 073d 5744 8f3f
00000020: c78a 483d 2e6d ec3c 2cde 583f 4e7b af3e
00000030: d451 883f 5247 433e a7e0 783f fb3e 8a3f
00000040: e474 3b3c 1bcc 8b3f 9ba9 3e3a d2a1 8b3f
00000050: b526 103f 00b8 2c3c 925e 8c3f 3225 8e3f
00000060: 9858 c53c a30f cd3e 293b 903f 6e9b 8f3f
00000070: da21 903f 8a98 b03e f539 d63e f62c 513f
00000080: f16d 393f 8dcd 8a3f 72e2 323c 2a8c 8c3f
00000090: 7f5d c739 e2a0 6c3f 6e61 663f d541 8d3f

exp_avg f4 [1, 40]
-0.006435972 -0.00046653123 -0.00091940997 0.006565588 0.006724639 -0.004410676 -0.0014138544 0.0065164766
0.0004535005 -0.0016766693 0.006050177 -0.004703853 0.006940491 -0.0020702502 -0.0067463038 -0.006963095
-9.2155555e-05 -0.0068734293 -0.00052155624 -0.006828094 -0.004627831 0.000939317 0.0067643826 -0.0067467233
-0.0012290641 -0.0052349144 0.006578135 -0.006568717 -0.006560389 -0.0047406196 0.0050097117 -0.007070753
0.006495249 0.0068937475 0.0010053659 -0.0067290203 -0.00039556876 -0.0062767095 -0.0060373745 0.006777784
00000000: d9e4 d2bb c398 f4b9 8f04 71ba 2524 d73b
00000010: 5c5a dc3b 6f87 90bb 1551 b9ba 2b88 d53b
00000020: cfc3 ed39 b0c3 dbba 9040 c63b c722 9abb
00000030: 0f6d e33b 09ad 07bb 1910 ddbb ad2a e4bb
00000040: a343 c1b8 813a e1bb 0cb9 08ba 34be dfbb
00000050: 0fa5 97bb 7f3c 763a c1a7 dd3b 9e13 ddbb
00000060: 8c18 a1ba a589 abbb 658d d73b 643e d7bb
00000070: 88f8 d6bb 3357 9bbb 8228 a43b c6b1 e7bb
00000080: 19d6 d43b f2e4 e13b 7bc6 833a 1d7f dcbb
00000090: 5764 cfb9 dbac cdbb 2bd5 c5bb 2c18 de3b

exp_avg_sq f4 [1, 40]
0.0085950745 0.0006640196 0.0008079224 0.007350843 0.004677551 0.003213455 0.00040560687 0.006440816
0.00060524297 0.0001019932 0.0028961457 0.00054978946 0.0039576925 0.0015158791 0.0020549393 0.0034265749
0.0004502194 0.004997424 0.00042023175 0.0046936558 0.0019320457 0.00062340824 0.0047574015 0.004809476
0.0002879206 0.0009689184 0.0067722145 0.0064506163 0.0069266204 0.0005222483 0.0008245253 0.0013362255
0.0011298708 0.004333958 0.00011502679 0.0040783784 4.158063e-05 0.005363964 0.0042397603 0.0053262683
00000000: 5bd2 0c3c 9a11 2e3a c1ca 533a 57df f03b
00000010: 2446 993b d498 523b a2a7 d439 7b0d d33b
00000020: 2ba9 1e3a 2fe5 d538 43cd 3d3b bf1f 103a
00000030: 88af 813b 76b0 c63a 29ac 063b 6390 603b
00000040: 6d0b ec39 6ec1 a33b 8d52 dc39 3dcd 993b
00000050: b23c fd3a 386c 233a fae3 9b3b cf98 9d3b
00000060: 0cf4 9639 03ff 7d3a 74e9 dd3b b15f d33b
00000070: b4f8 e23b 7de7 083a f524 583a 4a24 af3a
00000080: 2c18 943a e003 8e3b 8a3a f138 eba3 853b
00000090: dd66 2e38 31c4 af3b b0ed 8a3b fa87 ae3b
