research/lightning_logs/version_9/checkpoints/epoch=4-step=250.ckpt (torch, 300447 bytes, 33 tensors)

model.param_proj.proj.0.weight f4 [1, 40]
000000 a4 a7 96 be ca d1 d4 bd 96 3f 44 be 2d 01 45 be
       -0.29424775 -0.103915766 -0.19164881 -0.1923873
000010 f6 3f 83 3d 8b ba 5d be 70 db 7e be 1d 39 78 3e
       0.06408684 -0.21653192 -0.24888396 0.24240537
000020 70 59 61 be d6 6d 1c bb c2 e4 17 3e 4e 9c 60 bd
       -0.22006774 -0.0023869178 0.14833358 -0.054836564
000030 2c 5f 15 3d 0a 41 33 be 9d f6 09 be 19 98 97 bd
       0.036467716 -0.17505279 -0.13472982 -0.07402057
000040 61 12 4a 3e 0b 87 62 be 0e 53 45 3e 2b 5c 93 3e
       0.19733573 -0.22121827 0.19269964 0.28781256
000050 12 fe da bd b3 2f 08 be f0 9d a1 3e ff ef e0 bd
       -0.10692991 -0.13299446 0.3156581 -0.109832756
000060 ef 6d 27 be 99 cb 94 3e b4 60 67 3e c1 1a 49 3d
       -0.1635053 0.29061583 0.22595483 0.04909778
000070 e7 31 fa bc d2 5b 26 be a2 72 14 bc 9a 6a 2e 3e
       -0.030541373 -0.16245964 -0.009060534 0.17032853
000080 9a df 04 3e fd b9 49 be bc 17 a7 be ec cf 77 be
       0.12975922 -0.19699855 -0.32635295 -0.2420041
000090 4d d7 35 be f3 49 21 3e 04 6a 08 bd 28 c1 48 3e
       -0.17757912 0.15750866 -0.03330423 0.19604933

model.param_proj.proj.1.weight f4 [1, 40]
000000 05 62 10 3c 17 d8 16 be 4b 27 ca bd bd b9 42 be
       0.008812432 -0.14730869 -0.09870776 -0.19016166
000010 bb 69 10 3e be 46 0d be 1d dd 20 bd 0e c9 15 3e
       0.14102833 -0.13796517 -0.03927337 0.14627478
000020 b8 39 27 be ff b6 00 3e 09 fe e4 bd 44 16 1e bb
       -0.16330612 0.12569807 -0.11181266 -0.0024122158
000030 0f 6f 8f 3d 50 14 1a 3d 2b bf f5 bd 91 75 74 3d
       0.070036046 0.037617028 -0.11999353 0.059682433
000040 6d 67 10 3e eb 6b 28 be d7 a7 15 3e 02 c6 48 bd
       0.14101954 -0.16447417 0.14614807 -0.04901696
000050 ca f4 3e 3d e7 e7 fd 3d df 3a fb 3c 5f f0 28 be
       0.046620168 0.123977475 0.03066772 -0.16497944
000060 40 2f 69 bc 30 b1 5b bb 00 c9 86 3d b9 86 93 3d
       -0.014232457 -0.003352236 0.065813065 0.07203431
000070 28 e9 2d be 58 d2 f6 bd e3 8a be bd e9 99 4a be
       -0.16983473 -0.12051839 -0.09303834 -0.19785275
000080 2e 1c 23 bd 5b df bd bd 06 37 05 be 83 8d b8 bd
       -0.039821796 -0.09271117 -0.13009271 -0.09011366
000090 dc 3c 09 be 1b c4 2c 3e fe a2 02 be 34 5d f4 3d
       -0.13402122 0.16871683 -0.12757489 0.119318396

model.param_proj.proj.2.weight f4 [1, 40]
000000 2e 06 53 3e 54 80 ad 3d 75 69 a4 3d e1 e5 bf bd
       0.20607826 0.08471742 0.08027927 -0.09370018
000010 5e bc a2 bd 9e 8c ff bc bd 49 d6 3d da 2c 77 be
       -0.079460844 -0.031194981 0.10463283 -0.24138203
000020 dd 5a a3 bc 4a ef 0e 3d 35 b6 21 be 93 d4 39 3e
       -0.019940788 0.034896173 -0.15792163 0.18147497
000030 5e 89 d6 3d 10 21 8a 3d ad 39 f7 bc 9a c8 1c 3e
       0.104754195 0.067445874 -0.03017887 0.15310898
000040 58 28 a1 b7 09 a4 e4 3d ee 39 9d 3c 7a a1 e0 bd
       -1.9211482e-05 0.111641 0.019192662 -0.10968299
000050 54 86 35 3e 32 02 06 3e c6 70 c7 bd 45 1d eb 3d
       0.17727023 0.13086775 -0.09738307 0.11480192
000060 ff 74 47 3e fd db d2 bd 06 9b 8a bd 70 d1 9d 3b
       0.19478224 -0.10295866 -0.067678496 0.0048162267
000070 b1 ea e1 bc d2 e4 ab 3d 14 a6 a5 3d c0 bf 16 be
       -0.02757773 0.083932534 0.080883175 -0.14721584
000080 26 af f4 bd 50 24 dd 3d 92 a3 2d 3e ee d8 80 3e
       -0.119474694 0.10797942 0.16956928 0.25165504
000090 8a 22 e7 3d e4 f7 38 3d 79 f0 54 3e 42 b8 18 3d
       0.11285885 0.045158282 0.20794858 0.037285097

model.rnn.weight_ih_l0 f4 [160, 21]
000000 52 1b 28 3d 9d 88 58 3e 2d 7a 34 bd 1d c6 8f 3d
       0.04104168 0.21145864 -0.04406183 0.07020209
000010 47 45 b8 bc d4 d1 37 3d 8a c4 64 3e f9 0c 17 3d
       -0.022493972 0.044877842 0.22340599 0.036877606
000020 ea 21 65 3e 43 5e 35 3e 89 94 65 3e 2e dc 52 3e
       0.22376218 0.17711739 0.22419943 0.20591804
000030 ec 1d 2a bd f0 c7 30 3e 8a 15 85 bc 34 96 5a bd
       -0.041532442 0.1726377 -0.016245622 -0.0533659
000040 a2 08 83 3e f7 d1 8d bd c7 ee c7 3b d2 5b 0a be
       0.25592524 -0.06924813 0.0061014625 -0.13511589
000050 47 6a 1f 3d 11 f4 09 3e 35 db 8a 3e 4d 34 c4 3d
       0.038919713 0.1347201 0.27120367 0.09580288
000060 48 c9 18 bc 38 0c 0e 3e d5 b3 1f 3e fa 6e 99 bc
       -0.009325333 0.13871849 0.15595944 -0.018729676
000070 f6 6d 55 3e 06 ea 2b 3e b7 b3 7f 3e 44 2b 7e bc
       0.20842728 0.16788492 0.249709 -0.015513245
000080 6f 57 b6 3d 7b c6 5e 3e ba 70 67 bd b7 75 44 3e
       0.089033954 0.21755402 -0.05650399 0.1918553
000090 2d bf 21 3d c8 b6 5f 3e d3 3c 62 bd 78 aa df ba
       0.03948896 0.2184707 -0.055233788 -0.0017064353
0000a0 ad fd 32 be 9f 52 5e 3e eb ad 36 3e d0 cd 84 bd
       -0.17479582 0.21711205 0.17839782 -0.06484568
0000b0 f6 53 2f bd 80 c5 e4 3d 51 33 f4 3d a0 8f 06 3e
       -0.04280468 0.11170483 0.1192385 0.13140726
0000c0 f1 69 cf 3d 7f 83 8a 3d ff 1e 9f bc 55 15 13 be
       0.101276286 0.06763362 -0.01942396 -0.14363606
0000d0 a9 6a 3c 3e cf fc 74 bd 4b d0 6c 3d 21 8a 57 3d
       0.18400063 -0.05981141 0.05781583 0.052621964
0000e0 f2 55 77 bd 0c 77 12 3e ac 94 d6 bd a9 17 a6 3d
       -0.0603847 0.14303225 -0.10477576 0.081099816
0000f0 0b da ac 3d 7c d0 e0 bd 0e ce 3b 3d 98 2d e6 3d
       0.08440026 -0.10977265 0.045850806 0.11239165
000100 3d 7a 08 3e 07 76 a4 3d f8 34 57 bd 9b 41 04 3d
       0.1332788 0.080303244 -0.05254075 0.03228913
000110 d3 4e 84 3d 2c 82 f4 3c 6d ff 41 bd 0b ff f3 3d
       0.06460347 0.029847227 -0.047362734 0.1191388
000120 9b e2 93 3d bb 4f 50 3e ba 2e b5 3c a8 f4 cb bd
       0.07220956 0.20342915 0.022117008 -0.09958774
000130 98 e6 60 bd 0b fd c5 bd 4a 47 0d bc 5a 61 5f 3e
       -0.05490741 -0.09667405 -0.008622954 0.2181448
000140 89 b2 8f 3c 6e a8 c6 3d c4 24 2e be d5 91 2c bd
       0.017541187 0.09700094 -0.17006212 -0.042131264
000150 2d 31 6c 3d d9 a4 15 3e dc 26 f0 3d 5a 5c 08 bc
       0.057664085 0.14613666 0.11726162 -0.0083228
000160 08 15 3b 3d a1 50 c2 3d f4 2d 98 3c 9b 8e 3e 3e
       0.045674354 0.09488035 0.0185766 0.18609087
000170 b1 df 7f bd dd 8c 5e bd f1 f2 45 3e 10 95 0c 3e
       -0.062469188 -0.054333556 0.19330956 0.13728738
000180 d5 66 00 3e 48 c6 13 3d c1 28 84 3d 3c 3b 79 bc
       0.12539227 0.036077768 0.06453086 -0.0152118765
000190 09 38 a3 bd ca 54 45 bd 94 da b7 3d 82 4a 49 bd
       -0.07969672 -0.048176564 0.08977237 -0.04914332
0001a0 c0 eb 2a 3e d5 ee 26 3d d3 92 0c be a5 20 42 bd
       0.16691494 0.04075511 -0.13727884 -0.047394414
0001b0 80 e7 a5 3d ca 8e 0d 3e 34 42 cc 3d bd 33 05 3e
       0.08100796 0.13824001 0.09973565 0.13008018
0001c0 06 86 4c be 5f ae 00 be e6 6f 14 be 50 9d 55 3d
       -0.19973001 -0.12566517 -0.14495811 0.052151978
0001d0 a9 6d c1 3d a8 67 03 3e 08 89 a2 3d 2d a7 1d be
       0.09444744 0.1283251 0.07936293 -0.15395804
0001e0 fc c2 e5 3d b3 93 b4 3d 9a 69 eb 3d 6e 3f 9d 3d
       0.11218831 0.08817234 0.11494751 0.07678114
0001f0 92 bf 78 3e f7 d4 ba bb 43 0e 30 bc c6 07 03 3d
       0.24291828 -0.005701657 -0.010745588 0.031989835
000200 6e e4 0f 3d c6 ed 47 bd fd a1 17 3e 57 91 98 bd
       0.035129957 -0.048810743 0.14807887 -0.074495964
000210 4e 1a 5b 3e 79 1f 04 3e 12 c0 fb 3b 09 db b9 3c
       0.21396753 0.12902631 0.0076828087 0.022687452
000220 65 8b ba 3d c9 c2 ae 3d 8a 12 0e bd 6d 1c 4d 3d
       0.09108619 0.08533246 -0.03468565 0.050075937
000230 0c be e3 bc f8 62 f8 3d 8f 99 ce 3d 34 47 17 bd
       -0.027800582 0.12128252 0.10087883 -0.03693314
000240 09 3e ef 3d c7 ac bb bc e3 e0 6a bd a8 a0 31 3d
       0.11681754 -0.022909535 -0.057343375 0.043366104
000250 54 cc 32 3e b2 b1 aa bd 7b 18 a1 3c 25 84 82 bb
       0.17460757 -0.08334674 0.019664994 -0.003983038
000260 37 d6 2e bc 30 8d 9a 3d 79 f1 4c bd a1 f8 cf 3d
       -0.01067119 0.07546461 -0.050034974 0.10154844
000270 ad ea ae bd 64 ed 8e 3d 32 8d 05 3e b4 67 25 3e
       -0.085408546 0.069788724 0.13042143 0.16152841
000280 c5 2e e3 bd 47 dc 00 3e 92 35 a6 3d aa 19 f0 3d
       -0.11092905 0.12584029 0.081156865 0.11723645
000290 19 da 65 bd ec 11 87 3d 2b b2 53 be 69 61 25 3e
       -0.056116197 0.06595215 -0.20673434 0.1615044
0002a0 0a a9 0a 3e 6a e5 35 3e af 40 18 3e 93 57 38 3e
       0.13541046 0.17763296 0.14868425 0.18002157
0002b0 6d f6 fe bd 99 84 0d 3c 22 67 fa 3d f2 fb c3 bd
       -0.12449346 0.008637571 0.12226702 -0.09569539
0002c0 1d ea 06 be 6c b9 e4 bd 1e f2 01 bd a0 0f ff bc
       -0.13175245 -0.11168179 -0.03172504 -0.03113538
0002d0 fb b6 0d 3d 4f f0 75 bd e8 58 a8 3d 16 4a e5 bd
       0.034598332 -0.06004363 0.082200825 -0.111957714
0002e0 56 4d f6 3b b4 28 ad bd 5c a5 e0 3d ba 49 21 be
       0.0075165434 -0.08455029 0.1096904 -0.1575078
0002f0 96 59 08 bc 49 43 8c 3d 51 f4 22 3e f8 ca 08 3d
       -0.00832214 0.06848771 0.15913512 0.03339669
000300 9d 2d f0 3c 82 26 17 3e dd 67 ce bc 23 82 e9 bd
       0.029318625 0.14760783 -0.02519601 -0.11401775
000310 4d 64 c3 3d 22 50 d3 bd c9 da 2d bd c1 bb 07 bb
       0.09540615 -0.103180185 -0.042444978 -0.0020711275
000320 21 ab 50 bd 99 b8 77 bd 48 ac 00 bd 8c 10 a3 bc
       -0.05094445 -0.06047878 -0.0314143 -0.019905351
000330 74 32 a6 bd 73 67 b8 3d 5a 51 99 3d 4c 28 ae 3c
       -0.08115092 0.090041064 0.0748622 0.02125945
000340 ae 94 57 be b2 35 8d 3d cd ef a1 bd 90 44 9b 3d
       -0.2105281 0.06895007 -0.079070665 0.07581437
000350 08 8a 00 3d da 02 ad bc 6d 7e a4 3d 31 d6 b3 bb
       0.031381637 -0.021119524 0.08031926 -0.00548818
000360 ea b9 0b be b5 57 5f 3e cb 65 49 3e f0 fc bd bd
       -0.1364514 0.21810801 0.19667737 -0.092767596
000370 f3 a2 3e bd 11 0c 98 bd bc 3e 94 3d d8 41 0c 3c
       -0.04654212 -0.074241765 0.07238528 0.00856062
000380 59 e7 cf bd 9b f6 d0 3d 53 62 11 bd a3 a0 bb 3d
       -0.10151548 0.10203286 -0.03549416 0.091614984
000390 b6 08 98 bd af b5 a8 be b5 1b bc bd 82 8c 3f 3c
       -0.074235365 -0.32951114 -0.09184972 0.0116912145
0003a0 3a 98 66 3e 99 e2 4c bd c3 52 06 3e b1 b8 4f 3d
       0.22519007 -0.050020788 0.13117509 0.050713245
0003b0 35 7f e6 3c 32 ec 50 bc 53 ba 46 3e e1 29 71 3e
       0.028136829 -0.012751626 0.19407015 0.23551132
0003c0 7e 0e d1 3d 19 82 79 3d 53 bb 44 3d 86 e1 96 bd
       0.10207842 0.060915086 0.04803021 -0.07367234
0003d0 73 ea 00 3e 8b 63 ab 3b 87 51 ae bc db 43 ef 3c
       0.12589435 0.0052303723 -0.02127911 0.02920716
0003e0 ea f5 96 bd 79 9d df 3b 66 78 12 be 38 5a 39 3e
       -0.07371123 0.006824192 -0.14303741 0.18100822
0003f0 af ed 4d bd 70 05 c2 3c ee 13 03 3d 68 52 58 bd
       -0.0502755 0.023684233 0.03200143 -0.052812964

model.rnn.weight_hh_l0 f4 [160, 40]
000000 40 3d cd 3d 67 d7 4a 3d ab 86 0a be d3 11 65 3d
       0.10021448 0.04952183 -0.13527934 0.0559252
000010 8c 70 4a 3c da 3b 60 bd 4c 9a 0a 3e 0a 41 d0 3c
       0.012355935 -0.05474458 0.13535422 0.025421638
000020 7f d7 70 bd be 13 0e bc 79 76 23 3e 7a e4 95 bd
       -0.058799263 -0.008671699 0.15963162 -0.07318969
000030 62 65 02 3d e7 24 5d bd 87 cc df bd 8d 90 ce 3c
       0.031834967 -0.05399027 -0.10927682 0.025215412
000040 99 27 8a bd 76 26 5a 3d aa 81 97 3d 16 32 2b 3e
       -0.06745834 0.053259335 0.07397778 0.16718325
000050 ba 76 cd 3d 8d 67 d6 3d c6 e5 79 3d f5 45 47 bd
       0.10032411 0.104689695 0.061010145 -0.0486507
000060 95 77 ca bc 7d d7 4c be ca 51 1e be 81 89 4a 3e
       -0.024715224 -0.20004077 -0.15460888 0.19779016
000070 3d c6 84 bc 11 bc 21 3e c7 28 5f 3d f1 92 9f 3c
       -0.016207809 0.15794398 0.054482248 0.019479247
000080 be 09 6a 3d c3 64 91 bd d7 f9 9f 3d 89 5d 96 bd
       0.057138197 -0.07099297 0.07811325 -0.07342059
000090 1f 23 a6 bd 52 02 2c be 5a 0b 80 3d 68 b1 a7 3d
       -0.081121676 -0.1679776 0.06252165 0.081881344
0000a0 6f 1e 01 be f2 b7 4c be 90 3a 1e bc 99 98 1f be
       -0.12609266 -0.19992045 -0.009657517 -0.15585555
0000b0 cd fd d2 bd bb 3e b5 bd 98 d0 e6 3c 6b 51 b0 3d
       -0.10302315 -0.088498555 0.028175637 0.08609279
0000c0 6e 44 dc 3c e9 5d 2c bd 19 7e 51 3e 14 68 21 be
       0.026888099 -0.042081747 0.20458259 -0.15762359
0000d0 0c 2c a1 3e 2d d6 81 bc d4 80 6e bd 91 d9 00 3d
       0.31478918 -0.015849197 -0.05822833 0.031457487
0000e0 cd 29 a6 bc f0 f8 6d 3c 43 1f f1 bc 6c 61 b7 bd
       -0.020283604 0.014524683 -0.029433852 -0.089541286
0000f0 77 2e 58 be fc bc 95 3c db 15 da bc 18 73 ab 3d
       -0.21111475 0.018278591 -0.02662175 0.08371562
000100 d0 fc 38 3e 87 af d2 3c 58 fe a6 bd 6d 74 37 bd
       0.1806519 0.025718464 -0.08153981 -0.044788767
000110 eb 74 a1 bd 07 16 3b 3e ba d5 ff bd ab d8 4d be
       -0.078836285 0.18270122 -0.12491937 -0.20102184
000120 de 1c b3 bd 4d ac 81 ba 34 d1 77 3d bc ad 4f 3e
       -0.0874574 -0.0009893269 0.060502246 0.20281118
000130 df d5 1b 3e 79 b3 37 be d2 35 46 3e 82 fc 04 be
       0.15218304 -0.17939557 0.19356468 -0.12986949
000140 4d 1c 28 3c 65 d3 ee bd ea ef 22 3e cb f0 1d 3e
       0.010260654 -0.11661414 0.15911832 0.15423886
000150 d6 c1 bb bd 18 dc 22 bd 90 69 e4 3d c0 05 bd 3d
       -0.09167831 -0.03976068 0.11152947 0.09229612
000160 d8 a7 12 3d 7e 74 93 3d 76 d5 b3 3c 99 1c 20 bd
       0.0358046 0.071999535 0.021952372 -0.039089773
000170 5c 09 6d bc 08 0a 4e 3c 2d e2 c6 3d 22 51 d3 3d
       -0.0144675635 0.012575634 0.09711108 0.10318209
000180 eb d3 58 bd f7 03 01 be c0 f5 cf bd f8 a4 dc bd
       -0.052936476 -0.12599169 -0.10154295 -0.10773653
000190 c6 72 3a 3e a1 f6 4c 3d 5b 2c 03 be c4 65 ca 3c
       0.18207845 0.05003989 -0.12809889 0.024706729
0001a0 7e 10 8b bd 03 af 14 3e aa f0 5f bd bd be 69 3d
       -0.06790255 0.14519887 -0.054672875 0.057066668
0001b0 f2 e1 de bc ce 97 47 bd 69 fc 77 bd 50 3e b4 bd
       -0.027207348 -0.048728757 -0.06054345 -0.08800948
0001c0 e6 b7 5e 3d 16 b6 93 3d a6 6b b8 bd f2 4b e9 3d
       0.054374598 0.072124645 -0.09004907 0.113914385
0001d0 80 d0 1a 3d 64 c0 5a be 0d b2 1a bd 9b 93 d4 3d
       0.037796497 -0.21362454 -0.03776746 0.10379716
0001e0 ef 33 11 3e 47 74 61 3d ff 9e ec 3b 20 f4 06 3e
       0.14179967 0.05504253 0.0072211022 0.13179064
0001f0 1b 06 4a bd 4a 99 24 3e 92 6c f7 bc 4b 36 79 bc
       -0.04932223 0.160741 -0.030203138 -0.015210698
000200 94 8a 43 bd 71 6f 01 3d 6f f1 8f bc 4c 99 62 3d
       -0.04773958 0.03160042 -0.01757118 0.055321977
000210 83 d1 33 3e 62 bd da bd d0 76 1e be e2 7a 1f be
       0.17560391 -0.10680653 -0.15475011 -0.1557422
000220 34 72 f4 3c 87 c3 01 be 73 c0 14 be cb 97 3e 3c
       0.029839613 -0.12672244 -0.14526539 0.01163287
000230 ce ae ff 3d ee 5a 90 bd d2 82 eb 3d 4f ab f0 bd
       0.12484513 -0.070485935 0.11499561 -0.117514245
000240 91 0d 75 bd 28 aa 17 3d 17 10 61 3d 45 32 10 3e
       -0.05982739 0.037027508 0.054946985 0.14081676
000250 42 73 0a be 60 b3 4f bc 36 31 bf bd 11 29 c9 3c
       -0.1352053 -0.012677044 -0.09335558 0.024555715
000260 53 8d d0 bd a6 78 ac bd 8f d5 03 bc 4c 4d 15 3e
       -0.101832055 -0.08421449 -0.008046522 0.14580268
000270 c0 42 05 3d 38 34 9d 3d 56 c2 eb bd f6 26 81 3d
       0.03253436 0.076759756 -0.11511676 0.06306259
000280 18 2d b4 bd 92 3c 81 bc 73 01 8c 3d c4 76 a3 bd
       -0.087976635 -0.015775952 0.06836214 -0.07981637
000290 85 00 ae bc 4c 09 1c bd b1 e3 28 3d cb 02 27 bd
       -0.021240482 -0.038094804 0.04123277 -0.040774148
0002a0 a3 7e 56 3c f5 91 3c 3e 7b 41 fb bb 3a e4 8c bd
       0.013091716 0.18415053 -0.007667718 -0.06879468
0002b0 3f f3 d8 bd 5c 64 e4 3b d0 ba dd 3c 2f d3 ef 3c
       -0.105932705 0.0069699716 0.027066618 0.029275505
0002c0 e5 1f 64 3d 39 62 a9 3c a3 7c 40 3d c1 37 12 3e
       0.05569448 0.020676719 0.046993863 0.14279081
0002d0 de e1 39 be 1a 0e 05 be 26 c1 56 be 12 28 06 be
       -0.18152568 -0.1299366 -0.20972118 -0.13101223
0002e0 75 2c ff 3d 59 4a cd 3d bb 37 c2 3d 23 93 48 3e
       0.124596514 0.10023946 0.09483286 0.19587378
0002f0 d3 33 76 3c 0f 27 c2 3d fd 70 c5 3d 54 5d 39 be
       0.015027004 0.09480106 0.096406914 -0.18102008
000300 94 43 56 3d 60 ae ae 3d 42 0b 9d 3b 60 4d 54 bd
       0.05231054 0.08529353 0.004792602 -0.051831603
000310 35 35 8b bd 0d e7 ba bd 80 22 09 bc 92 bf f9 bb
       -0.06797258 -0.09126101 -0.008370042 -0.007621714
000320 30 7b 29 3e fe ca 16 bd c5 ae ec 3b ed a2 3e 3d
       0.16550899 -0.036814682 0.0072229826 0.046542097
000330 2e 3b db 3d b1 51 cf bd 38 6d 99 bd 8b f0 8c 39
       0.10704647 -0.10123003 -0.07491535 0.000268821
000340 30 ca 19 3e a4 60 b9 bd 45 0a c7 bd 20 dc d3 3d
       0.15018535 -0.09051636 -0.09718756 0.1034472
000350 d2 8c 4d be 44 6f 10 3d 0f 5d f9 3d cd 62 a1 bd
       -0.2007325 0.03526236 0.12175953 -0.07880173
000360 2b 24 b5 bd bf 88 b5 bb 5e 37 27 3e 7f 24 9c ba
       -0.08844789 -0.005539983 0.16329715 -0.0011912732
000370 c7 5b 41 be ec 66 b0 bc ed b7 5f bd 28 a3 1e 3e
       -0.18882667 -0.021533452 -0.054618765 0.15491927
000380 fc f9 33 be e0 f8 0d 3e b6 41 f5 3d 23 3a b4 bb
       -0.1757583 0.1386447 0.11975424 -0.0055000945
000390 ae 03 35 be 3b bb a2 bd 2e b5 d6 bd 15 e1 b7 bc
       -0.17677185 -0.07945868 -0.10483776 -0.022446195
0003a0 d7 8c e2 3b 6e ba e0 3d e4 de 05 be 33 16 08 3e
       0.006913762 0.10973059 -0.13073307 0.13289718
0003b0 63 04 a9 3c 7e 7d 92 3d 72 fd e6 bd 62 05 6b 3c
       0.020631975 0.07152842 -0.112788096 0.014344545
0003c0 bf bf 02 bd c5 56 d3 bd 89 23 f9 bd 44 75 44 b9
       -0.031921145 -0.10319284 -0.12164981 -0.00018735701
0003d0 3c d3 5f 3e cc a7 9a 3b 80 ee dc 3c 18 e4 2d bd
       0.21857923 0.00471971 0.026969194 -0.042453855
0003e0 61 4c de bd 8b 3f 31 3e da f4 f9 3c 06 0e 0d be
       -0.10854412 0.17309396 0.030512262 -0.13774881
0003f0 6d 98 8c 3d 87 1d e6 3d ea bc 03 3d 3c a9 1f be
       0.068650104 0.11236101 0.032162584 -0.15591902

model.rnn.bias_ih_l0 f4 [160]
000000 0a 51 fb 3c 2e f8 c5 3d 97 4f 91 bc 57 c3 c3 3d
       0.03067829 0.09666477 -0.017738147 0.095587425
000010 58 96 bd bc 18 ed 12 3e e0 85 59 3e 86 12 bd bd
       -0.023142979 0.14348257 0.21242476 -0.09232049
000020 54 3f 33 3d 63 a4 4d 3d 59 b1 09 3e 45 fe 75 3e
       0.043761566 0.0502056 0.13446559 0.24022777
000030 4c 5b b1 bc 82 11 18 3d e5 0e 15 3e 45 f3 5b 3e
       -0.021649979 0.03712607 0.14556463 0.21479519
000040 46 3c e8 3d 01 dd 69 3d 04 d3 0b 3e c6 a1 3b 3d
       0.11339621 0.05709553 0.13654715 0.045808576
000050 d9 c5 5c 3e ba 5c 6e 3e c3 39 0b bd a8 dd 2c 3d
       0.21559848 0.2327756 -0.033990633 0.042203575
000060 b4 3b db 3d 0d 02 99 bd d1 ca 9e 39 14 d9 1a 3e
       0.10704747 -0.07471094 0.00030287218 0.15121871
000070 39 e6 5f 3d 6c 99 c1 3d 39 96 65 3c e1 e7 22 3e
       0.054662917 0.09453091 0.014012867 0.15908767
000080 c0 3a 5c bd 29 47 61 3e 8b 2d df bd 83 3d 5c 3e
       -0.053766966 0.21999802 -0.108973585 0.2150784
000090 b0 d9 44 3d 7c 96 c9 3d ce 5e 3c 3e fb 58 99 bc
       0.048059165 0.09843156 0.1839554 -0.018719187
0000a0 18 64 93 bd 25 d6 8e 3d a5 63 d4 3d e9 b1 63 3d
       -0.07196826 0.069744386 0.10370568 0.05558959
0000b0 05 58 38 3e 00 30 d0 3c e2 ab 69 bd 74 2c 8a bd
       0.18002327 0.025413513 -0.057048686 -0.0674676
0000c0 1d 07 2e bc d4 57 de 3d ec 6c 00 bc 59 de 89 3d
       -0.010621813 0.10856596 -0.007838469 0.067318626
0000d0 94 44 29 3e d2 3e 8e bd 41 7b 51 3e dc 1f c4 3c
       0.16530067 -0.06945576 0.20457174 0.023940973
0000e0 3c cf 02 be 24 de 00 be e4 db f6 3c 25 b9 84 3d
       -0.12774366 -0.1258474 0.030134149 0.06480626
0000f0 45 da f5 bc d3 9d 3c 3e 2b f0 e2 bc 49 59 9b 3d
       -0.030011306 0.1841958 -0.027702412 0.07585389
000100 83 95 b7 bd 05 73 11 3e 41 98 9b bd 24 b5 f8 3c
       -0.08964064 0.14204033 -0.075973995 0.030359812
000110 3e 9f 40 3c 89 5a 37 3e 5a 48 d3 3d fb 5e e6 3c
       0.011756716 0.1790563 0.10316534 0.028121462
000120 68 2e 46 3d 88 00 32 3d 1a ee 87 3d b7 d9 00 bd
       0.0483841 0.043457538 0.06637211 -0.03145763
000130 7f 47 c9 3c 85 49 cc 3a 16 af 57 bd e8 34 7d 3d
       0.024570225 0.0015585875 -0.05265721 0.061818033
000140 d7 9b 2a bc d7 df 36 3d 5c da be 3d 9c 24 0d 3c
       -0.010413132 0.044647064 0.093189925 0.008614685
000150 4d a4 2a 3e 08 53 bf bd d6 92 9c 3d 1c a7 2a bc
       0.16664238 -0.09342009 0.07645194 -0.010415819
000160 2b 10 38 bd b8 fb 97 3d 6f d3 11 3d ad e7 aa 3d
       -0.044937294 0.074210584 0.03560203 0.0834497
000170 8a 08 e4 3d 87 bb 4c bd 97 65 e0 3d fa 1c 4f be
       0.11134441 -0.049983528 0.10956877 -0.20225897
000180 08 b5 00 3d 9b 0f 84 bd 57 d6 65 3d 18 37 04 bc
       0.031422645 -0.06448289 0.056112614 -0.008069776
000190 1a 28 94 bd b5 4c 40 bd 1f 5e 47 be 9d 35 af bd
       -0.07234211 -0.046948154 -0.19469498 -0.08555148
0001a0 31 22 be bd ea 7c 3f be 10 dd 24 bd 94 1e e2 3d
       -0.09283865 -0.18699995 -0.040249884 0.110409886
0001b0 e1 30 05 3e 96 df c6 bc 8f 18 25 be e9 9f 0c be
       0.13006927 -0.024276536 -0.1612265 -0.13732876
0001c0 bc a5 99 3d 23 67 79 bd aa 1b 3c 3e cf 12 53 3e
       0.075023144 -0.060889374 0.18369928 0.20612644
0001d0 9f 5b b8 bb f5 00 a7 3d 87 98 4b bd b8 75 26 3d
       -0.0056261565 0.081544794 -0.04970601 0.04063961
0001e0 74 55 ee 3c f2 42 4e 3e eb fe 64 3c ec 72 56 3b
       0.029093482 0.20142725 0.013976793 0.0032722307
0001f0 58 24 14 3e a5 60 00 be 16 d0 18 bd 8e 30 30 3d
       0.14466989 -0.12536867 -0.03730782 0.043015055
000200 e8 5e f4 3d cb 1a 4f bd 28 2e ba bd 13 46 22 3e
       0.119321644 -0.05056266 -0.09090835 0.15847044
000210 39 c4 e8 3c 62 aa 32 3e aa 66 4e 3e b9 55 2e 3e
       0.028413879 0.17447808 0.2015635 0.17024888
000220 86 92 24 3e ab dc c0 3d 63 8c f6 bd 3e 01 43 3e
       0.1607152 0.09417089 -0.120384954 0.19043443
000230 11 9c e2 3d c1 8a 16 3e c0 aa 66 3e 2b 44 57 3e
       0.110649236 0.14701368 0.22526073 0.21022098
000240 06 38 e0 3d 41 a7 82 bd 83 fe 77 bd a8 6b bd bc
       0.109481856 -0.063795574 -0.060545456 -0.023122624
000250 bc a8 c6 bd 38 ab 67 3d 45 df 22 3e c5 f4 cd 3d
       -0.09700152 0.05655977 0.15905483 0.10056452
000260 34 61 47 3e a8 73 da 3d 8b e1 17 3e 07 f5 d7 bd
       0.19470674 0.10666591 0.14832132 -0.10544782
000270 4a 64 a8 bc 52 13 c7 3d 35 63 9c 3d 1c 2b eb bd
       -0.020555634 0.09720482 0.0763611 -0.11482832

model.rnn.bias_hh_l0 f4 [160]
000000 ff c1 75 bb 6a a6 39 bd af 7f 80 bd 95 0a 71 3c
       -0.0037499664 -0.04532472 -0.06274354 0.014711996
000010 6b b7 32 3e 5f a1 8d bd e9 34 39 3e a7 42 98 3d
       0.17452781 -0.06915545 0.1808659 0.07434588
000020 2c 80 d1 3d 12 88 1c bc ea 08 a9 bd 7b 40 90 3d
       0.10229525 -0.009553926 -0.08253653 0.07043549
000030 25 41 a9 3d 7a 6f 90 3d ca 83 68 3e 5a 61 52 3e
       0.082643785 0.070525125 0.22706524 0.20544949
000040 bf 95 cf bc 78 45 50 3e 33 35 a4 3d 14 03 5f 3b
       -0.02533996 0.20339 0.080179594 0.0034028934
000050 98 3b 29 3d 85 5f 99 3d 69 47 1d 3d ef 64 50 3e
       0.0413166 0.07488922 0.03839818 0.20351003
000060 05 bf 93 bd 1b 8c 63 bd 88 f3 22 3e cd 5c 8b 3d
       -0.072141685 -0.055553537 0.15913212 0.0680481
000070 fa 7c 11 bd 10 41 82 3e b1 5c 12 3e 69 16 c2 bd
       -0.035519578 0.25440264 0.14293171 -0.09476931
000080 d9 68 1b 3d c0 ef 98 3d 83 18 93 bd 07 1c 61 3e
       0.037941787 0.07467604 -0.071824096 0.21983348
000090 2f b4 96 bd 13 20 fb 3b 08 42 87 3d 1d 2d ac 3d
       -0.07358586 0.0076637357 0.06604391 0.08407042
0000a0 20 ec 96 3c 05 2b 4d 3d a0 a7 12 be 60 03 e6 3d
       0.01842314 0.050089855 -0.14321756 0.112311125
0000b0 ed 50 b0 3d aa 56 65 bd c4 d7 50 bd 50 9f 13 be
       0.08609185 -0.055990852 -0.05098702 -0.14416242
0000c0 35 6b 5d bd 6b 6e c8 bb 32 a4 58 bd 9f 8d d6 3c
       -0.05405732 -0.0061166785 -0.052890964 0.026190577
0000d0 b9 d2 5f 3d 10 16 5d 3d 05 0e 0b 3e dc 5d 92 3d
       0.05464432 0.05397612 0.13579567 0.071468085
0000e0 d2 96 69 bd 2b 2d ee 3d 63 c8 01 bd 57 42 f7 bd
       -0.0570286 0.11629709 -0.031685244 -0.120732
0000f0 64 64 92 3d 76 a5 ac 3d e7 2a 85 bd 5f 6a 60 3e
       0.07148054 0.08429997 -0.065023236 0.21915577
000100 81 7c 86 bd 5c 9c 75 bc 53 4e 27 be b6 fb b4 bc
       -0.06566716 -0.014990892 -0.16338472 -0.022092681
000110 cd 34 92 3d aa e4 8e bd f1 f7 3c bb 21 0f 04 be
       0.07138977 -0.06977208 -0.0028834308 -0.12896396
000120 31 fb a1 3a 26 6e d7 bd ce 95 b9 3c ae a8 ba 3b
       0.0012358186 -0.10519056 0.02265444 0.0056963777
000130 a4 04 89 3d bf ef 9b bc b1 34 e7 bd 53 f1 0d bc
       0.06690338 -0.019035218 -0.11289347 -0.008663493
000140 06 53 b2 bd 83 fe ce bd b9 3f b0 bd 77 6f 1b 3d
       -0.08707242 -0.10107138 -0.08605904 0.037948098
000150 34 92 1c 3c fd 06 41 3e d2 40 a6 3d b9 13 db 3d
       0.009556342 0.18850322 0.08117832 0.10697121
000160 e1 62 31 be 0f 3e ed 3d 7e b4 2e bd 54 af d6 bd
       -0.17322876 0.11584102 -0.0426526 -0.1048266
000170 90 df e6 bd 60 8e 50 bd 49 c6 1e bd ff 7a 29 be
       -0.1127311 -0.05091703 -0.03876332 -0.16550826
000180 df 52 d7 bc 61 a6 f8 bc e0 af 87 3d 99 fa ae 3c
       -0.026284633 -0.030352773 0.06625342 0.021359729
000190 8b 8c 10 3d 10 ff e7 bd d3 ff 69 be d1 97 ce bd
       0.035290282 -0.11327946 -0.22851495 -0.100875504
0001a0 bb 22 45 3e e8 b0 16 bd 8f 40 ec bd e2 1f 0f 3e
       0.1925153 -0.036789805 -0.11535751 0.13977006
0001b0 e5 87 49 3e 9e 03 ad bc 1d 0d 55 be 22 6f 48 3d
       0.19680746 -0.021119889 -0.20805784 0.04893411
0001c0 0f 7f bd 3d a2 4b 1b be ea 55 87 bd 11 e3 0c 3e
       0.0925275 -0.1516557 -0.06608184 0.13758494
0001d0 f5 cc 8b bd 0d e3 34 bd b6 0d 25 3e b6 40 53 3e
       -0.06826202 -0.044161845 0.16118512 0.20630154
0001e0 77 61 8d 3d 9d dd 36 bd 8f da 12 bd de 38 b6 bd
       0.069033556 -0.04464494 -0.035852965 -0.08897565
0001f0 93 12 aa 3d 76 32 09 3e df 84 5b 3c e4 6e 0c 3d
       0.08304324 0.13398156 0.013398378 0.03428544
000200 7e ef 24 bd fa 71 b1 3c 19 c0 28 3e 82 41 5c 3e
       -0.04026746 0.021660794 0.1647953 0.21509364
000210 9e 14 35 3e 99 97 08 3e 93 f4 f2 3d a5 b1 d8 3c
       0.17683646 0.1333908 0.11863055 0.026451895
000220 fb 6d 92 3d 87 74 17 3e f9 08 50 bd fe 59 47 3d
       0.07149883 0.14790545 -0.050789807 0.048669808
000230 9d 33 22 3e d0 f5 32 3e d7 4b b0 3c db b3 13 3e
       0.15840001 0.17476583 0.021520538 0.14424078
000240 3a be 11 be 5f 61 a5 3d de 93 19 3e 15 d1 7b bb
       -0.14232722 0.08075213 0.14997813 -0.0038424183
000250 3a 9f 57 3c 3c c7 10 3e 49 d9 64 3d 3c f7 34 bd
       0.013160521 0.14138502 0.05587128 -0.044181094
000260 a8 b6 07 3e 97 f1 a0 3d d9 3c e2 3d 4b be c8 bd
       0.13253272 0.078585796 0.11046762 -0.098019205
000270 fd f2 6e bd c2 b1 ee 3d 84 ca d2 bd 27 b9 14 be
       -0.0583372 0.11654998 -0.10292533 -0.14523755

model.rnn.weight_ih_l1 f4 [160, 40]
000000 78 4e 86 be 7f f0 d9 bd 19 53 5b bc d0 8f 59 bd
       -0.26231742 -0.10641574 -0.013386511 -0.053115666
000010 16 6f 1d 3e ee 13 a2 3b 23 5c 88 bc d8 d6 86 3d
       0.15374407 0.0049462235 -0.016645497 0.06583947
000020 3a fb c5 bd 5c 42 7e 3d 48 55 58 3e 9f 7f 3c 3c
       -0.09667058 0.062075004 0.21126282 0.011505037
000030 d6 23 0f bd 09 9c a5 bc 0a 6c 23 3e 4c f9 cd bd
       -0.034946285 -0.020216005 0.15959182 -0.10057315
000040 1e de b2 3d f1 01 49 be 22 0f 19 be 8f 57 3f 3e
       0.08733772 -0.19629647 -0.14947179 0.18685745
000050 70 1f 1c 3d 56 4b 56 be 7a 44 fe bd 8f 46 82 3d
       0.03811592 -0.20927176 -0.124154046 0.06361114
000060 fb 43 4d 3e 08 fd 31 bd ba 71 08 be ed 33 07 3e
       0.20045464 -0.0434542 -0.13324633 0.13203402
000070 2d 34 65 3a e6 ac a2 bc a7 b1 0f be dd 6d bc 3c
       0.00087434315 -0.019857835 -0.14032613 0.023001606
000080 62 a3 bd bd ae 6c fe bd 34 9e 21 3e 19 ca 0a 3e
       -0.092596784 -0.12423073 0.15783006 0.13553657
000090 61 d5 18 3c 31 ba ad 3d 19 7c 8f bd 84 f9 ac 3d
       0.009328217 0.08482779 -0.070060916 0.08446029
0000a0 63 50 4e bd 74 2d ff bd e3 38 00 be 0a 10 4e bc
       -0.05036963 -0.12459841 -0.125217 -0.012577066
0000b0 1d b8 df bd e3 4c f4 bd 7b 8f ec 3c e0 c9 f9 3d
       -0.10923789 -0.119287275 0.02887701 0.12196708
0000c0 a3 3c c0 bc f8 ea c4 bd 29 db e7 bd c1 3c 30 3c
       -0.023466414 -0.09615129 -0.11321098 0.010756672
0000d0 fe 93 82 bd 71 93 34 3e e7 60 80 3d be 80 c5 3d
       -0.063758835 0.1763437 0.06268483 0.09643696
0000e0 a9 86 0e 3d e5 57 55 be 48 98 d6 3d 0d e0 e3 3d
       0.03479639 -0.2083431 0.10478264 0.11126719
0000f0 56 54 2c 3d 02 d7 06 bb 4e 0a 1e bd 43 fc a8 3c
       0.042072617 -0.0020574932 -0.038584046 0.0206281
000100 e1 e7 ff bd a5 ee 57 3c 6c f0 a7 bd 91 d6 f9 3d
       -0.12495399 0.013179456 -0.08200154 0.121991284
000110 3a 01 cb bc b9 c0 af bc a7 2b c9 3d 15 81 2f 3d
       -0.024780858 -0.021454202 0.09822779 0.04284771
000120 14 48 27 be 36 eb c1 3d 25 11 25 3e 3f 03 30 3e
       -0.1633609 0.09468691 0.16119821 0.17188738
000130 d5 42 97 bd b3 31 a7 bd 4a 54 7b 3d 81 a5 b6 bc
       -0.07385794 -0.08163776 0.06135968 -0.022295715
000140 c4 7c ce 3d c5 b6 14 3e 09 22 62 3d 2a 1d 59 3c
       0.10082391 0.14522846 0.05520824 0.013251582
000150 31 48 2d 3c 31 cf 0b 3d 1c 5c e7 3c 30 10 56 bd
       0.010576294 0.03413314 0.028242163 -0.05226153
000160 ea 55 29 3e a0 22 c2 bd 70 f7 a4 bd 68 d7 e3 bc
       0.1653668 -0.094792604 -0.080550075 -0.027812675
000170 b6 7b 3e 3e 26 1c 08 3e 83 95 dd ba 9c d7 20 3d
       0.1860188 0.13291988 -0.001690552 0.03926812
000180 7e 01 9d 3d 9a 0d 01 3e c3 6d 23 3e ef 86 cb bd
       0.076663 0.12602845 0.1595984 -0.09937846
000190 40 be 31 3e 06 50 d0 bd 98 74 db 3d 04 0a 3d 3e
       0.17357731 -0.10171513 0.10715598 0.18460852
0001a0 77 df 51 3c 3d 2e d6 3d a1 34 c7 3c 10 9c e3 bd
       0.012809626 0.10458038 0.024317088 -0.11113751
0001b0 69 dc e0 bc a0 b4 1e be c1 c9 80 bd bb 5a 07 3d
       -0.02744885 -0.1549859 -0.062884815 0.03304551
0001c0 8a 20 79 bd c0 5b aa 3b aa f2 06 bd 27 91 b7 bd
       -0.060822047 0.0051989257 -0.032946266 -0.089632325
0001d0 6a 37 fa bd f8 c9 89 bd 00 71 ac 3d ff 9c f9 bd
       -0.12217601 -0.067279756 0.084199905 -0.12188148
0001e0 1b e3 14 3e 28 fe 1e 3e c8 f2 dc 3c bb 99 92 3d
       0.14539759 0.1552664 0.026971236 0.07158228
0001f0 47 b3 a0 bd 21 89 e3 3c 00 88 1f bd 56 ca 03 be
       -0.078466944 0.02777535 -0.03894806 -0.12870154
000200 36 90 08 3d 4c b1 fb 3d f4 d4 78 bd 25 64 c5 3d
       0.033340655 0.12289676 -0.060749963 0.09638242
000210 5b e1 a4 bd e0 45 b1 3d fa 0d 0d bc 0a 8b 2a 3e
       -0.08050796 0.08655906 -0.008609289 0.16654602
000220 4e e1 1d bd 2c 37 b0 bd 17 f6 06 3d ec da 32 3c
       -0.038544945 -0.08604273 0.032949533 0.010916453
000230 31 f3 61 3d e1 af bd bb b1 eb 87 bd 49 a2 00 3e
       0.055163566 -0.0057887887 -0.066367514 0.12561907
000240 a6 4a 50 3d 57 f0 42 3d 83 e9 c3 bd e5 8f 7c 3c
       0.05085244 0.047592487 -0.09566023 0.0154151665
000250 22 68 07 3d 74 4a a6 3c 92 09 fb 3d 7c ab d7 bd
       0.033058293 0.020299174 0.12257685 -0.10530755
000260 e2 74 37 3c 4e 73 23 3e e0 b6 30 be a0 95 0d be
       0.011197301 0.15961954 -0.17257261 -0.13826609
000270 13 30 e6 bd 91 54 a3 bd d8 1e 3d 3d 0a da 6d 3c
       -0.11239638 -0.07975114 0.046171993 0.014517317
000280 88 ba 19 3d 2a 34 74 bc 61 6f 37 be 15 b4 96 bd
       0.037531406 -0.014905015 -0.17913581 -0.07358567
000290 61 b7 2b 3d e1 ad 37 3e 45 d3 48 bd 9b ec a9 bd
       0.04192293 0.17937423 -0.049029607 -0.08297082
0002a0 a5 0b 4a bd 07 16 a1 bd 09 ed 00 3e fc 73 d8 3d
       -0.04932751 -0.078655295 0.12590422 0.10568997
0002b0 b7 33 3f 3e 64 cb ce bd 54 5a 82 3c 7e 38 df bd
       0.18672071 -0.100973874 0.015912212 -0.10899447
0002c0 b2 51 7a 3d f0 62 e7 bb 3e 28 25 be e0 7e c9 3c
       0.061113067 -0.007061355 -0.16128632 0.024596632
0002d0 9c 35 f2 bc ab f5 92 bd ce 10 53 3d 0b 2e 99 bd
       -0.029566579 -0.07175764 0.051529698 -0.07479485
0002e0 ac 29 0d 3e 01 15 3d bd 8d c4 41 bd 91 24 ce bc
       0.13785428 -0.04616261 -0.047306586 -0.02516392
0002f0 50 97 9e bd 9b 12 bb 3c b2 fb 74 bd 48 59 d5 3d
       -0.07743704 0.02283602 -0.059810348 0.1041742
000300 24 3d 21 be c8 22 97 3d 2b a3 0c 3e 29 3f 3b bd
       -0.1574598 0.07379681 0.13734119 -0.04571453
000310 18 41 c5 3d 5a 6d 9d 3c e1 67 31 bc 55 3f 1e be
       0.09631556 0.019217182 -0.010827989 -0.15453847
000320 e0 8f d0 3d ce 9d 04 3e ed 22 1a 3d 57 dd 90 bd
       0.10183692 0.12950823 0.037630964 -0.07073467
000330 f5 b1 a4 bd 3b 53 2a bd db bd d9 3d 8f 72 49 3d
       -0.08041755 -0.04158328 0.10631915 0.049181517
000340 85 3d 03 3c 6c 24 9c bb 7c 7f 2c 3c 92 ea 27 be
       0.008010273 -0.004765084 0.0105284415 -0.16398075
000350 b8 94 17 3d e4 fb c6 bd ad d5 a6 bd da a3 fc bd
       0.037007064 -0.09716013 -0.08146224 -0.1233594
000360 69 c7 0a 3e 96 65 ac bd 1b 9e 96 bd 1b 0d 48 3d
       0.13552631 -0.084178135 -0.07354375 0.048840623
000370 b0 e9 a1 bc ab 60 8b bc ff 71 7c 3c 7a e3 03 3d
       -0.019764751 -0.017013868 0.015408038 0.03219936
000380 be ac fc 3d f0 23 75 bc da 1e 12 be bb a9 29 3d
       0.123376355 -0.014962181 -0.14269581 0.041421633
000390 56 cb 08 3e 1b f0 b8 3d 2e a8 c3 bd d0 38 0a b8
       0.13358817 0.090301715 -0.09553562 -3.2954675e-05
0003a0 70 02 18 3e 0a 5e 10 3e 55 6f 00 3e 19 f0 2d 3e
       0.1484468 0.14098373 0.1254247 0.16986121
0003b0 44 9b b0 bd 1f 9e 4a bd 58 aa 91 bc 3e 34 3d ba
       -0.086233646 -0.049467202 -0.017781422 -0.00072175625
0003c0 63 ff 97 be 97 51 81 be e6 6a 11 bb f0 8f 38 bc
       -0.29687032 -0.2525756 -0.002218896 -0.011264786
0003d0 13 c9 3e 3d 4c d7 8d 3e 89 54 02 3e 8f 9c 7c 3e
       0.046578478 0.2770332 0.1272756 0.24669097
0003e0 e3 53 ed bd e9 b4 4a 3e 69 bb a7 3e 5e 4a 54 be
       -0.11588266 0.19795574 0.3276017 -0.20731494
0003f0 19 2f f8 bc 33 7f 10 3e b6 0d b1 3b 43 61 c8 bd
       -0.030295895 0.14111023 0.005403246 -0.09784176

model.rnn.weight_hh_l1 f4 [160, 40]
000000 d5 32 60 bd 4d 8c 2c be 61 bf da 3c c2 5d 48 3d
       -0.054735977 -0.16850396 0.026702585 0.04891754
000010 8c b6 e5 3b 9b 92 d7 3d fc ae 3d bd b4 69 a7 bc
       0.0070102867 0.1052601 -0.046309456 -0.020436145
000020 6a eb 83 3b 9b 2f 8d bc db 17 00 3e 66 8a 50 be
       0.0040258663 -0.017234614 0.125091 -0.20365295
000030 c7 d7 a2 bd bd 1a 5d 3d 4b 12 7e 3d fd 08 eb 3d
       -0.079513125 0.053980578 0.062029164 0.11476324
000040 70 97 49 3e 04 ba 4b be b3 a0 84 bd a2 35 4d 3e
       0.19686675 -0.19895178 -0.064759634 0.2003999
000050 8e e0 a0 bd 69 cc f4 bd cd d3 c7 3d 0d 89 dc bd
       -0.078553304 -0.11953051 0.09757195 -0.10768328
000060 da 67 63 bc a0 0a c4 3d 24 6f d1 3c cb 29 0f be
       -0.013879741 0.09572339 0.025565691 -0.13980787
000070 8b 6a 36 be 6e d3 c4 3d ed 75 12 be b4 7c 0a be
       -0.1781408 0.096106395 -0.14302798 -0.13524133
000080 44 e1 d1 bd 50 19 3d be 18 e2 1b bd 06 e0 35 be
       -0.10248044 -0.18466687 -0.038057417 -0.1776124
000090 83 5e 26 be 81 96 18 3e 7e d5 d8 ba 05 36 45 3e
       -0.16246991 0.14901163 -0.0016543118 0.19258888
0000a0 13 fd 0c 3e ee db b4 3d 6a 9d 47 bd 84 7d 8e bd
       0.13768415 0.08831011 -0.048734106 -0.06957534
0000b0 8e ba c0 3c f6 cd be 3d aa 07 dd bc 94 13 ac bc
       0.023526456 0.09316628 -0.026981194 -0.02100543
0000c0 b4 ad 9b bc c6 41 58 be 44 28 d5 bd 3d 27 21 3e
       -0.019003727 -0.2111884 -0.10408071 0.15737624
0000d0 0c 64 c8 bd 5e 26 bc bb 70 c6 b7 bc 92 69 80 bd
       -0.097847074 -0.0057418784 -0.02243349 -0.06270136
0000e0 96 67 99 3b 47 2c c2 bd 6e 93 01 3d 90 43 0e 3e
       0.004681538 -0.094811015 0.03163474 0.1389296
0000f0 58 3c e5 bd 28 25 05 bc 2e 41 8f bc 1a d8 af 3d
       -0.1119315 -0.0081265345 -0.017487135 0.0858614
000100 20 2c e2 3d 5e 67 b8 bc b6 d1 00 be 6e a7 0f be
       0.110435724 -0.022510227 -0.12579998 -0.14028713
000110 c1 0c a6 3d a1 e9 b5 3c 44 93 1a bd da 5d 07 3e
       0.08107901 0.02220613 -0.0377381 0.13219395
000120 83 3d 37 be ba 25 28 be 79 07 ba bd 0f f5 e6 3d
       -0.17894559 -0.16420642 -0.090834565 0.1127721
000130 52 08 90 bd 3c 84 e9 bc e3 88 16 bd 64 7c be 3d
       -0.07032837 -0.028505437 -0.03675164 0.093010694
000140 63 38 8b 3c ed 15 c3 bd 77 f2 f2 3c e6 1c 3a 3c
       0.01699466 -0.095256664 0.029656632 0.011359429
000150 a7 c4 0a be d4 1c 27 3e 73 fd e0 bd 38 b2 cb 3d
       -0.1355158 0.16319591 -0.109858416 0.09946102
000160 3c 94 4f 3e c1 b8 df bb 28 b7 59 bd eb dd 14 3e
       0.2027139 -0.0068274443 -0.053153187 0.1453778
000170 e3 db 36 3d 9d 5e c2 3c 3b 73 26 3e bc a0 11 bc
       0.044643294 0.023726756 0.16254894 -0.00888842
000180 7d b7 04 be 16 2e 03 3c 3c 12 06 bd 3c 70 14 be
       -0.1296062 0.008006593 -0.032732233 -0.14495939
000190 73 84 b7 bd 68 71 16 bd 26 fc a0 3c 62 13 16 3e
       -0.089608096 -0.036729246 0.019651484 0.14655831
0001a0 74 ec 69 3d ca 66 18 3e 07 40 b0 bd 0c ee 9b bd
       0.057110265 0.14882961 -0.08605962 -0.07613763
0001b0 2f 83 1f 3e 4f 7a 25 3e 1c cf 1f 3e f0 7b f0 bc
       0.15577386 0.16159938 0.1560635 -0.029355973
0001c0 1e 99 0e bd 51 68 fe bd 34 16 00 3e 0f fd 1e 3d
       -0.034813993 -0.124222405 0.1250847 0.038815554
0001d0 7a 71 bc bc 7d 12 0e 3c 5d 1b b5 3c c4 10 ba bd
       -0.023003329 0.0086714 0.022107774 -0.09085229
0001e0 e7 2e 47 3e 33 98 d9 3d 97 d4 bb 3d c8 3a cb 3d
       0.19451486 0.10624733 0.09171408 0.09923321
0001f0 f7 d2 ee 3d 11 cf 77 bc 9a 78 20 3e 59 10 19 be
       0.11661332 -0.015125052 0.15671006 -0.14947642
000200 2e 1d 06 3e da db 36 be 35 ae ca 3d b5 c7 cb bd
       0.13097069 -0.17857304 0.098965086 -0.099502005
000210 53 85 08 bc de b8 b5 bd ec ed 8f bd b1 fc 1b bd
       -0.008332568 -0.08873151 -0.07027802 -0.038082782
000220 bc 5f 08 3e 20 a0 a1 bd 88 cb 01 3e bb ae 1d 3e
       0.1331777 -0.078918695 0.12675297 0.15398686
000230 19 13 1e 3e 29 00 ee bd e9 3f ee 3d 5d 48 85 3b
       0.15436973 -0.11621124 0.11633284 0.0040674643
000240 67 fa 3d 3e 4d 28 92 3d 18 2a 23 be 48 72 aa 3d
       0.18552552 0.07136593 -0.15934026 0.08322579
000250 72 5e 2c 3d 3d 4e 89 3c 03 66 c8 bc b8 14 a1 bd
       0.042082258 0.01676094 -0.024462705 -0.0786528
000260 e4 5d 0f be 15 a0 2e 3e 14 86 b1 bc be 70 03 bd
       -0.1400066 0.17053254 -0.021670379 -0.03208994
000270 fc 70 0c 3e 87 1b 0f 3d 20 66 ed 3d 74 70 ec 3d
       0.13714975 0.03493836 0.115917444 0.11544886
000280 bf f0 7b bd d0 c5 a4 bd 30 18 00 be e8 2f 88 3d
       -0.06150889 -0.08045542 -0.12509227 0.066497624
000290 ab 95 db 3d 31 64 14 be f5 db fb bd ff aa 81 3d
       0.10721906 -0.14491345 -0.12297813 0.06331443
0002a0 1e af 97 bc 88 b2 1f be 53 42 44 bc c8 9c 99 3a
       -0.01851612 -0.15595448 -0.011978704 0.0011719698
0002b0 d5 1a d8 3d 93 b6 2b 3e d8 8a 7a 3d 3d 5d 9e bd
       0.10551993 0.16768865 0.061167568 -0.077326275
0002c0 66 59 a9 bc f1 17 24 3d 75 1c 3d bd 3d fe 4e bd
       -0.020672511 0.040061895 -0.046169717 -0.05053543
0002d0 71 0e 5f bd b4 0c f1 3d b9 77 5d bc ce 71 f1 3c
       -0.05445713 0.11770001 -0.013517314 0.029473212
0002e0 b2 ec 09 be 00 d0 ff bd 81 f9 a5 bd d2 65 2d 3d
       -0.13469198 -0.12490845 -0.0810423 0.04233343
0002f0 02 bf 95 bc 13 14 13 3e 69 8f 92 3d 86 41 d1 3d
       -0.018279556 0.14363126 0.071562596 0.10217576
000300 89 1f 30 be c2 b9 ce bd 8b 81 2a 3e a2 c2 e3 3c
       -0.1719953 -0.10094024 0.16650979 0.02780277
000310 ed 9d 9b 3d af cc c7 ba 49 94 31 3e b4 ea cb 3d
       0.07598481 -0.0015243496 0.17341723 0.099568754
000320 65 e0 1f 3d c7 e3 46 3e d0 65 2c 3e 5f 9e 98 3c
       0.03903236 0.19422828 0.16835713 0.018630205
000330 7b ce d1 3d d6 7e a2 bd 55 54 f3 3d 39 bd 21 3c
       0.10244461 -0.07934348 0.118813194 0.009871774
000340 fa bd 0e bc 98 c8 c1 3d b3 cb 10 3e 2d 36 05 bd
       -0.008712286 0.09462088 0.14140205 -0.03252237
000350 a9 22 07 be 2c 6a b3 3b 41 d3 1b 3e c5 b1 88 3c
       -0.13196816 0.005475303 0.15217306 0.01668633
000360 1b b4 d5 3c 87 b5 e4 bd 94 9c 26 be a5 e0 39 3d
       0.026086858 -0.11167436 -0.16270667 0.045380253
000370 d1 b2 2a bd ea ab 39 bd 85 32 b0 bd c9 1b 35 bd
       -0.04167444 -0.045329966 -0.08603386 -0.04421595
000380 e1 11 25 bd c5 ae 55 bd 5a e0 9f bd f8 2f 27 be
       -0.040300254 -0.052168626 -0.078064635 -0.16326892
000390 5f 28 1f 3e 94 6a ab 3d bb eb a2 bd 44 e6 01 be
       0.15542744 0.083699375 -0.07955118 -0.12685496
0003a0 7b a2 b9 bd e0 22 20 3e a9 eb aa bc 59 3c 0b 3e
       -0.09064194 0.15638304 -0.020864325 0.1359724
0003b0 fc 67 0d 3d f0 0f 4f 3c 3f 27 26 bd 50 fa e6 3d
       0.034522995 0.012638077 -0.04056477 0.11278212
0003c0 a6 b1 c3 bd 41 92 48 be 06 ca e2 3d c0 17 da bc
       -0.09555368 -0.19587041 0.11073689 -0.026622653
0003d0 c4 1e 9d bc 94 f8 12 3b f7 7b 2e 3c 82 72 7c 3d
       -0.01917971 0.0022425996 0.010649673 0.06163264
0003e0 4f c1 d5 3d c1 f7 3c bd 63 f9 44 3e 4c 3b 24 be
       0.10437261 -0.046134714 0.19235758 -0.16038245
0003f0 25 0d 1f bd 2a 2a 35 3e 39 e4 17 be af b9 01 3e
       -0.038830895 0.17691866 -0.14833154 0.12668489

model.rnn.bias_ih_l1 f4 [160]
000000 3c 39 5a 3e 79 06 a3 3d 0d bd b4 bd 8b 4f 09 3e
       0.21310896 0.07960219 -0.08825121 0.1340925
000010 a4 55 a5 bd 6a 46 de 3c de 19 59 3d 98 89 36 3e
       -0.08072975 0.027133185 0.053003184 0.17825925
000020 4d 70 a5 bd 8b b7 5c 3e e3 54 fb 3d 36 eb 71 3d
       -0.0807806 0.21554391 0.1227205 0.059062205
000030 b2 e1 5d 3d 16 cc aa bd ea 02 67 bd 86 9c d4 bd
       0.054170318 -0.083397076 -0.056399263 -0.10381417
000040 56 cc b4 bd 71 48 5b bd 86 8d 15 be 80 77 5f bd
       -0.088280365 -0.053535882 -0.14604768 -0.054557323
000050 66 1c ac 3d 2f 14 0f 3c c5 c3 ab bc 25 e4 a4 3d
       0.08403854 0.0087328395 -0.020967374 0.080513276
000060 8b 2a ec 3d 71 d1 6d 3e ba 21 78 bd b3 f1 ff 3d
       0.11531552 0.23224427 -0.06057904 0.12497272
000070 43 ff 3d 3c d8 1f 89 3d 06 46 dc 3c bf 77 72 b9
       0.011596504 0.06695527 0.026888859 -0.00023123527
000080 83 c3 ab bc ad e8 05 3e d3 3f 70 3e 08 fb 0b 3e
       -0.02096725 0.1307704 0.23461847 0.1366998
000090 e5 c2 5c 3c 8b 08 eb bd 03 de a4 bd 6c bc 1f 3e
       0.013474201 -0.11476239 -0.08050158 0.15599221
0000a0 b0 76 1a 3d d2 e2 1d 3e e7 14 f2 3d 64 03 e2 bd
       0.037710845 0.15418556 0.11820393 -0.11035803
0000b0 d2 7e 0b 3e f2 10 03 3d 53 10 39 3e c1 9a 19 3e
       0.13622597 0.031998582 0.18072633 0.1500044
0000c0 b2 c5 16 3e 9a 91 44 bd cf c2 bf 3d b5 c4 9d bd
       0.14723852 -0.04799042 0.09363329 -0.077035345
0000d0 0a ea f3 3d 81 10 dd 3d a6 04 17 bd 80 61 44 bd
       0.11909874 0.107941635 -0.036869667 -0.047944546
0000e0 d2 75 9b bd 0a 05 f0 3c e5 34 1b 3c ab 27 ae 3d
       -0.07590832 0.029299278 0.00947306 0.0850366
0000f0 52 6c 0a 3e 90 ff 88 bc c8 4d fb 3d 34 48 1d 3d
       0.13517883 -0.016723424 0.12270695 0.038398936
000100 71 79 80 3d 17 db 72 bd 3d 0f da bd 7c e7 f2 3d
       0.06273163 -0.05929097 -0.10647438 0.118605584
000110 17 e1 1e 3e ab 13 c2 bd 4b c0 6e 3d 2c f3 2d be
       0.15515552 -0.094764076 0.058288854 -0.16987294
000120 c4 65 9b bc 33 98 32 3e ea 56 c0 3c 71 2e ad bb
       -0.018969424 0.17440872 0.023478944 -0.0052850773
000130 93 c6 d4 bd a7 94 d2 3d 89 a2 cc 3d ef a3 dd 3d
       -0.103894375 0.102822594 0.099919386 0.108222835
000140 0d 20 90 3c 83 f2 d4 3d e7 1d 45 bd 70 8e c5 bd
       0.017593408 0.10397818 -0.04812422 -0.096463084
000150 85 06 8b 3d 16 ae 16 be d9 4c ac 3b f7 25 f6 3d
       0.06788353 -0.14714846 0.0052581844 0.1201896
000160 0c e8 dc bd fe d8 98 bd a7 c9 11 3e 5d f3 91 bd
       -0.10786447 -0.07463263 0.1423708 -0.07126496
000170 fb d8 03 be 3e c4 a6 bb 3e 33 c9 bd c3 4f 94 3d
       -0.1287574 -0.005089312 -0.09824227 0.07241776
000180 3e a9 9b 3d 99 6d 33 be 62 04 bb 3d 54 dd cb bc
       0.0760064 -0.17522277 0.09131695 -0.02488581
000190 08 27 81 bd 64 be 32 ba e1 de 8f bb e0 d9 a0 bd
       -0.06306273 -0.00068185315 -0.004390583 -0.07854056
0001a0 75 70 28 be 13 40 69 3d 72 a4 4f 3e a2 2b ae 3d
       -0.16449149 0.05694587 0.20277575 0.08504416
0001b0 3b 43 9f 3c 81 76 73 bd a0 bb 3d be 1f 06 e7 bd
       0.019441238 -0.059439186 -0.18528605 -0.112804644
0001c0 e4 fa a7 bd 2c cf b2 3d d5 5f 92 bd a2 96 12 be
       -0.082021505 0.08730921 -0.07147185 -0.14315274
0001d0 dd fb 2b be 1e 5a 16 3e 43 a7 05 be 03 5e ab bb
       -0.16795297 0.14682814 -0.13052087 -0.005229713
0001e0 d2 64 23 3e c3 5c e5 bb 5b 3d 09 3e 7e 32 50 bd
       0.15956429 -0.0069995834 0.13402312 -0.050829403
0001f0 85 9e ba bd a6 39 09 3c fd 1a 61 3d df 00 05 3e
       -0.091122665 0.008375561 0.05495738 0.12988614
000200 0b 56 d4 bb 6e 58 f9 bc 0e 3d d3 3d f2 b2 3a 3d
       -0.0064799837 -0.030437674 0.1031438 0.04558081
000210 9d 57 e4 bc 51 92 ae bd 7f 58 0d be c3 9d af bd
       -0.027873809 -0.085240014 -0.1380329 -0.085750125
000220 ff 27 87 bd 1b 67 39 3e 95 09 a0 3d e5 60 9d bd
       -0.065994255 0.18105738 0.078143276 -0.07684497
000230 d7 10 c3 bd 89 f4 fa bd 6b 40 91 bd 88 31 65 bd
       -0.09524696 -0.12253673 -0.07092365 -0.05595544
000240 29 2b 79 3d 1a 47 ad 3d 0a 83 d3 bd af ab 4d bd
       0.060832176 0.08460827 -0.10327728 -0.05021256
000250 25 47 4f 3d a6 ce 8f bd b5 15 0f 3e 57 43 9d bd
       0.050604958 -0.07021837 0.13973124 -0.0767886
000260 b7 12 2b 3e a8 d8 22 3e 3d fe 89 bc 13 52 c5 3c
       0.16706358 0.1590296 -0.016844863 0.024086988
000270 7b 93 ae bd 97 e2 17 be 9e 3b 47 3d 56 c2 6e bd
       -0.085242234 -0.14832531 0.04864084 -0.058290802

model.rnn.bias_hh_l1 f4 [160]
000000 98 26 ea 3d cc 01 95 3d 0f 66 1c be 7d f9 27 bd
       0.114331424 0.07275733 -0.15273307 -0.041009415
000010 77 6f 03 3e 34 d8 45 3d e4 83 ca 3d 97 eb 76 3e
       0.12835489 0.04830189 0.098884374 0.24113308
000020 5d 79 35 3e 57 7d 80 3d 1c c6 1f 3e 66 bf 66 3d
       0.17722078 0.06273907 0.15602916 0.056334876
000030 8d 94 7d bd 16 8c 89 3d 61 c7 91 3d cf c6 89 3d
       -0.061909247 0.067161724 0.07118107 0.06727373
000040 55 2c 93 3d f9 08 a2 bd 4d 98 3c 3d ea 9d ee 3b
       0.0718619 -0.07911868 0.046043683 0.0072820084
000050 c3 cb 2e 3d 11 fc a8 3d 11 e4 ca 3d 08 86 6c 3e
       0.04267479 0.08251203 0.099067815 0.23098004
000060 4f 77 85 bd 56 de f8 3d 2b e3 13 3e e6 09 48 bd
       -0.06516897 0.12151782 0.14442126 -0.048837565
000070 1f 24 6e bd 5c e6 7b 3e a5 12 d0 3c fa fc b9 3d
       -0.058139917 0.24599594 0.025399515 0.090814546
000080 cc d2 e6 bd 2d bf a2 bd 94 86 57 bd dc 43 45 3d
       -0.11270675 -0.0794662 -0.052618578 0.04816042
000090 33 4b b8 3d 82 27 0c 3e 7f 0a 21 3e 9b af 01 3e
       0.08998718 0.13686946 0.1572666 0.12664644
0000a0 09 c1 a0 3d e2 ec 81 3d 25 dc 43 bd 13 f3 4a 3d
       0.078493185 0.0634401 -0.047817368 0.04954822
0000b0 d5 4f 8b 3d d2 2d 06 be fe 57 77 3d 46 8e 02 3e
       0.06802336 -0.13103417 0.06038665 0.12749586
0000c0 ac 5f 15 bd e4 31 bd bd 9a ee 8b bd 12 b9 7c 3d
       -0.036468193 -0.092380315 -0.06832619 0.061699934
0000d0 17 0a 0a be 02 39 b3 3d 9f 2a 55 3d 4a 6f 99 3d
       -0.13480411 0.08751108 0.0520426 0.0749193
0000e0 04 db 25 be 42 f3 90 3c 8c d7 39 3d 76 cf 42 3d
       -0.16196829 0.01769412 0.045371577 0.04756113
0000f0 9b 78 e3 3d 1e 86 7d bd 91 68 cd bd e7 da dc bd
       0.11106988 -0.061895482 -0.1002971 -0.1078394
000100 f2 34 2f 3e a2 6b d7 3d c9 c2 70 3d 5b 74 0d bd
       0.17110041 0.10518576 0.05877951 -0.034534793
000110 d4 6e c3 3d 6f 0f 88 bc 3c f8 93 bd 52 cb 13 be
       0.09542623 -0.016608922 -0.07225081 -0.1443303
000120 7a 10 7b 3a 25 8d 18 3e 07 f9 50 3d 71 ad 86 bc
       0.00095773453 0.14897592 0.05101874 -0.016440125
000130 bb 9a 1b 3e 5f f1 3a 3d 03 3f 5d bd 5c ba c4 bd
       0.15195744 0.045640346 -0.05401517 -0.09605858
000140 00 6e 14 be c4 41 bd 3a 7f 5a ea 3d ff 6a 15 be
       -0.14495087 0.0014439155 0.11443042 -0.14591597
000150 33 5c 18 bc 6b 93 f4 bb 69 74 6c be 8a 8c b6 bd
       -0.009299326 -0.0074638627 -0.23091282 -0.089135244
000160 ee 0d 4b bd 52 32 bc 3d b6 b8 0b 3e 8c b8 cc 3c
       -0.04957383 0.09189285 0.1364468 0.024990343
000170 51 6d 21 3c f3 4f a7 3c 95 ef 9b bd dd 27 96 bd
       0.009852723 0.020423865 -0.07614056 -0.07331822
000180 91 cb 80 3c 71 28 25 be 82 93 7a bd 9d 61 67 3c
       0.015722068 -0.16128708 -0.06117583 0.014122394
000190 74 1e 67 bb fa 55 b6 3d df aa 49 3e 6a 88 b5 bd
       -0.0035265954 0.089031175 0.19694088 -0.088639095
0001a0 70 cf 10 be 49 b8 12 3e b9 f8 54 3e 77 5a 05 3e
       -0.14141631 0.14328112 0.20798005 0.13022791
0001b0 7c 57 34 be de 58 fb bd 98 e6 12 be 01 86 a1 3d
       -0.17611498 -0.122728094 -0.14345777 0.07886887
0001c0 4c 05 cf bd 40 14 ff bd c1 e4 6c bd d9 a9 9c 3d
       -0.10108432 -0.12455034 -0.057835344 0.07649583
0001d0 9d 02 d6 3d b6 41 06 3e 2a 66 95 3d 50 e4 c0 3d
       0.10449717 0.13111004 0.07294877 0.09418547
0001e0 98 53 ab bd 86 c1 91 3d 6d 42 b4 3d 50 e8 0a be
       -0.083655536 0.0711699 0.08801732 -0.13565183
0001f0 a6 b9 67 bd 3b 73 ed 3d fd bb 1b 3c 22 1b 50 3d
       -0.056573533 0.11594244 0.009505269 0.050807126
000200 5f cb cf 3b 1e 77 b1 bc 00 95 53 3d 70 d0 31 bd
       0.0063413824 -0.021663245 0.05165577 -0.043411672
000210 e3 e3 f3 bd 95 50 b1 3d 82 33 cd 3d a5 07 33 3d
       -0.119087 0.08657948 0.1001959 0.043708462
000220 2b 7a d1 bc 21 47 aa 3d 55 8b bd bd 25 ba 39 3c
       -0.02557095 0.08314348 -0.09255091 0.011335884
000230 ae 0c 6d bb c4 d8 1b 3d e5 5e 8e 3c 26 1c 7d bd
       -0.0036170888 0.03804852 0.017379234 -0.061794423
000240 45 5e 3c 3e 9e a3 c2 3d c9 72 66 bd 74 92 46 3c
       0.18395336 0.09503864 -0.05626181 0.012119878
000250 9f 84 d5 3d 79 15 d4 bc ec 0e cd 3d 63 26 23 3e
       0.10425686 -0.025889145 0.10012612 0.15932612
000260 ae 05 36 3d bf b2 7a bd 29 93 6e 3d 1b 56 73 3e
       0.04443901 -0.06120562 0.05824581 0.23763315
000270 84 60 c4 bd c7 53 8f bd 0a 22 a5 bb 87 59 04 3e
       -0.095887214 -0.06998401 -0.005039458 0.12924777

exp_avg f4 [1, 40]
000000 ea 25 b1 3a 68 45 8c 3a c3 1f 16 3a 49 09 a6 38
       0.0013515328 0.0010701837 0.0005726779 7.917226e-05
000010 b7 ad 33 ba a1 91 96 38 e2 36 c0 3a 85 84 bc ba
       -0.00068541936 7.179683e-05 0.0014664794 -0.0014382756
000020 94 e1 98 39 31 9a 32 39 96 1b 22 ba 09 52 b3 3a
       0.00029159768 0.00017032844 -0.000618392 0.0013681065
000030 d8 79 72 37 64 a6 56 3a c8 0e 36 35 c1 11 9d 39
       1.4452693e-05 0.0008188246 6.7821793e-07 0.000299586
000040 75 85 93 b9 f3 50 93 3a b1 ba a7 b9 ab 13 10 ba
       -0.00028137458 0.0011239335 -0.00031991818 -0.0005496095
000050 b5 05 ab 3a 75 b9 b5 39 71 5a af ba 48 cd 96 3a
       0.0013047965 0.00034661187 -0.0013378394 0.001150527
000060 5d fc c3 3a 89 bd c0 ba 5c ed 5b ba d5 20 96 b7
       0.001495253 -0.0014704923 -0.00083895563 -1.7896682e-05
000070 3c 8b a2 39 d3 af 40 3a a4 74 71 3a 11 de 90 b9
       0.00031002786 0.00073504186 0.0009210801 -0.00027631273
000080 50 d8 0c ba 23 5f c1 3a c2 66 b0 3a 6a ab c3 3a
       -0.0005372809 0.0014753084 0.0013458359 0.0014928405
000090 87 84 18 3a 03 0c bd b9 e6 ed 93 3a db b9 9d b9
       0.0005818088 -0.0003605784 0.0011286109 -0.00030083847
