research/lightning_logs/version_12/checkpoints/epoch=18-step=950.ckpt (torch, 300447 bytes, 33 tensors)

model.param_proj.proj.0.weight f4 [1, 40]
0	0x3e4d08bb	0.20022862
1	0x3e46dc4d	0.19419976
2	0x3e302381	0.17201044
3	0xbe60281d	-0.21890302
4	0x3dcb2583	0.09919264
5	0xbd0351f1	-0.032060567
6	0x3d09ce1a	0.03364382
7	0x3dc6d73e	0.09709023
8	0x3cc565e2	0.024096433
9	0xbb84cb88	-0.004052583
10	0xbe33d430	-0.17561412
11	0xbd0469fc	-0.032327637
12	0xbefeec90	-0.49789858
13	0x3d9b5573	0.075846575
14	0xbe85749e	-0.26065534
15	0x3cb2caa6	0.021825146
16	0x3db466d1	0.08808673
17	0xbe539efc	-0.20666116
18	0x3e3bc207	0.18335734
19	0x3e6a1cd8	0.22862566
20	0xbc6e62de	-0.014549939
21	0x3cfc635a	0.030809093
22	0xbd263623	-0.040578973
23	0xbda7d5a1	-0.08195043
24	0x3d9dbc9b	0.07701989
25	0x3c75370d	0.014966738
26	0xbe11a9d9	-0.14224948
27	0xbe11af58	-0.14227045
28	0x3c9b35cc	0.01894655
29	0xbdd213e2	-0.102576986
30	0x3e4bc32f	0.19898675
31	0x3d92d8d0	0.0717026
32	0x3eec5bb6	0.4616372
33	0xbea289d1	-0.3174577
34	0xbc8eae56	-0.017417114
35	0x3d70fca5	0.05883469
36	0x3e4eeef4	0.20208341
37	0x3cf19197	0.029488368
38	0xbe0ad75d	-0.13558717
39	0x3cf829a3	0.030293291

model.param_proj.proj.1.weight f4 [1, 40]
0	0x3d74c361	0.05975664
1	0x3db1a385	0.08673767
2	0x3db2d4a0	0.08731961
3	0xbd1062dd	-0.035250533
4	0x3dbc9298	0.09207648
5	0x3e3d8246	0.18506727
6	0x3dfc2430	0.1231159
7	0x3e05d463	0.130693
8	0x3dd1417d	0.10217569
9	0x3e456687	0.19277392
10	0x3ddf826f	0.1091355
11	0xbe37c27e	-0.17945287
12	0xbd956e1e	-0.07296394
13	0xbe11486d	-0.14187784
14	0xbe30648a	-0.17225853
15	0xbbedea9b	-0.007260633
16	0x3cb9adca	0.022665877
17	0xbd04a1b2	-0.032380767
18	0x3e0153ee	0.12629673
19	0x3e53df07	0.20690547
20	0x3deeac73	0.11653986
21	0x3dfca165	0.12335471
22	0x3d693e1b	0.056943994
23	0x3d409dd5	0.04702552
24	0x3b9cca8e	0.0047848886
25	0xbdb7efb2	-0.08981265
26	0xbe2e1294	-0.16999274
27	0xbe31765a	-0.17330304
28	0xbd147af2	-0.036250062
29	0xbe267f58	-0.16259515
30	0x3e4becc1	0.19914533
31	0xbcc6aa8f	-0.02425125
32	0x3da1af75	0.07894794
33	0xbdc794d4	-0.097451836
34	0x3e37ad4f	0.17937206
35	0x3dcdd772	0.100508586
36	0x3e08ee35	0.13372119
37	0x3dda5f96	0.10662763
38	0xbe218f9c	-0.15777439
39	0xbcd95352	-0.026528988

model.param_proj.proj.2.weight f4 [1, 40]
0	0xbe594ea8	-0.21221411
1	0x3e6b0b1c	0.22953457
2	0xbe08027f	-0.13282202
3	0xbe2d712e	-0.16937706
4	0xbe1ed876	-0.15512261
5	0xbe8ccf6d	-0.27502003
6	0x3ea043d1	0.3130174
7	0xbe5d909c	-0.21637195
8	0xbe793138	-0.24335182
9	0xbe3f6cc9	-0.18693842
10	0xbd5b8f93	-0.05360372
11	0x3decb078	0.11557096
12	0x3eab9fd9	0.33520392
13	0x3e3faabe	0.18717477
14	0x3e948956	0.2901103
15	0xbe851fbd	-0.26000777
16	0x3eab1956	0.33417767
17	0xbe833377	-0.25625202
18	0x3d182b61	0.037150744
19	0xbe5a32e8	-0.21308482
20	0xbe403dfa	-0.18773642
21	0xbe5ce514	-0.21571761
22	0xbea21301	-0.31655124
23	0xbe24a2c5	-0.16077717
24	0x3e1d72b1	0.15375783
25	0x3e79ecee	0.24406788
26	0x3df37f8c	0.11889562
27	0x3e48c25d	0.19605394
28	0x3e840c9c	0.2579087
29	0xbe7afb4d	-0.24509926
30	0xbde38a72	-0.11110391
31	0x3e73ebbb	0.23820393
32	0xbec0b45d	-0.37637606
33	0x3dabeee8	0.08395177
34	0x3d35a038	0.04434225
35	0x3e32074e	0.17385599
36	0xbe10dbbe	-0.14146325
37	0x3dc6f844	0.09715322
38	0xbd94c32a	-0.07263787
39	0x3e6cdc2e	0.23130867

model.rnn.weight_ih_l0 f4 [160, 21]
0	0x3e56d8d6	0.20981154
1	0xbc26de0c	-0.010184776
2	0x3e3d3263	0.18476252
3	0xbc191da9	-0.00934545
4	0x3e00774b	0.12545507
5	0x3e4bd751	0.19906355
6	0x3e63a9e1	0.22232772
7	0x3d0a4a8a	0.033762492
8	0x3e2b9ef7	0.16759859
9	0x3e39e98b	0.18155496
10	0x3e0246bf	0.127223
11	0x3b9c975d	0.004778786
12	0x3d68949c	0.05678235
13	0xbce7aad1	-0.028279694
14	0xbd8b2ccc	-0.06795654
15	0x3e445e18	0.19176519
16	0x3d447fa7	0.0479733
17	0xbd8a7e3d	-0.06762359
18	0x3ceca119	0.028885411
19	0xbe9c71d8	-0.30555606
20	0x3e70515e	0.23468539
21	0x3e42fe32	0.1904228
22	0x3d5297c4	0.051414266
23	0x3e1c3433	0.15254287
24	0x39dbd19c	0.00041927106
25	0x3e065757	0.13119255
26	0x3e8b9904	0.2726518
27	0x3d7dad2e	0.061932735
28	0x3d91bd8c	0.07116231
29	0x3e2b8715	0.16750748
30	0x3cf4109b	0.029793074
31	0x3de7a47e	0.11310671
32	0x3e4268ed	0.18985339
33	0x3e3e83d9	0.18604983
34	0x3e64c481	0.22340585
35	0x3cb92a9a	0.022603322
36	0x3d689ab8	0.056788176
37	0x3e25e956	0.16202292
38	0xbc39c4f8	-0.011338465
39	0x3d85a010	0.0652467
40	0xbd89bfe8	-0.06726056
41	0x3d5ed77e	0.054404728
42	0x3dd7ffec	0.1054686
43	0x3cb4195b	0.021984747
44	0x3d68bd55	0.056821186
45	0x3e8d6b59	0.27620962
46	0x3e91e623	0.28495893
47	0xbc3222d3	-0.010872561
48	0x3d83eab0	0.064412475
49	0x3dc62ef7	0.096769266
50	0x3e7a52ba	0.2444562
51	0xbb99daba	-0.0046952637
52	0xbc5a101a	-0.013309503
53	0xbcd37bc1	-0.025815846
54	0xbcbbcea8	-0.02292569
55	0x3d792330	0.060824573
56	0x3e5ecb08	0.21757138
57	0xbd0d9675	-0.034567315
58	0x3e6c942a	0.23103395
59	0xbd741754	-0.05959256
60	0x3e2e29a2	0.17008069
61	0x3d90c064	0.070679456
62	0x3e2321b5	0.15930827
63	0x3e500a11	0.2031634
64	0x3db9bbda	0.09069033
65	0x3deff0e7	0.1171587
66	0x3da86b1c	0.082235545
67	0x3e477d3b	0.19481365
68	0x3e1a50e0	0.15069914
69	0x3e01bd83	0.12669949
70	0x3c8a9999	0.016918944
71	0x3e72de60	0.23717642
72	0x3e4801dc	0.1953196
73	0x3e2ff385	0.17182739
74	0x3dc29614	0.095012814
75	0x3e67e5b5	0.2264622
76	0x3e75f1a2	0.24017957
77	0x3d43fe96	0.047850214
78	0x3e5563d5	0.20838864
79	0x3e75dc27	0.24009763
80	0xbd1cacba	-0.038250662
81	0x3d32b894	0.04363306
82	0xbe029428	-0.1275183
83	0x3e188f77	0.14898477
84	0x3dee4012	0.11633314
85	0x3daaf4f4	0.08347502
86	0x3c0a7fcb	0.00845332
87	0x3dc0882f	0.09400975
88	0x3e2d458c	0.16921061
89	0x3e5daaa8	0.21647131
90	0x3e6b8fe7	0.23004113
91	0x3de4ec01	0.11177827
92	0x3e204502	0.15651324
93	0x3daae422	0.08344294
94	0x3d3c5c7b	0.045986634
95	0x3c922979	0.017842041
96	0xbd74f4ca	-0.05980376
97	0x3e03a0e5	0.12854345
98	0x3d8295ec	0.063762516
99	0x3d721da2	0.05911029
100	0xbc0b2d5e	-0.008494703
101	0x3cdf6247	0.027268542
102	0x3e384397	0.17994533
103	0xbdfac45d	-0.122444846
104	0x3e0a7b83	0.13523678
105	0x3e5381d9	0.20655002
106	0xbc9a5f50	-0.018844277
107	0x3d4436df	0.04790389
108	0x3e7b5c69	0.2454697
109	0x3e177d51	0.14793898
110	0x3dc57020	0.09640527
111	0x3e3e4a3f	0.1858301
112	0x3d5546a0	0.052069306
113	0x3e075849	0.13217272
114	0x3cc1a152	0.023636494
115	0x3dcd7d39	0.1003365
116	0x3de0beaf	0.1097387
117	0x3e54fae7	0.20798837
118	0x3ddeea9a	0.108845904
119	0x3da46a99	0.080281444
120	0xbaa45a85	-0.0012539184
121	0x3d97bcac	0.07409033
122	0x3cb62830	0.02223596
123	0x3e243a06	0.16037759
124	0xbe8b976c	-0.27263963
125	0x3c6a06c7	0.014283842
126	0x3be4a100	0.0069772005
127	0x3e97c6bb	0.29643807
128	0x3e636ac8	0.22208703
129	0x3dd4bffb	0.1038818
130	0x3e235b02	0.15952685
131	0x3e841d8c	0.25803792
132	0x3d9e040a	0.07715614
133	0x3e43bccc	0.19114989
134	0x3da1a762	0.07893254
135	0x3e45cbbd	0.19316001
136	0x3c058206	0.008148676
137	0x3d751623	0.059835564
138	0x3d126045	0.03573634
139	0x3e676097	0.2259544
140	0x3e601f31	0.21886899
141	0x3df07b2e	0.11742245
142	0x3ead7f6b	0.33886275
143	0x3c088115	0.008331557
144	0x3d95ea29	0.07320053
145	0xbe07aa44	-0.13248545
146	0x3e4b6f82	0.19866756
147	0x3e090202	0.13379672
148	0x3e06a1c2	0.13147643
149	0x3e849f66	0.2590286
150	0xbc9bfdfd	-0.01904201
151	0x3e55c9a0	0.20877695
152	0x3e0446a8	0.12917578
153	0x3dd922a6	0.10602312
154	0x3e640e78	0.22271144
155	0x3c3a865c	0.011384573
156	0x3c0368db	0.008020605
157	0x3d942919	0.07234401
158	0x3c70aa06	0.014688974
159	0xbd158d9a	-0.036511995
160	0x3d548de1	0.05189312
161	0x3d888959	0.06666822
162	0x3ce3447f	0.027742622
163	0x3e84a28c	0.25905263
164	0x3d49420f	0.049135264
165	0x3d2dba1a	0.04241381
166	0xbe508491	-0.2036307
167	0x3e5fd427	0.21858273
168	0x3e6d6a65	0.23185118
169	0x3e664a77	0.22489344
170	0x3e51f808	0.20504773
171	0xbd163908	-0.036675483
172	0x3def2e3c	0.116787404
173	0x3de884b8	0.11353439
174	0x3e00a9a9	0.1256472
175	0xbd61e08b	-0.05514578
176	0x3e321688	0.17391407
177	0x3e58c884	0.2117024
178	0xbca845c9	-0.020541089
179	0x3e0b7542	0.13618949
180	0x3d75297d	0.05985402
181	0xbd2d2f4f	-0.042281445
182	0x3e3bb718	0.18331563
183	0x3df8bf88	0.12145907
184	0x3d9756c8	0.07389599
185	0x3d2cc13f	0.04217648
186	0x3dcdb13f	0.10043573
187	0xbcc30763	-0.023807233
188	0x3d42dc2f	0.047573265
189	0x3e494fba	0.1965932
190	0x3e8dd1c1	0.27699092
191	0xbc34d43c	-0.011036929
192	0x3c9c432e	0.019075003
193	0x3caff49a	0.02147894
194	0x3e3e26aa	0.18569437
195	0x3c89de30	0.01682958
196	0x3dfe9a83	0.124318145
197	0xbcb7cb00	-0.022435665
198	0x3de54fbf	0.11196851
199	0x3e2d8f3a	0.16949168
200	0x3e58f0b3	0.2118557
201	0x3e0430cd	0.12909241
202	0x3e6b57aa	0.2298266
203	0xbd3e0a88	-0.046396762
204	0x3e33a7c9	0.17544474
205	0x3e009742	0.125577
206	0x3d5d645a	0.05405078
207	0x3e9bf4ea	0.30460292
208	0xbdf485bc	-0.1193957
209	0x3e641732	0.22274473
210	0x3e809f4e	0.2512154
211	0x3d8782e0	0.06616759
212	0x3dcb8b79	0.09938712
213	0x3e1a0ac8	0.15043175
214	0x3e12df56	0.14343008
215	0x3e0aecfe	0.13566968
216	0x3de31531	0.11088026
217	0x3e670aea	0.22562757
218	0x3e8090fe	0.2511062
219	0x3e045bce	0.12925646
220	0x3e2fee5d	0.17180772
221	0xbd2b3266	-0.04179611
222	0x3d7f5994	0.062341288
223	0xbd26ba68	-0.040705115
224	0x3da7f571	0.08201111
225	0x3e46a3a0	0.19398355
226	0x3e66f6fc	0.22555155
227	0x3d79d52a	0.060994305
228	0x3d467551	0.048451725
229	0x3d82b6d1	0.06382526
230	0x3e2e6013	0.17028837
231	0xbc663c41	-0.014052452
232	0x3d9313db	0.071815215
233	0xbc9cce9a	-0.019141484
234	0xbd17497d	-0.03693532
235	0x3e6caf21	0.23113681
236	0x3e202e97	0.15642773
237	0x3de963b2	0.113959685
238	0x3e7532ed	0.23945208
239	0x3db54d90	0.088526845
240	0x3d0b9754	0.034079865
241	0x3e1da3fa	0.15394583
242	0x3cb8e10e	0.022568252
243	0x3e86e5b8	0.26347136
244	0x3d99b699	0.07505531
245	0xbd545797	-0.051841345
246	0x3de89a02	0.113575
247	0x3e36b2aa	0.17841592
248	0x3c54c4d2	0.012986379
249	0x3c46b8e7	0.012129045
250	0xbe2098a0	-0.15683222
251	0x3e87fabd	0.26558486
252	0x3e11a3d8	0.14222658
253	0x3d87bce9	0.06627829
254	0x3e12136f	0.14265226
255	0x3d120160	0.035645843

model.rnn.weight_hh_l0 f4 [160, 40]
0	0x3dcbb249	0.099461146
1	0x3c15c249	0.0091405595
2	0xbdc0365f	-0.093853705
3	0xbe0093ac	-0.12556332
4	0x3dd7b0b7	0.105317526
5	0x3daa74d4	0.083230644
6	0xbcd48c97	-0.025945945
7	0xbe02f6f7	-0.12789522
8	0xbe186d95	-0.14885552
9	0x3e1c9c71	0.15294053
10	0xbd646fed	-0.055770803
11	0xbca85b07	-0.020551218
12	0x3d9a0109	0.07519729
13	0xbcff268f	-0.031146316
14	0xbd70eb7d	-0.05881833
15	0x3c8f9e02	0.017531399
16	0x3dbbb986	0.09166245
17	0xbe3abdf3	-0.18236522
18	0x3d3a2806	0.045448326
19	0x3df76040	0.12078905
20	0xbdaa973e	-0.083296284
21	0xbe3a45aa	-0.18190637
22	0x3db0f959	0.08641309
23	0x3d60ca7f	0.054880615
24	0xbdde87dd	-0.108657576
25	0xbde86b90	-0.11348641
26	0xbdee19c8	-0.11626011
27	0x3e1960f4	0.14978391
28	0x3dcaba42	0.09898807
29	0x3c64a788	0.013955958
30	0x3d66ec0d	0.05637746
31	0x3da3310e	0.07968341
32	0x3dbb626d	0.091496326
33	0x3bd428d9	0.006474596
34	0xbe2b7a99	-0.16745986
35	0x3bf09376	0.0073417975
36	0xbd89f9b6	-0.06737082
37	0xbe4c41be	-0.19946954
38	0xbe044a8d	-0.12919064
39	0xbce75fc2	-0.028243903
40	0x3d86e93e	0.06587456
41	0xbd869ccf	-0.065728776
42	0xbe18aa62	-0.14908746
43	0xbd271cd2	-0.04079897
44	0x3d21387a	0.0393605
45	0x3e16e866	0.1473709
46	0xbdb2ad12	-0.08724417
47	0xbdcdce3d	-0.100491025
48	0xbd8dcc4c	-0.06923732
49	0x3cb8df79	0.022567498
50	0x3d896775	0.06709186
51	0x3c307842	0.010770859
52	0xbcc8fec5	-0.024535546
53	0x3d7445ed	0.059637
54	0x3e081d03	0.13292317
55	0xbcade332	-0.0212265
56	0x3e1171eb	0.14203613
57	0xbe1c0fc3	-0.15240388
58	0x3d8a76c9	0.06760938
59	0x3d91186a	0.07084735
60	0xbd3f8907	-0.04676154
61	0x3dc30589	0.0952254
62	0x3bd8b4a8	0.006613333
63	0x3d852a9b	0.06502267
64	0x3ded467a	0.11585708
65	0xbcb15526	-0.021647047
66	0xbd1fd74b	-0.03902368
67	0xbe035c73	-0.12828235
68	0x3d11f8a2	0.035637505
69	0xbd8de8fd	-0.069292046
70	0x3e3c6cf3	0.18400936
71	0x3e012349	0.12611116
72	0x3bdca11d	0.0067330734
73	0xbd8a01bd	-0.06738613
74	0xbe0d28de	-0.13785121
75	0xbdcaab55	-0.0989596
76	0xbdac973c	-0.08427283
77	0xbe3f0a23	-0.1865621
78	0x3de60f5b	0.112333976
79	0x3cfb9b8c	0.030713819
80	0xbc621ccc	-0.013800811
81	0x3db24c6f	0.08705985
82	0xbe557966	-0.20847091
83	0x3d505524	0.050862446
84	0x3c4b53ff	0.012410163
85	0x3dcf9a9a	0.1013691
86	0x3cb2ad43	0.021811133
87	0x3cd055e9	0.02543159
88	0x3d8ca549	0.06867463
89	0xbda2d782	-0.07951261
90	0xbda32e76	-0.07967846
91	0xbe156092	-0.1458762
92	0xbdc1bf14	-0.094602734
93	0x3e2d0b52	0.1689885
94	0xbd2b4c47	-0.04182079
95	0xbdaef034	-0.08541909
96	0x3e61250b	0.21986787
97	0xbe35e846	-0.17764387
98	0xbdf6ede2	-0.12057091
99	0x3e15c607	0.14626323
100	0xbb07aeee	-0.0020703631
101	0xbcc25237	-0.023720844
102	0xbda9871d	-0.08277724
103	0x3e1624d1	0.14662482
104	0xbd85221d	-0.06500647
105	0xbe04827e	-0.12940404
106	0x3db963ba	0.090522245
107	0xbd831306	-0.06400113
108	0xbe21e7ad	-0.15811034
109	0xbe14cc61	-0.1453109
110	0xbe0b7937	-0.13620459
111	0xbc96009e	-0.018310841
112	0xbe032ac8	-0.12809289
113	0xbdb7423d	-0.08948181
114	0xbe427053	-0.18988161
115	0xbd1df6df	-0.038565513
116	0x3e0bd442	0.13655189
117	0xbe6ef743	-0.2333651
118	0xbdcb6139	-0.09930653
119	0x3e305a58	0.17221963
120	0x3d688606	0.05676844
121	0x39696645	0.0002225871
122	0x3d48be4c	0.049009606
123	0x3dc1a38a	0.09455021
124	0x3e0656ba	0.13119021
125	0x3da99a3d	0.08281372
126	0x3da5ec7f	0.08101749
127	0xbde1dadb	-0.110280715
128	0x3dcf66ef	0.10127055
129	0xbd670fde	-0.056411617
130	0x3debaa18	0.11507052
131	0xbe23647a	-0.15956298
132	0xbe5929f2	-0.21207407
133	0x3dcc2c2c	0.099693626
134	0xbcf7d6d9	-0.030253815
135	0x3d849356	0.064734146
136	0x3e57bd25	0.21068247
137	0xbdc60637	-0.09669154
138	0xbdfcb148	-0.12338501
139	0x3e53d746	0.20687589
140	0x3d16195a	0.03664527
141	0xbdc1ea09	-0.09468467
142	0xbd16bd18	-0.036801428
143	0x3e4459f1	0.19174935
144	0xbd9de628	-0.077099144
145	0xbd1124d8	-0.035435528
146	0x3df31352	0.118689194
147	0x3e33c430	0.17555308
148	0xbd920a75	-0.07130901
149	0xbe3d9614	-0.18514282
150	0x3df025d5	0.11725966
151	0xbd845a44	-0.06462529
152	0x3d86a8ee	0.065751895
153	0x3b3c74cb	0.0028756137
154	0x3dbc3acc	0.09190902
155	0x3e0956c7	0.13412009
156	0x3e010554	0.12599689
157	0x3cc942e8	0.024568036
158	0x3c285c09	0.010275849
159	0x3e33bf1c	0.17553371
160	0xbd998287	-0.07495599
161	0xbda2771a	-0.07932873
162	0xbe58c4cc	-0.21168822
163	0xbd34da20	-0.044153333
164	0xbd8e3cd6	-0.06945197
165	0x3c727e29	0.014800587
166	0x3dd267e5	0.102737226
167	0xbe316ffa	-0.17327872
168	0x3da72082	0.08160497
169	0x3da5fd18	0.081049144
170	0x3dacdcb0	0.0844053
171	0x3d2c65ad	0.042089153
172	0xbdc7e8f4	-0.09761229
173	0x3e115741	0.14193441
174	0xbd82773d	-0.06370399
175	0xbdf6f1c7	-0.12057834
176	0x3d57c5c7	0.05267885
177	0xbcd57b99	-0.026059913
178	0xbde9b04d	-0.1141058
179	0x3c1d1bc5	0.00958914
180	0xbda5b1fa	-0.08090587
181	0x3cd152d9	0.0255522
182	0x3e0815b2	0.13289526
183	0x3ddb463d	0.10706756
184	0xbd8b75ce	-0.06809579
185	0xbcd3a15d	-0.02583378
186	0xbdb6615d	-0.08905289
187	0x3da5b5bc	0.08091304
188	0x3de4d651	0.1117369
189	0xbde542c4	-0.11194375
190	0xbdcc7a5e	-0.09984277
191	0xbbbe3bea	-0.005805482
192	0xbe2ca2eb	-0.16859023
193	0xbc47b82c	-0.012189906
194	0xbe1f61fd	-0.15564723
195	0x3e2caf7a	0.16863814
196	0xbc5965a1	-0.013268859
197	0xbddb1059	-0.106964774
198	0x3c224ea9	0.009906449
199	0x3e0f4cd4	0.13994151
200	0x3db21f39	0.086973615
201	0x3dbed396	0.093177006
202	0x3db76e65	0.08956603
203	0x3d8c7587	0.06858354
204	0x3d4c346f	0.049854692
205	0xbd539846	-0.05165889
206	0xbd8b8936	-0.0681328
207	0x3bac3b25	0.005256074
208	0xbde48450	-0.11158049
209	0xbd66270e	-0.05618959
210	0xbdd2d35a	-0.10294218
211	0x3dae7043	0.08517506
212	0x3d5bf66e	0.05370181
213	0x3ddf1a12	0.108936444
214	0x3e16076c	0.14651269
215	0x3d81d05e	0.06338571
216	0x3d641c6d	0.05569117
217	0xbd8bf5b4	-0.068339735
218	0x3d5b97c8	0.053611547
219	0xbd7b8c36	-0.061413012
220	0xbda99190	-0.08279717
221	0x3e06ff70	0.13183379
222	0xbca584a7	-0.020204855
223	0x3ca0ab00	0.01961279
224	0x3e045a3a	0.12925044
225	0xbcf21fba	-0.029556144
226	0xbe37ed2c	-0.17961568
227	0xbd6c6849	-0.05771664
228	0x3e3544d9	0.17702045
229	0x3de14deb	0.1100119
230	0x3db03d5c	0.08605453
231	0xbe13a85d	-0.14419694
232	0x3e089f57	0.13342033
233	0x3d927f8a	0.071532324
234	0x3e1f95a2	0.15584424
235	0xbe0876bf	-0.13326548
236	0xbc8d3907	-0.017239107
237	0x3e0edeec	0.13952225
238	0x3e327788	0.1742841
239	0xbcf55015	-0.029945413
240	0x3e1b6577	0.15175425
241	0xbcd14750	-0.0255467
242	0xbe5aa3af	-0.21351503
243	0xbdb28c35	-0.087181486
244	0x3e055c2f	0.13023447
245	0xbcbda28c	-0.023148797
246	0xbe502d42	-0.20329764
247	0xbc3213c8	-0.010868974
248	0x3c5b57d7	0.013387642
249	0x3da26aa8	0.07930499
250	0x3bdd341b	0.006750596
251	0xbe2ed16f	-0.1707208
252	0xbcf1ae83	-0.029502159
253	0x3de0e7de	0.10981725
254	0xbd200ac6	-0.039072774
255	0x3deca9f3	0.11555853

model.rnn.bias_ih_l0 f4 [160]
0	0x3d63da52	0.05562813
1	0x3e79fa69	0.2441193
2	0x3dc3892d	0.095476486
3	0x3e08a840	0.13345432
4	0x3e2cd183	0.16876797
5	0x3dbe377f	0.09287929
6	0x3e8aadd9	0.2708576
7	0x3e2d1b05	0.16904838
8	0x3e00b401	0.12568666
9	0x3e39a457	0.18129097
10	0x3e5ec262	0.21753839
11	0x3d118f8f	0.0355373
12	0x3e430b3f	0.19047259
13	0x3e1edcdf	0.15513943
14	0x3db2edf8	0.08736795
15	0x3dfd401a	0.12365742
16	0x3eb41aef	0.351768
17	0x3e112b81	0.14176752
18	0x3e5764a5	0.21034487
19	0x3d1b3207	0.037889507
20	0x3da55230	0.08072317
21	0x3e67a5d9	0.2262186
22	0x3d1c68b1	0.03818578
23	0x3e7f9d31	0.24962308
24	0x3e3b1602	0.18270114
25	0x3e4da61d	0.20082898
26	0x3e1f2b89	0.15543951
27	0x3e097937	0.13425146
28	0xbe02ca2d	-0.12772436
29	0x3de291ac	0.11062941
30	0x3e284442	0.16432288
31	0x3e31c52d	0.17360373
32	0x3eb679af	0.35639712
33	0x3d35ff97	0.044433203
34	0x3ea28bb2	0.31747204
35	0x3df686f0	0.12037456
36	0x3e589133	0.21149139
37	0x3e90d089	0.282841
38	0x3da04c4d	0.07827053
39	0x3e562f1c	0.20916408
40	0x3e28fd94	0.16502982
41	0xbc1cd181	-0.009571434
42	0xbd91ec5d	-0.07125161
43	0x3e0f6602	0.14003757
44	0x3de15c87	0.11003976
45	0xbd91d6d9	-0.07121057
46	0x3e4718d3	0.19443063
47	0x3e206af8	0.15665805
48	0xbd9a2c80	-0.07528019
49	0x3e2f0695	0.17092355
50	0xbdbae40b	-0.09125527
51	0x3b63b75e	0.0034746747
52	0xbc786bcf	-0.015162422
53	0xbd22bc25	-0.03973021
54	0x3d95331d	0.0728514
55	0xbdb8e242	-0.0902753
56	0xbdb7b88b	-0.08970746
57	0x3d564f31	0.052321617
58	0xbdae3cec	-0.08507714
59	0x3d3ef992	0.046624728
60	0xbdb8f293	-0.09030642
61	0x3d208351	0.039187733
62	0xbdecd7b3	-0.11564579
63	0xbdd8430c	-0.10559663
64	0xbdf84fd0	-0.12124598
65	0xbe027900	-0.1274147
66	0x3d752e00	0.059858322
67	0x3cbd2323	0.023088044
68	0xbd84bcb2	-0.06481303
69	0x3cb40e72	0.021979544
70	0x3db4d583	0.08829787
71	0xbe10dfb5	-0.14147837
72	0xbdc8185c	-0.09770271
73	0x3e11b098	0.14227521
74	0xbd82bfd4	-0.063842446
75	0xbbf7189b	-0.007540775
76	0x3b950e33	0.004548812
77	0x3d68c8cd	0.056832124
78	0x3e1de809	0.15420546
79	0x3ddf2ff1	0.10897816
80	0xbcb15785	-0.021648178
81	0x3d73efec	0.05955498
82	0xbdf613ae	-0.12015472
83	0x3d94b47a	0.07260986
84	0x3d99110d	0.07473955
85	0xbb42f4a5	-0.002974787
86	0xbe328cbc	-0.17436498
87	0xbe0ff3a2	-0.14057782
88	0xbe33ad5d	-0.17546602
89	0x3e2c7177	0.16840158
90	0x3e78d76a	0.24300924
91	0xbe0467a0	-0.12930155
92	0xbcd7679f	-0.026294528
93	0x3e8b8b7c	0.27254856
94	0x3e85d97c	0.2614249
95	0xbc95d958	-0.018292114
96	0x3e44cd43	0.19218926
97	0xbe407940	-0.18796253
98	0xbe19411d	-0.14966245
99	0x3e1db01f	0.15399216
100	0xbda1c947	-0.07899719
101	0xbe4c8948	-0.19974244
102	0x3e20a5ba	0.1568822
103	0x3df88358	0.12134427
104	0x3db7fbf5	0.08983604
105	0xbe4d6942	-0.20059684
106	0x3e1949ef	0.1496961
107	0xbbd79a7b	-0.006579695
108	0xbdb2b27a	-0.08725448
109	0xbe6fb074	-0.23407155
110	0xbe324206	-0.17407998
111	0x3d49d84e	0.04927855
112	0xbd516da3	-0.05112995
113	0x3dbeaa14	0.093097836
114	0xbdfc7aed	-0.12328134
115	0x3e6dfe97	0.2324165
116	0x3e56d64d	0.20980187
117	0xbca18b85	-0.019719848
118	0xbe81c6bf	-0.25346944
119	0x3e664e1b	0.22490732
120	0x3e558fd1	0.20855643
121	0x3e216bf6	0.1576384
122	0x3e6e951c	0.23299068
123	0x3e24e448	0.16102707
124	0x3d6d7676	0.0579743
125	0x3e1d91ad	0.15387602
126	0x3c4ce6c5	0.012506192
127	0x3c3a9f18	0.01139047
128	0x3ddad660	0.1068542
129	0x3d04c4bb	0.03241418
130	0x3ea0e2ac	0.31422937
131	0x3e0595f5	0.13045485
132	0x3eb4a812	0.35284477
133	0x3db29255	0.08719317
134	0x3e369d45	0.17833431
135	0x3df8b9a4	0.12144783
136	0x3e9fb585	0.31193176
137	0x3dd78f9e	0.1052544
138	0x3d9ce525	0.07660893
139	0x3dfc98c6	0.12333827
140	0x3d08aea0	0.03336966
141	0x3e1ecf56	0.1550878
142	0x3e5b13c6	0.21394262
143	0x3e5863ec	0.21131867
144	0x3e2b1101	0.16705705
145	0x3dbb9e94	0.09161106
146	0x3d67ea3a	0.05661986
147	0x3d66dd2a	0.056363262
148	0xbd0a74a6	-0.03380265
149	0x3dca4cc6	0.098779246
150	0x3d56e6af	0.05246609
151	0x3dff1032	0.12454261
152	0x3d63eb3e	0.055644266
153	0x3d9524bc	0.07282397
154	0x3ce754ac	0.028238617
155	0x3d135879	0.035973046
156	0x3e8851c1	0.26624873
157	0x3e4a5c87	0.19761859
158	0x3dc47252	0.09592117
159	0x3dea0f3e	0.114286885

model.rnn.bias_hh_l0 f4 [160]
0	0x3db78d7f	0.08962535
1	0x3cf26a22	0.029591624
2	0x3e3d110f	0.18463539
3	0x3e8f5993	0.27998027
4	0x3e97a9bd	0.29621688
5	0x3db71213	0.08938994
6	0x3e6888bc	0.2270841
7	0x3e81f10f	0.25379226
8	0x3e7b02af	0.24512742
9	0x3d810530	0.062998176
10	0x3e786dca	0.24260631
11	0x3d71d0a4	0.059036866
12	0x3e694845	0.22781475
13	0x3e9a9398	0.3019073
14	0xbb83aac2	-0.0040181587
15	0xbc777022	-0.015102418
16	0x3e686eb9	0.22698487
17	0x3d93e20c	0.072208494
18	0x3e94defd	0.29076377
19	0x3e4eef15	0.2020839
20	0x3e2eabc6	0.17057714
21	0x3e99b355	0.30019632
22	0x3e56925b	0.20954268
23	0x3e0bee68	0.13665164
24	0x3d83940e	0.064247236
25	0x3d8b6582	0.068064705
26	0x3e1659d5	0.14682706
27	0x3d8340d8	0.06408852
28	0xbd42c856	-0.047554336
29	0x3e83a80a	0.2571414
30	0x3df205c8	0.11817509
31	0x3d573aa5	0.052546162
32	0x3e8fd9ae	0.28095764
33	0x3e2aa339	0.16663827
34	0x3e7707d6	0.24124083
35	0x3e60e8b3	0.21963768
36	0x3e20582a	0.15658632
37	0x3e198407	0.1499177
38	0x3e4b204d	0.1983654
39	0x3e985875	0.29754987
40	0x3db36d16	0.08761041
41	0xbb7fa7a6	-0.0039009838
42	0x3d84cc2f	0.064842574
43	0xbda30234	-0.079594046
44	0x3e3f3d18	0.18675649
45	0x3d4f52d9	0.05061612
46	0x3e2e8dce	0.17046282
47	0xbd13e7dc	-0.03610979
48	0xbc31d02b	-0.010852854
49	0x3c1f523d	0.009724197
50	0x3ce2b972	0.027676318
51	0x3dfb81ea	0.122806385
52	0xbdc85ddf	-0.097835295
53	0x3df7be68	0.12096864
54	0xbe50d453	-0.20393495
55	0x3cebabf2	0.028768513
56	0xbd86ef92	-0.06588663
57	0xbd0f7546	-0.03502395
58	0xbd62f36e	-0.055407934
59	0x3dedb82c	0.116073936
60	0xbdb85ecd	-0.09002457
61	0x3db37e4a	0.08764322
62	0x3da32f99	0.07968063
63	0xbd17652c	-0.03696172
64	0x3bf69aa5	0.0075257593
65	0xbdad3992	-0.08458246
66	0xbd723548	-0.059132844
67	0xbd1a0a48	-0.03760746
68	0xbd5bc122	-0.053650983
69	0x3c63ce4b	0.013904165
70	0xbd58fd8b	-0.052976172
71	0x3bb4c674	0.0055168215
72	0x3db588c2	0.08863975
73	0xbd9a18fa	-0.07524295
74	0x3e1e4efc	0.15459818
75	0x3c7853d3	0.015156704
76	0x3d1fb573	0.038991403
77	0x3c24fdcc	0.0100702755
78	0x3e154324	0.14576393
79	0x3c7f0de5	0.015567278
80	0x3cc63fe8	0.024200395
81	0x3e3f4228	0.1867758
82	0xbcd4cb76	-0.025975924
83	0xbde8d3b6	-0.11368506
84	0x3c21c0f0	0.00987266
85	0x3e3c32d1	0.1837876
86	0xbe111442	-0.14167884
87	0xbd9d5775	-0.07682697
88	0xbe079338	-0.13239753
89	0x3e48c415	0.1960605
90	0x3e2e7d22	0.17039922
91	0xbe582bf5	-0.21110518
92	0xbdd794de	-0.10526441
93	0x3d54f419	0.051990602
94	0x3e70fc1e	0.23533675
95	0x3e285062	0.16436914
96	0x3e739825	0.23788507
97	0xbe5f225e	-0.21790454
98	0xbe35ae8d	-0.17742367
99	0x3e4d268c	0.20034236
100	0xbdfccb82	-0.123435035
101	0xbe377e67	-0.17919312
102	0x3d581d63	0.0527624
103	0x3e61f374	0.22065526
104	0x3e3a7381	0.18208124
105	0x3c96471d	0.018344456
106	0x3e50aed1	0.20379187
107	0xbc9a600e	-0.01884463
108	0x3d66fe3b	0.056394797
109	0xbe1b0a9f	-0.1514077
110	0x3db26384	0.08710387
111	0x3e200188	0.15625584
112	0xbe1db29b	-0.15400164
113	0x3e3e40f8	0.18579471
114	0xbd9add51	-0.07561744
115	0xbd2af5a9	-0.041738186
116	0x3d4876fe	0.048941605
117	0xbcc15bb6	-0.023603301
118	0xbe0e5dcc	-0.13902968
119	0x3e4b71e1	0.1986766
120	0x3e16d7f7	0.14730822
121	0x3e8e3595	0.27775255
122	0x3e8d900f	0.2764897
123	0x3e1eb47e	0.1549854
124	0x3e1f1260	0.15534353
125	0x3c35fccd	0.011107636
126	0x3e00d768	0.12582171
127	0x3e73b7d4	0.23800594
128	0x3e310ca2	0.17289975
129	0x3e4a844b	0.19777028
130	0x3d0f7962	0.03502787
131	0x3e822136	0.25415963
132	0x3e4d2e31	0.20037152
133	0x3dbb4709	0.09144408
134	0x3df7e52a	0.121042565
135	0x3c640b31	0.013918684
136	0x3dfc4c03	0.123191856
137	0x3da7c9e0	0.081928015
138	0x3dddf547	0.108377986
139	0x3e9b2eca	0.30309135
140	0x3e2b7883	0.1674519
141	0x3e4f454d	0.2024128
142	0x3dcfc9ff	0.101459496
143	0x3e2a9e11	0.1666186
144	0x3e50ac25	0.20378168
145	0x3e31b9d6	0.17356047
146	0x3d2840c3	0.041077387
147	0x3e7ba240	0.24573612
148	0x3db93c87	0.09044748
149	0x3e9f7ec9	0.31151417
150	0x3d557e4f	0.05212241
151	0x3d921137	0.0713219
152	0x3e80dc30	0.2516799
153	0x3e8425a2	0.25809962
154	0x3e4ffb02	0.20310596
155	0x3e8c727d	0.27431098
156	0x3c3e72ac	0.01162402
157	0x3dc5851c	0.09644529
158	0x3de4de6f	0.11175238
159	0xbd5a283f	-0.053261038

model.rnn.weight_ih_l1 f4 [160, 40]
0	0x3e405f97	0.18786465
1	0xbc870e6f	-0.016486375
2	0x3ca4666b	0.020068368
3	0x3c7fd282	0.015614154
4	0x3d343d26	0.04400363
5	0x3e61ae8d	0.22039242
6	0x3ad35c78	0.001612558
7	0x3ad4afa2	0.0016226659
8	0xbdcae913	-0.09907737
9	0x3e61b889	0.22043051
10	0xbc19bda8	-0.0093835965
11	0xbe3b69c2	-0.18302062
12	0xbe782b3a	-0.2423524
13	0x3d393ead	0.045225788
14	0x3e324ffa	0.17413321
15	0x3e69fa52	0.22849396
16	0x3db2e762	0.08735539
17	0xbdd0d09a	-0.101960376
18	0xbe341170	-0.17584777
19	0x3e25b916	0.16183886
20	0x3c25e28d	0.010124815
21	0xbe26af9c	-0.16277927
22	0x3dd88457	0.10572117
23	0x3d097974	0.033563092
24	0x3e4f04e9	0.20216717
25	0x3cc34044	0.023834355
26	0x3d1769b8	0.036966056
27	0x3e686482	0.2269459
28	0xbdc2562b	-0.094890915
29	0xbe1ff886	-0.15622148
30	0x3cdf2dc4	0.027243502
31	0x3d754647	0.059881475
32	0xbe3ec9b8	-0.18631637
33	0x3df8e057	0.121521644
34	0xbe380f0e	-0.17974493
35	0x3cc60f50	0.024177223
36	0x3dc006e9	0.09376318
37	0x3c3b579a	0.01143446
38	0xbea977eb	-0.33099303
39	0x3e087215	0.13324769
40	0x3d95674b	0.07295092
41	0x3d3ef6d8	0.046622127
42	0x3c0bf764	0.008542869
43	0xbdc858ea	-0.09782584
44	0x3d8b59bf	0.06804227
45	0x3d71f0a2	0.059067376
46	0xbe6844ea	-0.22682539
47	0xbced2fc2	-0.028953437
48	0xbe60eb81	-0.21964838
49	0x3e490c81	0.19633676
50	0x3e920e2e	0.28526443
51	0xbc81a918	-0.0158277
52	0xbe34e5ff	-0.17665862
53	0x3c90e557	0.017687483
54	0x3d2eee11	0.042707507
55	0x3d7412c9	0.059588227
56	0x3d0fe32b	0.035128754
57	0xbe031356	-0.12800345
58	0xbe5b7753	-0.21432237
59	0x3e330e03	0.17485814
60	0xbe622db3	-0.22087745
61	0xbdcb2c80	-0.09920597
62	0x3e0e3aa4	0.13889557
63	0x3bb4cb27	0.0055173817
64	0x3c3fe227	0.011711634
65	0xbe3d90ad	-0.1851222
66	0xbb80df9b	-0.003932906
67	0x3d8856aa	0.06657155
68	0xbe18fd8b	-0.14940469
69	0xbbba9e9d	-0.0056951777
70	0xbeb82018	-0.35961986
71	0x3d83e2a7	0.06439715
72	0xbe9e28d7	-0.30890533
73	0x3e8c59b7	0.27412197
74	0xbe41749e	-0.18892142
75	0xbcd9d6d8	-0.026591703
76	0x3e5c5265	0.21515806
77	0xbdf28740	-0.11842203
78	0xbe4b4edb	-0.198543
79	0x3e14a102	0.14514545
80	0xbe1c5223	-0.15265708
81	0x3dee8cac	0.11647925
82	0xbca55ac6	-0.020184886
83	0xbc37cc8f	-0.011218204
84	0xbd0e6356	-0.034762703
85	0xbe034dee	-0.12822697
86	0x3dc72066	0.097229764
87	0xbd2b9db1	-0.041898433
88	0xbde77df4	-0.113033205
89	0x3dd85ffb	0.10565182
90	0xbe0ef11c	-0.13959163
91	0x3da923bc	0.08258769
92	0x3e1ab194	0.15106803
93	0xbe22b3d7	-0.15888916
94	0xbd680369	-0.056643877
95	0xbdc47433	-0.09592476
96	0xbd83d75a	-0.064375594
97	0x3cb13cb0	0.021635383
98	0xbdc1e2eb	-0.09467109
99	0xbc12f6e9	-0.008970001
100	0x3cdfac11	0.027303727
101	0xbe05027b	-0.12989227
102	0xbe276390	-0.16346574
103	0xbe312806	-0.17300424
104	0x3c5a253e	0.013314543
105	0x3d982e4f	0.07430708
106	0xbe213b45	-0.15745266
107	0x3db27c23	0.087150835
108	0xbda2550d	-0.079263784
109	0x3e0df83c	0.13864225
110	0x3e339c0f	0.1754
111	0xbd7d3ac9	-0.06182364
112	0xbd6fc965	-0.058541674
113	0xbde6aa28	-0.112629235
114	0xbd798d22	-0.06092561
115	0xbc1a255a	-0.009408319
116	0xbe020bf6	-0.12699875
117	0xbd42e8c1	-0.047585253
118	0xbc9587b2	-0.018253181
119	0xbda0abab	-0.07845243
120	0x3d2ff641	0.042959455
121	0xbd9ca75e	-0.0764911
122	0xbd0575fa	-0.032583214
123	0x3d564816	0.05231484
124	0x3d9a8b53	0.07546105
125	0xbd18379b	-0.037162405
126	0xbd002409	-0.031284366
127	0x3c131c4c	0.0089789145
128	0xbd7c0e8c	-0.06153731
129	0xbdae3345	-0.08505873
130	0xbdee877e	-0.11646937
131	0xbdcb17d3	-0.099166535
132	0xbe3a9f93	-0.18224935
133	0x3df96beb	0.12178787
134	0x3cf08044	0.029358037
135	0x3d237470	0.039905965
136	0xbdbf42e5	-0.09338931
137	0xbd239d3f	-0.039944883
138	0xbe3e4d36	-0.18584141
139	0xbcf22ed2	-0.029563341
140	0xbe4dfe5f	-0.20116566
141	0x3dd517aa	0.10404904
142	0x3dae3e38	0.08507961
143	0x3dfb1d3b	0.12261435
144	0x3e5c9ee4	0.21544987
145	0x3d53ce7e	0.0517106
146	0xbdf9a103	-0.12188914
147	0xbe01866c	-0.12648934
148	0x3e0a9013	0.13531522
149	0xbe04319c	-0.1290955
150	0x3c78020a	0.015137205
151	0x3e1bd370	0.15217376
152	0x3cf22620	0.029559195
153	0x3e1c341d	0.15254255
154	0x3de34e68	0.11098939
155	0x3ddcccc8	0.107812464
156	0xbd8f6374	-0.07001391
157	0x3d2e758d	0.042592574
158	0xbd4e66dc	-0.050391063
159	0xbc8fa714	-0.017535724
160	0x3e8a58a5	0.27020755
161	0x3d4a1ac2	0.049341924
162	0xbdf41987	-0.119189315
163	0xbe76087f	-0.24026679
164	0x3defd194	0.11709896
165	0x3e885452	0.2662683
166	0xbe386f83	-0.18011288
167	0xbe9d542e	-0.30728287
168	0xbde085f7	-0.10963052
169	0x3e322d01	0.1739998
170	0x3e759e6e	0.23986217
171	0xbd0c704e	-0.03428679
172	0xbe974cdf	-0.29550835
173	0x3e85f4fe	0.26163477
174	0x3e78415b	0.24243681
175	0x3e8c21f7	0.27369663
176	0x3ebe160f	0.37126204
177	0xbe8ce41e	-0.2751779
178	0xbe3e1663	-0.18563227
179	0x3e0ea64c	0.13930625
180	0xbe9c7a02	-0.30561835
181	0xbe833062	-0.2562285
182	0x3e5892fc	0.2114982
183	0x3e5c646d	0.21522684
184	0x3dbdef98	0.092742145
185	0xbcbffdf1	-0.023436518
186	0x3d379027	0.04481521
187	0x3e3c4f0c	0.18389529
188	0xbe180280	-0.14844704
189	0xbdbd6d9f	-0.09249424
190	0xbdfb4ba0	-0.12270284
191	0x3df3cafe	0.11903952
192	0xbe75febe	-0.24022958
193	0x3ea32525	0.31864277
194	0xbe9bcd36	-0.3043
195	0x3e137fec	0.14404267
196	0x3e39cc05	0.18144234
197	0xbe882725	-0.26592365
198	0xbe998ff8	-0.29992652
199	0x3e68dd9b	0.22740786
200	0x3e019a82	0.12656596
201	0x3d9d99ad	0.07695327
202	0xbe005407	-0.12532054
203	0xbdbeb630	-0.09312093
204	0x3de6b6c1	0.11265326
205	0x3e074138	0.13208473
206	0xbd205dcc	-0.03915195
207	0xbe2c5c07	-0.1683198
208	0xbd3c7ce9	-0.04601756
209	0x3e02c03d	0.12768646
210	0x3e4d7891	0.20065524
211	0xbe3a6ded	-0.18205996
212	0xbe53d226	-0.20685634
213	0x3e9e5701	0.30925754
214	0x3e2d47ee	0.1692197
215	0x3e7c5a2f	0.24643777
216	0x3e084ca2	0.13310483
217	0xbe57ed2f	-0.21086572
218	0xbe84796f	-0.25873896
219	0x3ea1101c	0.31457603
220	0xbeb78d07	-0.35849783
221	0xbe94bf09	-0.29051998
222	0x3e482cc8	0.19548333
223	0x3e8f7bdf	0.28024194
224	0x3d8dd8cf	0.069261186
225	0xbe0bdcdd	-0.13658471
226	0x3e0fa31b	0.14027064
227	0x3e814b9d	0.25253
228	0xbde5fad9	-0.11229486
229	0xbeb02d9d	-0.344098
230	0xbd42afcc	-0.047530934
231	0x3e560772	0.20901278
232	0xbdeadea1	-0.11468244
233	0x3e91e0c3	0.28491792
234	0xbc3e27de	-0.011606185
235	0x3dd9c0a9	0.1063245
236	0x3e897a97	0.2685134
237	0xbea9b8f0	-0.3314891
238	0xbc800c9a	-0.015631009
239	0x3e436e69	0.19085087
240	0x3d4a53a1	0.04939616
241	0x3dd62044	0.10455373
242	0x3c138ae1	0.009005279
243	0x3db1fb70	0.08690536
244	0xbbbff5c7	-0.0058581564
245	0x3e13458b	0.14381997
246	0x3d601b45	0.054713506
247	0x3dfc2e59	0.123135276
248	0xbd06bb33	-0.03289337
249	0x3dd9ae43	0.10628941
250	0x3deabb7a	0.114615396
251	0xbdf8c7ed	-0.12147508
252	0x3db783c9	0.08960683
253	0x3dcf0c38	0.101097524
254	0x3bc62ed7	0.006048064
255	0x3d96bcb5	0.07360212

model.rnn.weight_hh_l1 f4 [160, 40]
0	0xbe2dd212	-0.16974667
1	0xbd19504d	-0.037430096
2	0x3e2673da	0.16255131
3	0xbccc42de	-0.024934229
4	0x3d90c5d3	0.07068982
5	0xbe01d704	-0.12679678
6	0x3dda0894	0.106461674
7	0x3d93d40e	0.072181806
8	0x3dbc69e3	0.09199884
9	0x3d88c1f0	0.06677616
10	0xbe283f4d	-0.16430397
11	0x3d8cdd86	0.0687819
12	0xbdabfcad	-0.083978035
13	0x3d9684c4	0.07349542
14	0xbda8b3cc	-0.082374185
15	0xbe16c147	-0.14722167
16	0x3db3360c	0.08750543
17	0x3dd246c2	0.10267402
18	0xbdb787ed	-0.08961473
19	0xbdbe5711	-0.0929395
20	0x3d7460aa	0.0596625
21	0x3dad81ec	0.08472046
22	0x3d379c1f	0.044826623
23	0x3d790347	0.06079414
24	0x3de535e6	0.11191921
25	0x3dc0e2d3	0.09418263
26	0x3d9c5147	0.0763269
27	0x3d808bee	0.062766895
28	0xbd040721	-0.03223336
29	0xbd5a5c9f	-0.053310987
30	0x3dfc20a2	0.12310912
31	0x3d9bf8ba	0.076158
32	0xbdb7f86a	-0.08982928
33	0x3ded7a86	0.11595635
34	0xbd417d79	-0.0472388
35	0xbc79b9e4	-0.015242074
36	0x3e08fc7d	0.13377567
37	0x3dbd9b29	0.0925811
38	0x3c99d9f2	0.018780682
39	0xbda30320	-0.079595804
40	0xbd82b652	-0.06382431
41	0xbd930a56	-0.07179706
42	0x3d1fb2b1	0.038988773
43	0x3de6f3e5	0.11276988
44	0xbd890462	-0.06690289
45	0x3e5a9f26	0.21349773
46	0x3dd01e77	0.10162061
47	0x3dbdd0cc	0.092683405
48	0x3e6f6eba	0.23382083
49	0xbd89f7f3	-0.06736746
50	0x3bb28d4d	0.0054489733
51	0xbe691a32	-0.22763899
52	0x3d9f92f2	0.077916995
53	0xbd879a85	-0.06621269
54	0xbe0042cf	-0.12525485
55	0x3bfd26cd	0.0077255727
56	0x3d767c16	0.06017693
57	0x3c189f2e	0.009315295
58	0x3d5da5cd	0.054113198
59	0x3dd115d9	0.10209245
60	0xbc78dbd8	-0.015189134
61	0x3dbc879b	0.09205552
62	0x3dc58e8f	0.096463315
63	0x3e1ee394	0.15516502
64	0x3d63be84	0.05560161
65	0xbe27dc99	-0.16392745
66	0x3d8f0358	0.0698306
67	0xbe4a31fe	-0.19745633
68	0xbe33cc79	-0.17558469
69	0x3d7a2ddf	0.061078902
70	0x3d46ce78	0.048536748
71	0xbdda7d01	-0.10668374
72	0xbc08a4b0	-0.008340046
73	0x3d07a500	0.03311634
74	0xbd7d45e8	-0.061834246
75	0xbca31262	-0.019906227
76	0x3e5f1ce9	0.21788372
77	0xbdc24bc6	-0.09487109
78	0x3e2a346e	0.16621563
79	0x3c9bae99	0.019004153
80	0xbb3150db	-0.002705625
81	0x3e1e4c8b	0.15458886
82	0xbe2f65a7	-0.17128621
83	0x3e022893	0.1271079
84	0x3caa0cca	0.020758051
85	0xbc5d884b	-0.013521264
86	0x3c81877e	0.015811678
87	0xbdf7c977	-0.12098973
88	0x3d88c549	0.06678254
89	0x3cac0be6	0.021001767
90	0xbe3142d0	-0.17310643
91	0x3e2f4793	0.17117147
92	0xbd00c326	-0.031436108
93	0xbdb196da	-0.08671351
94	0xbd947acc	-0.07249984
95	0x3ba79bb1	0.0051149954
96	0x3d9c7886	0.076401755
97	0xbe13dbe6	-0.14439353
98	0xbd168806	-0.036750816
99	0xbc069df1	-0.008216367
100	0xbd9cd15e	-0.07657121
101	0x3a133c0f	0.00056165544
102	0xbe5fefd5	-0.21868832
103	0xbddfa828	-0.10920745
104	0x3dd549a7	0.10414439
105	0xbb20da9f	-0.002454437
106	0x3e1858e5	0.1487766
107	0xbc6f1320	-0.014591962
108	0x3de957a9	0.11393673
109	0xbe210f07	-0.15728389
110	0xbdba3a9e	-0.090932116
111	0x3dec960c	0.11552057
112	0xbd5e95fc	-0.054342255
113	0x3d33eb1d	0.043925393
114	0x3ca7641c	0.020433478
115	0xbe00949f	-0.12556694
116	0xbcb62399	-0.022233771
117	0xbc47fe3e	-0.012206612
118	0xbcdb5dad	-0.026778067
119	0x3db7ba5a	0.089710906
120	0xbd67861b	-0.056524377
121	0x3e086d98	0.13323057
122	0xbce6306f	-0.028099267
123	0xbd12e2b8	-0.035860747
124	0xbe0db33b	-0.13837902
125	0xbdf37a59	-0.1188857
126	0x3db6e205	0.089298286
127	0x3e16418d	0.14673443
128	0xbde83033	-0.11337318
129	0xbd6b5432	-0.05745334
130	0x3dcbc7b1	0.099501975
131	0x3d857075	0.0651559
132	0xbe2c6715	-0.16836198
133	0xbc8f1c03	-0.017469412
134	0x3c387a42	0.011259617
135	0xbe035f0d	-0.12829228
136	0xbdb9bbb4	-0.09069005
137	0x3d88728a	0.066624716
138	0x3e0bf825	0.13668878
139	0x3e1a2916	0.15054736
140	0x3daf4328	0.08557731
141	0xbdd2c2fb	-0.10291096
142	0xbd80ae88	-0.06283289
143	0xbd8bd215	-0.06827179
144	0x3d997236	0.07492487
145	0x3d10c89c	0.035347566
146	0x3da98c71	0.0827874
147	0xbe05ec38	-0.13078392
148	0x3d49bcd4	0.049252346
149	0x3debd547	0.11515289
150	0x3e1d0223	0.15332846
151	0xba7911c6	-0.00095012446
152	0x3d0e0801	0.034675602
153	0xbd98457d	-0.07435129
154	0x3d171276	0.03688284
155	0x3c36a01d	0.011146572
156	0x3e33d6ff	0.17562483
157	0x3dd28208	0.10278708
158	0x3c836bd8	0.016042635
159	0x3e0db0f2	0.1383703
160	0x3e46535a	0.19367734
161	0x3d61b16e	0.05510085
162	0x3c9f0dbf	0.019415734
163	0xbe334948	-0.17508423
164	0x3cd2b5e0	0.02572149
165	0x3c36c918	0.011156343
166	0x3bed44b2	0.007240855
167	0x3e2b2d96	0.16716608
168	0x3e0e8ff9	0.13922109
169	0xbd738a90	-0.059458315
170	0xbe2d78e4	-0.16940647
171	0x3c58aa7e	0.013224242
172	0x3dab589c	0.0836651
173	0xbd0400dc	-0.032227382
174	0x3d928492	0.07154192
175	0x3d37e208	0.044893295
176	0xbd73951f	-0.059468385
177	0xbe160df3	-0.14653759
178	0xbd8d1563	-0.06888845
179	0xbde0134e	-0.10941182
180	0x3cb37ea0	0.021910965
181	0x3cd25bc1	0.025678517
182	0x3d7858db	0.060631614
183	0x3e275985	0.16342743
184	0xbcf1d185	-0.029518852
185	0xbe23dd6b	-0.16002433
186	0xbe0734af	-0.13203691
187	0xbcfe14e0	-0.031015813
188	0xbe5925d7	-0.21205841
189	0xbc05eee0	-0.008174628
190	0xbdd723f0	-0.105049014
191	0xbdbf1347	-0.09329849
192	0xbd18e3c8	-0.037326604
193	0xbe34b14b	-0.17645757
194	0xbd4a502d	-0.049392868
195	0xbd9bfe7e	-0.076169
196	0xbd92ec68	-0.07173997
197	0x3cc0149c	0.023447327
198	0x3a609a2c	0.0008567895
199	0xbe18181c	-0.14852947
200	0xbdaa0534	-0.08301774
201	0xbd8c42be	-0.068486676
202	0x3d122f29	0.035689507
203	0x3dc6ff0b	0.09716614
204	0x3d5a63ce	0.053317837
205	0x3df902f9	0.1215877
206	0x3c61fb5b	0.013792838
207	0xbd38ea70	-0.045145452
208	0x3dbbdab1	0.091725715
209	0x3e372006	0.1788331
210	0xbd602cb5	-0.054730136
211	0x3c89fa38	0.016842946
212	0xbe51e8c2	-0.20498946
213	0xbc77b2c5	-0.015118306
214	0xbd8b6d02	-0.06807901
215	0xbdbaa17a	-0.091128305
216	0xbdc029aa	-0.09382947
217	0xbc3a553b	-0.01137286
218	0xbcef28d1	-0.029194267
219	0xbd9e0099	-0.07714958
220	0x3e178fea	0.14800993
221	0x3e449d23	0.19200568
222	0x3d0910ab	0.03346316
223	0x3d37be9c	0.044859514
224	0x3d953566	0.072855756
225	0x3caa9239	0.020821678
226	0x3d9cbbf3	0.07653036
227	0x3c5d938c	0.013523947
228	0xbd7a197d	-0.061059464
229	0xbe36be3c	-0.17846006
230	0x3de9ea5e	0.11421655
231	0xbdaf08d4	-0.08546606
232	0x3e43e51f	0.19130372
233	0xbe26b24e	-0.16278955
234	0x3e052cd1	0.13005377
235	0x3dc09ed1	0.09405292
236	0x3e496839	0.19668664
237	0xbd953499	-0.07285423
238	0xbdc7885d	-0.09742806
239	0x3b8fabbe	0.004384487
240	0xbd8623cb	-0.06549796
241	0x3dca2141	0.09869624
242	0x3dd1c7d9	0.10243196
243	0xbe1b2bc9	-0.15153421
244	0xbbd3cf97	-0.0064639556
245	0x3dcd5abc	0.10027072
246	0x3d85aa6a	0.065266445
247	0xbd34329a	-0.04399357
248	0xbcceb1e5	-0.025231311
249	0xbde202d0	-0.11035693
250	0x3d972370	0.07379806
251	0x3de5e611	0.11225522
252	0x3da276da	0.079328254
253	0x3d37b0e0	0.044846416
254	0x3dffa35d	0.12482331
255	0xbdaf0e0d	-0.08547602

model.rnn.bias_ih_l1 f4 [160]
0	0x3e2cf839	0.16891564
1	0x3e3b0b43	0.18266015
2	0xbdba21e4	-0.090884954
3	0xbd97fa1e	-0.07420753
4	0x3e0798e9	0.13241924
5	0x3dc61e35	0.0967373
6	0x3e1bf04a	0.15228382
7	0xbcbe077e	-0.023196932
8	0xbb91cd87	-0.0044495496
9	0x3e8bfdd6	0.273421
10	0x3e0c9038	0.1372689
11	0xbb061ddf	-0.0020464582
12	0x3dfc2634	0.12311974
13	0x3e87f17e	0.2655143
14	0x3b231cb1	0.0024888928
15	0x3e98bdac	0.29832208
16	0x3d34349c	0.043995485
17	0x3e82b474	0.255283
18	0x3e1a04e3	0.15040927
19	0x3d5962c5	0.05307271
20	0x3e6f276d	0.23354883
21	0x3e6b9107	0.23004542
22	0x3db479a7	0.08812266
23	0x3dd7855f	0.105234854
24	0x3e6cab74	0.23112279
25	0x3e4a1be3	0.197372
26	0xbdf1481a	-0.117813304
27	0x3ceb06dd	0.028689796
28	0x3e8ceb2e	0.27523178
29	0x3e0ede06	0.13951883
30	0x3afba106	0.0019197769
31	0x3e941f4d	0.2893013
32	0x3db00fed	0.085967876
33	0x3d961a33	0.07329216
34	0x3df132ba	0.117772534
35	0x3e0c9faa	0.13732782
36	0xbd853792	-0.0650474
37	0x3e2993bd	0.16560264
38	0xbd908262	-0.070561185
39	0x3d80a800	0.062820435
40	0xbd922669	-0.071362324
41	0x3bc5b717	0.006033789
42	0xbd60f321	-0.054919366
43	0xbcf8b11d	-0.030357892
44	0x3cc8a964	0.024494834
45	0x3e413d19	0.18870963
46	0xbdc1babc	-0.09459445
47	0xbcdc7c6a	-0.026914794
48	0x3d9f2768	0.07771188
49	0x3d7a2b7e	0.061076634
50	0xbdad6507	-0.08466535
51	0xbdd1dd2a	-0.10247262
52	0x3c1bfc55	0.00952061
53	0x3e522fc4	0.20526034
54	0x3d6373a9	0.055530224
55	0x3cbc81f5	0.023011187
56	0xbe4682ed	-0.19385882
57	0x3d04cafd	0.032420147
58	0x3c08da62	0.008352848
59	0x3d7d1665	0.061788935
60	0x3d9c6bb8	0.07637733
61	0x3d8918d3	0.06694188
62	0x3da7f285	0.08200554
63	0x3c73f9b0	0.014891073
64	0x3e3a68b4	0.18204004
65	0x3e19030c	0.14942569
66	0xbd5602e6	-0.052248858
67	0x3db39603	0.08768847
68	0x3d3ae701	0.04563046
69	0x3d731b88	0.059352428
70	0xbe25b668	-0.16182864
71	0x3e0604da	0.13087788
72	0xbe0053a9	-0.12531914
73	0xbe041fb9	-0.12902726
74	0xbdf57f38	-0.11987156
75	0x3d9899ad	0.07451186
76	0x3de828fe	0.11335944
77	0x3da51d46	0.08062224
78	0xbdaac66a	-0.08338626
79	0x3e2362d4	0.15955669
80	0xbd46db59	-0.04854903
81	0xbe228795	-0.15872033
82	0xbca726f5	-0.020404318
83	0xbdc1d227	-0.094639115
84	0x3cd0a76c	0.025470458
85	0xbd48bd3e	-0.0490086
86	0x3dcc6d81	0.09981824
87	0xbd869b39	-0.06572575
88	0x3e0a445b	0.13502638
89	0x3e310a2f	0.17289041
90	0x3dc65428	0.0968402
91	0xbdd501ba	-0.1040072
92	0x3da30713	0.07960334
93	0xbe5ded70	-0.21672606
94	0x3d6fd1df	0.058549758
95	0x3d288998	0.041146845
96	0xbcabd7e5	-0.02097697
97	0xbd9f5cf9	-0.07781405
98	0x3da3625f	0.07977747
99	0x3d5da446	0.05411174
100	0x3e511dcb	0.20421521
101	0xbcf10950	-0.029423386
102	0x3c082996	0.008310696
103	0x3d5cac50	0.053875268
104	0xbd152a9f	-0.0364176
105	0x3d468d15	0.04847439
106	0xbddeec49	-0.108849116
107	0xbe3a459a	-0.18190613
108	0xbdc279f6	-0.094959185
109	0x3c7c8456	0.015412411
110	0xbdc1a765	-0.09455756
111	0xbd7f7733	-0.062369537
112	0x3da570f9	0.080781884
113	0xbde065c7	-0.109569125
114	0x3dc639e4	0.096790105
115	0xbe2239f3	-0.15842418
116	0x3cafcdee	0.0214605
117	0xbc99fb4e	-0.01879659
118	0x3df2ec98	0.11861533
119	0xbdd18330	-0.102301
120	0x3e019766	0.1265541
121	0x3e3d5bb3	0.18492012
122	0xbe08f6f8	-0.13375461
123	0x3d1f18f8	0.03884217
124	0x3e56f365	0.20991285
125	0x3e845069	0.25842598
126	0x3c9453b1	0.018106313
127	0x3ce80895	0.028324405
128	0x3d98ab22	0.07454516
129	0x3e8223c7	0.2541792
130	0x3d44b099	0.04801998
131	0x3e2696bf	0.16268443
132	0xbcf553a4	-0.02994711
133	0x3e73b104	0.23797995
134	0x3e066cb4	0.13127404
135	0x3df6f3b3	0.12058201
136	0x3e5b9707	0.21444331
137	0xbdc29365	-0.095007695
138	0x3db612f0	0.08890331
139	0x3e041e58	0.129022
140	0x3e7d6e8e	0.24749205
141	0x3e36af09	0.17840208
142	0x3cabc3a1	0.020967307
143	0x3dde687d	0.10859773
144	0x3e8cb585	0.27482238
145	0x3ea40be9	0.32040337
146	0xbd970386	-0.07373719
147	0x3e0ae9e4	0.13565785
148	0x3d9432ec	0.07236275
149	0x3dc766ec	0.09736428
150	0x3d7d9894	0.061913088
151	0xbccd126d	-0.0250332
152	0x3d126b89	0.035747085
153	0x3d19f1fe	0.037584297
154	0xbe1c21a8	-0.15247214
155	0x3da44404	0.080207855
156	0x3d8320b3	0.06402721
157	0x3e4ac9ad	0.19803496
158	0xbe05d083	-0.13067822
159	0x3cabb186	0.020958673

model.rnn.bias_hh_l1 f4 [160]
0	0x3e28addf	0.16472577
1	0x3d2688ac	0.040657684
2	0x3d90294b	0.07039126
3	0x3d8efbce	0.06981622
4	0x3e99192d	0.2990202
5	0x3dd5b22d	0.10434375
6	0x3dd379c5	0.1032596
7	0x3e66cb7d	0.22538562
8	0x3d5e9a9c	0.054346666
9	0x3e2f5921	0.17123844
10	0xbdbe802c	-0.093017906
11	0x3e373623	0.17891745
12	0x3e3c034a	0.1836063
13	0x3c9e9e66	0.01936264
14	0x3dd5ef0d	0.10445986
15	0x3d941b17	0.072317295
16	0x3e2c2faf	0.16815065
17	0x3d648e4d	0.05579977
18	0x3b12a991	0.0022378901
19	0x3dcb8930	0.09938276
20	0x3e407859	0.18795909
21	0x3e4b1cf4	0.19835263
22	0x3d744e15	0.059644777
23	0x3e98aad7	0.2981784
24	0x3c968e64	0.018378444
25	0x3e34e1a5	0.17664202
26	0xbdf7010c	-0.120607466
27	0x3e4c88b0	0.19974017
28	0x3e2e5661	0.17025138
29	0xbd991c92	-0.074761525
30	0x3e2b6a06	0.16739663
31	0x3d804ff9	0.062652536
32	0x3d71821b	0.05896197
33	0xbd7058fc	-0.058678612
34	0x3e0fa36c	0.14027184
35	0xbd4feab9	-0.05076096
36	0x3ba2a31d	0.0049632923
37	0x3d5b4eda	0.053541996
38	0x3dc7e6fd	0.097608544
39	0x3e5b4b31	0.21415402
40	0xbe28bf52	-0.16479233
41	0x3d365040	0.044510126
42	0xbdc1d96d	-0.09465299
43	0xbd55c78e	-0.052192263
44	0x3e4857aa	0.19564691
45	0x3e2b9b30	0.16758418
46	0xbd70148d	-0.05861335
47	0x3dd2a461	0.10285259
48	0xbc182f5c	-0.009288635
49	0xbda35501	-0.079751976
50	0x3dc72195	0.09723202
51	0x3ddb80e6	0.10717945
52	0xbcb08969	-0.021549897
53	0x3e0ffc37	0.14061056
54	0x3d484ba4	0.04890026
55	0xbd5011a7	-0.050798085
56	0xbe270f22	-0.16314366
57	0xbd7e4a47	-0.062082555
58	0xbe26fe2d	-0.16307898
59	0x3c8e63f2	0.017381642
60	0x3dab356e	0.083598
61	0x3db9111b	0.09036466
62	0x3dfaf0ea	0.12252982
63	0x3db72857	0.08943241
64	0x3d8834c4	0.06650689
65	0xbd7110f8	-0.058854073
66	0xbd068d41	-0.032849554
67	0xbdd60ed2	-0.104520455
68	0x3df603be	0.120124325
69	0x3d5664a4	0.052342072
70	0xbe5ea1d3	-0.21741419
71	0x3de29efa	0.110654786
72	0x3c9466d4	0.018115439
73	0xbb3f4154	-0.0029183226
74	0x3dd942b1	0.106084235
75	0x3da3a6ca	0.07990797
76	0xbd5fc7f8	-0.054634064
77	0x3dbf2dde	0.0933492
78	0x3b605e48	0.0034235884
79	0xbd301734	-0.04299088
80	0x3e080aae	0.13285324
81	0x3dec3a90	0.115346074
82	0x3d4a5e27	0.049406197
83	0xbdb51c91	-0.08843339
84	0x3dcfb3ea	0.10141738
85	0x3e68667f	0.22695349
86	0xbd350f2c	-0.044203922
87	0x3d840ede	0.06448148
88	0x3e16ec9a	0.14738694
89	0x3b68aefb	0.0035504687
90	0xbd7f6f70	-0.062362134
91	0xbafa33d8	-0.0019088937
92	0xbe311f72	-0.17297152
93	0x3d50446b	0.0508465
94	0xbe66ca30	-0.22538066
95	0x3e250a5c	0.16117233
96	0xbd788007	-0.06066897
97	0x3da10371	0.078619845
98	0x3e4687f8	0.19387805
99	0x3dd9a240	0.1062665
100	0x3e5969d2	0.21231773
101	0xbc702c50	-0.014659002
102	0x3e256634	0.16152269
103	0x3df867c8	0.1212917
104	0x3d676725	0.05649485
105	0xbd7889d5	-0.060678322
106	0xbd917a78	-0.07103437
107	0xbe2403e7	-0.16017114
108	0xbe652a72	-0.22379473
109	0xbdc5c38e	-0.0965644
110	0xbd84545b	-0.06461402
111	0xbe1237e8	-0.14279139
112	0x3e63047b	0.22169678
113	0x3cc24359	0.023713754
114	0x3c6770be	0.014126001
115	0xbd32ab2d	-0.043620277
116	0x3e499866	0.19687042
117	0xbe254261	-0.16138603
118	0x3bcac67e	0.006188213
119	0xbe3c24d5	-0.18373425
120	0xbd3a3fdf	-0.04547107
121	0x3e311454	0.17292911
122	0x3cf75d15	0.030195752
123	0xbd503909	-0.050835643
124	0x3e9d4e17	0.3072364
125	0x3e10d4de	0.14143702
126	0x3e1bf3ae	0.15229675
127	0xbe0a9ba9	-0.13535942
128	0x3e3b4a91	0.18290164
129	0x3e227fa5	0.15869005
130	0xbdd1a0c2	-0.1023574
131	0x3d2c788d	0.042107154
132	0xbd511c2c	-0.051052257
133	0x3dd31027	0.10305815
134	0x3e12003c	0.14257902
135	0x3c540c54	0.012942392
136	0x3e10027c	0.14063448
137	0x3e4310ef	0.19049428
138	0x3e1943b5	0.14967234
139	0x3e034f3b	0.12823193
140	0x3e9165eb	0.2839807
141	0xbd553359	-0.052050922
142	0x3c98ad1c	0.018637232
143	0x3e28924b	0.16462056
144	0x3e6f8d84	0.23393828
145	0x3e03871f	0.12844513
146	0x3dafa35c	0.0857608
147	0x3e886501	0.2663956
148	0x3d82aa42	0.0638013
149	0xbe130faf	-0.14361452
150	0x3d64b37b	0.05583523
151	0x3e91904b	0.284304
152	0x3dfc8d04	0.12331584
153	0x3e005d08	0.12535489
154	0x3dae0305	0.0849667
155	0x3cd5f39d	0.02611714
156	0xbcd1d5dd	-0.025614673
157	0xbda9881d	-0.08277915
158	0xbdcc1a4a	-0.09965952
159	0xbb9fe146	-0.0048791496

exp_avg f4 [1, 40]
0	0xba1ca084	-0.00059748464
1	0x3a30be24	0.00067422003
2	0xb8bdc71e	-9.049311e-05
3	0xba07a430	-0.0005174307
4	0xba38abd1	-0.00070446456
5	0xba398522	-0.0007077028
6	0x39db3a04	0.0004181416
7	0xb93c7891	-0.00017973992
8	0xba3a1179	-0.00070979405
9	0xba2eed3f	-0.00066729257
10	0xb9c21789	-0.00037020099
11	0x393ed99e	0.00018200881
12	0x39ceffa9	0.00039481863
13	0x3a368daa	0.00069638586
14	0x39de45c7	0.00042395128
15	0xba87f36c	-0.0010372228
16	0x3a46765d	0.0007570738
17	0xba608ccb	-0.00085659017
18	0xb7376ace	-1.0932517e-05
19	0xb9a25f62	-0.00030970114
20	0xba38672c	-0.0007034417
21	0xba35b1f8	-0.00069311215
22	0xba394b9b	-0.0007068456
23	0xba3a65cf	-0.00071105076
24	0x3a3928a8	0.0007063248
25	0x3a3908f0	0.0007058522
26	0x390ba3ca	0.00013317089
27	0x3a35b893	0.0006932106
28	0x3a39c936	0.00070871727
29	0xb9711433	-0.00022991076
30	0xb8ec6d7c	-0.0001127375
31	0x3a39a9a3	0.0007082468
32	0xba1995f1	-0.000585883
33	0x38278b6f	3.994576e-05
34	0xb85004f5	-4.959568e-05
35	0x3a254b4d	0.0006305471
36	0xb957141d	-0.0002051149
37	0x3a1ce1a2	0.00059845496
38	0xb9c0939e	-0.00036731077
39	0x3a39b1e9	0.00070837006

exp_avg_sq f4 [1, 40]
0	0x36199c71	2.2889838e-06
1	0x37251252	9.839032e-06
2	0x3402c4ab	1.2178741e-07
3	0x3651f89a	3.1288132e-06
4	0x3740e439	1.1497229e-05
5	0x3760b327	1.3393153e-05
6	0x35379a1b	6.8397065e-07
7	0x34511651	1.947276e-07
8	0x37667943	1.3737302e-05
9	0x37366b90	1.0873089e-05
10	0x36d0ddfe	6.2247263e-06
11	0x35434519	7.274371e-07
12	0x35172e8d	5.6319624e-07
13	0x373db7dd	1.1308087e-05
14	0x35454e37	7.3502036e-07
15	0x370543db	7.943217e-06
16	0x36101e1e	2.1475203e-06
17	0x36bcd9f1	5.6282083e-06
18	0x349ca83e	2.9179677e-07
19	0x350b5703	5.1908154e-07
20	0x374e609b	1.23010495e-05
21	0x36a19eca	4.8166594e-06
22	0x37387312	1.09940465e-05
23	0x3746e0a3	1.1854022e-05
24	0x373b360e	1.1158654e-05
25	0x373ca823	1.1244821e-05
26	0x3496c0c4	2.8079933e-07
27	0x37483027	1.193214e-05
28	0x374e2eba	1.2289436e-05
29	0x34aadec4	3.182705e-07
30	0x3461a457	2.1014544e-07
31	0x373c11cd	1.1209818e-05
32	0x34fe313f	4.7347018e-07
33	0x339f0934	7.4056885e-08
34	0x3519fb43	5.7362575e-07
35	0x3708e797	8.160153e-06
36	0x3536fb76	6.816621e-07
37	0x3714288b	8.830927e-06
38	0x361edf74	2.3673902e-06
39	0x3747c3fd	1.1906956e-05

exp_avg f4 [1, 40]
0	0x3e6c70de	0.2308993
1	0xbebfeec4	-0.3748685
2	0x3cd0aeb8	0.025473937
3	0x3e68da92	0.22739628
4	0x3ec39d1f	0.3820581
5	0x3ec4b6ba	0.3842066
6	0xbe2d0d0b	-0.16899507
7	0x3d8d5307	0.06900602
8	0x3ec50867	0.38482973
9	0x3eb922aa	0.3615926
10	0x3e6fd7a2	0.23422101
11	0xbda9436b	-0.08264812
12	0xbdabf461	-0.08396221
13	0xbec18cfb	-0.37802872
14	0xbe351918	-0.17685354
15	0x3ec83d3d	0.3910922
16	0xbe8b6596	-0.2722594
17	0x3eaef179	0.34168604
18	0x3b982833	0.004643464
19	0x3de33868	0.11094743
20	0x3ec2c9a5	0.38044468
21	0x3e9b368e	0.3031506
22	0x3ec466ea	0.38359767
23	0x3ec5535c	0.3854016
24	0xbec4e4fc	-0.3845595
25	0xbec4c850	-0.38434076
26	0xbd40927f	-0.04701471
27	0xbec2140f	-0.37905928
28	0xbec4e666	-0.3845703
29	0x3db34a56	0.08754413
30	0x3d08a4d5	0.03336032
31	0xbec4cda1	-0.38438132
32	0x3e529489	0.20564474
33	0xbb8f12e7	-0.004366267
34	0x3c12d85c	0.008962717
35	0xbeb1ce00	-0.34727478
36	0x3d9bc891	0.076066144
37	0xbeab7d0c	-0.3349384
38	0x3e3bfdf2	0.18358591
39	0xbec4f7d4	-0.38470328
