research/lightning_logs/version_6/checkpoints/epoch=3-step=200.ckpt (torch, 300447 bytes, 33 tensors)

model.param_proj.proj.0.weight f4 [1, 40]
000000 f3 42 6c be 2d ca f1 3c b6 05 09 be 83 9f ba 3d
       -0.23072414 0.02951535 -0.13381085 0.09112456
000010 75 a2 54 bd 8e be 95 3d 3e 5d 93 3d 6b 12 80 bb
       -0.051912744 0.07311736 0.07195519 -0.0039084456
000020 5f c6 41 3e f2 77 93 bc 3f 79 4c 3d d2 1c 45 bd
       0.18923329 -0.01800153 0.049920317 -0.04812319
000030 e5 c3 9f 3d e8 fc 8a bc dc a6 0c 3e 2a 2a 42 3e
       0.07801036 -0.016966298 0.13735527 0.18961397
000040 ef 7f b1 bc 97 2a df bd ca 6d 21 bd 53 02 1f 3e
       -0.021667449 -0.10896795 -0.039411344 0.1552823
000050 29 e9 b0 bd 24 d8 17 3e 59 bd aa bb 6e 12 1e 3b
       -0.08638222 0.14828545 -0.0052105603 0.0024119872
000060 66 c8 5f 3d d6 29 24 3e ed 1a 23 be 69 36 88 3d
       0.054634474 0.16031584 -0.1592824 0.06651003
000070 5b 27 47 3d 3a d3 11 bd 92 63 b3 bd b1 f3 d5 3d
       0.048621517 -0.035601832 -0.08759226 0.10446871
000080 39 51 73 bc 89 66 e3 bc d7 99 5c be 3f 96 5f 3e
       -0.014850908 -0.027758854 -0.2154306 0.21834658
000090 b9 f6 70 3d 64 56 3a 3e 90 47 02 be 83 6f 73 3e
       0.058829043 0.18197018 -0.12722611 0.23773007

model.param_proj.proj.1.weight f4 [1, 40]
000000 71 8c 61 bd 74 b6 dd bd 5b c2 b8 3b 7a 98 54 3d
       -0.055065576 -0.10825816 0.0056384034 0.051903225
000010 17 b4 4a bd c7 5e 5f 3d 01 bd 65 3d 71 ec fa 3c
       -0.049488153 0.054533746 0.05608845 0.030630322
000020 80 12 21 3d df 5b 95 bd 14 cc 1e bd 42 cd 22 3e
       0.039324284 -0.07292914 -0.038768843 0.15898612
000030 de 6b c2 bd aa 75 35 be 97 70 a3 3c 8f 27 8c 3d
       -0.0949323 -0.17720667 0.019951148 0.06843483
000040 bc 80 f9 3d e5 f1 1c be 06 57 c9 bd c9 6d 51 3d
       0.12182757 -0.1532665 -0.098310515 0.05113009
000050 aa 17 7e bc c2 62 0e 3e bd ac 16 be 6d 28 00 be
       -0.015508572 0.1390486 -0.14714332 -0.12515421
000060 73 10 91 bd 30 c5 12 3e 56 39 2e be bf 7a c2 3d
       -0.070832156 0.14333034 -0.1701406 0.09496068
000070 0f 3d d6 bd b4 0d da 3d 5e 52 d6 bd 66 85 10 3e
       -0.10460865 0.10647145 -0.10464929 0.14113387
000080 16 cd f1 bd 4a 25 5e 3d 4c 27 12 be 6e d9 68 3d
       -0.11806695 0.05423478 -0.14272803 0.056847982
000090 c2 1a e6 3d 69 03 09 3e 64 d6 28 bd 6a ee af 3d
       0.112355724 0.13380207 -0.041220084 0.08590396

model.param_proj.proj.2.weight f4 [1, 40]
000000 ac 51 91 3e d5 ca dc bd 04 51 76 3e 0b da 26 be
       0.28382623 -0.10780875 0.24054343 -0.16294114
000010 d0 2d 40 3e d4 fa d6 3d 18 ef c1 3c de 81 6c be
       0.18767476 0.104970604 0.02367358 -0.23096415
000020 aa 3b 69 be 2d 41 5d 3e d6 f8 05 be f1 06 49 be
       -0.22776666 0.21606894 -0.13083205 -0.19631554
000030 77 6c 43 3e 3d f7 16 bd fd 96 2c be 8b 2e e1 bd
       0.19084345 -0.03685688 -0.16854472 -0.109952055
000040 c4 75 0c be 4b 38 ac bd af 42 1c 3e 28 ab 23 3c
       -0.13716799 -0.084091745 0.15259813 0.009989537
000050 31 00 3b be 99 f7 d6 3d 28 29 36 3e c7 73 88 bd
       -0.18261792 0.10496444 0.17789137 -0.06662708
000060 68 9f 12 be bd a6 9a bd 02 2c 57 bd 17 34 50 be
       -0.14318621 -0.07551334 -0.052532203 -0.2033237
000070 65 75 b1 3d ed 7b 2c bd 90 01 96 3d ae eb 4f be
       0.08664969 -0.042110372 0.07324517 -0.20304748
000080 19 b0 bb bd 2d 07 21 be 70 10 83 bd 04 3b 37 be
       -0.09164447 -0.15725394 -0.063996196 -0.17893606
000090 d5 92 4e be 39 42 ea bc c2 9c 70 3e 69 8f 5a be
       -0.201732 -0.02859603 0.23497298 -0.21343769

model.rnn.weight_ih_l0 f4 [160, 21]
000000 a2 a9 1a 3e 9e f9 c3 3d b4 bc 21 3e bf 2a 2b 3d
       0.15103772 0.09569095 0.15794641 0.041788813
000010 b4 50 6b 3e 3f af 45 3e ed ae 97 3d 46 cc 6e 3b
       0.22980005 0.19305132 0.07406411 0.0036437674
000020 d4 5b 61 3d 49 18 38 3d ac b2 bb 3c 7d ec 9c bb
       0.055019215 0.044945035 0.022912346 -0.004788934
000030 71 85 dc 3d 87 3f 2a 3e da ec 3e 3e 23 bf 17 bd
       0.107676394 0.16625796 0.18645039 -0.037047517
000040 4f 12 7e 3e d1 27 1e bd 0c 7b 4d 3e 2c 25 3f bd
       0.24811672 -0.03861219 0.2006647 -0.04666631
000050 e5 bf 43 3e ea d4 f6 3d 00 20 20 bd f3 02 5c 3e
       0.1911617 0.12052329 -0.039093018 0.214855
000060 c8 d2 69 bc c4 62 35 3e f8 01 da 3d d6 55 d0 3d
       -0.014271446 0.17713457 0.10644907 0.10172622
000070 45 14 fa 3d be e0 5d 3e 8c 56 e6 3d 5a 32 5f 3d
       0.12210897 0.21667764 0.11246976 0.05449138
000080 07 6a 24 3d 92 b2 08 3d 0d 2c 68 3d 2e 81 b4 3c
       0.040140178 0.033373423 0.056682635 0.022034254
000090 19 47 11 3e 23 01 6e 3d 79 09 c2 3d 2a 15 89 3c
       0.14187278 0.058106553 0.09474463 0.016733725
0000a0 f3 e1 72 3c cf 9c 3c bc 52 f7 2e 3e 2a 8c d5 3d
       0.014824378 -0.011511995 0.17086533 0.10427125
0000b0 45 81 d3 bc a7 af a1 3d b2 fc 83 bc c6 5c 0a bc
       -0.025818476 0.07894831 -0.016111705 -0.0084449705
0000c0 89 99 2e 3e 1a 61 6f 3e 4f 85 1a 3e 64 7c 71 bc
       0.17050757 0.23376885 0.15089916 -0.01473913
0000d0 5c 54 fd 3d 98 91 43 3e cb d4 02 3c 32 af 10 bd
       0.12369606 0.19098508 0.007985304 -0.03532333
0000e0 c1 55 39 3e 83 35 87 bd aa b9 d8 3d 2e 78 c3 3d
       0.18099119 -0.066020034 0.105822876 0.09544407
0000f0 1d a5 16 3e c2 ed fa 3c 89 b3 68 3e a1 76 44 bd
       0.14711423 0.03063095 0.22724737 -0.047964696
000100 a6 af b8 3c 63 c5 bc bd b4 c5 25 3e 7a 2b f2 3d
       0.022544693 -0.09217336 0.16188699 0.11824699
000110 bf c9 e7 bd 3c fd a8 3d db e4 d9 bd 08 76 07 3e
       -0.11317777 0.082514256 -0.10639354 0.13228619
000120 33 fb 20 3e fd 8b 12 be 3c 5f de bd ce d6 4c 3d
       0.15720825 -0.14311214 -0.10858008 0.05000954
000130 92 b0 f1 bd 49 76 22 be b9 1a 7f 3d 81 45 dd bd
       -0.11801256 -0.15865435 0.062281344 -0.108042724
000140 fe 67 37 bd 90 0a 5c 3c f3 67 17 be f7 44 7d bd
       -0.04477691 0.013430253 -0.14785747 -0.061833348
000150 0a d2 53 3e 5f 1a bf ba 70 5d 51 3e 34 14 39 3d
       0.20685592 -0.0014580003 0.204458 0.045185283
000160 cf 4d 9a bd ee 1d 9a 3d 9b 89 98 3c 2f 0a 63 3c
       -0.07534372 0.0752524 0.018620303 0.013857408
000170 fe 34 30 3e f4 6b 97 bd 67 ee 43 3e 9f 3c f9 3c
       0.17207715 -0.07393637 0.19133912 0.030424414
000180 e1 02 2c 3e 43 b8 3e bc 13 ef 3c 3e 43 04 41 bd
       0.16797973 -0.011640611 0.18450575 -0.047123205
000190 cd 02 dd 3d 6a 97 59 bd 3d 4b 22 bd ef c6 73 3c
       0.1079155 -0.053122915 -0.039622534 0.014878972
0001a0 07 9e 0a 3d ce 15 77 3d 22 18 8e 3d b4 67 21 3e
       0.033842113 0.06032353 0.06938197 0.15762216
0001b0 14 71 79 3e 8a 5e aa 3d 7e d2 2f 3e 9f 80 51 bd
       0.24359542 0.08318813 0.1717014 -0.051148053
0001c0 05 28 e0 bb 78 99 3b 3e 52 77 45 bd 70 47 95 3c
       -0.006840708 0.18320262 -0.048209496 0.01822254
0001d0 e3 78 43 3e c7 7a fc 3d 1f 17 d5 3d 7f 3e 33 3e
       0.19089083 0.123281054 0.104048006 0.17504309
0001e0 80 0e eb 3c 4d 4d b5 3c 18 58 d8 bd f3 6b 8c 3c
       0.028693438 0.022131586 -0.105636775 0.017141318
0001f0 75 32 3a be 7e 05 60 3e 78 f9 60 3d e5 d3 4c 3c
       -0.1818331 0.21877095 0.054925412 0.0125016915
000200 d0 ca 4a 3e 42 c7 7a 3e a3 50 36 3d d5 64 58 3e
       0.1980393 0.24490073 0.044510495 0.21132214
000210 1f dc 09 3e a2 5b 11 bd 50 89 f0 3d 40 75 d4 3d
       0.13462876 -0.03548778 0.1174494 0.10373926
000220 c4 54 90 3d aa db df bb 0f ca 45 3c 34 75 a8 3d
       0.07047418 -0.006831606 0.0120721 0.0822548
000230 11 d2 3b 3e d9 d7 17 3d 81 2c 3a 3e ff 79 5c bd
       0.18341853 0.037071083 0.1818104 -0.053827282
000240 91 f2 cf 3d 07 14 ee bb 54 8b a7 3d f6 52 1a 3d
       0.10153688 -0.007265571 0.081808716 0.037676774
000250 2c c7 79 bc ff a2 84 3d 47 40 8b 3d e6 ba 1a 3e
       -0.01524524 0.064764015 0.06799369 0.15110359
000260 54 8d 6d 3e ba 11 e8 3d b7 0b 74 3d 67 4b ea bc
       0.23198444 0.11331506 0.059581485 -0.028600408
000270 13 47 88 bc 99 ee 1e 3e bd cf 84 bd 88 8d 63 bd
       -0.016635453 0.15520705 -0.064849354 -0.055554897
000280 29 98 06 3e 3d d1 24 3e 0e 56 f1 3d 79 a6 ec 3d
       0.13143982 0.16095443 0.11783992 0.1155519
000290 5a 3c 20 bd a1 41 42 3e 68 d0 26 be 7a a1 08 3e
       -0.039120056 0.18970348 -0.16290438 0.13342848
0002a0 c0 af 74 3d cd b2 25 3e 6c 09 27 3e 80 6c 28 3e
       0.05973792 0.16181488 0.16312188 0.1644764
0002b0 21 d6 c7 bc dd eb 5a 3d 73 7a 77 3d a8 b3 6a 3e
       -0.024394097 0.053447593 0.06041951 0.22920096
0002c0 ce b2 00 3e b8 db 52 3e 2e 60 6c 3d b1 2e 71 3d
       0.12568209 0.20591629 0.05770891 0.05888242
0002d0 40 a7 fe 3d 7e 09 64 3e 49 22 8b 3c 9f c5 17 3e
       0.12434244 0.22269246 0.016984122 0.1482148
0002e0 35 8b 1e 3e 44 4e c6 3b 69 0f 28 3e c4 51 48 bd
       0.15482791 0.0060518105 0.16412129 -0.048906103
0002f0 30 03 91 3c 9d 43 6e 3e aa fc 0d 3e c7 10 47 3c
       0.017701715 0.2326798 0.13865915 0.012149996
000300 3e e8 8a 3c 20 75 62 3e d6 00 9c 3d 0e f7 7b bc
       0.016956445 0.22114992 0.07617347 -0.015378727
000310 99 e0 8d 3d a6 81 6a bd 5d 71 2e 3e db 7d a5 bd
       0.06927604 -0.05725255 0.17035432 -0.08080646
000320 c0 d3 8a bd 71 59 06 bd 68 6e 4d 3e 39 6e 0a 3e
       -0.06778669 -0.03280014 0.20061648 0.13518609
000330 8c 0b d3 3c a3 57 be bc da 14 c7 bc 71 7e 15 3e
       0.025762342 -0.023235148 -0.024301935 0.14599015
000340 78 53 34 be 34 63 c9 3d 02 7e 8f 3d cc 61 a6 3d
       -0.17609966 0.098333746 0.07006456 0.08124122
000350 da a2 b8 bc bc 6a 42 3e 80 e3 16 bd 6f 02 46 3e
       -0.022538591 0.18986028 -0.036838055 0.19336866
000360 5c b2 93 3b dc ac ff 3d 42 68 06 3e 62 9e 3d 3d
       0.004507346 0.12484142 0.13125709 0.046293624
000370 f4 04 92 bd 04 82 2b bc 85 61 b6 bb ed d9 9b 3c
       -0.07129851 -0.01046801 -0.0055658245 0.019024814
000380 f3 47 fa 3c 8e a8 5b 3e 01 55 f5 3d a0 3d da 3b
       0.030551886 0.21451017 0.11979104 0.0066601783
000390 ab 62 e1 bc c0 93 1a be 22 6e e1 bc b4 53 78 bc
       -0.027512869 -0.15095425 -0.027518336 -0.015156675
0003a0 26 87 2f 3d 75 1d d4 3c fb 4a f9 3c b5 7a f9 bc
       0.042853497 0.025892952 0.030431261 -0.03045402
0003b0 c0 90 db 3d 69 63 68 3d 98 75 ed bd e4 d2 13 be
       0.10720968 0.05673543 -0.11594695 -0.14435917
0003c0 96 79 1a 3e ab 37 44 be 8d 8e 5f be 89 a9 66 bd
       0.15085444 -0.1916186 -0.21831723 -0.056314025
0003d0 8a 9d 01 3e 83 e6 12 3d 17 56 0d bd cd 4d cb bc
       0.12657753 0.035864364 -0.03450593 -0.024817372
0003e0 f2 a0 67 3d 4b 83 66 bd b3 07 ec bd 47 76 b1 3c
       0.056549974 -0.056277554 -0.11524906 0.021662844
0003f0 7e f8 07 bd 6a 1f 28 3e fe 0b 53 3e 5d 14 59 3e
       -0.033195965 0.16418234 0.20610043 0.21199174

model.rnn.weight_hh_l0 f4 [160, 40]
000000 d5 49 5f bd 5d 5e 40 3d 12 19 11 be 95 5d 88 3d
       -0.05451377 0.04696499 -0.1416972 0.06658474
000010 9a 38 0e 3e 15 fa 07 3e 92 e3 7e 3d 6f 66 d5 3c
       0.1388878 0.13278992 0.062228747 0.02604982
000020 4e f4 b6 bd c2 f5 06 3d c8 36 54 bb 9b 45 8c bd
       -0.08933316 0.032949217 -0.0032381285 -0.06849214
000030 d0 fe 3c be 11 1f e4 3d db fe 50 3d 66 39 ab bd
       -0.18456578 0.11138738 0.0510243 -0.08360557
000040 dc 37 84 3d ad df c6 3d 1b a2 95 bc ec e8 e6 3d
       0.06455967 0.097106315 -0.018265774 0.11274895
000050 3d 86 0f 3e 84 9a 4b be 36 da 63 bd c5 8a 7c bd
       0.14016052 -0.19883162 -0.055628024 -0.06165578
000060 d8 26 2d bd a0 4a 65 3e c5 6e ae 3d ce 7d bf bd
       -0.042273372 0.22391748 0.08517221 -0.09350167
000070 77 f5 bc 3d 28 ce ac 3d b5 6b 36 bd 7d 9b 9a 3c
       0.09226506 0.08437759 -0.04453631 0.01887297
000080 74 31 a6 bd 50 4e 14 bd c1 38 da bc 9f de eb 3d
       -0.08114901 -0.036207497 -0.02663839 0.11517071
000090 58 d4 19 3e cb f5 eb bc 1e 67 ff bd 0e 51 1e 3e
       0.15022409 -0.028803727 -0.1247084 0.15460607
0000a0 9f 73 00 3d 65 74 25 be 92 0b 9c bd 2f 5c c4 bd
       0.031360265 -0.16157682 -0.07619394 -0.09587895
0000b0 93 e6 d8 bd ac 48 0b bd cc 62 23 be 3d 7e 03 ba
       -0.105908535 -0.034004852 -0.15955657 -0.00050160644
0000c0 32 29 49 bd 11 a2 cf 3d 0a 66 e9 3c 80 af 0e b9
       -0.049111553 0.101383336 0.028491039 -0.00013607554
0000d0 87 4d 82 3d 51 6c b6 3d 36 5c 9d bd d9 93 77 3d
       0.063624434 0.089073785 -0.076836035 0.060443733
0000e0 32 66 b8 bd 28 78 a7 bd b8 1f ec bd 15 f9 36 3d
       -0.09003867 -0.08177215 -0.11529487 0.044671137
0000f0 77 09 8f 3d 42 06 38 be f6 22 00 be 35 c4 0b be
       0.06984227 -0.17971137 -0.12513337 -0.13649066
000100 c8 e6 2e bc 71 5b 1d 3e c5 ab 53 3d 37 74 df 3d
       -0.01067514 0.15366913 0.051677484 0.10910838
000110 22 6f 55 3d 8a 2d 3b be 32 20 05 bc 14 c5 21 be
       0.052107938 -0.1827909 -0.008125352 -0.15797836
000120 d1 7c 3e 3e 8e 09 c8 bd e7 2f 91 3c 93 b8 3b 3e
       0.18602301 -0.097674474 0.017723037 0.18332128
000130 d8 c9 8b bd 22 3e 39 bd cf 40 16 be 8c d3 38 3c
       -0.06825608 -0.04522527 -0.1467316 0.011280905
000140 b8 3b fc bd 3a 2b b1 bd 76 f3 1f 3d 21 d1 c9 bd
       -0.12316078 -0.08650823 0.03905054 -0.09854341
000150 b7 f5 2d bd 09 92 b6 3d c1 28 3b bd be dc c4 3d
       -0.04247066 0.08914573 -0.045693163 0.09612416
000160 1a 6b 1e 3e c9 55 17 be 00 31 82 bc 65 29 fe 3d
       0.15470544 -0.14778818 -0.015892506 0.12410239
000170 91 47 a5 3d 16 bf 45 3e c0 08 ce bd 2c 45 a4 bd
       0.08070291 0.19311175 -0.10060263 -0.08021006
000180 12 02 5d bc aa 0e e0 bc 36 3a cc bd 40 63 d3 3d
       -0.013489263 -0.027350742 -0.0997204 0.10321665
000190 ea b1 89 bd 39 0f 6f 3d 81 69 9e bd 16 23 08 3d
       -0.067233875 0.058364127 -0.07734967 0.033236586
0001a0 56 3e 05 3e 68 cd 7d 3d f1 48 bc bd f4 6a f1 bd
       0.1301206 0.06196347 -0.091936 -0.11787978
0001b0 20 4c d3 bd 14 9b f3 3d 17 cf c3 bd b6 48 39 ba
       -0.10317254 0.11894813 -0.09560984 -0.0007068025
0001c0 1b 2c d0 bd 71 6b 07 3d 4d 0a 85 3c 1b f3 07 3e
       -0.101646625 0.03306145 0.016240263 0.13276331
0001d0 a1 0c 64 bd 10 6b 9b 3d b9 d1 9e 3c fb 5f 07 3c
       -0.055676106 0.0758878 0.019387113 0.00826263
0001e0 d4 1e 89 bd 9a 53 f0 3d 2b 98 e0 3d 3a 7f 17 3e
       -0.06695333 0.11734696 0.10966524 0.14794627
0001f0 56 9f 12 be 87 31 3a 3d f0 47 24 bd 00 21 c1 3d
       -0.14318594 0.04545739 -0.040107667 0.094301224
000200 24 7f a4 bd 92 df 1e 3e a0 f5 97 bd 28 2b a0 3d
       -0.08032063 0.15514973 -0.07419896 0.078207314
000210 ee c7 32 bc 59 52 e7 3c 9c dd dd 3d c7 1d 09 3e
       -0.010911925 0.028237509 0.10833284 0.13390265
000220 ee 62 83 3d 88 1c d4 3c bc 60 b1 3d 3e e2 0f 3d
       0.06415354 0.025892511 0.08661029 0.03512787
000230 f3 43 90 3b 77 30 45 bd ea e5 0e 3e 43 5e da 3c
       0.0044026314 -0.048141923 0.13954893 0.026656276
000240 cc ff 91 3d 0c cd f1 3d 36 ad 87 bd 32 34 bf 3d
       0.071288675 0.11806688 -0.06624834 0.09336127
000250 71 5d 12 3e ed 9c da bd 4d b4 93 3c 8c 46 bc 3d
       0.14293458 -0.106744625 0.01803031 0.09193143
000260 b8 85 1f 3e 25 80 66 3d e5 a2 01 3e f6 e2 c5 3d
       0.15578353 0.056274552 0.12659796 0.0966243
000270 ab 28 eb 3d 90 31 af bd d0 1d 10 bd ad e2 b4 bd
       0.11482366 -0.08554375 -0.03518468 -0.088322975
000280 00 98 b5 3c b0 b9 13 bd ca 40 c1 bd ac e4 85 bd
       0.022167206 -0.036065757 -0.09436186 -0.06537756
000290 a7 b5 cf bd a1 ab c0 bd 8a c6 00 be 44 97 00 be
       -0.10142069 -0.094077356 -0.12575737 -0.12557703
0002a0 00 97 85 bd 33 35 20 be ff 6c 3b bc 65 2e b9 bd
       -0.065229416 -0.15645294 -0.011439561 -0.09042052
0002b0 12 17 ce 3d b2 a9 00 3d 4e 8e d1 3d 74 4e 2c be
       0.10062994 0.031411834 0.102322206 -0.16826802
0002c0 29 d5 e9 bd d4 e0 7f bd e5 5c 01 be b8 6e 03 be
       -0.1141761 -0.062470272 -0.12633093 -0.12835205
0002d0 cb 3b 8d 3c de ef 89 bc 49 bb 4a bd 87 37 d5 3d
       0.017240426 -0.01683801 -0.049495015 0.104109816
0002e0 92 ff 46 bb ec 21 f1 bd 69 90 75 3d fd a9 97 3c
       -0.0030364734 -0.11774048 0.059952173 0.018513674
0002f0 c1 86 94 3d 21 7a e1 bd d1 6b 85 bc 51 9b 9d bd
       0.07252265 -0.11009622 -0.016286762 -0.0769564
000300 98 29 43 3d 16 35 b3 bd b2 13 e0 bd 59 24 d6 bc
       0.04764709 -0.0875036 -0.109412566 -0.026140379
000310 58 76 40 3d 28 bc 74 3d 0f 87 94 bc 52 6b 29 3e
       0.04698786 0.059749752 -0.018130807 0.16544846
000320 38 a0 a5 3d da fd 1d bd 0a b0 8f bd d4 cd d0 3d
       0.080872 -0.03857217 -0.07015999 0.101955086
000330 8d 34 58 3c 95 6b 03 3e 75 a0 8d 3c 44 f5 ad 3d
       0.013196123 0.12834008 0.017288426 0.08494046
000340 49 91 58 3d a9 d0 e2 3c aa 24 68 b9 9a f4 5f bc
       0.05287293 0.027687388 -0.00022138903 -0.013669157
000350 9e ef 7d bd 90 da fc 3d 7a 15 fe 3c bd 6e 47 be
       -0.061996095 0.12346375 0.0310161 -0.19475837
000360 8c 66 e6 bd d0 c5 4b bd ec 5f 96 3d 59 9e d1 bc
       -0.11250028 -0.049749196 0.073425144 -0.025588201
000370 a0 1c d0 3d fa e7 48 be ac 92 4f 3d 0e 06 1d be
       0.1016171 -0.19619742 0.050676987 -0.15334341
000380 f7 32 73 bd 97 71 a7 3c 0e 1d 53 3e 05 c4 bf bc
       -0.059374776 0.020439906 0.20616552 -0.0234089
000390 49 f7 af bd 57 81 8d 3b cb 08 06 3e e6 6a b1 bd
       -0.08592088 0.004318397 0.13089292 -0.086629674
0003a0 38 9a 91 bd d5 7e b5 bc 24 fa 9d bd a4 a3 a4 bd
       -0.07109493 -0.022155205 -0.07713726 -0.080390245
0003b0 2d 46 c7 3d a4 94 a5 3c 68 f5 da bd 0a c0 98 3d
       0.09730182 0.020212479 -0.10691339 0.074585035
0003c0 47 ee 34 3c e4 e4 38 3d 71 9a 0f be d0 6c 12 3e
       0.011043138 0.045140162 -0.14023758 0.14299321
0003d0 4e 96 4a 3e 80 1d 70 3e 8c fe 6e bd 45 e5 cd 3c
       0.19783899 0.23448753 -0.058348224 0.025133738
0003e0 8a da 4e 3e 2c 96 4a bd 25 d9 d6 3d 4e 25 06 be
       0.20200554 -0.04945962 0.10490636 -0.13100168
0003f0 a5 d1 0c be 79 bb cd 3c 34 bd 49 3d b4 03 6c bd
       -0.13751848 0.025113808 0.049252704 -0.05762072

model.rnn.bias_ih_l0 f4 [160]
000000 4b 3f 9e 3d 55 b1 23 bd 08 af c1 3d dc 80 1f 3e
       0.07726916 -0.03996404 0.09457213 0.155765
000010 dc 75 9c 3d a3 12 6e bc d0 a4 3c 3e f6 57 45 3e
       0.076396674 -0.0145308105 0.18422246 0.19271836
000020 8f 1f 5e 3e a7 cd 69 bd d0 66 ef 3d f4 a6 20 bc
       0.21691726 -0.05708089 0.11689532 -0.00980543
000030 b7 8d 7f 3e 7f 84 82 bc e3 c7 6d 3e 94 08 05 bd
       0.24956404 -0.01593232 0.23220782 -0.032478884
000040 e8 9a 01 3e 57 58 7a 3e f3 59 14 bd 9e 06 ec 3d
       0.12656748 0.24447761 -0.036218595 0.115247
000050 0d 2a b2 3b 1b 93 4a 3e 2d 0f 88 3d c7 92 31 3d
       0.0054371418 0.19782679 0.066435196 0.04335287
000060 27 cf bd bc ef 06 06 3e c1 77 c7 3d f4 98 ea 3b
       -0.023170067 0.13088582 0.09739638 0.0071593467
000070 74 5c 71 3e 00 dd e9 bd 29 71 55 3e d2 13 46 3e
       0.23570424 -0.114191055 0.20843948 0.19343498
000080 1a 33 60 3e ca 84 ca ba 08 5d 2f 3e 1d 39 e2 3d
       0.21894494 -0.0015450951 0.17125332 0.1104605
000090 57 42 58 3e 1b 8b 2c 3e 7d e6 4a 3e c2 59 1e 3d
       0.21119057 0.1684994 0.19814487 0.03865982
0000a0 7c 62 48 3e ac ef 8a 3d 83 bf 6e bd e6 86 17 bd
       0.19568819 0.06783995 -0.05828811 -0.036993884
0000b0 22 e6 e9 3d 79 ab 47 3e 12 24 19 3d 3a 26 c6 3d
       0.114208475 0.19499005 0.037387915 0.0967526
0000c0 68 1c 1a 3e 38 b4 d1 bd 4e 09 07 3c d1 81 a8 3c
       0.15049899 -0.10239452 0.0082419645 0.020569714
0000d0 95 6b 0a 3d 9b 4d 84 bd db d8 9e bd dd b6 65 bd
       0.033794004 -0.064601146 -0.07756206 -0.056082595
0000e0 ac cf 22 3e 50 00 d4 bd ab a2 4a bd 98 fe 99 3d
       0.15899533 -0.10351622 -0.04947154 0.07519263
0000f0 35 5b ee bd b2 22 8d 3d db 50 2e 3e ac 65 e0 3d
       -0.1163849 0.06891383 0.17023031 0.10956892
000100 bd 47 33 3e 36 96 5a bb e2 51 76 bd 4e b1 02 3e
       0.17507835 -0.0033353693 -0.060136683 0.12762949
000110 9b 8e d8 3d e2 b5 06 3e d5 61 84 3c 3d 93 0a 3e
       0.10574075 0.1315532 0.016159931 0.1353273
000120 e5 3d c4 3d 70 0e 10 3b 4e 84 6f 3d 6f d9 50 3d
       0.09582118 0.0021981262 0.058475785 0.05098861
000130 17 bd 07 bd de 8a f0 3d 0d ae 55 3d 9e 29 fe 3d
       -0.033139315 0.11745237 0.05216794 0.124102816
000140 71 04 2d 3d 14 bc 02 3d 34 a1 b7 bc f8 bd ba 3c
       0.042240564 0.031917647 -0.022415735 0.022795662
000150 84 f2 c3 3d 6e 9e 62 3e de e2 75 be d5 8d 1a 3d
       0.095677406 0.22130749 -0.24012324 0.037732918
000160 c6 6b 25 3a 60 8c 4f bd e6 f3 a9 3d 07 e0 6e 3d
       0.000631031 -0.05067098 0.08298473 0.058319118
000170 d8 6d 89 bc fb 95 1d 3e a6 13 ce 3d f5 db 72 be
       -0.01677601 0.15389244 0.100623414 -0.2371672
000180 20 57 16 be 9e 45 0e bd 59 a1 51 bd 4c 15 a3 3c
       -0.14681673 -0.03473436 -0.051179264 0.019907616
000190 de 99 01 3e 1a 48 0c be a1 be 97 bd 5e 7a 61 be
       0.12656352 -0.1369938 -0.074094065 -0.22019336
0001a0 41 0e f5 bd 74 37 22 3e 36 cd 06 be 51 61 84 3d
       -0.11965609 0.15841466 -0.1316422 0.06463874
0001b0 1b 97 58 3e 8a 19 c8 bc ea e0 66 3d 10 ff 40 3c
       0.21151392 -0.02442624 0.05636684 0.011779562
0001c0 90 82 1f 3e 7c 49 90 3d 04 10 70 3d 06 5a 85 3d
       0.1557715 0.07045266 0.058609024 0.06511311
0001d0 e7 6f d7 3d ad d8 a0 3c 50 51 2b be cd 96 53 3e
       0.105193906 0.019634569 -0.16730237 0.20662995
0001e0 43 10 1e 3e 09 70 67 3e 55 e7 bd bd 2d e1 c4 3d
       0.15435891 0.22601332 -0.09272639 0.09613261
0001f0 2e ae 02 3e 1a 88 df 3d 01 c3 d7 3c 10 3e 96 bd
       0.12761757 0.10914631 0.026338102 -0.07336056
000200 5d e4 14 3d ba a1 0a 3d d0 6c be 3c 76 ea 38 3e
       0.036350597 0.03384564 0.023245245 0.1805819
000210 34 61 2d 3d 99 af 64 bd 8b a6 fd 3c 24 58 00 3e
       0.04232903 -0.055831525 0.030963203 0.12533623
000220 52 fa 0a 3e 06 9e 87 3d 05 7a 4d bb cf 50 79 3d
       0.13572052 0.066219375 -0.0031353247 0.06086808
000230 4d db 1f 3e 17 db fc bc 57 79 f1 3d 7a 39 ac 3c
       0.15611 -0.030866189 0.11790722 0.0210235
000240 11 e1 72 3d 08 b0 5e bb ed 11 a2 3a cd e8 5a 3d
       0.05929667 -0.0033979435 0.0012364961 0.053444672
000250 d0 c6 18 3e f5 cf 9f 3c 29 9b f5 3d ab bc 58 3e
       0.14919591 0.019508341 0.11992485 0.21165721
000260 fc 10 44 3e 34 b0 3d 3c b5 9f 08 3e 2f 53 eb 3d
       0.19147104 0.011577655 0.13342173 0.114904754
000270 08 24 0f 3e 80 b7 df bc e3 10 03 3d 9e 4b 3a 3e
       0.13978589 -0.02730918 0.031998526 0.18192908

model.rnn.bias_hh_l0 f4 [160]
000000 50 83 92 3d ff fb 93 3d 56 e6 04 bc 71 21 ae 3d
       0.07153952 0.07225799 -0.008111557 0.08502472
000010 7d 55 31 bd b5 a2 84 3e 45 a5 15 3e 3f 63 82 3e
       -0.04329442 0.25905386 0.14613827 0.25466344
000020 62 9b 3b 3e 2a 8d 30 3c d3 1e 87 bc b0 b7 2c bd
       0.18320993 0.010775844 -0.01649419 -0.042167366
000030 f9 a0 f2 3d 4c 7a 5c 3e 4d c0 ac 3d ec e2 72 3e
       0.11847109 0.21531028 0.08435116 0.23719376
000040 1b 82 61 3e ef 78 60 3e 98 23 52 3e c1 f3 12 3e
       0.22022288 0.21921133 0.2052139 0.14350797
000050 43 f5 38 bd f2 b8 23 3e c3 58 13 3e 40 d4 11 3e
       -0.045155775 0.1598852 0.14389329 0.14241123
000060 30 30 86 3e 40 99 64 bd 5d a4 b2 3c a0 59 59 39
       0.2620864 -0.055810213 0.02180689 0.0002072812
000070 aa 74 1b 3d fb 60 27 bd 93 24 29 3e 13 72 e7 3d
       0.037953056 -0.040863972 0.16517858 0.11301055
000080 cc bf 10 bd cc 3d 42 3e de 6c 5d 3e ad 28 2a 3e
       -0.03533916 0.18968886 0.21623561 0.16617079
000090 40 22 1d 3e 64 5a 86 3e 36 d0 e7 3d d7 b0 05 3d
       0.15345097 0.26240838 0.1131901 0.03263935
0000a0 85 0c 5a 3e 96 d0 45 3d 34 a1 0c be 9f 1c 0f be
       0.21293838 0.048294626 -0.13733369 -0.13975762
0000b0 0a f2 e2 bd da f2 9b 3d 01 0b c6 bd d4 15 be bc
       -0.110813215 0.0761468 -0.096700676 -0.023203768
0000c0 52 12 98 3d 38 02 24 bc e4 b5 9d 3c 3f d4 a2 bd
       0.07425369 -0.010010295 0.019251771 -0.07950639
0000d0 92 72 9f 3d 3f 2f 38 bd 30 4c 14 be f0 da f4 bd
       0.077855244 -0.044966932 -0.14482188 -0.119558215
0000e0 6d 43 8b bd 48 45 ae 3d aa 8d 4a 3d e0 7a 50 3e
       -0.0679997 0.08509308 0.049451508 0.20359373
0000f0 59 d8 f8 3d c2 37 34 3e 8f b4 f9 bd d5 44 2a 3e
       0.1215064 0.17599395 -0.12192642 0.1662782
000100 21 e7 28 3e 0a b6 59 3d d0 aa 1c be ad 1d 40 3e
       0.16494419 0.05315212 -0.15299535 0.1876132
000110 7e ae cc bd 2d cd 13 bd e6 7c c1 3d 1a e9 54 3e
       -0.09994219 -0.036084343 0.094476506 0.20792046
000120 e8 ac a3 bd 9c e7 49 bd e9 25 a1 3d 79 e1 5d bd
       -0.079919636 -0.049293146 0.07868559 -0.054170106
000130 9e 58 50 bd 72 3f 43 3b aa 69 72 3d 4d eb 1b 3d
       -0.050865762 0.0029792455 0.0591828 0.038066197
000140 76 03 67 3c 08 31 34 bd 47 50 4b be 79 7d ec bd
       0.014099946 -0.043992072 -0.19854842 -0.115473695
000150 45 8f 31 3e 6d 8c 62 3e f8 57 5d be b5 f3 5a be
       0.17339809 0.2212388 -0.21615589 -0.2138203
000160 42 8a 43 3e e8 ff e9 bb ee 78 6d 3e 3d bb ba bc
       0.1909571 -0.007141102 0.23190662 -0.02279436
000170 2f 45 bd bd fc 01 45 3e f4 66 54 3d 48 58 ec 3c
       -0.09241711 0.19239038 0.051855996 0.02885069
000180 36 36 29 be e2 95 a3 bc 0d ca b3 bd 85 7c 72 3e
       -0.16524586 -0.01996893 -0.087787725 0.23680313
000190 db 7f 2f 3e 40 6e 2f be 86 3a 16 3d d6 75 25 be
       0.17138617 -0.17131901 0.036676906 -0.16158232
0001a0 a4 7b b1 3b 23 a7 bb 3d fe dd 5e 3d 52 21 74 be
       0.0054163504 0.09162738 0.054410927 -0.23840836
0001b0 29 66 20 3c 61 26 e6 bd 91 8d 31 3e 1a 5c 33 be
       0.009789982 -0.11237789 0.1733916 -0.17515603
0001c0 bf 84 71 3e ca 5a be bd d8 73 06 3e d0 4f 6d 3e
       0.23585795 -0.092946604 0.13130128 0.23174977
0001d0 d4 67 04 3e ed fa 10 3d cc ad 2b be 08 a5 f9 3d
       0.12930232 0.03539555 -0.16765517 0.1218968
0001e0 f3 21 34 3e a9 c7 6b 3e f6 dd 09 3e f7 41 cc bd
       0.17591076 0.23025383 0.13463578 -0.09973519
0001f0 14 7b 4e bd d7 39 18 3d 51 1c a9 bc 01 83 8d bd
       -0.050410345 0.037164535 -0.020643385 -0.06909753
000200 70 fd 40 3e c4 cf c9 3d 10 5c fe 3d ac 27 9b 3d
       0.18846679 0.09854081 0.12419903 0.07575926
000210 23 48 48 3e 0d c8 29 bd 36 4c ac 3d 9f 81 40 3c
       0.19558768 -0.04145055 0.084129736 0.011749654
000220 a4 be a5 bc fb f6 ac bc ec 25 e1 3d e2 c9 fc 3c
       -0.020232506 -0.021113863 0.10993561 0.030857984
000230 5a d8 4a bd 52 48 fe 3d 9f 87 31 bd c9 3c 21 3e
       -0.049522735 0.12416138 -0.04334223 0.15745844
000240 02 f4 da 3d 13 de 65 bd d3 01 3d bd 06 22 f3 3d
       0.10691072 -0.05611999 -0.046144318 0.11871724
000250 be 05 49 3e 6e 33 d9 bd 27 40 18 3e a4 6f f7 3d
       0.19631097 -0.106055126 0.14868222 0.12081841
000260 ea 54 fe 3d 86 29 18 3d fd 4b 23 3e 61 1a 0a bd
       0.1241854 0.037148975 0.15946956 -0.033716563
000270 39 4c 10 3e 64 f1 30 3e 27 81 1e bd d1 d9 b1 3d
       0.14091577 0.17279583 -0.038697388 0.08684123

model.rnn.weight_ih_l1 f4 [160, 40]
000000 ad e0 54 be 03 5c a2 bd c6 72 52 bd a2 ad 8c 3e
       -0.20788832 -0.07927706 -0.051378988 0.2747622
000010 11 32 56 3e ee f3 94 3d 7e 5c d1 bc 3e b4 91 bc
       0.20917536 0.072730884 -0.025556799 -0.017786141
000020 32 13 34 bb 59 e1 87 bc 4c 56 c3 3d 72 4b 81 be
       -0.0027477262 -0.016586946 0.09537944 -0.25252873
000030 c0 37 b3 3b a2 a0 98 3e 63 53 78 3e 8f 0e 8a be
       0.0054692924 0.29810053 0.2425056 -0.26964232
000040 92 7c 19 be e2 2a 2f 3d 64 5b a6 bd f9 51 2a bd
       -0.14988926 0.042765506 -0.081229 -0.04158208
000050 3a e7 23 3d e6 db 13 be f1 3e 31 be aa f6 ee bd
       0.040015437 -0.14439353 -0.17309166 -0.11668141
000060 e2 d5 83 bd 86 b9 4a 3e 6c 0a 78 3e e1 99 95 bc
       -0.06437279 0.19797334 0.24222726 -0.018261852
000070 cf af 6a 3d 64 b9 5e bb 02 f5 ff 3d ad 12 23 be
       0.05729657 -0.0033985013 0.124979034 -0.15925093
000080 2d 62 eb bc 0f 60 5b be 38 d3 1c 3d 1c 8a 56 3e
       -0.028733337 -0.21423362 0.03828737 0.20951122
000090 bd eb 81 3e 37 53 88 be 07 40 06 be 82 aa 08 3e
       0.25375167 -0.26625988 -0.13110362 0.13346294
0000a0 3e ef ec 3d 23 96 b3 bd 4e fa 94 bd 55 9d 25 be
       0.11569069 -0.08768871 -0.07274304 -0.16173299
0000b0 65 6f 19 be f3 e7 9d 3c f5 d7 01 3e 52 fe 39 3d
       -0.149839 0.019275641 0.12680037 0.045408554
0000c0 e8 16 da bd c0 a4 29 3d d1 56 ba bc e5 d4 08 be
       -0.106489 0.041416883 -0.022746475 -0.13362463
0000d0 26 f5 d0 3d d9 db 2d be d8 57 4f be 7f 5f 99 3d
       0.10203008 -0.16978396 -0.20248353 0.074889176
0000e0 d1 dd e0 3d 19 ed c0 3d 2c e9 78 bc b8 0e ec bd
       0.10979808 0.09420223 -0.015192311 -0.11526245
0000f0 55 f6 b5 bd 22 31 bf bb 6d 8a 1c bd 4b b6 5c bd
       -0.08884875 -0.0058347145 -0.03821795 -0.053884786
000100 da 99 81 bd 7f d5 38 3d ee 4e 17 be bf dc ec 3d
       -0.06328173 0.04512548 -0.14776203 0.115655415
000110 53 d8 8f 3c ec 60 c2 bd df b3 ca bc 29 25 e2 3c
       0.017559206 -0.09491143 -0.024743972 0.02760561
000120 f7 9d b6 bd a0 ab d0 3c c4 1c 28 be 61 b9 26 be
       -0.08916848 0.025472462 -0.16417223 -0.16281654
000130 28 b1 67 bd df 28 45 bd 3e 43 e7 3c d0 e8 68 bc
       -0.056565434 -0.04813468 0.028230306 -0.014215663
000140 83 47 57 be 8a e3 33 be 23 bb 87 bd 78 a8 7b 3d
       -0.21023373 -0.17567268 -0.0662749 0.06143996
000150 75 3f 4c bc 52 7b 5c 3e c3 9b e4 bc 72 c0 f3 bd
       -0.012466301 0.21531418 -0.027906304 -0.119019404
000160 6f 34 42 bd 55 ea 5e bd 0e 9e 35 3d 3c ca cd bc
       -0.047413286 -0.054422695 0.044340186 -0.025120847
000170 2e d3 09 be bf 4d 25 3c 36 ff 4b 3e bb 10 06 be
       -0.13459465 0.010089337 0.19921574 -0.1309232
000180 90 80 ec 3c ba 8e 03 3e 58 db 25 3d d6 97 44 39
       0.028869897 0.12847415 0.040492386 0.0001874858
000190 13 b9 2f 3e 7f 1e 35 be 42 8a 10 be ac 9c 1e be
       0.17160444 -0.17687415 -0.14115241 -0.15489453
0001a0 21 33 9b bd 40 bb 5e 3e 82 7f ba 3c 87 a8 2c be
       -0.075781114 0.21751118 0.022765879 -0.16861163
0001b0 1b e6 6a 3e ee 20 f9 bc 51 32 7e 3e 84 db ad bd
       0.22939341 -0.03041121 0.24823882 -0.08489135
0001c0 25 b4 40 3e 39 72 60 bd fa 4c 3d bc d0 98 78 3d
       0.1881872 -0.05479643 -0.011553997 0.06069261
0001d0 58 08 14 3e b2 e1 c2 bd 9d 1d 18 be 43 1f 77 3d
       0.14456308 -0.09515704 -0.14855047 0.060332548
0001e0 41 56 59 3d 76 57 36 be fc 3a 59 be 72 64 85 3d
       0.053060774 -0.17806801 -0.21213907 0.06513299
0001f0 54 27 fd bc 18 92 d6 3d 51 7e c2 bd 0d 09 30 be
       -0.030902542 0.10477084 -0.09496749 -0.17190953
000200 39 3b 42 3e 28 c9 b1 3c 5d 01 7e 3d 25 b7 8d be
       0.18967904 0.021702364 0.06201302 -0.2767879
000210 97 96 3d be d4 ef 04 3e 4e 6f 26 bc b9 6b c2 bd
       -0.18514477 0.12982112 -0.010158373 -0.09493203
000220 49 25 e5 3c 77 8b 82 3e 04 2b d9 bd 0e 88 7d bd
       0.02797188 0.25497028 -0.10603908 -0.06189733
000230 7c 4e 28 3e 96 2f 62 be 9a 13 19 be 42 8e 55 be
       0.1643619 -0.22088465 -0.14948884 -0.20855048
000240 d0 50 1e be 0d 6d 37 bd 53 db 07 3e 52 c7 76 be
       -0.15460515 -0.044781733 0.1326726 -0.24099472
000250 9a e5 60 3e 3b bc 68 be 54 af 26 3c 2a 48 62 be
       0.21962586 -0.22728054 0.010173637 -0.22097841
000260 7e 38 59 3e 66 e8 40 be 7c f0 10 bd a6 db 33 3c
       0.21212956 -0.18838653 -0.035385594 0.010977661
000270 57 14 6c bd ea d9 4d 3d 2b 66 4d be f9 b0 95 3d
       -0.057636585 0.050256647 -0.20058505 0.073091455
000280 0e de 15 be d5 e3 0b bd ac dc 63 be 6e f8 8a bd
       -0.14635488 -0.034152824 -0.22252148 -0.067856655
000290 43 62 5f 3e 82 52 87 3e 31 dd 58 be 4a 9c c6 bd
       0.21814828 0.26430136 -0.21178128 -0.096977785
0002a0 6b 16 0f 3e a4 ea ad bd 46 0a 9b 3d c8 26 68 bd
       0.13973396 -0.0849202 0.07570319 -0.05667761
0002b0 68 6a 25 be c3 ef 22 bd c5 51 27 3e 19 4d 38 bd
       -0.16153872 -0.039779436 0.16339786 -0.0449954
0002c0 08 2b cb 3c 66 b2 89 3e 0f 8a c6 bd 94 3c 94 3c
       0.024800792 0.2689392 -0.09694301 0.018095292
0002d0 f6 96 81 3e ba c4 48 bb 96 13 cc bb a0 cf 73 3d
       0.25310487 -0.0030634836 -0.0062279208 0.05952418
0002e0 4e 4c 05 be 1d 68 ff 3c d8 94 2a 3e 58 65 d4 3b
       -0.13017389 0.031177575 0.16658342 0.0064818077
0002f0 a8 bb 5c 3e c6 23 21 be b8 cb 8b 3e 2d 1e 95 bd
       0.2155596 -0.15736303 0.27303863 -0.07281146
000300 17 7b c8 3d ae 9c 57 be 49 f2 3e 3e bb df 4f 3e
       0.097891025 -0.21055862 0.18647112 0.2030019
000310 9a 49 04 3e d5 20 f8 bc 54 bb 27 3d 56 6f e1 3c
       0.12918702 -0.030289093 0.040950134 0.02751891
000320 bb d2 d6 bd 07 8f bc bc 7b 99 82 3d 29 d7 ff 3c
       -0.104894124 -0.02301742 0.0637693 0.031230526
000330 94 8c 47 3d 3f 33 e0 3d f9 3c c7 ba a5 5c 2b be
       0.04871805 0.109472744 -0.0015200666 -0.1673456
000340 72 cf 6b bd bf 43 b2 bd 7c c8 6d 3c 08 10 86 3d
       -0.057570882 -0.08704328 0.014513131 0.065460265
000350 46 77 d4 bd 0a 9b 12 3e 76 1a 29 3e 3a 93 53 bd
       -0.10374312 0.14316955 0.16514 -0.051654078
000360 07 c4 a1 3d 63 91 d0 3c 9a a0 25 bd e4 90 46 3e
       0.078987174 0.02545995 -0.040436365 0.19391209
000370 57 da 24 3e 2d f8 ef 3d 89 ed 07 3e a1 6b f6 bc
       0.16098915 0.11717258 0.13274206 -0.030080618
000380 99 8e 2a be fb 12 07 3e 32 c9 ae bc a3 3f 42 bd
       -0.16655959 0.13190834 -0.021336172 -0.04742397
000390 d1 9f 31 bd ab 85 37 bd e0 99 17 be 77 97 0e 3d
       -0.043365303 -0.04480521 -0.14804792 0.034812417
0003a0 da a7 1b 3e 8c 1f 68 bc 18 7f 23 3e c7 02 64 bd
       0.15200749 -0.014167678 0.15966451 -0.05566671
0003b0 08 a3 0e 3d 05 7e d2 bd e5 7f 40 bd 69 db ba bd
       0.034823447 -0.102779426 -0.04699697 -0.091238804
0003c0 7d 10 f4 bd de fb ac 3b 9c 67 69 3b c8 35 18 3d
       -0.119172074 0.0052790483 0.0035614735 0.037160665
0003d0 3f 7e 36 bc b9 ea 0f 3e 0c c6 15 3d 0f 3e 03 be
       -0.011138498 0.14054383 0.036565825 -0.12816642
0003e0 a5 01 bc 3d 48 7f ad bd 2d cc 91 bc d6 84 f8 3c
       0.09180001 -0.084715426 -0.017797554 0.030336779
0003f0 8b 7d 91 bd 29 85 1e 3d c0 26 28 bd c8 d5 9f 3d
       -0.071040235 0.03870121 -0.04105258 0.078044474

model.rnn.weight_hh_l1 f4 [160, 40]
000000 38 43 68 be ac b8 b1 3c 8a 1e d0 3d 74 ff c0 3d
       -0.22681892 0.021694504 0.10162075 0.09423724
000010 44 bc 45 be f8 62 ca bc 18 cf 0f be 82 84 f0 3d
       -0.19310099 -0.024705395 -0.14043844 0.11744024
000020 07 04 45 3e 0b 99 0b be d8 bf ae bd 79 22 b0 3d
       0.19239818 -0.136326 -0.08532685 0.08600325
000030 b9 a2 0d be 59 50 c3 bd e9 02 48 3c e1 76 8a bc
       -0.13831605 -0.095368095 0.012207725 -0.016902389
000040 cd c0 4a 3e 68 58 5a bb 3b 01 fe bc 59 35 a5 bd
       0.1980011 -0.0033316854 -0.031006446 -0.08066816
000050 85 e0 7e bb 1e 17 c4 bc be 99 95 3d 6c 51 1a be
       -0.0038891148 -0.023936804 0.073047146 -0.15070122
000060 38 62 36 be 31 b6 1b 3e 42 91 0f be a7 4d 41 bd
       -0.17810905 0.1520622 -0.14020255 -0.047193196
000070 01 b7 4e 3d 5d c3 89 3d fc ce b9 3d 56 89 ec bc
       0.050467495 0.06726716 0.09072682 -0.02887408
000080 ed e9 2d be 40 70 ab bd f1 74 bc 3d 3f cf 1a 3d
       -0.16983767 -0.08371019 0.09201992 0.0377953
000090 cc 91 af bd d5 34 26 3e b0 30 20 be 50 42 5f 3e
       -0.085727304 0.16231091 -0.15643573 0.2180264
0000a0 d9 8b 1c be 93 e5 a8 bd 32 b5 17 bd 69 b0 6c bc
       -0.15287723 -0.08246913 -0.037038036 -0.014446356
0000b0 cb 7c 07 3e bf f7 0d be 67 60 d1 3d b2 c2 e6 3d
       0.13231198 -0.13864039 0.102234654 0.11267604
0000c0 ff d8 dc bd 4a 05 b6 bd 56 bb bb 3c dc 04 b1 bd
       -0.10783576 -0.088877276 0.022916477 -0.08643505
0000d0 4a 1b f6 3d ec 5d 5d 3c f9 a8 22 be c1 ff 16 3e
       0.12016924 0.013511162 -0.1588477 0.14746
0000e0 13 ef 95 3d 65 f7 8b bb 09 f8 2e 3b b5 48 7d 3c
       0.073209904 -0.004271435 0.0026698133 0.015459229
0000f0 49 e7 13 3e 32 36 ed 3d 3a 08 26 bd 3b 7e aa bd
       0.14443697 0.115826026 -0.04053519 -0.08324858
000100 70 ba 45 bd 02 92 c3 bd 10 06 d5 3d dc 62 78 3d
       -0.048273504 -0.09549333 0.10401547 0.060641155
000110 49 5a 9e 3d bf 9f 35 3c 4e 9a f5 bd e0 af 2b be
       0.07732064 0.01108545 -0.11992322 -0.1676631
000120 a6 c3 03 be ff 92 f4 3d fa 35 3e 3d b5 ee ee bd
       -0.12867603 0.119421 0.046438195 -0.116666235
000130 ef ed 69 3c ba c2 17 3e b4 6b b9 3d e0 49 9f bd
       0.014277919 0.14820376 0.09053746 -0.077777624
000140 c0 5e 9c bd 80 2f 05 be ff db ad bd ae cd b3 bb
       -0.0763526 -0.13006401 -0.084892265 -0.0054871654
000150 16 4d 66 be 33 2d 00 be 5a d9 73 3d fa 63 b2 3c
       -0.22490343 -0.12517242 0.059533454 0.021776188
000160 31 b9 c7 bd 86 83 ed 3c 80 49 67 bd 04 93 9c 3d
       -0.09752119 0.02899338 -0.05646658 0.076452285
000170 d6 39 76 bd d3 26 97 bd b4 1f 01 3e 2e 49 21 bd
       -0.06011375 -0.07380452 0.1260975 -0.03937643
000180 49 c3 18 3e 22 20 a0 bc 8e ff 43 be 88 0c d7 bb
       0.14918245 -0.019546572 -0.19140455 -0.006562773
000190 7e ab 0d 3e dc f3 a1 3d b2 2f 9c 3d 79 03 d5 3d
       0.1383495 0.079078406 0.07626285 0.10401053
0001a0 3d 26 3f bd 53 f3 d8 3d 77 27 2f be 2d d1 f9 3d
       -0.046667326 0.105932854 -0.17104898 0.121981
0001b0 b3 c2 33 bd f4 3d 1b 3d e5 ec c8 bd 6e fb 01 3e
       -0.04388685 0.03790088 -0.09810809 0.12693569
0001c0 01 39 2b be aa 03 86 3d 19 a4 14 be 66 74 8d 3d
       -0.16720964 0.065436676 -0.14515723 0.06906967
0001d0 9e 6d 50 3e 74 24 65 bd ad bb e3 bc 0e 04 99 3d
       0.20354316 -0.055942968 -0.027799452 0.074714765
0001e0 5a 19 25 be ba ee 13 3e c7 bf 21 be 0b 6b a7 3d
       -0.16122952 0.14446536 -0.15795814 0.08174714
0001f0 6c fd b4 3c 51 a8 25 3d 6e a0 73 bd a4 59 1e 3d
       0.022093497 0.040443722 -0.05947917 0.038659707
000200 54 fd 12 3e 0a 1d 88 3d 98 47 38 bc b3 48 d5 3d
       0.1435445 0.06646164 -0.011247538 0.10414257
000210 4d 94 e6 3c 78 5d 0a be 31 a1 70 bc ea 1f ce 3d
       0.028146887 -0.13512218 -0.0146868685 0.10064681
000220 70 31 3c bd a1 05 f8 3b 90 dc a5 bd fc b2 38 bd
       -0.045945585 0.0075690304 -0.080987096 -0.045092568
000230 4b c7 0e 3e f2 a0 e8 bd 95 62 27 be 06 9b f1 bc
       0.13943212 -0.11358823 -0.163462 -0.029492866
000240 7a 04 b9 bd d1 9e db bd b1 8c 80 bd 11 88 94 bd
       -0.09034057 -0.10723651 -0.06276835 -0.07252515
000250 fc 4f 15 be 31 67 bb 3d 02 3b 65 bd 9b b5 84 3d
       -0.14581293 0.091505416 -0.055964477 0.06479951
000260 52 1d b3 3d 02 7e f3 3c 1d c7 bd bd 76 2f 2d 3e
       0.08745827 0.029723171 -0.092664935 0.16912636
000270 e5 e7 84 bd 06 48 e4 3a 52 67 2c 3d 41 7a b6 3d
       -0.06489543 0.0017416484 0.04209072 0.08910037
000280 20 08 24 be 45 59 29 bd 66 9d 91 bd 46 32 35 3e
       -0.16018724 -0.0413449 -0.071100995 0.17694959
000290 12 e3 2a 3d 8f 6d d8 3d f2 86 01 be e7 6d 72 3d
       0.041720457 0.10567772 -0.12649134 0.059186842
0002a0 e9 ce a3 3b 28 58 03 bc 01 c2 aa bd 52 b4 c5 3c
       0.004999031 -0.008016624 -0.083377846 0.024133835
0002b0 8d 19 b1 bd 2f ae 2f 3d 1a 6c 6b bd 6c f4 08 3d
       -0.086474515 0.042890724 -0.05747614 0.033436224
0002c0 78 ff 9b bd e7 90 ae 3d e5 6f 23 be ba 4d 2d bd
       -0.07617086 0.08523732 -0.15960653 -0.042310454
0002d0 dd f0 01 bd f2 8e 16 3e 1a 14 86 3d e2 e9 83 bd
       -0.031723846 0.14702967 0.06546803 -0.06441094
0002e0 33 29 ea 3d ca 00 d7 bc 89 1a 07 be 12 0c ab 3d
       0.114336394 -0.026245493 -0.13193716 0.083519116
0002f0 b7 b1 49 bd 49 e4 65 bd 25 e2 ea bd 30 f3 13 3e
       -0.049241748 -0.056125913 -0.11468915 0.14448237
000300 ad a2 cd bc 62 d7 46 3e fb 84 53 bd 67 e9 41 3e
       -0.025101984 0.194181 -0.051640492 0.18936692
000310 04 af 15 3e 4c e2 27 3d 95 f9 86 bd 3f 40 19 bd
       0.14617544 0.040987298 -0.06590573 -0.037414785
000320 f2 f0 bc bd ea 9f c5 bd 1a 47 ec 3d c4 77 10 be
       -0.09225644 -0.09649642 0.11536999 -0.14108187
000330 2b 16 ca bc 8e 03 03 be 00 64 f1 bd 1e 4a a9 bd
       -0.024668774 -0.12794325 -0.117866516 -0.0826609
000340 f4 33 fa 3c cb 17 aa 3c 0f 99 bc bd ad da c9 3c
       0.030542351 0.020763298 -0.09208881 0.024640406
000350 a8 2f 99 3d 51 29 26 3d ed 4d e2 bd 8e 2e b2 bd
       0.07479793 0.040566746 -0.110500194 -0.08700286
000360 aa fd a7 3d c7 ca 00 be 7a 48 12 3e 86 20 e0 bc
       0.082026795 -0.12577353 0.1428546 -0.027359258
000370 6c 61 f5 3d 20 91 0f be 87 b5 05 3b d9 e5 bd 3d
       0.119814724 -0.14020205 0.0020402388 0.092723556
000380 98 2c 8f bd 19 78 31 3e 75 a9 05 be 41 5e c0 3d
       -0.069909275 0.1733097 -0.13052924 0.093929775
000390 ce 55 0f be 3e fe 3d bd b5 2c fe bd ea 8c f6 bd
       -0.13997576 -0.046385042 -0.12410871 -0.12038596
0003a0 e0 26 f7 bd 5f 43 2f 3e f2 fd 30 be f6 f8 d6 bd
       -0.12067962 0.17115544 -0.17284372 -0.10496704
0003b0 78 83 f0 bd 51 2b 82 3d 00 04 c1 bc 5d a6 05 3e
       -0.11743826 0.06355918 -0.023561478 0.13051744
0003c0 73 45 00 be 52 92 f9 3d 34 75 13 be 7f 15 aa bc
       -0.12526493 0.121861115 -0.14400178 -0.020762203
0003d0 90 66 84 bc 58 a9 12 be fb 70 7e 3d 5f 54 c9 bd
       -0.016162187 -0.14322412 0.062119465 -0.09830546
0003e0 20 91 03 be a8 30 e6 3d 6c d3 a5 3d 0b cd 9e 3d
       -0.1284833 0.11239749 0.08096966 0.077539526
0003f0 33 02 09 3d 42 8a e9 bd f8 92 96 bd 39 0c a3 3c
       0.033449363 -0.11403324 -0.07352251 0.01990329

model.rnn.bias_ih_l1 f4 [160]
000000 00 2e d0 3d c2 d7 f2 bd 44 d4 3f 3e 55 54 1b 3d
       0.10165024 -0.11857559 0.18733317 0.037922222
000010 6e a3 9d 3d a7 8c 06 3c b0 e9 29 3c 58 72 82 3e
       0.07697187 0.008212245 0.010370657 0.25477862
000020 1d 39 49 3e b6 bf 89 3e 38 f4 ef 3c 3e f7 b2 3d
       0.19650693 0.26904076 0.029291257 0.08738564
000030 d6 57 41 3e 13 2c 0f 3e e8 52 18 3e c2 e2 c2 3d
       0.18881163 0.13981657 0.14875376 0.09515907
000040 13 55 bc 3d d6 2e d6 3d f6 fd 55 bd c6 7a d7 bc
       0.09195914 0.10458152 -0.05224415 -0.02630366
000050 43 52 77 3e c5 54 91 bd 6c 70 5f 3e 8a fc 79 3c
       0.24152474 -0.07096247 0.2182023 0.015257964
000060 02 d3 16 3e 93 4a e7 bd 62 1d 96 3c b7 bc 21 bd
       0.1472893 -0.11293521 0.018324558 -0.039486613
000070 e7 f3 c0 3d f8 71 cc 3a 60 fc fb bd be ed 95 3c
       0.09421521 0.001559793 -0.12303996 0.01830184
000080 b6 22 05 bc 9f ea 33 3d 44 d7 14 3e f1 4c 32 3d
       -0.0081259515 0.043924924 0.14535242 0.04353041
000090 86 88 ed 3d 7e b1 73 bd 07 48 f3 3d b5 32 2e 3e
       0.115983054 -0.05949544 0.118789725 0.1701153
0000a0 3c f3 02 bd 89 d6 a1 bd 4a 6f 21 3e 69 88 16 3e
       -0.031970248 -0.079022475 0.1576511 0.14700474
0000b0 6d 9d 33 3d 5c c9 cb 3d a4 4b 83 bd 95 62 8a 3d
       0.043851305 0.09950516 -0.06410912 0.06757084
0000c0 6e 51 03 3e 5b 3e 4a 3e 1b 55 23 3e 71 7d f4 3d
       0.12824032 0.19750349 0.15950434 0.119379885
0000d0 5f 14 bf 3d 16 c0 a5 3d 61 6b 22 3e cd 0a f7 3d
       0.09330057 0.08093278 0.15861274 0.12062607
0000e0 6b 67 9d bd 4e b8 af bd 81 2f 1a bd 55 3d a4 3d
       -0.07685741 -0.08580075 -0.03764296 0.08019511
0000f0 98 66 d5 bd ff e0 ba 3c fb 93 e1 ba 92 77 6f bc
       -0.10419959 0.022812365 -0.0017210239 -0.01461591
000100 81 cf 32 3d 5a 2d c4 bd 15 fb 8a 3d cf 90 2f bd
       0.043654922 -0.095789626 0.06786171 -0.04286271
000110 60 ee 16 3d 3b ba 30 3d 60 2c 00 bd fa 47 c7 3a
       0.036848426 0.043146353 -0.03129232 0.0015203946
000120 89 d8 8a 3c 53 2b bb bc d9 ef 18 be 36 d5 fc 3d
       0.016948955 -0.022847807 -0.14935245 0.12345354
000130 21 0f 63 bd 4d 91 79 bb cb ca 90 3d ce 0a 03 3e
       -0.05543435 -0.003808099 0.0706993 0.1279709
000140 6d 5e 0a 3d 20 0a 25 3d 63 ed 75 bd 50 f2 00 3e
       0.033781458 0.04029286 -0.060040843 0.12592435
000150 e3 43 b1 3d 91 db 03 3d b7 39 db bd e0 f9 88 3d
       0.086555265 0.032191817 -0.107043676 0.06688285
000160 64 95 17 3e 78 98 17 bd ef a0 1b 3e fc a6 82 3d
       0.14803082 -0.03701064 0.1519811 0.06379506
000170 3a 61 a8 3d 12 c3 30 be 65 cc b8 bd 78 f2 b0 3c
       0.082216695 -0.17261913 -0.0902336 0.021599993
000180 6a 13 00 3e 11 1f cd 3c b8 5e 9c bc 63 49 1a 3e
       0.12507406 0.025039228 -0.019088134 0.15067057
000190 ee bc 10 bd 3a 51 09 3e 81 29 cf bd 03 41 39 be
       -0.035336427 0.13409892 -0.10115338 -0.18091206
0001a0 89 d9 61 3d e4 da 5a 3d 80 bd f5 bc a8 83 f4 bc
       0.0551391 0.053431407 -0.029997587 -0.029847935
0001b0 cb 67 45 be bd 4d a6 bc 5f 32 d8 bc 0b 51 c7 3d
       -0.19277875 -0.02030074 -0.026391206 0.097322546
0001c0 af d2 0c bc da 8e 31 3e 52 0f 35 be ce bc 66 3e
       -0.008595153 0.1733965 -0.17681625 0.22532961
0001d0 a2 1c c3 3d 5e 46 8b bd df 0c 22 3d 62 89 d7 ba
       0.09526946 -0.06800531 0.039563056 -0.0016444142
0001e0 f4 da 69 3e 43 e8 98 3c 86 9a 43 3e a4 7a ef 3d
       0.2283743 0.018665439 0.19101915 0.11693314
0001f0 41 94 c1 3d dc 7f 96 3c 47 66 da bc 5c 55 8e bc
       0.09452105 0.018371515 -0.026660098 -0.017374687
000200 c0 9e 2e 3e 00 37 87 3c 80 c2 02 3e 52 2f 0f 3e
       0.17052746 0.016505718 0.12769508 0.13982895
000210 f4 97 30 3e 2b 3b 89 3d 4b 3c 0f bd b0 93 7d bd
       0.17245466 0.067007385 -0.03496961 -0.061908424
000220 fb 2f 46 3e 12 8f 19 3e 42 d7 02 3e 0e 2a be 3d
       0.1935424 0.14995983 0.12777427 0.09285365
000230 f9 70 c5 3d 72 94 df 3d 9e 83 40 3e df 44 e9 bd
       0.096406884 0.109169856 0.18800208 -0.11390089
000240 fa 12 a9 bc 1d 4e dc bd b8 0a 44 3e 05 63 87 bc
       -0.020638932 -0.107570864 0.19144714 -0.016526708
000250 80 3d a9 bc 46 17 92 3d 3e 18 21 3d cc d1 48 3e
       -0.020659208 0.07133345 0.03932976 0.19611281
000260 21 bd b5 bd bc 25 34 3e ba dc 8b bd a2 ca 1d 3e
       -0.08873964 0.1759252 -0.068292096 0.1540933
000270 b4 f7 6a 3d 69 8f 19 3e cc 76 34 3d 5a b6 11 3d
       0.057365134 0.14996113 0.044058606 0.035574295

model.rnn.bias_hh_l1 f4 [160]
000000 ea 86 45 3e 76 3c b8 3d 54 14 4f 3e 9c d9 05 3e
       0.19289747 0.08995907 0.20222598 0.13071293
000010 64 af 48 3e 74 49 d0 bd 74 cc 0b 3d 1b fe d7 3c
       0.19598156 -0.1017026 0.03413053 0.026366284
000020 62 5b 31 3e d1 8f a6 3d a6 da 07 3e 5f e4 55 3d
       0.17320016 0.081328996 0.13267002 0.052219745
000030 fb df 06 3e f2 9a df bd f2 8f 44 bc 94 c0 42 3b
       0.1317138 -0.10918225 -0.01199721 0.0029716836
000040 46 94 15 bd 0c e8 07 bb b7 5c 5c 3e d9 8a 50 3d
       -0.036518358 -0.0020737676 0.21519743 0.050913665
000050 49 76 f2 3d 73 31 88 3d e1 41 14 3e c7 c4 88 bd
       0.11838967 0.06650057 0.14478256 -0.06678157
000060 76 9f 93 bd a3 a9 8c 3b 76 cc 7e 3d 2b e1 df 3d
       -0.07208149 0.004292683 0.062206708 0.10931619
000070 de 2c 48 3e 5e 25 e9 bd 6b 13 1a 3b e6 13 e3 3d
       0.19548365 -0.1138408 0.002351011 0.1108778
000080 7d 92 07 3e 47 fb 32 3d 71 2a f1 3c e9 17 18 3e
       0.13239475 0.043696668 0.029439183 0.14852871
000090 a0 4c 46 3e 8f 9a 9c 3d 44 71 28 bd a4 ab 4c 3e
       0.19365168 0.07646667 -0.041123644 0.1998735
0000a0 d3 6f 41 3c c7 b8 cf 3c 6c 31 e6 bd 47 8d ba bc
       0.011806446 0.025356663 -0.11239895 -0.022772444
0000b0 98 81 1a 3e 99 f9 1d be 49 eb 0d be f2 b5 01 3e
       0.15088499 -0.15427245 -0.13859285 0.12667063
0000c0 75 67 5e bd 6f 60 e0 3d 10 e0 2b 3e f2 12 66 bd
       -0.054297883 0.10955893 0.16784692 -0.05617041
0000d0 26 ab 1f bd c2 68 07 3e 86 8b cb 3d 31 11 0d bd
       -0.03898158 0.13223556 0.09938721 -0.034440223
0000e0 6d a1 6f 3c 87 8d ca bc 14 8d 07 3e 29 90 ab 3d
       0.014625889 -0.024725689 0.13237411 0.08377106
0000f0 47 52 aa 3c bd 40 c7 bd 57 c1 f2 bb ea 74 fd 3d
       0.020791186 -0.09729145 -0.007408302 0.12375815
000100 88 07 ce 3d 97 fb 09 3a ca 6d 0f be 5c a7 0b bd
       0.1006003 0.0005263625 -0.14006725 -0.034095153
000110 66 03 df bd 70 4e cb bd a7 59 b2 bd 61 5c bd 3c
       -0.1088932 -0.0992707 -0.08708506 0.023115339
000120 f8 fb 8e bd 4c ae 14 bc 10 8c 6d bb 85 5c 1a bc
       -0.06981653 -0.009074759 -0.0036246814 -0.009421472
000130 3d ef 28 3e f4 00 4e bd 7d ad 4e 3e f0 e0 c3 3d
       0.16497512 -0.050293878 0.20183368 0.09564388
000140 51 34 95 bc 46 68 d2 bc 49 e0 91 bd 06 e7 03 bd
       -0.018213423 -0.025684487 -0.07122857 -0.032202743
000150 45 69 fe 3b a4 7c 5f 3d e2 cc a1 3b 0d f8 0d 3e
       0.007764014 0.054562226 0.004937754 0.13864155
000160 eb ab b1 3d bb 26 0d be bf 8d b5 bd b5 b6 ba 3d
       0.08675369 -0.13784306 -0.088649265 0.0911688
000170 7b c2 69 bc 14 de e5 3d e4 a8 08 3e 85 a3 6a bd
       -0.014267559 0.11223999 0.13345677 -0.05728485
000180 53 c3 0b 3d 8c ca b4 bd 6e f3 8a bd 72 6d 85 3d
       0.034121823 -0.08827695 -0.06784712 0.06515016
000190 40 41 9c 3c ed 40 75 3d 42 87 be 3c 89 46 2c be
       0.019074082 0.05987637 0.023257855 -0.16823782
0001a0 0b e1 80 bc 0a 0a 0d 3e 23 ca 41 be de 39 45 3e
       -0.015732309 0.13773361 -0.18924765 0.19260356
0001b0 35 6b ec bc 13 6a fe 3d 0d 69 f2 ba 38 f8 45 3e
       -0.028859714 0.12422576 -0.0018494442 0.19332969
0001c0 2b b2 86 3d 48 1e 24 3e d4 dc 29 bd 1e cb 90 bd
       0.065769516 0.16027176 -0.041470364 -0.070699915
0001d0 ce d0 fe 3c dd ce 81 3c d1 af 57 3d 41 29 34 3d
       0.031105425 0.01584571 0.052657906 0.043984655
0001e0 78 5a 86 3b 10 75 1a bd a3 13 15 3e b7 63 35 bd
       0.00410014 -0.037709296 0.14558272 -0.04428455
0001f0 78 6b ca 3d 03 ef 35 bd b1 fb ed 3d 18 6a 0e 3e
       0.09883779 -0.044417392 0.11620272 0.13907659
000200 ec b8 fd 3c 33 51 5e 3e ef 44 94 3c 53 22 42 3d
       0.030971967 0.21710663 0.018099276 0.047396015
000210 4b ce 0b 3e 52 5d 5f 3c a3 6c 3c 3c 22 1b c1 bc
       0.13652913 0.013633089 0.01150051 -0.023572508
000220 ba 67 df bd 12 26 b3 bd b1 d4 2a bd ca 5a 8b ba
       -0.10908456 -0.08747496 -0.041706745 -0.0010631916
000230 d2 11 83 3d 90 75 7f 3c ca 9f 67 3e 5b 27 6a 3c
       0.06399883 0.015591994 0.22619548 0.01429161
000240 c3 6c e8 bd e3 19 30 3e 6f d9 89 3d b9 04 87 bd
       -0.1134887 0.17197375 0.06730925 -0.06592698
000250 6d 90 4d 3d 1a 51 e3 3c a1 b8 59 bd 0e 9b 95 3c
       0.050186563 0.027748633 -0.05315459 0.018262412
000260 c9 54 b4 3d eb ee 7b 3e 55 31 da bd a0 53 a1 bc
       0.08805234 0.24602859 -0.106539406 -0.019693196
000270 57 06 67 3e ce dc 94 bd 76 02 52 3d 11 0a 4a 3e
       0.22561012 -0.07268678 0.05127188 0.19730403

exp_avg f4 [1, 40]
000000 bd 12 f0 ba 7e 89 23 38 00 ef fb ba a0 12 ef 3a
       -0.0018316131 3.8990278e-05 -0.0019221008 0.0018239804
000010 af 14 f0 ba 5e 40 9f ba 31 d6 34 ba 0a 6c ee 3a
       -0.0018316711 -0.001214992 -0.0006898372 0.0018190157
000020 3f 09 f4 3a e3 c0 eb ba de 21 09 3b a6 e2 e5 3a
       0.0018618478 -0.0017986562 0.0020924727 0.001753886
000030 38 77 f1 ba 09 b2 74 39 34 5f ec 3a 15 0b b4 39
       -0.0018422371 0.00023335977 0.0018033744 0.00034340532
000040 5c 8d 56 39 e7 73 7c 39 07 58 25 ba 9d de 7c b9
       0.00020461291 0.0002407577 -0.00063073676 -0.00024115523
000050 98 36 01 3b 88 f6 c5 ba a7 e8 95 ba 97 e5 c1 39
       0.0019716378 -0.0015103379 -0.0011437134 0.00036982886
000060 68 8d 8b 3a 09 36 96 b9 88 0d aa 39 bc a6 3e 3a
       0.0010647001 -0.0002865049 0.00032435008 0.000727277
000070 8b 12 95 b9 f8 1f 8c b9 15 7f 15 39 ca 93 27 3a
       -0.0002843331 -0.000267267 0.00014257089 0.0006392567
000080 de 73 16 3a dc 74 ef 3a 24 f0 0c 39 ec 32 f1 3a
       0.00057393115 0.001826908 0.000134409 0.0018402017
000090 f4 ce f8 3a bf 52 f6 b8 f0 2d f2 ba 7c f4 eb 3a
       0.0018982575 -0.00011745607 -0.0018476825 0.0018001939
