research/lightning_logs/version_7/checkpoints/epoch=4-step=250.ckpt (torch, 300447 bytes, 33 tensors)

model.param_proj.proj.0.weight f4 [1, 40]
000000 77 04 81 3d 98 e3 8f 3e 05 2d 7f 3e 62 dd 41 3e
       0.0629968 0.28103328 0.24919517 0.18932107
000010 05 dc ae bd 13 ae 82 bd 55 05 26 be 57 35 7f 3c
       -0.08538059 -0.06380858 -0.16212972 0.015576682
000020 96 7b 59 be fb 9a 56 be f9 71 42 3d 56 32 e0 3d
       -0.2123855 -0.20957558 0.047471974 0.10947101
000030 ba cd 40 3e f5 9b 23 be c0 5a af bd 77 c5 92 be
       0.18828478 -0.15977462 -0.08562231 -0.2866628
000040 d2 74 77 3e ec 8b 1f be d4 63 10 3e de 9b 4f 3e
       0.24165657 -0.1558072 0.14100581 0.20274302
000050 d3 c3 2a 3e af 5a a4 3e 89 f5 fb 3c ac e4 0a be
       0.16676264 0.32100436 0.030756729 -0.13563794
000060 d0 35 95 3d 90 42 56 be b4 28 1b be 13 0d 8f be
       0.072856545 -0.20923829 -0.15152246 -0.27939662
000070 1c cd 43 3e f9 0d 6e 3e aa 04 23 3e 6d 35 9f 3e
       0.19121212 0.23247518 0.15919748 0.31095448
000080 11 55 84 3b 16 c8 26 3d 7d f7 07 be dd 80 f3 bc
       0.004038461 0.04071816 -0.13278003 -0.029724533
000090 84 5e be be cc 0e 99 bd 71 f4 c9 bd 90 9a f1 3d
       -0.37181485 -0.074735254 -0.098610766 0.117970586

model.param_proj.proj.1.weight f4 [1, 40]
000000 2a c3 bf 3d 0e 34 13 3e 4a 83 10 3e ea a5 01 3e
       0.093633965 0.14375326 0.14112583 0.12660947
000010 ba c4 0d 3d 59 62 e0 3d a1 ed fb bc 73 8a 78 bd
       0.03461144 0.10956258 -0.030752959 -0.06067891
000020 01 04 0f be df 33 a9 bd 83 37 d7 3c 33 cb de 3d
       -0.13966371 -0.08261847 0.026271587 0.10878601
000030 d7 a1 18 bd 9a 22 12 be 98 e8 a4 bc a1 9e b9 bd
       -0.037263718 -0.14271012 -0.02013044 -0.09063459
000040 43 78 07 3e f0 8b 0e be dd 57 fb bd 84 b5 44 3e
       0.1322947 -0.1392057 -0.12272618 0.19209868
000050 95 09 11 3d 31 f5 7a 3d c5 f4 53 3d 46 73 21 3c
       0.03540953 0.06126899 0.051747102 0.0098541435
000060 f8 5b 96 3d 7e 70 bc bd 7c b8 56 3b 4c 4b c4 bd
       0.073417604 -0.09201144 0.003276377 -0.09584674
000070 7b 60 fc bd f3 2d 41 bc 73 ca 36 3d a6 27 1d bd
       -0.1232309 -0.01179074 0.044626664 -0.03836789
000080 fb 0d e6 3d 71 68 cd 3d 38 62 04 be 17 66 a0 bd
       0.11233135 0.10029686 -0.12928092 -0.07831972
000090 14 14 82 bd 3d 72 d7 bd 31 c4 00 3e 13 24 fc 3d
       -0.06351486 -0.10519836 0.12574841 0.12311568

model.param_proj.proj.2.weight f4 [1, 40]
000000 8e bc 53 be f9 ed 28 bd 3c e0 1b 3d 16 43 c3 bc
       -0.20677397 -0.041242573 0.038055643 -0.0238357
000010 7c 6a e4 3d 8f dc 07 3e 6c a1 63 3e 97 9a 95 bd
       0.11153123 0.1326773 0.22229546 -0.07304876
000020 5b 36 ed 3d 1a d7 09 3e 30 73 f0 3d cd 46 28 be
       0.11582633 0.13460961 0.1174072 -0.16433258
000030 89 57 33 be 75 ee 5c 3d e1 44 24 3e d5 9e 5a 3e
       -0.17513861 0.053938348 0.160419 0.21349652
000040 39 c2 49 be d9 f4 eb 3c 0c db a6 bd f5 2d b7 3d
       -0.19702996 0.028803276 -0.081472486 0.089443125
000050 69 d1 4c be 02 a8 61 be f9 75 a6 3d d5 69 14 3e
       -0.20001759 -0.22036746 0.0812797 0.14493497
000060 02 a2 5d be ce 15 08 3e ce 4d 09 3e bc 5b 03 3e
       -0.21643832 0.13289568 0.13408586 0.12827963
000070 81 56 ca bd 6e 08 ad bd 26 3d 19 bd 1b a4 21 be
       -0.098797806 -0.084488735 -0.03741183 -0.15785258
000080 19 19 4b 3d 40 6c a0 bd 03 be 61 bd fb 05 dd bc
       0.049584482 -0.07833147 -0.05511285 -0.02698039
000090 bc eb 46 3d ea c9 25 3e c1 e4 19 3d 71 fd 24 3d
       0.048564658 0.16190305 0.037571672 0.040280763

model.rnn.weight_ih_l0 f4 [160, 21]
000000 bf cc b7 bd bd 06 a1 3d 1f 10 8e bb 6d af 10 be
       -0.08974599 0.07862613 -0.004335418 -0.1412942
000010 18 7c 1b be 79 86 0c be ec cf 2e 3e 90 66 bf ba
       -0.15184057 -0.13723172 0.17071503 -0.001460271
000020 34 97 07 be f8 80 b0 bd 68 05 03 3d c9 bc 0c be
       -0.13241273 -0.08618349 0.031987578 -0.13743891
000030 ba 30 b8 bd 4c b1 91 3d 06 0c 9f 3d af 91 a2 bd
       -0.08993669 0.07113895 0.07765965 -0.07937943
000040 75 16 b6 bd e9 ba 9e 3d 9c dd e0 bd 3e e8 65 be
       -0.08891002 0.07750494 -0.10979769 -0.22451875
000050 9e 41 ca bd 5d 94 20 3e 7e 0f e7 3d e6 b7 02 3e
       -0.09875797 0.15681596 0.11282252 0.12765464
000060 a4 0f 4d 3e 1f 11 7d 3e 39 6e 3c 3e d4 bd f4 3d
       0.20025498 0.24713562 0.18401422 0.11950269
000070 e5 86 11 3d 7e cb 36 3e 16 f0 93 bd 92 f4 73 bc
       0.035529036 0.17851064 -0.07223527 -0.014889853
000080 6d f4 41 3e 51 ac 05 bd b0 37 30 bd b9 62 7e 3a
       0.18940897 -0.032635037 -0.043021858 0.0009704042
000090 7f 78 a0 bd 03 72 63 be 7f 15 07 bd 8b 1b 40 bd
       -0.07835483 -0.22211461 -0.032979485 -0.046901267
0000a0 53 96 89 3d 5b ca 34 3e 4b 9d 4d 3e b4 aa 4d 3e
       0.06718125 0.17655317 0.20079534 0.2008465
0000b0 ae 72 32 3e 70 96 fb 3d c8 2a f8 3c ad 18 50 bd
       0.1742656 0.12284553 0.030293837 -0.050804783
0000c0 1a 4f 14 3d 09 f2 10 3e 07 ae 12 3e 07 18 c0 3d
       0.03620825 0.14154829 0.14324199 0.09379583
0000d0 30 2e 23 3e 69 51 44 3e c1 b2 dd 3d 6e 5d d3 3b
       0.15935588 0.1917168 0.1082511 0.0064503467
0000e0 20 fa 82 bd 76 12 3d 3e 66 29 61 be e0 7d 8e bc
       -0.06395364 0.18464074 -0.21988449 -0.017394006
0000f0 b4 63 40 3e 97 05 a1 bd d0 2e 5a 3e 72 79 60 bd
       0.18788034 -0.07862394 0.2130692 -0.05480332
000100 08 fe 0f 3e b0 df e6 3d 1b cf 46 bd 01 51 e3 3d
       0.14061749 0.11273134 -0.048537355 0.11099435
000110 b2 94 b7 bd 9a 09 0b bd 3d 12 ee bd b7 b4 ff 3d
       -0.08963908 -0.033944704 -0.116245724 0.124856405
000120 0f c0 b0 3d 5d 8c be 3b d2 99 3c 3e a8 7b 1f 3e
       0.08630382 0.0058150725 0.18418053 0.15574515
000130 94 6b a8 3c bc 56 53 3c ab af f5 bc 40 42 17 be
       0.02055911 0.012899097 -0.029990992 -0.14771366
000140 e2 54 e5 bd bf 98 38 3e a2 74 07 bd 0d 3a 3a bd
       -0.11197831 0.18027018 -0.033070214 -0.045465518
000150 a3 94 23 3e 8c ee 0e 3e 2b 3e c0 3d 1f b2 51 3c
       0.15974669 0.13958186 0.093868576 0.012798815
000160 6e 11 a4 3d 2a 42 0f bd 57 f9 20 3c 07 46 f2 bc
       0.08011137 -0.03497521 0.009825072 -0.029574407
000170 82 c1 56 bd 07 dd 62 3e 2a 16 13 3e c3 c6 b5 3d
       -0.052430637 0.22154628 0.14363924 0.088758014
000180 d5 e6 06 3e 44 37 8d bc 34 b9 a9 3d 64 72 f7 bc
       0.13173993 -0.017238267 0.08287278 -0.030205913
000190 57 2a 43 bd 55 ff 73 bd 45 d4 46 bd b5 18 4e 3e
       -0.0476478 -0.059569675 -0.04854228 0.20126612
0001a0 fd 30 42 bd 71 ed 0c 3e 4d fa 90 3d 62 9d 0e 3e
       -0.04741 0.13762452 0.07078991 0.13927224
0001b0 00 70 4c bd f6 55 e6 bb 38 76 bd 3c 59 f2 f2 3c
       -0.0499115 -0.0070292903 0.02312766 0.029656576
0001c0 a1 d4 fb 3d 50 d8 40 bd 82 be 0c 3d 62 52 70 bd
       0.12296415 -0.04708129 0.03436137 -0.058672316
0001d0 f1 e7 d4 39 1b 8a b0 3d 31 5d f5 3d d8 03 7c bc
       0.000406086 0.086200915 0.119806655 -0.015381776
0001e0 70 04 01 3e 41 94 2b be f7 c9 f6 3d 61 4d 00 3e
       0.12599349 -0.16755773 0.120502405 0.12529518
0001f0 45 08 ee 3d 89 b1 13 3e 72 22 35 3e f6 e7 64 3e
       0.11622671 0.14423193 0.17688921 0.22354111
000200 70 54 08 3d 29 64 46 3e 27 94 6e 3e 55 51 61 3e
       0.03328365 0.19374146 0.23298703 0.22003682
000210 fe e1 49 3e 61 6d 87 3d 8c cf 9a 3e 7a 98 3f 3d
       0.19715115 0.06612659 0.3023647 0.046776272
000220 48 d9 cf 3d 29 b3 2c 3e ac 2f c9 3d 3a ed 3d bd
       0.10148865 0.16865219 0.09823546 -0.046368815
000230 d7 7b fa 3d 15 81 fe 3d 4d 13 cf bd 1c 73 cd 3d
       0.12230652 0.12426964 -0.10111103 0.10031721
000240 e6 66 d1 3d 53 55 11 be 11 c6 5f 3e c7 d0 50 3e
       0.102247044 -0.14192705 0.218529 0.20392142
000250 8f 55 22 bd 60 b5 40 bd ee 82 14 3e 4f d7 39 3e
       -0.039632376 -0.047047973 0.1450307 0.1814854
000260 df d4 d6 3d b0 7a 5e bd 9c d3 8d 3c 13 26 a0 bd
       0.10489821 -0.054316223 0.017312817 -0.07819762
000270 cc a1 eb 3c 21 a0 03 bc 62 fb 9c 3d da ba 04 be
       0.028763674 -0.008033783 0.07665135 -0.12961903
000280 86 50 26 bd da a6 e2 3d 0d 45 87 bc 17 75 66 bd
       -0.040604137 0.11066981 -0.016512418 -0.05626401
000290 73 4f 9c 3d 8d 10 c3 3d d5 5d 01 bd a7 16 64 3d
       0.07632341 0.09524641 -0.031583626 0.055685665
0002a0 16 4c 0f be 70 0b 99 bd c6 fd a2 bd c4 c3 b3 bd
       -0.13993868 -0.07472885 -0.0795856 -0.08777574
0002b0 0f f0 2e 3e 57 d8 19 3e 28 f3 6b bc dc f2 12 3d
       0.17083763 0.15023933 -0.014401235 0.03587614
0002c0 10 78 9a 3d 85 32 77 bd 34 58 c4 bd c4 88 b5 3d
       0.07542431 -0.060350914 -0.09587136 0.088639766
0002d0 55 1d 4d 3d cd 2f 95 3d ff 02 bd bd 0f ac 12 be
       0.0500768 0.07284508 -0.09229087 -0.14323448
0002e0 60 9f 9f bc d9 8f 71 3d a3 59 70 bd ea b3 d9 3d
       -0.019485176 0.058975074 -0.058679234 0.10630019
0002f0 8f 97 be bd d8 c4 dc 3d 92 38 65 bd fd 29 2b 3d
       -0.09306251 0.107797325 -0.055962153 0.04178809
000300 13 cc 58 3d 1a 70 24 3e f4 4b ac bd 6b 24 c0 bb
       0.052928995 0.16058388 -0.084129244 -0.0058637164
000310 b2 44 2f 3e 33 92 10 bd 8f 3e 06 3e 10 b0 87 3c
       0.17116049 -0.035295676 0.13109802 0.016563445
000320 86 44 df 3b 2b 94 d8 3c 7c 8e 72 3e 37 09 3a 3e
       0.0068135886 0.02643784 0.23687166 0.18167578
000330 2d b5 d6 3d 93 b0 15 bd 35 f6 cc bd 2d d0 dc 3d
       0.10483775 -0.036545347 -0.10007898 0.10781894
000340 7b 13 46 be 58 b8 5a bc 30 8a 93 3d bc d9 ea 3d
       -0.19343369 -0.013349615 0.072040915 0.11467311
000350 3f 9f 35 3e b5 d2 63 bd 56 f0 24 3e 17 e0 e3 3d
       0.17736529 -0.055620868 0.16107306 0.11126726
000360 6b dd ff 3d 93 45 2a 3e c3 74 90 bd 21 d9 7b bd
       0.12493404 0.16628103 -0.070535205 -0.061486367
000370 8b 22 03 3e 28 d8 73 3e c5 d6 98 3d 44 93 66 3e
       0.12806146 0.23812926 0.07462839 0.22517115
000380 66 5b 17 3e 9f 99 56 3e f4 f3 94 be 34 3d 25 3d
       0.1478096 0.2095704 -0.2909237 0.04034157
000390 ba aa 8e 3d dd aa 2e be f8 be 4c 3e 5b 68 81 3e
       0.06966157 -0.17057367 0.19994724 0.2527493
0003a0 4e 54 8d 3e 01 d4 38 3e 4f 52 6e 3e e3 87 f6 3d
       0.27603382 0.18049623 0.23273586 0.12037637
0003b0 9f fb b9 3c c1 4e 50 3e ad 3a 69 3d d9 43 5a 3e
       0.02270299 0.20342542 0.056940723 0.21314944
0003c0 04 ef 25 3e 09 5d 14 3d d1 94 37 3d f7 98 12 3e
       0.16204458 0.036221538 0.044819657 0.14316164
0003d0 e2 41 de 3d 7d 28 61 3e 47 e6 3b 3d 19 25 67 bd
       0.1085241 0.21988101 0.045873906 -0.056431863
0003e0 58 76 de 3d 61 ff c0 3b 27 28 fe 3d 52 53 c5 3d
       0.10862416 0.0058898185 0.12410002 0.09635033
0003f0 e7 fd 60 3d 56 68 85 3c 59 ad 33 bd 8c f5 be 3b
       0.05492964 0.016285103 -0.04386649 0.0058276113

model.rnn.weight_hh_l0 f4 [160, 40]
000000 3d 68 60 bb 02 31 14 3e a0 bc 04 be 6b 70 0b 3e
       -0.0034241818 0.1447182 -0.1296258 0.13617103
000010 0a c1 bd bc 3f 0b 9e 3d 2a a2 72 3d 41 e0 8b 3d
       -0.023163337 0.07716989 0.059236683 0.068298824
000020 da 62 d4 3d 30 5e b1 3c 59 69 f3 3d a4 1a a3 3d
       0.10370417 0.021651357 0.11885328 0.07964066
000030 62 5d 3a bd ad 61 e9 bd 4f 93 0e be 8d 1d b5 bd
       -0.045499213 -0.11395583 -0.13923381 -0.08843527
000040 b8 12 f5 bc 02 f1 19 bd 94 42 e5 bd c9 5b 80 bd
       -0.029916152 -0.03758336 -0.111943394 -0.06267507
000050 50 52 08 3e 46 48 18 3e 90 48 67 3d da 6f 8f 3d
       0.1331265 0.1487132 0.056465685 0.07003756
000060 90 26 61 be 2b 67 85 bc 72 e7 7a bd 0b 98 6d be
       -0.21987367 -0.016284546 -0.06125588 -0.23202531
000070 12 4b f8 3d 28 4b f3 3d bd 52 04 3e 68 38 e5 3d
       0.121236935 0.11879569 0.12922187 0.11192399
000080 4e bc d7 3d 15 97 07 3c 07 11 12 3e 08 04 53 3d
       0.10533963 0.008275767 0.14264308 0.051517516
000090 26 ca f7 bd 4a d7 e9 ba 2e 44 61 3d d5 1a af bc
       -0.12099104 -0.001784065 0.05499666 -0.0213751
0000a0 14 e0 19 be 1b ba b9 3a d3 e2 ed bd ed 3a d1 bd
       -0.15026885 0.0014169844 -0.11615529 -0.10216317
0000b0 18 63 38 bd 3c 80 d3 3d fc 20 2d be e5 2c 04 be
       -0.04501638 0.10327193 -0.16907114 -0.12907751
0000c0 b2 a7 34 bb 38 32 1e bb 7f 93 d1 3c 9c 04 17 3d
       -0.0027565775 -0.002413882 0.025583027 0.03686963
0000d0 a9 18 14 3e df cf ba bc af d2 98 bd 1a 83 bb bd
       0.14462532 -0.022804199 -0.0746206 -0.09155865
0000e0 28 ad ee 3d c7 eb a3 3d e3 bb 22 be 2b b5 c3 3d
       0.11654121 0.08003955 -0.15891986 0.095560394
0000f0 67 65 9a 3c 6c f9 1f 3e ab 2f 0d 3d 77 cb ba bd
       0.01884718 0.1562249 0.034469288 -0.09120839
000100 60 fd f0 3d be d1 de bd f9 29 83 3d 55 60 95 3d
       0.117670774 -0.10879849 0.0640449 0.072937645
000110 3f 69 a9 bc 0f bf a8 3c 21 63 e3 3c cc 34 d1 bd
       -0.020680068 0.020598916 0.02775723 -0.10215148
000120 b2 5e b6 bd a9 45 12 3d 81 78 70 3d de 77 97 bd
       -0.089047804 0.035710964 0.05870867 -0.0739591
000130 c8 ed 44 bd 60 92 52 bd 6d 97 cc 3d b1 7a 81 3d
       -0.04807833 -0.051409125 0.0998982 0.0632223
000140 7c 18 6f bb 6f 2f 3a ba 44 75 26 3e 76 41 cd bc
       -0.00364831 -0.0007102405 0.16255671 -0.025055628
000150 f8 26 f1 bb ff 53 20 bd c0 e3 99 bd fc 6b af bd
       -0.0073593818 -0.039142605 -0.07514143 -0.08565518
000160 8c b4 8e 3b 47 d3 3a be fe e5 ea 3d d4 32 07 3d
       0.004355019 -0.18244658 0.11469649 0.033007458
000170 be 5b 0f bd 2d 98 1b 3e ed 72 3b 3d a2 ce f8 3d
       -0.0349996 0.15194769 0.0457639 0.12148787
000180 2e 29 00 be a3 f2 b9 bd dd 4f b7 bd e1 0f 69 bc
       -0.12515709 -0.090794824 -0.089507796 -0.014224977
000190 77 93 38 3e dd 14 fd 3c 3b 07 18 3c a0 89 01 bd
       0.18025003 0.030893737 0.009279068 -0.03162539
0001a0 a7 3b 65 bd 45 f2 d6 bd 17 c8 90 3c c7 12 cd bc
       -0.055965092 -0.10495428 0.017673535 -0.025033368
0001b0 8e 5f 1e 3d 77 8f e4 bb 8b c8 08 bd bc 9a 1a be
       0.038665347 -0.00697511 -0.033394378 -0.15098089
0001c0 53 40 f0 bd 7f 3f fa bd 25 8b 72 3d 64 74 1f be
       -0.11731019 -0.12219142 0.05921473 -0.15571743
0001d0 5b 35 5d bb a7 11 14 3d 2f f3 26 3e 81 f2 9d bd
       -0.0033753726 0.036149647 0.16303705 -0.077122696
0001e0 8d 50 09 3e 0d d9 14 be 76 d4 a5 bc 0b a5 87 bd
       0.13409634 -0.14535923 -0.02024291 -0.06623276
0001f0 ca 4a 50 3d cd f3 fa bd cb 09 8a bd 66 5f b7 bd
       0.050852574 -0.122535326 -0.06740149 -0.08953743
000200 8e 2b 05 3e 32 a1 e6 3d be 15 4c bd ee ad 79 3e
       0.13004896 0.11261214 -0.049825422 0.24382755
000210 2e a1 23 bd c7 da 22 bd 5a c5 aa bd c5 b3 d9 3d
       -0.039948635 -0.039759424 -0.08338423 0.106299914
000220 78 6d 2f bd a2 6a 19 be 9b 94 e9 bd 2c ca e1 bb
       -0.042829007 -0.14982083 -0.11405297 -0.006890556
000230 73 12 fa bd d8 70 aa bd 7b ce a6 3d 8f 61 bd 3d
       -0.1221055 -0.083223045 0.08144852 0.092471235
000240 7c c1 29 bc 67 c0 20 3e 28 d5 60 bd 8b 60 00 3e
       -0.010361072 0.15698396 -0.05489078 0.12536828
000250 91 9e 8b bd cc 5d c4 bd ac ca 93 3d 9b d9 07 3c
       -0.068173535 -0.09588203 0.07216391 0.008291627
000260 26 65 2e 3d 9e 38 0f 3e db bf b5 3c 57 5f 94 bd
       0.04257693 0.13986441 0.02218621 -0.07244747
000270 bf b3 07 bd b1 33 3f bd 47 ab ef bd 51 e7 e2 3b
       -0.033130404 -0.046680156 -0.117025904 0.0069245477
000280 36 66 2a be 38 0b 4a 3d 9c 8b c4 bb 4b 93 67 bd
       -0.16640553 0.049327105 -0.005998088 -0.056536954
000290 33 6e e0 3d b5 19 42 3e 4e aa 34 3d 94 22 83 bd
       0.10958519 0.18955119 0.044107728 -0.0640308
0002a0 5f 80 ce 3c 78 b9 27 bd eb b7 e5 3d 7d ac 54 bd
       0.025207696 -0.04094836 0.1121672 -0.05192231
0002b0 9e 0a 61 3d 19 6e 0f 3e 81 5e 16 be a1 cf b0 3d
       0.054941766 0.14006843 -0.14684488 0.08633352
0002c0 1f b6 c2 bd 43 e4 b8 bd 1f d9 b5 bd ce 00 ce bd
       -0.09507393 -0.090279125 -0.08879303 -0.10058747
0002d0 05 8e dc bb a3 dd 57 3e 54 a9 3b 3d 22 80 0d be
       -0.0067307972 0.21080641 0.04581578 -0.1381841
0002e0 85 1e 76 bd 16 f3 28 3d ef 5a 0d 3d 5c ca 05 3c
       -0.0600877 0.04124745 0.03451055 0.008165922
0002f0 c9 cb 51 3e 47 e6 8f bd c5 58 f2 3d 80 d4 29 be
       0.20487894 -0.07026344 0.11833338 -0.16584969
000300 0d 74 5b bd 83 6a ee bd 77 54 0f 3e 41 7d 3f be
       -0.05357747 -0.11641409 0.13997065 -0.18700124
000310 28 37 8b bc 10 9b 14 3e 77 20 d4 3d 8a d5 fa ba
       -0.016994074 0.14512277 0.10357755 -0.0019137126
000320 19 61 0b bd fc 83 f8 bd ba aa 93 bd 97 7a 12 3d
       -0.034028146 -0.12134549 -0.07210298 0.035761442
000330 f4 85 80 3c e7 35 2c 3e ab 1b b8 bd 29 72 ed bc
       0.015688874 0.16817437 -0.08989652 -0.0289851
000340 d9 7f 15 3d 9e 1a 90 3b 06 3e 28 3c 4a 66 e5 bd
       0.03649888 0.0043977043 0.010268694 -0.11201151
000350 a9 fb 46 3e 37 a6 6b bd 3f 30 c5 3d 34 d3 53 bc
       0.19431938 -0.05753156 0.09628343 -0.012928773
000360 db dd 11 3e dc 9f 3a 3d 90 a5 90 bd 70 61 39 bd
       0.14244787 0.04556261 -0.070628285 -0.04525894
000370 28 7d 85 3d 7b 51 b6 3d 43 cf 75 bd 58 ec 0a be
       0.06518012 0.0890226 -0.060012113 -0.1356672
000380 e7 c5 1e 3e fb 0f 96 bd ee 5c 8a bd 11 cc 9d 3d
       0.15505181 -0.07327267 -0.06756006 0.07704938
000390 13 07 2d bd 9f bc ff 3d f9 02 43 3d 7c 1a 68 bd
       -0.042243075 0.124871485 0.047610257 -0.056665882
0003a0 41 ef 03 3e d1 7e ef 3d f8 88 24 3d d4 39 d6 3c
       0.12884237 0.1169411 0.040169686 0.026150621
0003b0 11 f1 4c 3c 6d e7 75 3c a6 7c ea bd a5 a9 7e 3d
       0.012508647 0.0150087895 -0.11449556 0.062173504
0003c0 dd b4 69 be ab 73 53 3e d9 2e 6d 3c 7f 5e 69 be
       -0.228229 0.20649593 0.014476501 -0.22789954
0003d0 b5 db 69 bd 8b ac 6a 3d df f2 d1 bd 76 e0 52 3d
       -0.057094295 0.057293456 -0.10251402 0.051483594
0003e0 3d 85 d9 3d 06 f2 9e bd e7 80 ac 3d 65 91 aa 3d
       0.10621116 -0.07761006 0.08423024 0.08328513
0003f0 ba ba 69 3e 3a 24 2a 3d 82 82 08 3d 66 dd 24 3e
       0.22825137 0.041538455 0.033327587 0.16100082

model.rnn.bias_ih_l0 f4 [160]
000000 56 e8 ba bd cf 83 24 3e 2c fb 38 3e a2 2d ff bc
       -0.09126346 0.16065906 0.18064564 -0.03114969
000010 71 be 0c 3e e2 d5 07 3e 40 83 43 3e 07 1f 87 bd
       0.13744523 0.13265184 0.19093037 -0.06597715
000020 f8 2d 08 3e 97 97 4c 3d 32 d9 8d 3e 4b dc ea 3d
       0.13298786 0.049949255 0.2770477 0.11467799
000030 b2 5c 76 bd 90 20 13 3e 7e ad bd 3b 0b 2f 04 3e
       -0.060146995 0.1436789 0.005788504 0.1290857
000040 af e1 90 3e 55 00 c0 3d d2 de 21 3e b4 e0 ca 3b
       0.28297183 0.09375063 0.15807655 0.0061913375
000050 2b c9 0b 3e 19 cf c8 bc b9 b8 fb 3d a4 28 5a 3e
       0.13650958 -0.024512814 0.122910924 0.21304566
000060 a0 6b fd bc 02 c3 bc 3d d5 15 03 3e 50 34 03 3e
       -0.030935109 0.09216882 0.12801297 0.12812924
000070 18 13 57 3e cc fd 9a 3d a9 e0 97 3d 0f aa b1 bd
       0.21003377 0.07567939 0.074158974 -0.08675014
000080 a0 59 ca 3d 78 c1 2a bd c6 46 72 3e 1c 57 ff 3d
       0.09880376 -0.041688412 0.2365981 0.12467787
000090 cc a5 bb 3d 39 24 6c 3e 2e 6f 37 3d 71 73 05 3e
       0.091624826 0.23060693 0.044783764 0.13032319
0000a0 7b 01 b9 bc f0 0e 71 3d b0 30 1c 3e e2 81 c7 3c
       -0.022583714 0.058852136 0.15252948 0.024353925
0000b0 be 6e 23 3e 17 50 05 be 59 a8 0e 3e a5 39 a2 bd
       0.15960214 -0.13018833 0.13931407 -0.07921151
0000c0 2a b6 15 3e da f7 17 3e a7 be ce bc a9 d9 bd bd
       0.14620271 0.14840642 -0.025237394 -0.09270031
0000d0 46 b0 44 3d 9d 5b 04 bd 14 f9 9e 3d 52 30 09 3e
       0.04801967 -0.03231393 0.07762352 0.13397339
0000e0 99 1d f1 3b 13 bd 40 bd c2 70 87 bd e6 e6 bb bc
       0.0073582646 -0.047055315 -0.06613304 -0.02293725
0000f0 77 b6 cf 3d 14 05 f3 3d 5c 6c d0 bd a6 ce c8 3d
       0.10142224 0.11866203 -0.10176918 0.0980504
000100 db cf 06 be c3 0d 4b bd a9 94 d0 bc e8 59 a1 bd
       -0.13165228 -0.04957367 -0.025461512 -0.078784764
000110 5b 07 4b bd de 9a 44 b9 31 6a ac bd 22 df eb 3d
       -0.04956756 -0.00018749709 -0.08418692 0.115171686
000120 f3 5c 0c bd 30 28 dc bd ce 73 a6 bd 8e 17 3f bd
       -0.03426833 -0.10749853 -0.08127557 -0.046653323
000130 ed 59 3a be 75 14 ac ba d2 25 05 be c0 01 cf 3d
       -0.18198366 -0.0013128655 -0.13002709 0.10107756
000140 dd a9 00 be cc 8e 2a 3e bc b1 17 bc ac ef 3b bc
       -0.12564798 0.16656035 -0.009258684 -0.011470716
000150 17 46 ea bc 39 2a 34 3d 51 70 cf bd a5 c0 0e bd
       -0.028597875 0.04398558 -0.101288445 -0.03485169
000160 c9 66 7d bc b8 d8 40 be 5b 32 bf 3d 3c cd d1 3d
       -0.0154664 -0.18832672 0.093357764 0.102442235
000170 ca d7 33 bc 32 1d 5c bd f5 20 5d be 8d 48 59 bd
       -0.010976741 -0.05373878 -0.21594603 -0.053047705
000180 19 96 68 3d ae 65 a7 3c fd 5b bf 3d ec ff bc 3c
       0.05678377 0.020434227 0.09343717 0.023071252
000190 e2 00 1c 3e ee d8 55 bd e4 9e b4 ba bb 62 a0 bd
       0.15234712 -0.052208833 -0.0013780263 -0.07831331
0001a0 e7 cf 0f be 29 54 a0 3d 62 91 31 3e b6 2b ed 3c
       -0.14044152 0.07828552 0.17340615 0.028951507
0001b0 d7 44 e9 3d d7 91 0a 3d 7a a3 3d 3e a0 f1 8c 3d
       0.11390083 0.03383049 0.18519393 0.06882024
0001c0 d5 b6 00 be bc a7 4c be 25 44 19 3e 88 51 14 be
       -0.12569745 -0.1998586 0.14967401 -0.14484227
0001d0 0e df 59 be 09 c6 2a bc 12 51 3d 3e 07 97 4c 3e
       -0.21276495 -0.010423192 0.18487957 0.19979487
0001e0 3e 8a ad bd bc dc 5a 3c 57 bd 7b 3d ab 8e 06 3c
       -0.08473633 0.013358291 0.061459865 0.008212726
0001f0 35 45 33 3e 49 a2 50 3c 1b 3b 34 3e bc f2 0e be
       0.17506869 0.012734004 0.17600672 -0.13959783
000200 9c e3 3f bd c1 58 54 3d 00 d3 f3 3d 60 81 26 3e
       -0.046847925 0.051842455 0.119054794 0.1626029
000210 da 03 d3 3c 5e da 26 3e 6c 9c 06 be 97 77 0a 3e
       0.025758673 0.16294238 -0.13145608 0.13522182
000220 c9 a0 53 bc 01 1c aa bd 02 03 34 3e 1c 31 90 3c
       -0.012916752 -0.083061226 0.17579272 0.017601542
000230 c5 6f 4b bd d7 1c c8 3d 55 43 e8 3d da 3a 24 3e
       -0.04966714 0.09771126 0.113409676 0.16038075
000240 4a 06 42 be b4 4d fd bc 64 6c 6a bd ee b1 23 3e
       -0.18947712 -0.03092084 -0.057232276 0.15985844
000250 47 43 1e 3d b3 bd a8 bd 8e fa 55 3d fa 06 6c bd
       0.03863838 -0.08239307 0.0522409 -0.05762384
000260 ff 73 02 bd 39 24 64 3d 91 40 0c 3e 3b fa 03 be
       -0.031848904 0.055698607 0.13696505 -0.12888424
000270 6d 0e c0 bc f4 92 66 bd 0b 50 10 bd 87 64 b7 3b
       -0.023444379 -0.05629249 -0.035232585 0.0055967006

model.rnn.bias_hh_l0 f4 [160]
000000 de c8 d6 bc 4a e0 ca 3b 9b 5a 20 bc 80 b4 0b 3e
       -0.026218828 0.006191288 -0.009787227 0.13643074
000010 d6 77 57 3d 75 53 83 3d 38 24 53 bc 47 aa b1 b9
       0.05260452 0.064124025 -0.012887053 -0.00033886937
000020 98 de b9 bd fe b5 89 3d 38 c7 88 3e b0 29 13 3e
       -0.090756595 0.067241654 0.26714492 0.14371371
000030 b9 1b 28 3d 75 bf 37 bc 92 19 a2 3d b6 51 86 bd
       0.041042063 -0.0112150805 0.079150334 -0.06558554
000040 71 fa 18 3e c3 b2 e3 bc 58 4e 1b 3e 78 ff 10 3e
       0.14939286 -0.027795201 0.15166605 0.14159954
000050 f2 7c 83 bd e5 82 55 3e f0 db 7d 3d d6 d9 08 3e
       -0.06420316 0.20850714 0.061977327 0.13364348
000060 fe fb 87 bd 1b d4 53 3b 3c 31 9b 3d 94 e6 86 3d
       -0.066398606 0.003232247 0.0757775 0.06586948
000070 fc de b1 3b 7f 60 aa 3d 44 ec 86 bd cd af 14 3e
       0.005428193 0.083191864 -0.06588033 0.14520188
000080 70 20 a5 bd db ce 1e bd 1b 2a c0 3b e7 ee cb 3d
       -0.080628276 -0.03877149 0.0058643944 0.099576764
000090 95 23 b4 3d d6 28 2f 3e 4b 0c d9 3d 48 0c fe 3d
       0.08795849 0.17105421 0.10598048 0.12404686
0000a0 33 b2 02 3e 67 3f 22 bd 7c 24 7c bd 42 b1 fa bd
       0.1276329 -0.039611246 -0.06155823 -0.122408405
0000b0 19 da 60 bd 23 68 5f bd 57 42 e8 3d 1c e0 d0 bd
       -0.054895494 -0.054542672 0.11340778 -0.101989955
0000c0 8f 80 06 be 84 53 ee bd 27 32 ad bd f3 0d ee bd
       -0.13134979 -0.11637023 -0.084568314 -0.11623754
0000d0 87 cf 2a 3d 7d c2 a4 3d 54 84 21 be ea 83 d7 3d
       0.04170182 0.08044908 -0.15773135 0.105232075
0000e0 43 88 17 3e bc 6b 33 3c c9 cc 92 3c 85 a0 3c bd
       0.14798073 0.010950979 0.017919915 -0.04605152
0000f0 aa 41 10 be 68 e0 b5 3d b8 de 94 3d dc 9d 0f 3e
       -0.14087549 0.08880693 0.07269043 0.14025062
000100 a4 a6 c1 bd 53 e6 0d be c5 3d 43 3e 5b e4 37 3d
       -0.09455612 -0.13857393 0.19066532 0.04489551
000110 2d 82 2c 3d d2 14 a1 3d 2e a8 e9 3d 29 ff e0 bd
       0.042116333 0.07865299 0.11409031 -0.10986168
000120 69 47 f0 3c 0f 0c ac 3d 5b 18 e1 bd a7 f4 0b 3e
       0.029330926 0.084007375 -0.109909736 0.13667546
000130 c2 d6 a7 3d aa 43 f5 3d c8 a1 a1 3c 10 b7 1a 3d
       0.08195259 0.119757965 0.019730464 0.03777224
000140 73 02 1d be 54 d1 ef 3d 72 c8 d0 3d af 2d 17 bd
       -0.15332966 0.11709848 0.10194482 -0.0369088
000150 c1 11 b4 3d 25 b7 45 3e f7 4a 5c 3d f6 86 bf bd
       0.08792449 0.19308145 0.05378243 -0.09351914
000160 5d a2 dc 3c d9 4b c7 3d 44 ac 33 3e 46 a0 ef bb
       0.02693289 0.09731264 0.17546183 -0.0073128073
000170 5b c6 80 bd d8 93 f8 bb eb 10 69 be 76 e8 30 3e
       -0.06287833 -0.0075859837 -0.2276036 0.17276177
000180 06 dc 5b be 9d e3 d1 bc bd dc b4 3d df 3d 9f 3d
       -0.21470651 -0.02562123 0.08831165 0.07775473
000190 33 41 4b 3e 96 46 9b bd 30 eb f3 3d d8 60 6d bd
       0.1984909 -0.075818226 0.11910093 -0.057953686
0001a0 7c 2b ae 3d ec b0 f9 bd 28 eb 3e 3e 46 f4 a2 bd
       0.08504388 -0.12191948 0.18644392 -0.07956748
0001b0 10 28 69 bd 08 6e 92 bd 15 c5 ac bc b2 72 d2 bd
       -0.056922972 -0.07149893 -0.02109007 -0.10275783
0001c0 71 fd 21 3d 5c 01 dc 3b f0 ce 2c 3e 07 0f e3 bd
       0.03954834 0.0067140292 0.16875815 -0.110868506
0001d0 8f 35 3e be e2 38 6b 3e 09 45 19 3e 12 7c 27 3d
       -0.18575118 0.22970918 0.14967741 0.040889807
0001e0 3b 8a b8 3d 06 73 d4 3d da 6f f5 3d 77 06 b2 bd
       0.0901074 0.103735015 0.119842246 -0.08692639
0001f0 af 74 b0 3c 1b db c1 3d d0 02 0a 3e 29 37 9c bd
       0.021540014 0.09465619 0.13477635 -0.076277085
000200 5c fc 16 3e 7a 58 ea ba 8e 16 ad 3d e5 03 90 3e
       0.14744705 -0.0017879151 0.084515676 0.2812797
000210 98 44 24 3e 08 48 60 3e 76 e3 98 bd 00 35 18 bd
       0.16041791 0.21902478 -0.0746526 -0.03715992
000220 b5 4c 63 bd 86 30 0b be 70 fd bb 3d e6 3f 35 3d
       -0.055493075 -0.13592729 0.09179199 0.04425039
000230 25 d4 10 3e 37 36 3a bd 0d 5c df 3d 18 6c e0 3d
       0.14143427 -0.04546186 0.10906229 0.10958117
000240 21 53 9f 3d 55 b5 40 bd 09 9d 69 3c e1 c0 fd bd
       0.077795275 -0.04704793 0.0142586315 -0.12390304
000250 e7 51 86 3d ac 35 14 3e 8f 79 c3 bd 5b 19 4f 3e
       0.065585904 0.14473599 -0.0954467 0.20224516
000260 89 c0 c0 bd f7 22 ee bd 3a f4 10 3a 3d e7 a2 bc
       -0.09411723 -0.11627763 0.00055295567 -0.019885654
000270 91 ca 74 3c f5 e7 aa 3b ba 75 fc bc 7b f5 1e bd
       0.014940874 0.0052156397 -0.030817855 -0.038808327

model.rnn.weight_ih_l1 f4 [160, 40]
000000 a9 dd 28 3d 82 2f 1b 3e 45 01 f2 3b 06 f9 57 be
       0.041227017 0.15154842 0.0073854052 -0.21091089
000010 67 56 be 3d a3 86 29 3c 94 8f 8d bc 59 98 d7 bd
       0.09293824 0.010347041 -0.017280377 -0.10527105
000020 58 5e dc 3c c0 40 87 3d 56 fe a9 3d b1 66 12 3e
       0.026900455 0.06604147 0.08300464 0.14296986
000030 f0 d4 72 bc 09 d5 c7 3c 10 98 71 bd 7e 6b 8f 3d
       -0.014821276 0.024393575 -0.05898291 0.070029244
000040 84 99 39 be 48 8b 2d 3e 5d 73 f2 bd fe 84 89 3d
       -0.18124968 0.16947663 -0.1183841 0.06714819
000050 d1 11 28 3e 26 b7 72 3d 0e 96 52 3d bc 83 58 be
       0.16413046 0.059256695 0.051412635 -0.21144003
000060 e7 1a a1 3d a7 b5 db 3d 6e 04 61 bc bb 92 ba bd
       0.07866459 0.10728007 -0.013733966 -0.09110018
000070 d5 c0 42 bc eb 60 8f 3b 49 f7 d2 3d 20 ce 2c be
       -0.011886795 0.004375567 0.10301072 -0.16875505
000080 18 3d c3 3d c8 3d b0 3d 59 82 3d 3e 72 0e d4 3b
       0.09533137 0.08605534 0.18506755 0.0064714486
000090 f0 98 56 be c3 c6 fe 3d f6 f2 51 3e e9 fa d1 3d
       -0.20956779 0.124402545 0.20502838 0.102529354
0000a0 66 07 88 3c 32 25 3c 3e 94 f9 19 3e 3b 13 82 bd
       0.01660509 0.18373564 0.15036613 -0.06351324
0000b0 47 5e 22 3e 29 73 09 3d fb c2 93 bd b8 e7 1d be
       0.15856276 0.03355709 -0.07214924 -0.15420425
0000c0 25 fb 25 3d 71 f8 67 3d b7 1d 2c 3e 69 2c f5 3d
       0.040522713 0.056633417 0.1680821 0.11971361
0000d0 a2 4b b5 3d e6 13 6b 3d fc 61 a5 bb e9 a7 8d bd
       0.088523164 0.057392024 -0.005047081 -0.06916792
0000e0 79 b2 a0 bd 84 c7 38 3c 1e 9a 6b bd 45 94 b8 3d
       -0.07846541 0.011278037 -0.057520024 0.09012655
0000f0 b0 d8 78 3e 27 68 80 3e 8b e0 fe 3c 3d 0d c3 bc
       0.2430141 0.25079462 0.03111293 -0.023810023
000100 1f e3 32 bd d9 85 a6 bc 08 51 37 bd ed c1 99 bd
       -0.04367363 -0.020327495 -0.04475501 -0.075076915
000110 23 db f4 3d 09 7e a9 3d d3 76 c0 3d ab 7c 55 be
       0.119558595 0.082759924 0.09397664 -0.20848338
000120 77 61 79 3d 3f 2a c7 bd a4 bc 5b 3e 96 91 05 be
       0.060883965 -0.09724855 0.2145868 -0.13043818
000130 8f 2d 58 be bc 20 e8 3d 2e d0 a7 3d b6 0b 84 3e
       -0.21111129 0.113343686 0.08194004 0.25790185
000140 54 c0 17 be 57 9c 0c be 6a 7c 10 3d a2 4f 07 bd
       -0.14819461 -0.13731514 0.0352749 -0.03303493
000150 6a 36 3a bd 03 66 9a bd 5b 49 d4 3c 82 90 04 3e
       -0.04546205 -0.075389884 0.025913885 0.1294575
000160 8c cd d5 3d 65 47 96 3d e5 01 21 be 7f ea e0 3d
       0.104395956 0.07337836 -0.15723379 0.109822266
000170 4c 38 dc 3c 01 1f 19 3e 03 85 b3 bc 13 44 0e 3e
       0.026882313 0.14953233 -0.02191401 0.13893156
000180 0b 4c f1 3d c2 ff f8 bd 10 26 1f be 73 8d 03 3e
       0.11782082 -0.12158157 -0.15541863 0.12846927
000190 91 a6 01 3e ea e1 80 bc d2 fa ba bd 5d 7f 0b be
       0.12661196 -0.015732724 -0.091298714 -0.13622804
0001a0 f0 46 8e 3e d4 52 8d 3d c5 7a da bd 80 da dd 3d
       0.27788496 0.06900564 -0.10667948 0.10832691
0001b0 ce 3f be 3d c3 ce c6 3d 17 d8 8e bd aa 1f d4 bd
       0.092895135 0.097074054 -0.069748096 -0.10357602
0001c0 4e 89 d8 bd 23 ac 2a be 57 4e eb 3d 46 b1 ef 3d
       -0.10573064 -0.16667227 0.114895515 0.11703734
0001d0 03 b8 2e 3d fa 65 fa bd 22 cb a9 3c 0e ba 9b bd
       0.042655956 -0.12226482 0.020726744 -0.076038465
0001e0 3e a9 65 3a 11 ff ee 3d 4a e2 59 3d 88 02 47 3d
       0.0008760876 0.11669744 0.05319432 0.0485864
0001f0 c2 9b dc 3d 77 60 b4 3d 87 2b 3a 3d 4a 87 ab 3d
       0.10771896 0.08807462 0.045451667 0.08375414
000200 17 09 2a 3e 67 64 3f bd 54 65 ea bd 50 9a 6b bc
       0.1660503 -0.04672661 -0.11445108 -0.014380053
000210 18 e7 9d bd 2f 8e 02 be 25 1e 09 be e7 62 27 3e
       -0.07710093 -0.12749551 -0.13390405 0.16346322
000220 ad 7e a1 3d ce 8d df bd 0d ae 04 3d 79 24 0e 3e
       0.078854896 -0.10915719 0.03239255 0.138811
000230 b8 52 22 bd 67 51 0b 3e 80 20 f8 3c 4f 51 11 be
       -0.039629668 0.13605271 0.030288935 -0.14191173
000240 c9 84 97 3e fe ee fe bd 15 e7 9d 3c fc b4 2e 3e
       0.29593495 -0.12447928 0.019275228 0.17061228
000250 b2 61 81 bc cc 78 42 3d 4a 93 ed bd 52 54 54 be
       -0.015793655 0.047478482 -0.11600359 -0.2073529
000260 81 07 1f bb 8c de 28 3d b0 b8 6d 3d a0 00 36 be
       -0.0024265947 0.041227862 0.05803746 -0.17773676
000270 52 51 90 3b b0 29 17 be 47 45 1e be 56 bd 59 bd
       0.0044042254 -0.14761996 -0.15456115 -0.05315908
000280 2b b8 ad bd b1 4c ad bd 8f 15 c1 bd 74 90 08 be
       -0.08482393 -0.08461893 -0.0942794 -0.13336354
000290 b4 97 98 3d 53 f3 15 be 93 0a 43 3e 65 1e a8 3d
       0.0745081 -0.14643602 0.19047002 0.08208922
0002a0 dc c3 04 3d 5f 76 f2 bd 42 94 9c bd 3b 80 16 be
       0.03241335 -0.11838984 -0.076454654 -0.14697354
0002b0 af 85 6e bd f9 44 f1 3c a7 86 09 3e d0 1c d0 bd
       -0.05823296 0.029451834 0.13430272 -0.101617455
0002c0 05 07 00 3d 3f d1 0d be 07 79 89 3d 33 ec 74 bd
       0.031256694 -0.13849352 0.06712537 -0.05979557
0002d0 c8 cf 0d be f6 d1 c1 bc fd 2d 87 3d d4 23 25 3e
       -0.13848794 -0.023659687 0.066005684 0.16126949
0002e0 4b 05 a1 bd d5 a5 11 bd 24 5b a0 3d 6f ed d7 3d
       -0.07862338 -0.03555854 0.07829884 0.10543334
0002f0 30 d8 82 3d 87 cd fc 3c 28 4b c2 3d 44 22 71 3c
       0.06388891 0.030859722 0.09486991 0.014717642
000300 8e 54 64 bb d0 97 df 3d 40 66 b1 bd 67 0b 02 bd
       -0.0034840438 0.10917628 -0.08662081 -0.031749155
000310 6f 3b 00 be 22 ec 97 3c 40 e8 00 3e 68 2d 90 3d
       -0.12522672 0.018545214 0.12588596 0.070399106
000320 c7 df 42 3c a7 7d 7c 3d 4b 53 a7 bd 5a 10 78 bd
       0.011894173 0.06164327 -0.08170184 -0.06056247
000330 ab 84 d2 3d 7f 5a 2c 3e 39 5b b2 3c c6 e2 1e bc
       0.10279211 0.16831397 0.021772014 -0.009697622
000340 51 35 2f 3e cb ae b9 3d 2d 6d 58 3c 31 f2 b4 bd
       0.17110182 0.09066542 0.013209623 -0.08835257
000350 f1 23 01 be 01 0f 9e 3d c3 29 bb 3d 53 4a f2 b9
       -0.12611367 0.077177055 0.09138825 -0.00046213213
000360 ef 4c 7e 3d 53 d5 11 3e 93 8e 4f bd c5 0b 10 3d
       0.06208509 0.14241533 -0.05067308 0.035167474
000370 4f d7 d4 3d ec ff 24 bd 26 b9 f8 3d 5d d8 b2 bc
       0.10392629 -0.04028313 0.12144689 -0.021831686
000380 71 43 7e 3c 7e 40 35 3c 5a 6b 10 3e c4 99 3b 3d
       0.015519009 0.011062739 0.14103451 0.04580094
000390 26 21 d0 3d bd 97 43 bd 9e cb 21 3e 4b 5d 62 bd
       0.101625726 -0.04775213 0.1580033 -0.055264752
0003a0 ef 34 92 bd cf 36 e5 bd 00 53 bf bc 08 d3 b0 3c
       -0.071390025 -0.111920945 -0.023355007 0.021585003
0003b0 be b5 87 3c d1 39 0e 3e 19 78 7a bd 1e 86 a6 3d
       0.016566154 0.13889243 -0.06114969 0.081310496
0003c0 86 c8 1d bd c9 40 d0 bb a8 14 e3 3d 4c 8a 1b bd
       -0.038521312 -0.0063553792 0.11087924 -0.037973687
0003d0 16 64 0e 3e 9b ec 16 3e 01 0e 0c bd ce 41 98 3d
       0.13905367 0.14738695 -0.034193043 0.07434426
0003e0 ad ec 13 3e 8a 4d 39 be 61 fd 54 3e 44 c8 c9 3d
       0.14445753 -0.18095985 0.20799781 0.09852651
0003f0 58 0c 84 bb 7a 96 8e 3b a6 78 2d be af 2d bc 3d
       -0.004029792 0.0043514343 -0.16940555 0.09188401

model.rnn.weight_hh_l1 f4 [160, 40]
000000 bf 61 3c 3e de d8 0d be 88 81 76 bd 6c b1 c1 bd
       0.18396662 -0.1385226 -0.060182124 -0.09457669
000010 b7 2d 59 bc fb a9 c6 ba 7c 48 36 be f0 98 c8 3d
       -0.013255528 -0.0015156859 -0.17801088 0.097947955
000020 30 7f 0d be 91 bc 54 be 76 a9 21 3e 1e 7b 7c bd
       -0.1381805 -0.20775057 0.157873 -0.06164085
000030 08 6b 04 be 1c 11 ab 3d bc 03 1d be 55 04 d2 bd
       -0.12931454 0.08352873 -0.15333456 -0.102547325
000040 0e c5 de 3c 03 9c 26 bd 85 fd 02 bd c6 7f e0 3d
       0.027193572 -0.040676128 -0.031980056 0.10961871
000050 ba 6d cb 3d 1e d1 2c 3e b4 c6 10 3e 79 0c d8 bd
       0.09933038 0.16876647 0.14138299 -0.10549254
000060 89 83 66 3b 1b fb b3 3c 48 0e b0 3c 6a 26 c2 3c
       0.0035173616 0.021970322 0.021491185 0.023699958
000070 5e 01 23 3e e5 c1 15 bd 64 e1 58 3d 0b ab bd bd
       0.1591849 -0.036561865 0.052949324 -0.092611395
000080 57 fb 12 3e 7a fb ba 3c 7f 11 7d 3d a2 00 09 be
       0.14353691 0.022824991 0.061784264 -0.13379148
000090 04 6c b6 3d 67 4f 8a bd 98 67 9f 3d 95 71 e2 bd
       0.08907321 -0.06753426 0.07783431 -0.1105682
0000a0 e3 44 c3 bd bf e0 94 bd 09 a7 b5 bd 90 04 73 bd
       -0.095346235 -0.072694294 -0.0886975 -0.059330523
0000b0 a0 14 0a 3e 46 7b 07 3e e0 d2 59 bc d7 98 13 3d
       0.1348443 0.13230619 -0.013294905 0.03603443
0000c0 43 1a fe bd 70 4e 21 bd 84 bb 13 3e 3b 0a 6e bc
       -0.12407353 -0.039381444 0.14427 -0.014528806
0000d0 08 d6 14 3e 05 fd 3a bd 59 79 ee 3d 21 9b 86 bd
       0.14534771 -0.045651454 0.11644239 -0.06572557
0000e0 26 12 ab 3d 8b 9e f9 3d db fe 83 bd e2 41 bd 3d
       0.08353071 0.12188443 -0.06445094 0.09241082
0000f0 db 5b a1 3b 91 b7 e2 3d 3b f1 bc bd 41 3f 06 be
       0.00492428 0.11070169 -0.092256986 -0.13110067
000100 b7 7a 80 bb a4 5e b3 3d 2a a1 1b be 6d d7 d6 3d
       -0.0039208787 0.08758286 -0.15198198 0.10490308
000110 a7 22 39 be d4 82 b8 3d 30 13 e1 3b 02 8f 15 be
       -0.18079625 0.090093285 0.0068687424 -0.14605334
000120 ad 54 89 3d 64 a2 a3 3d 98 42 7d 3d 24 dc e7 3d
       0.06705604 0.07989958 0.061831087 0.11321285
000130 f3 2d 9c bb 19 b0 39 3d 94 d3 d3 bd 30 9e 9e bc
       -0.0047662198 0.045333955 -0.1034309 -0.019362539
000140 04 e3 bb bd dc bd bf bd 38 35 d0 bc e4 66 a0 bd
       -0.09174159 -0.09362385 -0.025416002 -0.07832125
000150 e5 e9 0f 3e 0c bd b3 3d 60 e2 e2 3c d9 45 12 3e
       0.14054067 0.08776292 0.027695835 0.14284457
000160 03 f4 b0 3d 35 a9 14 3d 4d 0f 34 3e 91 a8 0a be
       0.086402915 0.03629418 0.17583962 -0.13540865
000170 03 26 e3 3d e9 4e b8 bd e9 df 70 3d 3d ae b7 bc
       0.110912345 -0.08999426 0.058807287 -0.02242195
000180 4f 9a 0e 3e ae 39 e6 3d 5c f6 e3 3d 4a 62 76 bd
       0.13926052 0.1124147 0.11130974 -0.06015233
000190 5f 66 53 bd fc bc 83 bd 96 8a 77 3c 59 1f a1 bc
       -0.0516113 -0.0643253 0.015108725 -0.019668268
0001a0 72 c0 44 3c d2 a3 55 3d d9 e9 37 be 85 5e 11 be
       0.012008773 0.052158184 -0.179603 -0.14196213
0001b0 7a 80 b6 3d b4 1e aa 3c 6a dc 1e be 3d 3e 40 3a
       0.08911224 0.020766594 -0.15513769 0.0007333493
0001c0 4b 21 88 bc 57 d2 08 be 04 f2 14 3e 28 a9 7a 3c
       -0.016617438 -0.13361488 0.14545447 0.015299119
0001d0 b1 5e 54 3d 61 81 93 bd e4 72 38 bd 4f f9 af bd
       0.051848117 -0.072024114 -0.045031443 -0.08592474
0001e0 9a cf 81 3d 0a 51 ab 3d 3e a3 a4 3d 06 97 9c bc
       0.06338425 0.08365066 0.080389485 -0.019114982
0001f0 f8 8f 82 bd 5f 11 0b 3e 6e a0 50 bd 63 bd 98 bd
       -0.06375116 0.13580845 -0.050934248 -0.07457998
000200 df c3 88 bc 33 53 b1 bc f6 63 15 3e d6 6e 97 3d
       -0.016694961 -0.021646118 0.14588913 0.07394187
000210 62 b6 10 be fc 08 cd bd b2 e3 06 3e dd 40 ba 3d
       -0.14132074 -0.10011479 0.13172796 0.09094403
000220 1a 54 ee bd 2f 94 80 bd e4 b2 7a bd 85 10 55 bd
       -0.11637135 -0.06278264 -0.06120576 -0.052017707
000230 1f 19 84 3d 53 a8 b0 bd 4b 06 ef bd 5f 4e 75 bd
       0.06450104 -0.08625855 -0.11671122 -0.059889194
000240 0b 29 15 be 01 b1 a9 3d 09 ba 94 bd 46 b2 5d bc
       -0.14566438 0.08285714 -0.07262046 -0.013531273
000250 6f f1 43 3d 0d 53 98 3d 14 44 a6 bd 32 2c d1 bd
       0.04783767 0.07437716 -0.081184536 -0.10213508
000260 e8 aa b2 3c f0 6e a3 3d 0e 76 c0 3d 15 c7 1c 3c
       0.02181001 0.07980144 0.09397517 0.009568949
000270 91 ce 05 be e9 b5 1f 3e 33 f6 98 3d 10 75 37 3c
       -0.1306708 0.15596737 0.07468834 0.0111973435
000280 4a 4b 36 3b 56 39 7d bb c4 3c 26 3c 7b f6 14 be
       0.0027815872 -0.0038638911 0.010146324 -0.1454715
000290 9a 67 79 3d c6 48 09 3e e7 fe 41 3e ef 7f 0e 3e
       0.060889818 0.13406667 0.18944894 0.1391599
0002a0 fe 42 12 3d f3 d2 24 3d f2 fb de 3d 9f fd 33 be
       0.03570842 0.04024024 0.108878985 -0.17577218
0002b0 e1 3c 09 be 11 a2 c4 3d 2b 21 a6 3d c7 08 11 3e
       -0.1340213 0.09601224 0.08111795 0.14163505
0002c0 6c 17 d8 bc a1 37 81 bc 4a 63 4d 3d 03 4a 04 3c
       -0.026378356 -0.015773596 0.050143518 0.008074286
0002d0 21 34 5a bd a7 07 22 be 98 c7 53 3d eb c5 e9 bd
       -0.05327237 -0.15823232 0.05170402 -0.11414703
0002e0 b7 31 17 be 1b 99 dc bd bf d7 2a bd e5 15 f2 bd
       -0.14765058 -0.1077139 -0.041709658 -0.11820582
0002f0 c5 1a 23 3d 4d 6c 9e 3d a6 a8 02 bd ec 95 15 be
       0.03982045 0.077355005 -0.031899117 -0.14607972
000300 6d 60 e2 3c 54 7e 19 3b 04 23 2d bd a3 9c 41 3d
       0.02763387 0.0023421245 -0.04226972 0.04726852
000310 6c c8 e6 3d 07 64 89 bc a6 01 c5 3d 51 91 d5 3b
       0.11268696 -0.01677133 0.09619455 0.006517567
000320 00 0b 7e bd ff 66 d0 3d a6 19 b6 3d 4a 19 db 3d
       -0.06202221 0.10175895 0.08891611 0.10698183
000330 98 60 ce bd 09 a2 c7 bd 70 c9 47 bc ad c8 0a bd
       -0.100770175 -0.09747703 -0.012194023 -0.033882786
000340 b4 3c 30 bd 16 ff be 3d 7c b9 1b bb bf a6 17 3e
       -0.04302664 0.093259975 -0.002376168 0.14809702
000350 b3 34 4b bd a4 79 52 bd fa 0b de 3d f5 bb f4 3d
       -0.049610805 -0.051385537 0.10842128 0.119499125
000360 23 72 fc 3c 0a b0 19 be c1 56 64 3d dc 41 94 3c
       0.030816143 -0.1500856 0.055746797 0.01809781
000370 ba f2 d1 bd 53 06 20 3e 90 5c 3c bd 80 0a 37 bc
       -0.102513745 0.15627412 -0.045986712 -0.011171937
000380 63 12 56 3d 6b 2e ac 3c 02 21 ce bd 58 2c 05 3e
       0.05226363 0.021018228 -0.100648895 0.13005197
000390 57 08 42 3d f0 70 20 be 31 68 19 3e 3d 0c e1 bd
       0.047371235 -0.15668082 0.14981152 -0.109886624
0003a0 90 41 25 3d b8 41 b0 bd c6 94 57 bb a1 05 9f bd
       0.04034573 -0.08606285 -0.0032895072 -0.077647455
0003b0 09 9b b6 3d 64 b1 d8 bc 20 c8 9a bd da b3 a6 3d
       0.08916289 -0.026451774 -0.07557702 0.08139773
0003c0 de 93 c9 3c 57 ed 3c 3e 83 67 33 3e fb e5 8d bc
       0.024606641 0.18449913 0.17519955 -0.017321577
0003d0 38 cf 5a bc 12 a3 25 3e 04 9c 43 be 2e 89 9e 3d
       -0.013355069 0.16175488 -0.19102484 0.07741009
0003e0 73 81 12 be c5 d1 6b bd f5 98 4f bd 97 8c 29 3d
       -0.14307193 -0.0575731 -0.05068298 0.041393843
0003f0 dc e6 c2 3d 62 c6 46 be 60 3c 5f be 58 08 9c bc
       0.09516689 -0.19411615 -0.21800375 -0.019046947

model.rnn.bias_ih_l1 f4 [160]
000000 93 e7 01 3e 19 fc 39 3e ca ad 65 bc 4a 2f 10 be
       0.12685995 0.18162574 -0.014018485 -0.1408054
000010 26 fc 13 3d 71 20 90 3d cc 72 0b 3e 7f 09 d0 3d
       0.03612914 0.07037438 0.1361801 0.10158061
000020 6c f0 5b 3e 27 f9 d6 bd a2 ff fd 3d ca 19 a3 3d
       0.21478432 -0.10496741 0.12402274 0.07963903
000030 18 84 85 39 a7 b1 88 bd 5b 50 60 3e cc 32 e8 3d
       0.00025466154 -0.066745095 0.21905653 0.11337814
000040 16 2a 84 3d 7d 39 2a bd e0 e0 8c 3c 2c f1 40 3c
       0.0645334 -0.04155873 0.017197073 0.01177625
000050 0c 46 0b 3e f6 c8 1a 3e 47 d3 93 3d 43 a9 08 bd
       0.1360094 0.15115723 0.07218032 -0.033364546
000060 d3 5f 0a 3e 1f 37 09 3e 3d d7 f1 3d 2b 1c ac 3d
       0.13513117 0.13399933 0.118086316 0.0840381
000070 b8 3e 4b bd 89 aa 8f 3c 6e 04 b6 3d f4 c2 84 bd
       -0.04962036 0.017537372 0.08887564 -0.06482497
000080 7c 89 2b 3e 8a a6 2d bc 66 05 60 3d b6 af 06 be
       0.16751665 -0.010598788 0.05469265 -0.13152966
000090 50 b3 9a 3d f3 98 50 bc e3 4e 1d bd 00 34 fb 3d
       0.075537324 -0.012731778 -0.03840531 0.122657776
0000a0 4a 37 06 bd c4 14 57 3c 6d 64 cf bd b0 bc db 3d
       -0.03276757 0.0131275095 -0.101265766 0.10729349
0000b0 59 27 35 3c 3e b2 12 3d f9 c8 5e bd 2e 79 f5 bd
       0.0110567445 0.035814516 -0.05439088 -0.11986004
0000c0 db da de bd e6 7a 05 be 9d 93 19 bd 98 bf 15 3e
       -0.10881587 -0.13035163 -0.03749429 0.14623868
0000d0 68 43 82 bd eb 07 c4 3d 81 5f 20 3e 79 f8 18 bd
       -0.06360513 0.09571823 0.15661432 -0.037346337
0000e0 22 b7 aa bd 55 a0 b5 bc 96 8b 02 3e 24 42 8f 3d
       -0.08335711 -0.022171179 0.1274856 0.06995037
0000f0 fb 22 48 3e 72 0c 49 bd f5 4d 39 bc 41 fd 03 bd
       0.19544594 -0.049084134 -0.01131009 -0.032223944
000100 7d b6 01 3d 76 4d 8f 3d d1 5a 8d 3d e6 4f 7c 3d
       0.031668175 0.069971964 0.069020875 0.061599635
000110 84 2b dc bd d2 e6 27 3e c7 dc f9 bd de 4a 15 be
       -0.107504874 0.16396645 -0.12200313 -0.14579341
000120 73 7f db 3d a3 49 7d 3d 5a 5b b9 3d 29 9a 4e 3c
       0.107176684 0.061837804 0.09050627 0.012609997
000130 ff e2 4d 3d 34 34 ab bd dd 60 97 bd c1 84 eb bd
       0.05026531 -0.08359566 -0.07391522 -0.1149993
000140 9e 44 dc 3c 7b e7 37 3e ea 2a 09 3e 47 83 13 3e
       0.026888188 0.17959397 0.13395277 0.14405547
000150 5c b5 36 3d e5 5f e8 bd 37 bb 50 be b5 a3 27 be
       0.04460655 -0.113464154 -0.20383917 -0.16371043
000160 4e d3 02 be 26 e9 e8 bd 07 23 d2 bd f2 e3 5c 3e
       -0.12775919 -0.113725945 -0.10260587 0.21571329
000170 00 b2 37 3e 65 cc 94 bd 1e 7c aa 3d a0 f3 89 3d
       0.17938995 -0.07265548 0.08324455 0.06735921
000180 fe 06 d5 3d d3 84 01 be 0f 62 9b 3d 11 7f d1 3d
       0.10401724 -0.12648325 0.075870626 0.10229314
000190 d1 b7 b6 bd c3 c8 00 3c a5 34 1a 3e 5c 4b 4a be
       -0.08921779 0.007860365 0.15059145 -0.1975531
0001a0 58 92 b3 bc ab 83 10 be f6 85 1d be d0 3c 68 bd
       -0.021920368 -0.14112727 -0.15383133 -0.05669862
0001b0 00 ee a4 bd 0a c7 24 bd 70 2a f6 3c 42 7c 15 3e
       -0.080532074 -0.04022888 0.030049533 0.14598182
0001c0 7c 10 d2 bb 3d 61 fa bd 52 9f 9b 3d 96 8b ba 3c
       -0.0064106565 -0.12225578 0.07598747 0.022771638
0001d0 f2 d6 0e be 5a d2 00 be 1c 59 c7 bc 14 ca 19 bd
       -0.13949183 -0.12580243 -0.024334483 -0.037546232
0001e0 24 ec a2 3d c0 9a a9 bd 2b 75 02 3d 8a 7b e2 3c
       0.079551965 -0.08281469 0.03185002 0.027646799
0001f0 c9 db d1 bd 42 64 1a be 58 5f 56 3d ed cb de bd
       -0.10246999 -0.15077308 0.05233702 -0.108787395
000200 71 dd 72 bd 70 25 20 3e 5f 9d cb bd 48 b1 60 3e
       -0.059293214 0.15639281 -0.099421255 0.21942627
000210 29 33 1a 3e 6c e9 09 3e 81 1f 79 bd a2 ff 34 3d
       0.15058579 0.1346795 -0.06082106 0.044189103
000220 66 aa ca 3d be 6f dd bb 67 e0 d8 bd 40 be 30 3d
       0.09895782 -0.0067577055 -0.10589676 0.043150187
000230 26 dc 1f 3e 78 99 9f 3d ef fb 45 3d ff b9 51 3e
       0.15611324 0.07792944 0.048335966 0.20481108
000240 b9 7b 51 3e dc 7d e3 3c d2 14 02 bd f1 b6 86 3c
       0.20457353 0.027769975 -0.031758137 0.016444655
000250 a7 61 02 be d7 05 05 be 7a 8b 7e 3d a7 10 28 3e
       -0.12732564 -0.12990509 0.062144734 0.16412602
000260 2b 72 29 3b 33 d8 50 3d 1d d5 ca bd 6d de 46 3c
       0.0025855403 0.050987434 -0.099039294 0.012137991
000270 1f c9 1d 3e ea c3 7b 3d 56 1a 1a 3d 87 79 29 3c
       0.15408753 0.061466135 0.037622772 0.010343916

model.rnn.bias_hh_l1 f4 [160]
000000 e1 c7 72 3d 8a 4d 56 3e c7 2e 2a bd eb 2e 8a bd
       0.05927265 0.20928016 -0.041548517 -0.0674723
000010 88 3f 02 3e a2 a2 12 3c fe b3 28 3e 35 cf 90 bb
       0.12719548 0.0089499075 0.16474912 -0.0044192323
000020 c0 97 67 3c 32 90 b5 3d bb 68 61 3d a0 1c 3a 3e
       0.014135301 0.08865394 0.05503152 0.18174982
000030 fe 28 9e bc f4 85 f7 bd 7f b1 ff 3d 28 99 57 3e
       -0.019306656 -0.120860964 0.124850266 0.21054518
000040 b0 62 6f 3e f9 8b b3 bd bd f7 a9 3c 64 bc 33 3e
       0.2337749 -0.08766932 0.020748014 0.17552334
000050 9b 04 29 3e 9a 92 6e bc b0 01 04 3d 45 54 9a bb
       0.16505663 -0.01456132 0.03222817 -0.0047097527
000060 e3 99 2f 3e 3c 56 09 3e 4d fb 09 3d 77 72 29 bc
       0.17148547 0.13411802 0.033686925 -0.010342232
000070 a0 f2 e3 bc 05 e7 a1 3d 9b 8e a4 3b 8c 82 e6 3d
       -0.027825654 0.079053916 0.0050218827 0.112553686
000080 47 1d 48 3d a4 49 05 be 17 79 c0 bd 53 9b ca 3d
       0.048856046 -0.13016373 -0.09398096 0.09892907
000090 b5 1b 39 bd a0 9d 7d 3e 04 f9 58 3d bc 9c ca bd
       -0.04519244 0.2476716 0.052971855 -0.09893176
0000a0 30 d0 12 be d5 0f 07 3e c3 a4 90 3d a7 84 b1 3d
       -0.1433723 0.13189633 0.07062676 0.086678796
0000b0 60 04 e1 ba 3a 2b d2 bc 65 ce 80 bd 88 94 d1 3d
       -0.0017167442 -0.025655378 -0.06289367 0.10233408
0000c0 ce 1e 2e 3e 70 72 84 bd 33 96 16 be 73 c8 26 3e
       0.17003939 -0.0646714 -0.14705734 0.16287403
0000d0 99 9c d2 bc 5b 4f de 3a 30 18 85 3d 2d 10 f7 3d
       -0.025709437 0.0016960906 0.06498754 0.12063632
0000e0 54 52 97 3d aa 59 65 bd a7 2f 3c 3d 77 10 55 bd
       0.0738875 -0.055993713 0.045943882 -0.052017655
0000f0 dd da 40 3e 20 e2 bc bd 23 82 ae bd b6 10 fc bc
       0.1883349 -0.092228174 -0.08520915 -0.030769687
000100 ea 9a a0 bd 67 66 0b 3e 74 f8 21 3e 30 54 7c 3d
       -0.078420475 0.13613282 0.15817434 0.061603725
000110 c0 85 32 bd 7a 77 f7 3d 47 2f bb 3c cd 6c 4a bd
       -0.043584585 0.12083335 0.022849692 -0.049420167
000120 5a 19 16 be 71 76 34 3e b7 b0 f2 bb cb f7 14 be
       -0.14658108 0.17623307 -0.00740632 -0.1454765
000130 45 d4 00 3e 0b 87 2b 3d b1 3d c4 3d df cc c4 3d
       0.12580974 0.041876834 0.09582079 0.096093886
000140 b5 c1 18 3e 8e 00 dc 3d 27 80 c2 bc 10 68 b7 bd
       0.14917643 0.10742293 -0.023742748 -0.08955395
000150 df a3 03 3c 48 4c 13 3e 7b f2 89 bd ef ce df 3d
       0.008034675 0.14384568 -0.067357026 0.10928141
000160 e8 27 d5 3d 9a b3 47 3d e3 d8 8d 3d 4e 59 16 3d
       0.10408002 0.048755266 0.069261335 0.03670626
000170 b4 df 29 3d 47 30 3c be f5 f4 19 be 89 9e 92 3c
       0.041473106 -0.18377791 -0.1503485 0.017897861
000180 24 eb be 3d 76 47 96 3d 82 dd 9b bd a5 cc f8 3d
       0.09322193 0.07337849 -0.07610609 0.12148408
000190 f0 4d c9 3d 62 27 44 3e 32 b3 a4 3d 62 4f 4b be
       0.098293185 0.19155648 0.08041991 -0.19854501
0001a0 b2 cc 62 3e 07 21 5d 3d 87 c6 b3 3d 4c d6 5f 3d
       0.22148398 0.053986575 0.087781005 0.05464773
0001b0 17 53 0a 3e 5b b9 00 3e ed e1 db 3d 32 10 fb bd
       0.13508259 0.12570707 0.10736451 -0.122589484
0001c0 25 5e f1 bd 7e a0 30 3e 20 31 a3 3d 11 b0 f0 3d
       -0.11785535 0.17248723 0.07968354 0.11752332
0001d0 e2 da 8e 3d af fe 24 bd d1 f1 20 3e b0 60 40 3c
       0.06975342 -0.040281948 0.15717246 0.011741802
0001e0 c4 1b bb 3d 52 72 f1 3d bf b7 18 3d 98 cb 5b bd
       0.09136155 0.11789383 0.03728461 -0.05366096
0001f0 05 18 e4 bd 94 55 6f bd 77 6a 6c bd 89 08 0a 3c
       -0.11137394 -0.058431223 -0.05771872 0.0084248865
000200 a4 bc c5 bd cc 1d ed bd c8 49 18 3e 69 3c 87 bd
       -0.09655121 -0.11577949 0.14871895 -0.06603319
000210 55 c3 f0 3d f2 8c f7 3d d1 7b 59 3e 4c 12 a1 3d
       0.11756007 0.1208743 0.21238638 0.07864818
000220 57 bf 85 3d a5 93 33 3e 7f d0 e8 3d c7 e9 fc bd
       0.06530636 0.1753679 0.113678925 -0.12349277
000230 b3 31 e7 bc 59 bb 30 3e 81 bd 39 3d 61 ef 39 3e
       -0.02822194 0.17258967 0.04534674 0.18157722
000240 db cb 4a 3c 7d e1 ce 3d f3 71 02 3e 01 4b 88 bd
       0.0123777045 0.10101602 0.1273878 -0.06654931
000250 82 85 e4 bd 0c 68 1a 3e 11 ba 21 3e 94 d1 e3 3d
       -0.11158277 0.15078753 0.15793635 0.11123958
000260 a4 74 46 bd 34 ee 00 3e 51 d7 e9 bd 15 e4 cf bd
       -0.04845108 0.12590867 -0.114180215 -0.10150925
000270 3c 45 f2 3d 34 4b 79 bd ba 76 1b 3e 80 5f 98 3d
       0.11829612 -0.060862735 0.1518201 0.0744009

exp_avg f4 [1, 40]
000000 16 61 a9 ba 19 c9 cd ba 1e 3e 86 ba 3a c6 41 ba
       -0.0012922611 -0.001570019 -0.0010241901 -0.0007391904
000010 6c 36 52 38 0b 69 43 3a 7a e5 22 3b 77 f3 2c b8
       5.0118586e-05 0.0007454312 0.0024856017 -4.123474e-05
000020 12 46 cc 3a 8a 01 a4 3a f5 77 58 3a 3b 35 f4 ba
       0.0015584847 0.0012512666 0.0008257621 -0.0018631587
000030 12 be 1c bb ce 80 a9 3a 91 ef 25 3b d8 7a c3 3a
       -0.0023917002 0.0012932064 0.0025319795 0.001491393
000040 06 46 23 bb 79 19 9a 39 ff ca 99 ba 6b 00 24 38
       -0.0024913563 0.00029392148 -0.0011733471 3.9101036e-05
000050 35 57 1e bb 4d 02 25 bb 08 ab d5 39 c8 be 1e 3b
       -0.0024160866 -0.0025178373 0.00040753954 0.0024222601
000060 1c 14 26 bb b7 a4 29 3b 75 e9 ed 3a d5 37 e4 3a
       -0.0025341576 0.0025885531 0.0018151241 0.0017411659
000070 03 2e 23 ba 6a fb b0 ba f6 e9 91 ba 00 ed 01 bb
       -0.0006224813 -0.0013502662 -0.0011132348 -0.00198251
000080 2a f4 4e b9 f4 39 72 ba 21 9c 22 38 9f 14 9b 38
       -0.00019736649 -0.0009240203 3.8769216e-05 7.394817e-05
000090 3c 87 9a 3a d3 f6 fa 3a d9 4d ae b8 79 1c 22 b9
       0.001178957 0.0019147046 -8.311467e-05 -0.00015460131
