research/lightning_logs/version_16/checkpoints/epoch=9-step=500.ckpt (torch, 300447 bytes, 33 tensors)

model.param_proj.proj.0.weight f4 [1, 40]
00000000: 3c88 afbd 76bb 36be 09e2 93bd 5e52 2a3d
00000010: c31e 60be 81c9 8bbe afd5 cf3c 0a14 64ba
00000020: a8a8 1c3e 42a6 333e 8fce 753e 0979 0dbb
00000030: ce7a 7d3d 8d7d ce3d 3ed1 073e e0cb 193e
00000040: bb4e bbbd a805 213e 6e5f 2f3e eb57 26be
00000050: 6567 5cbe ecfa 05bd 7673 7cbc c332 353d
00000060: 6200 1abe f1f6 373c e9bd f1bd e45a 9cbe
00000070: 1733 ba3c e4a2 363e ccb1 dc3d 0bc5 92be
00000080: 1641 b7bd 12dc 8dbe 387f 043e 7e74 5e3e
00000090: 64d7 923e 171b 30be b1b7 513e b3ed 173e
-0.085709065 -0.17844948 -0.07220847 0.041582458 -0.21886735 -0.27302173 0.025370447 -0.0008700496
0.15298712 0.17543891 0.24004577 -0.0021587035 0.061884694 0.10082541 0.13263413 0.15019178
-0.09145876 0.15724814 0.17126247 -0.16244476 -0.21523817 -0.03271 -0.015408387 0.044237863
-0.15039209 0.011228309 -0.118038006 -0.30538094 0.02272944 0.17835575 0.107760996 -0.28665957
-0.08947961 -0.27706963 0.12939155 0.21724126 0.28679955 -0.17197834 0.20480229 0.14836769

model.param_proj.proj.1.weight f4 [1, 40]
00000000: cf43 14bd d1df 8ebc 6f5e b6bd b377 483e
00000010: d543 f0bd 88b1 29be da63 133e e6c1 80bd
00000020: 17fd c1bd 89f9 363e 7e7f 9bbd 2574 963c
00000030: 9e74 38be 2f18 513d a8ec 003e 76ba 413e
00000040: b318 edbd 6b72 233e 757e 393e f75e 0dbe
00000050: ac48 cfb9 8549 30bd 0256 20be 41c7 c73c
00000060: 47c8 c53d 4a30 72bd 79ac 1abe f1f0 01bd
00000070: 3ff4 b23d e4ee 613e fa5a 2cbd ecb8 dabd
00000080: 0b54 b3bd c114 91ba d256 ef3d 182f a13c
00000090: 0e38 943d 6550 84bd 514a acbc ea90 133e
-0.03619748 -0.017440708 -0.089047305 0.19576912 -0.11731688 -0.16571629 0.14393559 -0.06286983
-0.09472101 0.17868628 -0.075926766 0.018365929 -0.18013236 0.051048454 0.12590277 0.18918785
-0.115769766 0.15961616 0.18114646 -0.13805757 -0.00039536261 -0.043038864 -0.1565781 0.024387004
0.096573405 -0.059128083 -0.15104856 -0.03172392 0.087379925 0.22063786 -0.04207895 -0.10679802
-0.08756264 -0.0011068807 0.116864815 0.019675776 0.07237254 -0.064606465 -0.02103153 0.14410749

model.param_proj.proj.2.weight f4 [1, 40]
00000000: cd93 653e 80b3 563e 41c4 c7bd dc79 ab3d
00000010: 3955 c63d c670 063e 524c 14be 8d89 903e
00000020: 9eec 33be 950b bbbc b5ea 24be 5af7 99bd
00000030: 8e2b 2bbe db38 093e 727f dfbd a86f be3b
00000040: 1312 b63d 9c57 50be 197c e4bc bb63 4c3e
00000050: 5c31 413e 0030 0e3e 3a51 593e 9ac6 32be
00000060: 10dc 5a3e 9183 d6bd 1bc5 783e d326 453e
00000070: 7e2c 203e 97ac 733c c24f 52be 5bd9 6f3e
00000080: a96d 46be d190 2a3e 2b9a 34be 0bc0 2abe
00000090: d0f5 06be d63a 8f3e a68d 7dbe a104 29be
0.22419663 0.20966911 -0.09754229 0.08372852 0.09684224 0.13128957 -0.14482239 0.28229943
-0.17570731 -0.022832671 -0.16105159 -0.07517882 -0.16715834 0.13400595 -0.1091298 0.0058116503
0.08890166 -0.2034592 -0.027891206 0.19959919 0.18866485 0.13885498 0.21222392 -0.17458573
0.2137301 -0.10474313 0.2429394 0.19253092 0.15641972 0.014872692 -0.20538238 0.23422758
-0.1937777 0.16656806 -0.17636935 -0.16674821 -0.13179708 0.27974576 -0.24761066 -0.16505672

model.rnn.weight_ih_l0 f4 [160, 21]
00000000: c781 433e 2476 833e a99a ec3d e3df 2f3e
00000010: 785a 313e 94ed 473e 5e90 e13c 31c3 013e
00000020: 115e 70bd 77c3 603d 88b7 753d 11a1 afbd
00000030: 0568 b93d ece3 c3bd 933e 763d bec9 0a3d
00000040: 5dd6 66be 16f0 babd a149 08bc 900b ef3a
00000050: 51b2 c4bc 568b 0a3e eda0 553c 60ef 023e
00000060: 9b65 073d 53b7 c23d c9ee fbba 7968 8e3d
00000070: b75c 3d3d ce14 5abd b9bc 893d c388 1dbd
00000080: 8b65 87bd 66b9 cc3d 3a57 843c 2f0c 893d
00000090: e53d 61bb 0922 3abe bb4b c7bd 950c 04bd
000000a0: c781 8abc e983 8d3d 8d80 dc3d 9e45 cf3d
000000b0: 7493 903c 6eda 363e db7c dcbb 2a97 123e
000000c0: 2d39 8b3d f966 a63d 3d5c 213d 2731 71bd
000000d0: e5ca b43b 629f a93d b008 4f3d 3f6b 9b3b
000000e0: 4328 293d 50b2 843d caa0 73bd 0026 09bb
000000f0: 73cb 383d e1dd 9fbe 3fba 0c3e e08d c13d
00000100: 904c 653e 63ca 073e 00f2 5e3e 30aa 27bc
00000110: 1db8 b6bb 5c88 023e ecf7 093d 9d0f 0d3d
00000120: e33c a63d 1a40 1cbd 4f73 77ba ce15 c63d
00000130: c481 83bd 0050 abbd de4d 243d d218 63bd
00000140: 14b2 f33c 3256 6a3d c517 7cbd 86af 1c3d
00000150: 81de 583e 29b6 043e 9312 3d3e 1eea 543e
00000160: 9b10 4f3e 20a1 c73d 2423 dd3d 3881 bb3d
00000170: 48ae 583d 6b05 b23d 84a6 c13c b0bd 6a3d
00000180: 03c3 ba3d c28f 80ba 82ba a7bd 0f04 ca3c
00000190: 9f7e 72bd cfb9 fb3c 53d9 4f3e 8a2e 743c
000001a0: 728a 723e e510 233e 4b1f f53c 551a f63c
000001b0: 5517 88bd 3546 393e 4fa9 183e 20c2 903d
000001c0: 8800 1fbd 1fb5 b23d 02c0 80bd c688 2a3d
000001d0: d6b1 cd3d 7f52 babd a28d 743c cfcc 9e3d
000001e0: bee0 25bd c6d6 68bd 1b05 043d 1074 163e
000001f0: dd0b 3dbe 0333 1abc 6a8a 6e3e e5b3 2c3e
00000200: 7c03 6c3d 77b8 8b3c cf55 22bd b7be 553e
00000210: 249e 24bc fcde d5bd 16ac 853d 999c c83d
00000220: 7ac8 4dba 7cd8 393d 49f9 02bd 1d0a 97bd
00000230: 5bfd 95bd b7a4 9f3d 3f08 f53c 55d0 7b3d
00000240: 64f4 5c3e 1458 9fbd 27b0 833e f37f 173e
00000250: 683a 7a3e bb89 073c 1029 25bd 73e2 193e
00000260: bdc9 5e3d af17 2dbd 34ef 05be 92cb bcbd
00000270: e780 ca3d b238 273d 5093 4b3d b4ec 793d
00000280: 7de3 873d 9f93 993d b6ed 883d 0280 72be
00000290: 5d7d 60bd 63ae d5bc 016b 5ebe 984d 533e
000002a0: dfad 313e fceb 173d fa08 8f3d 0537 9e3d
000002b0: f5a0 003e e2d8 87bd dbc8 063e e322 c83d
000002c0: a6e8 6abd a557 cf3d 63d2 7dbd 9e29 47bc
000002d0: b332 09bd 1866 903d 49ea 30bd d3f2 8bbd
000002e0: 2aa3 05be 74fe aabb 3d78 053d 3c98 3ebe
000002f0: d1cf b23d eed7 313e c3fe 793e 4bff ac3d
00000300: 1e41 7e3e 4fe7 133e 5f89 9dbb e837 0d3e
00000310: f64b 0c3e e60c bbbd 5183 20bd 24bd acbc
00000320: fcd7 8b3d d469 92bd 9768 17bd dd2d 25bc
00000330: 9f7d c6bc fe50 27be 5f5a 8a3d bb65 223e
00000340: cb11 d8bd 428c 8c3e e27c 1b3d c593 5a3e
00000350: 7e10 deba 3192 1f3e cf66 893d 6549 b93c
00000360: a379 3a3e 8a50 12bd ec1d 7cbc 7a0c 503d
00000370: 43fb 533d 6fcf a1bd f6f1 ab3d d59f 40bd
00000380: cfb0 b93d aa25 0d3d d419 15be ef62 aebd
00000390: 4e03 6b3e 81a2 babd 44a8 723e e9ad 523e
000003a0: 11bb cf3d 2805 473e cf67 ac3c 2e50 42bd
000003b0: f5f0 cd3c e205 f73d aad0 a7bc f6c1 c8bd
000003c0: 0ec8 08bc 7e37 6e3d e436 a83c ea3d b6bd
000003d0: 6e13 bb3d b1b9 823d c393 953c d0c5 ab3c
000003e0: a1e7 833d a455 833e 9a61 80bd 0d82 6f3b
000003f0: 6cfc 973d a2fb 823e b99b 18bd 05cf 623d
0.19092475 0.25676072 0.115529366 0.1717525 0.17319667 0.19524223 0.02753466 0.12672116
-0.05868346 0.05487391 0.059989482 -0.08575643 0.09053043 -0.09564957 0.06011827 0.033883803
-0.2254271 -0.09127824 -0.008318336 0.0018237699 -0.02401081 0.13529715 0.013038856 0.12786627
0.033055883 0.095076226 -0.0019220944 0.0695352 0.046230998 -0.053242497 0.06725449 -0.038460504
-0.06611165 0.099962994 0.016154874 0.06691777 -0.0034369167 -0.18177046 -0.09731241 -0.03223856
-0.016907586 0.069099255 0.107667066 0.101207 0.017648436 0.17856762 -0.006728751 0.14315477
0.06798015 0.08125109 0.039394606 -0.058884766 0.005517351 0.08282353 0.050545394 0.0047430093
0.041298162 0.06479323 -0.059479512 -0.002092719 0.0451159 -0.31223968 0.13742922 0.09450889
0.22392488 0.13260798 0.21772003 -0.010233447 -0.005576147 0.1274733 0.033683702 0.034438718
0.08117082 -0.03814707 -0.00094394846 0.09672128 -0.06421235 -0.08364868 0.040113322 -0.055443592
0.029748 0.05721111 -0.061546106 0.03825333 0.21178629 0.12960114 0.18464117 0.20792434
0.20221178 0.09747529 0.10797718 0.09155506 0.052900583 0.0869244 0.023638971 0.057309806
0.09119227 -0.0009808468 -0.081898704 0.024660138 -0.059202787 0.030728249 0.20297746 0.014903674
0.23685625 0.15924414 0.029922148 0.030041853 -0.06645075 0.18093188 0.14908336 0.070682764
-0.038818866 0.08725952 -0.062866226 0.041634344 0.10043685 -0.09097766 0.014926346 0.07753908
-0.040497534 -0.05684545 0.03223143 0.14692712 -0.18461557 -0.009411576 0.23294988 0.168655
0.05762051 0.017055733 -0.039632615 0.20873533 -0.010047469 -0.104429215 0.065269634 0.09795494
-0.0007850003 0.04537247 -0.031976018 -0.07374976 -0.07323714 0.07795089 0.029911159 0.061477978
0.21577603 -0.077804714 0.2572033 0.14794903 0.24436343 0.008272584 -0.040322363 0.1502779
0.05439161 -0.042258915 -0.1307953 -0.092185155 0.098878674 0.040825553 0.049701035 0.061016753
0.06635187 0.074988596 0.06685965 -0.23681644 -0.054807056 -0.02608413 -0.21720506 0.20635068
0.17351483 0.037090287 0.06984134 0.07725338 0.125614 -0.06633164 0.13162558 0.09772279
-0.057350777 0.10124139 -0.06196822 -0.012155918 -0.033495616 0.07050723 -0.04319218 -0.068334244
-0.13050523 -0.0052183215 0.03258537 -0.1861276 0.08731044 0.17367527 0.2441359 0.08447131
0.24829528 0.14443706 -0.0048076357 0.13790858 0.13700852 -0.091333196 -0.039187733 -0.021086283
0.06828305 -0.07149091 -0.03696498 -0.010081735 -0.024229823 -0.1633949 0.06755518 0.1585912
-0.10550269 0.27450758 0.037960894 0.21345432 -0.0016942171 0.15583111 0.06709062 0.022618005
0.18210463 -0.03572134 -0.015387993 0.05079315 0.051753294 -0.07900893 0.0839576 -0.047027428
0.09066927 0.034459747 -0.14560634 -0.08514964 0.2295048 -0.091130264 0.23697 0.20574154
0.10143102 0.1943556 0.021045594 -0.047439747 0.025139311 0.12061669 -0.020485241 -0.0980262
-0.008348478 0.05815839 0.020533986 -0.08898528 0.09134565 0.06383074 0.018258935 0.020968348
0.06440664 0.25651276 -0.06268616 0.0036546022 0.074211925 0.25582606 -0.037257884 0.05537321

model.rnn.weight_hh_l0 f4 [160, 40]
00000000: 23a6 40bd cf04 2c3d 1138 38bc ef4c e3bd
00000010: b897 03be 9ad1 8c3d 8854 bdbc 8fa8 6c3d
00000020: e75b 1cbc 1917 003c 0ebc 0e3d 7e36 2bbe
00000030: 9ebb d03d 27ed 8e3c 2c9b 493d ade4 1e3d
00000040: f98c b5bd f1c9 5c3d 0f2b 23be 1afc 35bd
00000050: c5e6 abbd 8d1b a5bd 87a3 34bd 4180 b33d
00000060: 57b7 f5bd 2936 103e 6826 3ebe a955 bcbd
00000070: 05db babd 6c4d e2bc 56ea 7abd d053 4ebe
00000080: 3e86 fb3a 1c3f 4a3e ec5e 0fbe aadd 9ebd
00000090: 847e 0c3e e9a6 933d 1d0e ff3b ce72 063e
000000a0: 8a7f cfbd bd4a 66bd e6a9 fcbd 4ea7 de3c
000000b0: f7ec ffbd 5739 57bd 59bb f63d 346b 01be
000000c0: 4129 00be 70e2 a1bd 7f31 e4bd 3d72 7cbd
000000d0: 7df9 10bd 69c7 56bd 785b 3ebd 0c1b 8b3d
000000e0: b552 ca3d d2f6 cc3c 313c 33be c5aa eeba
000000f0: 2239 823d 1584 c5bd 679f c03d 9341 853d
00000100: 83ba eb3c 991d e0bd 7fc7 bd3b c824 9bbd
00000110: 7027 e33d 5434 2fbd da36 06bc b053 0d3d
00000120: b319 2cbe 4d35 2f3d f832 bbbd c8f2 ed3d
00000130: b2dd f0bd c735 203d 7a6c f13d e2c7 283e
00000140: 5fad 8abd eb21 df3d 7274 32bd f1b2 813d
00000150: 6d37 24bd 8145 933d b859 8a3d 78d6 16be
00000160: 7b58 503e 87a0 713c 3d2b 493c 210a 19bd
00000170: db96 3a3e a29e f13c ad21 49bc ce6c 6d3c
00000180: 30be 323c 2888 9f3d 4cac 173d 88b1 d6bd
00000190: 8e70 e13d 32e1 45be db0b 713d b644 053c
000001a0: 403f c6bc 8fc0 013e 88b1 dc3d e577 063e
000001b0: c5a0 4bbd 3706 21bc 06f7 b9bd b601 93bd
000001c0: 1a42 bdbc fc14 36bd ae08 0139 e6c7 92bd
000001d0: db64 253e 4847 843c fc45 0c3e 68cf 853d
000001e0: 3af0 76bd 6070 c8bd ad4d 20bd 4107 e53b
000001f0: 3b29 e0bd fb23 e9bc 910d cf3d 66fb db3c
00000200: c246 3c3b 059c 0bbe 1c36 b53d cd3a f9bd
00000210: e34d f9bc 78c1 173e c7f6 7a3d 78e5 88bd
00000220: 1e78 3b3e 3bed 56bc 3df1 21be 2a1b 31be
00000230: 4749 2a3e 36d9 f2bd 04a3 afbd ce18 be3d
00000240: d049 14bd 2e32 213e 81ce abbd 3816 613c
00000250: 4830 e53d 0894 babb f706 283e 1e50 ab3d
00000260: b28c 88bd b8a4 753d 0a5d b9bd d980 7ebd
00000270: 3253 493e b5cd 5cbd 383c 573d 15c1 09bc
00000280: 64dd 07be 43d0 b73d 1fd3 05be dcac f8ba
00000290: 0d01 053e bc28 73bd a25f 1d3e 1451 023d
000002a0: f9a4 f73d 00c8 ff3d a347 6a3d 441a 88bd
000002b0: a514 08be 4c8b 1b3d 9a68 babd 4ee5 e93d
000002c0: 72d1 483d a277 dc3c 61fc 6abd 2db4 303d
000002d0: 9d19 fdbd 652e a13d 4106 bbbd a2c2 f1bc
000002e0: cf16 00be 9141 66bd 4029 d0bd cd43 703e
000002f0: d30d 103e acce 80bd 337d 0f3e 2e2a 38bd
00000300: 17d9 babd 0dac 3f3d ab0d 493e c848 89bd
00000310: 2fea 3fbc 2708 ebbd 1892 41bd 1279 3dbd
00000320: 25ad 003e 85de 053e 6b12 88bd 88a5 c43d
00000330: d1d4 723d 4217 32bd 1b80 3b3d 4507 913c
00000340: 638b 433d 8ca8 5ebd c531 17be c254 98bd
00000350: 1812 453e eb67 253e 43dd 3a3e 9f4d 3f3c
00000360: d83a 153e 74da d4bc 0fee 00be a91c b03d
00000370: cc68 ee3d d2c9 80bd 1261 0b3d 46ad dabd
00000380: 131a a93d 8c05 323e 8056 36be fb5b e0bc
00000390: 876e 2dbe 9e5f 363e b85c 4f3c f589 9dbc
000003a0: 2600 76bd 7db7 bdbc 0112 74bd 0d00 87bd
000003b0: 5797 0e3c 264f a5bd d076 173e 8d57 b03d
000003c0: 349f 5b3d b61c 8d3d c200 b3bd 8ba4 4abd
000003d0: 3046 0fbe f621 82bd e8b4 393d b4f4 22be
000003e0: a95d 193e f326 bfbc bed8 483c e462 08bd
000003f0: e5ff 81bd f9f7 3f3e 653d ad3d 4102 0abe
-0.04703344 0.041996773 -0.011243836 -0.11098658 -0.12850845 0.06875916 -0.023111597 0.057777938
-0.009543396 0.007818007 0.03484731 -0.16720006 0.10192035 0.017447067 0.04922025 0.0387923
-0.08864779 0.053903524 -0.15934394 -0.044429876 -0.08393625 -0.080618955 -0.044101264 0.08764697
-0.1199786 0.1408316 -0.18569338 -0.09196026 -0.09123806 -0.027624808 -0.061258636 -0.2014916
0.0019189788 0.19750637 -0.14001054 -0.07757123 0.13720137 0.0720957 0.007783665 0.13129732
-0.10131748 -0.05622362 -0.12337093 0.027179386 -0.12496369 -0.052544918 0.120474525 -0.12638551
-0.12515737 -0.07904518 -0.11142253 -0.061632384 -0.03539418 -0.052436266 -0.04647395 0.06792268
0.09879056 0.025020037 -0.1750343 -0.0018208852 0.063585535 -0.09644333 0.094054036 0.06506648
0.02877546 -0.10943145 0.005791604 -0.07575375 0.110915065 -0.042774513 -0.008191789 0.03450364
-0.16806678 0.04277544 -0.09140581 0.116185725 -0.11761035 0.039113786 0.117882684 0.16482499
-0.06771349 0.10895141 -0.043568082 0.063329585 -0.04009192 0.07190991 0.06755394 -0.14730251
0.20346253 0.014747745 0.012278375 -0.037363175 0.1822161 0.029494587 -0.012276095 0.014491273
0.010909602 0.077896416 0.03702955 -0.1048308 0.11007796 -0.19324186 0.058849197 0.008134058
-0.024200082 0.12671112 0.10776049 0.13131674 -0.04971387 -0.009828142 -0.09080319 -0.07178061
-0.023102809 -0.044453606 0.00012305632 -0.07167034 0.16151755 0.01614727 0.13698572 0.065337
-0.06028769 -0.09787059 -0.039136577 0.00698939 -0.10945364 -0.02845954 0.101100095 0.026853275
0.0028728698 -0.13633735 0.08848211 -0.121694185 -0.030432647 0.14819896 0.0612705 -0.06684393
0.1830754 -0.013118084 -0.15814681 -0.17295519 0.16629516 -0.11857836 -0.08576015 0.09282075
-0.036203206 0.15741798 -0.08388997 0.0137382075 0.111908495 -0.005693916 0.16408907 0.083648905
-0.066674605 0.05997154 -0.09050949 -0.062134597 0.19660643 -0.053907115 0.052547663 -0.008407851
-0.13268048 0.0897527 -0.13068818 -0.0018972415 0.12988682 -0.05936502 0.15368512 0.031815603
0.12092013 0.12489319 0.057197224 -0.06645635 -0.13289125 0.03797464 -0.091019824 0.114206895
0.049027868 0.026912514 -0.057369594 0.04314058 -0.12358401 0.07870177 -0.09132052 -0.029511753
-0.12508701 -0.056214873 -0.10164118 0.23463364 0.14067774 -0.062894195 0.14012603 -0.0449621
-0.09123438 0.04679494 0.1963412 -0.06703335 -0.011713549 -0.11476164 -0.047258466 -0.04625804
0.1256605 0.13073166 -0.06644138 0.09601885 0.05928499 -0.04347921 0.045776468 0.017703662
0.04774035 -0.054359958 -0.1476508 -0.07438041 0.19245183 0.16152923 0.18248467 0.011676221
0.14573228 -0.025983073 -0.12590812 0.085992165 0.11641082 -0.06288494 0.03402812 -0.106775805
0.082569264 0.17384928 -0.17806435 -0.02738761 -0.16936694 0.17809913 0.012656383 -0.019230822
-0.060058735 -0.023158783 -0.059587482 -0.065918066 0.008703074 -0.08071737 0.14791417 0.08610449
0.053618625 0.06890242 -0.08740379 -0.049473327 -0.13991618 -0.06354134 0.04533854 -0.1591366
0.14977135 -0.023334002 0.012258707 -0.033297434 -0.06347636 0.18746938 0.08458976 -0.13477422

model.rnn.bias_ih_l0 f4 [160]
00000000: 06f0 0b3e 5adf 313e f426 363e 8f25 373e
00000010: 5f1b 913d 0dc1 953c 0376 0f3e 494b 743e
00000020: 5ed1 b83d 963c 5c3e b67c 1e3d e59b 293e
00000030: 1673 02bc afcf 343e 1493 8dbc 260e dfbc
00000040: 06c7 48bd e388 023e c127 7c3e 0a83 8e3d
00000050: a7bc 453e f07f 133e f49e 1cbd 1c10 853c
00000060: 43f2 ab3c 67f8 8e3d fd58 32bd 3f56 3c3e
00000070: d234 1f3e dec9 293e 1419 4b3e fed4 ad3d
00000080: 4f88 823e 5a62 0a3e d160 2e3e 8c9c 5e3e
00000090: a4e4 dbbd eb9a 2a3e 5e24 103e ac02 8cbc
000000a0: 6a42 cf3b b086 393d 2074 ba3d 0455 de3c
000000b0: b07f bdbd f784 5cbb 9c4e 64bd 8880 22bd
000000c0: 47d1 ca3d e9b6 5e3c e396 94bb e0a7 253e
000000d0: f24f 9fbc 70b2 5c3e 9a78 a3bc a189 9fbc
000000e0: e7a1 10be 2ed9 71bc 95fa 193e 48a5 ffbd
000000f0: 6628 083e 74fc 273d 7dde 89bd f846 93bd
00000100: 9d31 b9bd 7472 053e 1417 2b3e d28d 55bb
00000110: b378 c4bc a677 a23b 14a8 19be d7f1 413d
00000120: ab9f 47bd 5571 223e 7516 6fbd 9a88 bf3d
00000130: 0c4e d9bd df1d 7d3d 2d9e 3f3e fd78 d63d
00000140: 8c2b 73be 517c e13d 762d 4a3b a185 eebd
00000150: b7b4 a3bd eb8c 5d3d 5771 663e a232 3fbe
00000160: b42d e43d 2785 8bbc 6f1b 92bd a379 ecbd
00000170: 948d e13d 033e 103e 17e0 2f3e efdc 0bbe
00000180: 0739 01be 5540 8ebb ea51 54bd 7da2 d53c
00000190: 2e1c 233e 0bab b03d af37 253e 5e02 6e3e
000001a0: 8d15 53be 6dd2 103d 8d2f debd eeb7 d4bd
000001b0: 43c3 a6bd 1e78 9f3c c16a 173e 47de a93c
000001c0: 4595 c8bd 4a06 8fbc 8609 3bbe 7a28 ff3d
000001d0: 1510 9abd dd96 7a3c b08d 373e cfa1 223e
000001e0: a9b4 fc3d cd1f 023e 2949 e0bc b41d 703e
000001f0: bd7b 883d 5f2e 5a3d 07b8 ce3d 78fe 89bc
00000200: 2a60 b63d 02ae f23d e5f5 153d 8ed0 4a3e
00000210: fbee 873e 1f4d 403e 31b6 a53d 8b1c c63d
00000220: 4481 9e3d 203c da3d 366f 7b3e 31ea 6f3d
00000230: 052e 18bc eca9 5a3b b455 143e b0b0 913d
00000240: e564 223e 0462 443e 38da d2bc 1ee0 2b3e
00000250: 3b55 a33d 0a79 47bc 6bf0 4f3e 4eb1 083e
00000260: 3f98 093e a4ce cd3d 0f3b 5b3e 7df8 4b3d
00000270: 4785 513e baeb 883e 7548 f23d f84c 683e
0.1366578 0.17370358 0.17788297 0.17885421 0.07085299 0.01828053 0.14009862 0.23856844
0.090243086 0.21507487 0.038693152 0.16563375 -0.007962009 0.1765735 -0.017282046 -0.027228426
-0.04901793 0.1274753 0.2462454 0.069585875 0.19310246 0.14404273 -0.038237527 0.016243033
0.020989543 0.06980973 -0.043541897 0.18392275 0.15547493 0.16580912 0.19833785 0.08487891
0.2549462 0.1351408 0.1702912 0.21739405 -0.10736969 0.16660659 0.14076373 -0.017091118
0.006325056 0.045294464 0.0910418 0.027140148 -0.0925287 -0.003364859 -0.05573903 -0.03967336
0.09903198 0.013593414 -0.0045345887 0.1617732 -0.0194473 0.21552444 -0.019954968 -0.019474806
-0.14124261 -0.014761252 0.15036996 -0.12482697 0.13296661 0.041012242 -0.067318894 -0.071912706
-0.09042666 0.13031942 0.16708022 -0.0032585752 -0.023983335 0.004958111 -0.15005523 0.047349777
-0.048736256 0.15863545 -0.058371026 0.093522266 -0.106105894 0.061796065 0.18712683 0.104722954
-0.2374708 0.110100396 0.003084985 -0.116465814 -0.07993453 0.054089468 0.22504173 -0.18671659
0.1114153 -0.017031265 -0.07134139 -0.11546638 0.11013332 0.14086156 0.17175327 -0.13658498
-0.1261941 -0.004341165 -0.05183593 0.026078457 0.15928718 0.08626374 0.16134523 0.2324309
-0.2061369 0.035356928 -0.10848913 -0.10386644 -0.08142712 0.019466456 0.14786817 0.020735873
-0.09794096 -0.017459054 -0.18265352 0.12458892 -0.07522599 0.015294758 0.17925143 0.15882038
0.12339146 0.12707444 -0.027378635 0.23448831 0.06664226 0.05326688 0.10093694 -0.016844973
0.089050606 0.118495956 0.036611456 0.1980612 0.26549515 0.1877942 0.08091391 0.09673413
0.07739499 0.10655999 0.24554142 0.05857295 -0.009288316 0.0033365441 0.14485818 0.071137786
0.158588 0.19178015 -0.02573882 0.16784713 0.07975241 -0.012174854 0.20306556 0.13348886
0.13436984 0.10049179 0.21409248 0.049797524 0.20460998 0.26742345 0.11830226 0.22685611

model.rnn.bias_hh_l0 f4 [160]
00000000: 9375 273e a4c0 883e 06ec a63d 680b 0b3d
00000010: 2032 ac3d 192c 2f3e ebed fcbc b1aa 873e
00000020: b87d 483e 761a 373e d4ca 2f3e dbbb 813e
00000030: f14c 333e 1d92 5b3d 4d6a 573e 2da5 723c
00000040: b3f5 e83d d74f 18bb c2f4 e73d 06ad 993c
00000050: 2d2d e43c 49e2 ad3d 56c3 173e 09f6 b93d
00000060: 0a97 983d 473d b23a 47cf 683e e4ca 463d
00000070: b617 1e3e 0e6c 913e d0dd 393e e41c 423c
00000080: fb0f 6f3c 4d6b eb3d 4ee5 723e f878 d73d
00000090: 1171 7c3d 67a0 253e abaf eb3d e243 373e
000000a0: 50f0 9dbd 376f 203e 7150 103e 2f6d 36be
000000b0: 36d9 fdbc 24e0 39be a9cf 77bc 0f5d 34bd
000000c0: d21d 2a3e ed48 423d 9082 4f3e 39f4 4bbd
000000d0: b5a8 643e da7e 4d3e e0af 083e 4dc5 273b
000000e0: 4d64 a13d a672 ff3d 9e46 923d afd0 e7bd
000000f0: f791 893d 08c0 26bd c4a2 453e 104f 16be
00000100: 23b0 bb3b 92f9 103d 9bd6 393e 927a 1bbe
00000110: b775 3b3e c6d7 a83d 8aa1 743c 6c27 c03d
00000120: c884 443e f435 3f3e 9c82 c43d 9439 5f3c
00000130: d846 9abc f13d 9dbc 5a7c d0bd 16b7 be3d
00000140: fdf4 56bd fb9a 603e 8943 3b3e 7634 9abc
00000150: 9b55 7bbe cb19 25be 41b5 49bd 4373 39be
00000160: 877e e83d 9a08 0fbe a01c 97bd 7cbf 5fbe
00000170: cfbb 8b3e 9d6d 483e b08a f53d 7a4a 3abe
00000180: 3967 833d 1322 a0bd fbe1 b6bd 09ed 04be
00000190: 3197 0c3e 2860 4bbe bf81 093e a9aa bf3d
000001a0: 4d73 1abe 66e1 3e3c 311c 27be 00e7 023d
000001b0: 2c0f babd dda4 5c3b fdb2 6d3e 1a1b efbd
000001c0: 9bbd d5bd 55bc fe3d d263 ea3c 9861 633e
000001d0: 5c6f 793a eb5a c23d 04c6 033e 5847 db3d
000001e0: f253 ba3d fad2 7d3e a948 6e3d f20e 1d3e
000001f0: 81df 3ebd 5593 71bd 128b 003e e895 5e3e
00000200: da25 b33c c206 5b3e 9de1 d63d 105e 1f3e
00000210: ebb5 3cbc 575e 803e 1809 9c3d dff9 853e
00000220: 7763 7c3d 0d60 44bc f367 493e 7b4d 98ba
00000230: 244f e83d eb9c cf3d a726 8b3c 2d1b 473e
00000240: 8021 023e e0e8 763e 60cd 503e 1a54 aebd
00000250: 1eba 673e 3769 ed3d 86e5 2a3e f09d 823e
00000260: 3d71 ee3b 9088 b83d 6720 f83d bfea 8f3d
00000270: 8d85 673d 8604 103e 4d55 383d 058e 053e
0.16353445 0.26709473 0.08150487 0.033946425 0.08407998 0.17106666 -0.030875167 0.26497415
0.19579208 0.17881188 0.17167217 0.25338635 0.1750982 0.05360614 0.21036644 0.014809889
0.113749884 -0.0023240948 0.11325981 0.018759262 0.027853573 0.08490426 0.14820608 0.090801306
0.074506834 0.0013598584 0.2273532 0.048533335 0.15438733 0.28402752 0.18151021 0.011847708
0.014591212 0.114950754 0.23720285 0.1052112 0.061631266 0.1617447 0.115081154 0.17896989
-0.077118516 0.15667425 0.14093186 -0.17815088 -0.030987363 -0.18151909 -0.015125194 -0.04403406
0.16612938 0.04743283 0.2026465 -0.049793456 0.22329982 0.20067921 0.13348341 0.0025599778
0.07880459 0.12473039 0.071423754 -0.113191 0.06717294 -0.04071048 0.19300371 -0.14678597
0.0057277842 0.03539426 0.18148272 -0.15183476 0.18306623 0.082442805 0.014931092 0.09382519
0.19191277 0.18672925 0.09595224 0.013624568 -0.018832609 -0.019194575 -0.10179968 0.093122646
-0.052479733 0.2193412 0.18287481 -0.018823843 -0.24544375 -0.1612312 -0.049245123 -0.18110375
0.11352258 -0.13968125 -0.07378507 -0.21850389 0.27291724 0.19573064 0.11989343 -0.18192473
0.064161725 -0.07818999 -0.08929821 -0.12981047 0.1372955 -0.198609 0.134284 0.09358723
-0.15083046 0.011650419 -0.16319348 0.03195858 -0.09084925 0.0033667602 0.2321281 -0.11675091
-0.10436555 0.12438265 0.028612051 0.22205198 0.000951519 0.094899975 0.12868506 0.10706967
0.090980425 0.24787512 0.058174763 0.15337732 -0.04659987 -0.058978397 0.12553051 0.21736872
0.021868635 0.21389297 0.10492251 0.15563226 -0.011517982 0.25071976 0.07618922 0.261672
0.061618295 -0.011985791 0.1966856 -0.0011619771 0.1134322 0.101373516 0.016986204 0.1944396
0.12708092 0.24112272 0.20390844 -0.08512135 0.22629592 0.11592334 0.16689119 0.25511122
0.0072766826 0.09010422 0.12115555 0.07027196 0.05652385 0.14064226 0.045003224 0.13042457

model.rnn.weight_ih_l1 f4 [160, 40]
00000000: 8671 a9bd 19aa a63d b538 293a 76b3 5fbe
00000010: fa16 5bbe d4f9 21be ae28 d03d eb93 0dbe
00000020: 4f0b 123e 50d0 21be a0cb 7dbd 5f25 37be
00000030: 6852 0f3e ee1d 8a3e 4c3a 9d3e 326f 82be
00000040: 7446 b5bd 615a 83be 5993 53be f6ed 7c3c
00000050: 17b8 f03d 9661 21be ae1e f23d d487 3b3e
00000060: 1223 9fbc 6c0e b73d fc62 80be 0936 d7bd
00000070: dc1f 13be 99ed 953e 2d8f 323e e5e4 a1bd
00000080: f3f0 c5bd 0439 203e 66bc 903c 20f5 c73d
00000090: 1025 a43d 44f2 8c3e cf34 8a3e 87fc c33c
000000a0: 4d6a 46be 88a4 613d 21eb 993e 7413 30be
000000b0: 0cde 18be d1e5 5cbc 7295 2abd 5761 1ebd
000000c0: 7d99 ce3d e876 97bd 2069 82be 5cde 23be
000000d0: 5990 853e f16a c9bb 4f68 9d3e 1887 84be
000000e0: 387c 8e3d aa22 68bd 132a f0bd 9b5c 7abe
000000f0: 3872 6cbc 11fa 89be 897e 913d 4ab8 6ebc
00000100: a365 57be 0440 eb3d 57bf 2bbe 5d4e aabd
00000110: bf49 85be 5075 a13e 5542 433d 1e20 6dbe
00000120: 71ae c4bd 3b52 a63d 462a c33b 4e3a 4c3e
00000130: c2c0 0f3e e930 5e3e aaf7 2e3e f298 fe3d
00000140: e302 c63c 741e 5abc a624 fabd 4ccd b5bc
00000150: 9ad9 543d 6ce5 0fbd 8245 483e e6ff 853d
00000160: e79c 403d 5a84 ab3d 6e56 bbbc e051 2cbe
00000170: 6e0d e6bd c623 873b 532d f7ba be17 35be
00000180: 7cb4 23bd 1573 aa3d 498b cbbc 02ce e03c
00000190: f81a 503d 2292 b3bd bd40 1abd 78b0 6e3d
000001a0: 310e 5cbc 649b 34bc 33bd f9bd eff4 a33d
000001b0: abba ccbd 60d7 c53d 8306 9fbd ef96 0dbd
000001c0: ba20 10be 3af4 9c3d 7b7b 293e 6282 013e
000001d0: 7de5 0f3d 33c6 d5bd cb14 803d f898 293e
000001e0: 7d9e f5bd f59d 9ebd 1909 8cbd 4f9c 10bd
000001f0: e31f ed3c c472 15be ff40 803d 078f 06be
00000200: e8eb 523e 708e b0bd 9487 06bc d0a8 853c
00000210: fdc4 d63d a726 3c3e abe0 e43d 5efe b4bd
00000220: 829b 23bd f048 5a3d baa8 36be 0e2e 8f3d
00000230: 072d f93c e79f 593d e825 81bd f457 8dbb
00000240: 095c 3cbe ed7d ffbd 1d69 4abe 53a5 77bd
00000250: 6613 34bd 44c1 ad3d 9d81 4f3e d156 553d
00000260: 0dcf 79bd fe47 5e3d afd8 12bd bca5 413e
00000270: 4290 003e 2d3d c43d 1958 953c 1cde 033e
00000280: 1655 9b3d 703b 003e 13a1 e9bc 8b88 0a3d
00000290: d2a6 773d 96e9 17be 572e 90bd 61c4 bc3d
000002a0: ddef 003e 8354 8abd 3631 3cbd 95ed 0f3d
000002b0: f2df e0bd 0ea0 b4bc 0ba7 3dbd 5f5f 613d
000002c0: 892b 21be e44c a4bd aac2 2d3e a03c d03d
000002d0: 5efb 7dbc 5525 14be 8088 18be fd1a c33d
000002e0: 4873 673d 1788 dcbd e6de 58bd f933 143e
000002f0: 076a 1a3e beae 193e ac41 48bc 0c9f 43bb
00000300: 4c39 3b3d b713 98bd fc0f 1a3e a635 f1bc
00000310: 5e4a ee3d eb96 7fbd f6b0 f5bd d67a 873d
00000320: a4f2 48be 5fdb 053c a895 283e e1d1 d4bd
00000330: ac40 f8bd 1e0d 21bd faee 0f3e f534 44be
00000340: d9cd 9f3d 0b02 8bbd 1db0 e3bd 1cbb 26be
00000350: 71c9 b93c f823 b43d 0724 9c3d 366b 42bd
00000360: 2707 8bbc 3983 bebd 3a20 093d 09d8 59be
00000370: 9502 f03d 31ff c5bd bd34 113e 452d 4b3e
00000380: da34 2ebe 268e dabb a881 e1bd 36e2 20be
00000390: 8ee2 4fbe c4b0 1abc b57f 253d 07ee 75bc
000003a0: 8ad8 0dbe 3188 373e 645d dfbc b1e5 873e
000003b0: 051f 433e f58a 80bc 871c f73d 98b8 533e
000003c0: d649 fe39 6d90 f0bd 577f acbd 4706 7fbd
000003d0: 267a c9bd 8f0e 57be 33e1 163e d260 96bd
000003e0: f371 7abd 71dd 5f3d 5c98 d7bd 3e7b 8dbd
000003f0: 7ac5 393d c5c3 6b3d 4db9 2b3e 012c f1bd
-0.08273606 0.08137912 0.00064552884 -0.21845803 -0.21395484 -0.15817958 0.10164009 -0.13825957
0.14262126 -0.15802121 -0.06196177 -0.1788535 0.13996279 0.2697596 0.3070854 -0.2547546
-0.088513285 -0.2565489 -0.20661677 0.015437594 0.11753862 -0.15759882 0.11822258 0.18313533
-0.019425903 0.08938298 -0.2507552 -0.10508353 -0.14367622 0.29282835 0.1743743 -0.07904986
-0.09665098 0.1564675 0.01766796 0.09763551 0.080148816 0.27528584 0.26993415 0.023924125
-0.19376488 0.05508855 0.30062202 -0.17194921 -0.14928454 -0.013482527 -0.04164643 -0.03866705
0.10087869 -0.073957264 -0.2547083 -0.16002792 0.2608669 -0.0061467816 0.30743644 -0.25884318
0.069572866 -0.056673683 -0.11726775 -0.24449389 -0.014431529 -0.26948598 0.07104213 -0.014570305
-0.21034865 0.114868194 -0.16772209 -0.08315728 -0.26032826 0.31534815 0.04767068 -0.23156783
-0.096035846 0.08121153 0.005955967 0.19944116 0.14038375 0.21698345 0.17086664 0.12431516
0.024171298 -0.013312925 -0.122140214 -0.02219262 0.051965334 -0.035130903 0.19557765 0.065429494
0.047024634 0.083748534 -0.022868361 -0.16828108 -0.1123303 0.0041241376 -0.0018858112 -0.17684838
-0.039967045 0.083227314 -0.02484669 0.027441982 0.05080697 -0.08768107 -0.037659395 0.058273762
-0.013431118 -0.011023376 -0.1219429 0.08005702 -0.099965416 0.0966022 -0.07764914 -0.03456777
-0.14074984 0.0766377 0.1655101 0.12647393 0.035130966 -0.10438194 0.06253966 0.16562259
-0.1199312 -0.07744972 -0.06837673 -0.035305317 0.028945869 -0.14594561 0.06262397 -0.13140498
0.20597804 -0.08620918 -0.008211035 0.016315848 0.10486791 0.1837412 0.111756645 -0.08837579
-0.039943226 0.053292215 -0.17837802 0.06991206 0.030416979 0.05313101 -0.06306058 -0.0043134633
-0.18394484 -0.1247519 -0.1976666 -0.0604604 -0.043963812 0.08484128 0.20264287 0.052084748
-0.060988475 0.054267876 -0.035851177 0.18910879 0.1255503 0.09581981 0.018230485 0.12877697
0.07584588 0.12522674 -0.028519189 0.033821624 0.060461827 -0.148352 -0.070400886 0.09217144
0.125915 -0.067544006 -0.04594537 0.035138685 -0.10980214 -0.022048976 -0.046301883 0.055022594
-0.15739264 -0.08022478 0.1696879 0.10167813 -0.015501825 -0.14467366 -0.1489582 0.09526632
0.056506425 -0.107681446 -0.052946948 0.14472951 0.15079509 0.15008065 -0.012222689 -0.0029849438
0.04570894 -0.07425635 0.1504516 -0.029444527 0.11635278 -0.062399786 -0.11996643 0.06615226
-0.1962381 0.008169978 0.1646334 -0.10391594 -0.1212171 -0.03931915 0.14056006 -0.19160827
0.07802934 -0.06787499 -0.11117575 -0.16282314 0.022679063 0.08795923 0.07624059 -0.047465526
-0.016971184 -0.093023725 0.033478 -0.21273817 0.117192425 -0.096678145 0.14180274 0.19841488
-0.17012349 -0.0066697774 -0.11011058 -0.15711293 -0.20301268 -0.009441558 0.040404994 -0.015010363
-0.13852134 0.17923047 -0.027266212 0.26542428 0.19054802 -0.01569126 0.12065988 0.20675886
0.00048501667 -0.11746297 -0.08422726 -0.062261846 -0.09837751 -0.21001647 0.14734344 -0.07342686
-0.061143827 0.054654542 -0.10527107 -0.06908272 0.045354344 0.057559747 0.16769905 -0.11775971

model.rnn.weight_hh_l1 f4 [160, 40]
00000000: 0833 9bbd 0966 25be c349 54bc 550c f7bc
00000010: 92d4 35bb 4085 a6bd cdf3 153e ae76 c6bd
00000020: 1557 85bc 17d4 ec3d aef0 e33d 5540 8a3d
00000030: e048 36bc cb98 1d3c a17b e23c dd4f 4e3d
00000040: d99e 1b3c f13a 4c3d a73b 46bc 9a21 c33c
00000050: 6a83 85bd c6a1 31bd cfa1 97bd 2d77 e23d
00000060: 283a 103e a59f 02be ffb0 2dbe c30e 4b3d
00000070: 2078 02bd d4b4 5d3e 9c35 ea3d c155 67be
00000080: 9863 33be 743f b4bd 7fd9 8d3c 5743 5a3c
00000090: 8d4c 5b3e a273 4abe 978f a2bc 6e5f 083e
000000a0: eaae 693d a77d fdbd 5359 583d 2d43 0a3e
000000b0: 2358 03be 627f ddbd 0fa6 b1bc 26b8 b83b
000000c0: 154b b2bd 76d4 33bd 4e13 ec3d 6c69 1b3e
000000d0: a5ad cd3d eacd 863c ba19 ea3d b961 4e3e
000000e0: 3c96 e9bd 21f3 2abd 4dcb e83d a882 24be
000000f0: 0b7f 0cbe 7ae0 603d 9a87 7ebd b007 e83d
00000100: ad1a 103e 2ae2 25bc ac6b 1abe 0cc1 92bd
00000110: ff26 7dbd 4bb4 5c3e cacd b4bd 9a0c 19be
00000120: 38cc df3d 9a3d 41be 16af b53d 27b3 0f3e
00000130: fe4f 683e 80f4 ddbc 7a23 8cbd 5aca 553e
00000140: 7072 d3bd 06c3 2ebd b996 9e3b ec74 4abc
00000150: a686 f4bd 8e0b 84bd 3bc4 0c3e deb0 b1bd
00000160: 9b10 58bd 8076 a73c 8b19 09bd c8fd 2c3d
00000170: 326b b2bd 31d9 0cbe 88b7 0b3e b9ea 74bd
00000180: e5ae 9cbd 01f1 eeba 25d3 5f3c 7ac3 e63d
00000190: 9ffe 76bd 88ea 173e 8f35 11be 48f0 9f3d
000001a0: 9def c53d 6fbe 12bb 29c8 0cbe ea16 b0bd
000001b0: bb64 2dbd 980a ca3d 9784 f43d b5f1 873d
000001c0: de4b edbc 4be2 113d de44 b73d b0b1 013e
000001d0: a0be d03d 5790 b3bd de2d 223e 5e18 ec3d
000001e0: 424a 8fbc 781f b83c 7b8e ec3c 36b0 9dbd
000001f0: e2a9 c5bc 0aaa c63d f396 ba3d 8aa1 1abe
00000200: dfeb ecbd 1a9c 0cbd 3935 003c 75ac c03d
00000210: 7b85 44bd d353 1e3e 8e62 0bbd 6d64 243d
00000220: 945c 1dbe d425 c03d 535a fa3d 96db 2abe
00000230: 9a7a 043e 5207 a1bd 3289 c8ba 5c26 f43d
00000240: 0dfe ff3d 7f8c edbb 1985 ff3d 2940 25bd
00000250: 9be1 a5bd 8e5c 9e3c 4162 6d3d e219 10be
00000260: 0fe8 e03d b26f 26be 33d6 7abd 41bd ecbd
00000270: e40d 143d 1770 693d fa5c f3bb 0069 aabd
00000280: 2e53 0b3d 3131 b73d f1a1 013e 8855 1abe
00000290: 3b99 9d3c 351c 1f3c 957e 74bc 9720 fabd
000002a0: 0f30 ab3b 5c3e aa3c 8a83 353e 7c03 eb3d
000002b0: 1d85 ebbc f628 73bd 4e60 9cbd 1794 3fbe
000002c0: b738 143d bce6 d6bd 587b f0bd 7380 f9bd
000002d0: b1f8 613d e636 e13d a5d5 01be ccf5 9dbd
000002e0: 1f53 983d b1c8 e33d d992 b0bd d8c5 733d
000002f0: 660b c23d 2b04 c53d dcb1 b13c bdc4 333e
00000300: 5259 d73d 1728 babd 44e4 febd c9a4 ce3d
00000310: 1b5a ea3c 7136 093e c54a e5bd f568 1f3c
00000320: 911c ef3d e27c 9d3c 1c88 7f3a 9d7c 263d
00000330: a8aa ef3c 4d91 1ebc 0f8f 90bd ee09 18be
00000340: 7ada 883d 6322 dabc 2afb 083e 3f94 823d
00000350: 7cb4 c03d 02d9 cf3c 1bc2 e43d 8656 233e
00000360: f723 aabd 83ad 5dbd 8c90 5abd afeb 81bd
00000370: ac84 1ebd a25d c93d 631a 14be 2229 5cbd
00000380: ff76 d93d eb0c 02be 3074 1f3d a884 b13c
00000390: f7ec 7b3c 5f68 c03c f538 ee3d d743 1dbe
000003a0: 0af4 a5bd 2f7d d1bd 51a2 103d ee3b 093e
000003b0: f6d8 1f3e 93f0 df3d 590c 483e f05f 303e
000003c0: efd2 cfbc e2c4 243d 3494 04be 2901 9cbd
000003d0: 5977 ff3d 3f0f dcbb 0fce 76bd 06bb 823d
000003e0: 6d87 9ebd 7ea8 0bbe 7343 363e 1f45 febd
000003f0: 083d 9a3c de10 a8bd 16d4 2ebe 4c24 75bd
-0.07578093 -0.16152205 -0.012957039 -0.030157248 -0.002774511 -0.08130884 0.14643784 -0.09690605
-0.016276876 0.115638904 0.111298904 0.067505516 -0.011125773 0.009618948 0.027646841 0.050369132
0.009498321 0.0498609 -0.012099183 0.023819733 -0.06519206 -0.04336717 -0.074039094 0.11057887
0.14084685 -0.12756212 -0.1696205 0.049574625 -0.03185284 0.21651012 0.114360064 -0.22591306
-0.17518461 -0.08801165 0.017315624 0.013321719 0.2141592 -0.19770673 -0.01984386 0.13317654
0.057051577 -0.12377482 0.05281956 0.13502188 -0.1282659 -0.10815312 -0.021685628 0.0056371866
-0.08705727 -0.04390379 0.115271196 0.15176934 0.10042886 0.01645561 0.11430688 0.20154466
-0.11405608 -0.041735772 0.113669015 -0.16065466 -0.13720338 0.054901578 -0.06214104 0.11329591
0.14072676 -0.0101247225 -0.15080136 -0.07165727 -0.061804768 0.21553151 -0.08828314 -0.14946213
0.109276235 -0.18871155 0.088712856 0.14033185 0.22686765 -0.027094126 -0.06842704 0.20877972
-0.103245616 -0.042666458 0.004839745 -0.012356978 -0.11939745 -0.064475164 0.13746731 -0.08676313
-0.05275021 0.020442247 -0.033471625 0.042234212 -0.08711852 -0.13754727 0.1364423 -0.05979416
-0.07650546 -0.0018229784 0.013661181 0.11267753 -0.06030142 0.1483556 -0.14180587 0.07809502
0.09664843 -0.002239134 -0.1374823 -0.085981205 -0.042332392 0.09865302 0.11939352 0.06637899
-0.02896684 0.0356162 0.08948682 0.12665439 0.10192609 -0.08767765 0.1583781 0.11528085
-0.017491464 0.022475943 0.028876534 -0.07699625 -0.024128858 0.09700401 0.091108225 -0.15100685
-0.11568426 -0.034328558 0.007825189 0.094078936 -0.04797886 0.15461664 -0.034029536 0.040134836
-0.15367347 0.09382215 0.12224259 -0.16685328 0.12937394 -0.07862724 -0.0015299676 0.11921379
0.12499628 -0.0072494145 0.12476558 -0.04034439 -0.080996715 0.019331243 0.05795503 -0.14072374
0.10981762 -0.16253546 -0.061239433 -0.11559535 0.03614606 0.056991663 -0.007426855 -0.083208084
0.034014873 0.089449294 0.12659432 -0.1507169 0.019238105 0.009711315 -0.014922758 -0.12213247
0.005224235 0.020781688 0.1772596 0.11475274 -0.028749997 -0.059365235 -0.07635556 -0.18708836
0.0361869 -0.10493228 -0.11742276 -0.12182703 0.05516881 0.10996799 -0.12679155 -0.07712898
0.07437729 0.11122263 -0.08621759 0.05951485 0.0947483 0.096199356 0.021691255 0.17555518
0.105150834 -0.09089678 -0.12445882 0.10090024 0.028607419 0.13399674 -0.11195902 0.009729614
0.116753705 0.019224588 0.000974776 0.040646184 0.02925618 -0.009678197 -0.07058536 -0.14847538
0.06682296 -0.026627725 0.13377061 0.06375932 0.09409425 0.025372032 0.11169835 0.15950975
-0.08307641 -0.05412055 -0.053360507 -0.06343781 -0.038700745 0.09832312 -0.1446319 -0.053750165
0.106184 -0.1270024 0.038929164 0.0216697 0.015376321 0.023487268 0.116319574 -0.1535791
-0.081031874 -0.10228955 0.035311047 0.13401768 0.15610108 0.10934558 0.1953596 0.17224097
-0.025369136 0.040226825 -0.1294716 -0.07617409 0.12473936 -0.0067156847 -0.060255107 0.06383328
-0.07740674 -0.13638493 0.17799167 -0.124155276 0.01882793 -0.08206342 -0.17073092 -0.05984907

model.rnn.bias_ih_l1 f4 [160]
00000000: ce61 3fbb 9530 f23d bcf0 aa3c 0586 4a3e
00000010: 596b 293e 7e77 443e 6115 2e3e 1156 603d
00000020: 0ba7 853d 3d9c 9c3d ae45 013e 51c8 89bc
00000030: 13be 193e acf0 e2bd 40c7 debc 12a2 58bd
00000040: 11db 2e3d 5ba7 763d ccc1 ee3d 6994 823e
00000050: b8d5 093d 6134 083e 09d0 00bd 572c 6a3e
00000060: 63e1 673e 8544 09be 4f0f 813d 55f6 3a3e
00000070: 3aa4 b23c 47bb f8bb 5b05 efbc c1ec 753e
00000080: a883 893d a855 883c f29d 2d3e 1d77 e4bb
00000090: ce5b 45b9 84b2 483e e5b5 0e3e a908 f43c
000000a0: 5afe 4e3e 6a4e 253e 525f c03d e145 ff3d
000000b0: 66d2 a4bd 50e2 b43c 6fc6 cd3d c4e0 4cbd
000000c0: 743b ee3d cd95 0dbe fe15 e73d 4475 cfbd
000000d0: 629f edbd 8906 713d 5114 273e 74e5 5abd
000000e0: 5714 2e3e 079a 87bd 5830 e73d 1b05 d63d
000000f0: 4d42 4b3d 2f1e f03d 454f 253d 7650 d03d
00000100: f4bb f53d a830 473c 1a62 0cbd a3ae de3d
00000110: b931 9f3c 1d6c 0a3d 25a6 84bc b051 5c3e
00000120: 8c8b e6bd 72a2 2d3e 67ea fc3d 28ed fcbc
00000130: 3c41 cdbd 5ca6 753e 0fb7 01bd c1c9 503d
00000140: 90e5 52be 0cb5 67be a1f2 f9bd 90fc 273e
00000150: 4fff 9dbd e55c 1abe 53e2 3bbd 9dea a9bb
00000160: 9f34 813c f49f 9fbc bdde 043e 9fe8 c5bd
00000170: de1a c6bd 8fa8 293e 4801 4a3e 7796 4d3e
00000180: 1d42 57be 6948 1b3d cdce 86bd 8c4d 8ebd
00000190: 9e5c 40be f5d7 5ebe 2265 bcbd a86d 2c3d
000001a0: 168d bb3d b142 7fbd f669 39bd cf55 e6bd
000001b0: 73f0 f73d 811c 123e 974d 453e d030 f0bd
000001c0: 81c0 a2bd 7619 f2bd b367 9b3d 8bd1 313e
000001d0: 6c1a 30bd 612a 5abe 12fa 2e3e ce05 553e
000001e0: 8ce7 873e f3e9 5eba a55f cfbd 463b 333e
000001f0: 40bf 363e 28d7 633e 7efb 9abd 3d14 2bbc
00000200: a7b0 073e b2af 083e 7ba7 31be d26a a93c
00000210: ee70 46bb b79d a63d c633 1ebc 11e6 4a3e
00000220: dc6e 91bc 519c 823e 8da6 4abc 3833 8f3e
00000230: 5d95 c83d 009a 743d 222b cd3d 34d1 553d
00000240: f70f 233e daf0 2ebd 9510 eb3d 7b50 df3d
00000250: 00da 2a3d 3098 503d d64e 043e 072b 303e
00000260: 543d acbd 94a9 18bd 5299 323e d403 683e
00000270: ed8c cf3c dd26 833e 4eb1 093e a86b b23d
-0.0029202583 0.118256725 0.020866744 0.19777687 0.16544856 0.19186208 0.17000343 0.05476958
0.065260015 0.076469876 0.12624237 -0.016819151 0.15013914 -0.11081061 -0.02719462 -0.052888937
0.042689387 0.060218196 0.116580576 0.25503853 0.033651084 0.13301231 -0.031448398 0.22868477
0.22644572 -0.13405044 0.06301748 0.1825803 0.021806825 -0.0075906846 -0.029177358 0.24016096
0.067145646 0.016642407 0.16954783 -0.006972207 -0.00018821584 0.19599348 0.13936575 0.029789286
0.20214215 0.16143194 0.09393181 0.124645 -0.08047943 0.02208057 0.10047614 -0.05001904
0.116324335 -0.13826676 0.112834916 -0.101297885 -0.116026655 0.058844123 0.16316344 -0.05344148
0.16999947 -0.06621175 0.11288518 0.104501925 0.049623776 0.11724507 0.0403588 0.10171597
0.1199874 0.012157597 -0.034273244 0.10873153 0.01943289 0.03379451 -0.016192505 0.21515536
-0.11257085 0.16956499 0.12349396 -0.030874804 -0.10022208 0.23989242 -0.03166872 0.050973658
-0.20595384 -0.22627658 -0.12204481 0.16404939 -0.07714712 -0.15074499 -0.045870136 -0.005185439
0.015772162 -0.019485451 0.12975593 -0.096635096 -0.09673093 0.16568206 0.19727051 0.20076929
-0.21021314 0.037910853 -0.06582413 -0.06948385 -0.1878533 -0.21762069 -0.09198977 0.042096764
0.091577694 -0.06231946 -0.045267068 -0.112468354 0.12106409 0.14268686 0.1926788 -0.1172806
-0.079468735 -0.118212625 0.075881384 0.1736509 -0.042993948 -0.21305229 0.17087582 0.20802996
0.26543844 -0.0008503489 -0.101256646 0.1750308 0.17846394 0.22250044 -0.075674996 -0.010441837
0.13250981 0.13348272 -0.17349045 0.020680819 -0.0030279714 0.081355505 -0.009655898 0.19814326
-0.017753057 0.25509885 -0.01236881 0.27968764 0.09794114 0.05971718 0.100179926 0.052201465
0.15924059 -0.042710163 0.11477772 0.10904022 0.041711807 0.050926387 0.12920699 0.17203914
-0.08410135 -0.037271097 0.174413 0.2265771 0.025335753 0.25615588 0.13446543 0.0871194

model.rnn.bias_hh_l1 f4 [160]
00000000: 9b33 dd3b 348b efbc d527 57bd 705b fc3d
00000010: 6f52 bb3a e44c 8c3d 1e4b f0ba 7f68 6d3e
00000020: ee09 babc 9e92 c2bd fcd6 37bc 7057 843d
00000030: a10f 623d 2814 d5bd 5999 b93d 1ecc 9f3d
00000040: 0bc7 933c 6a29 053e 528e 983d 3c19 823e
00000050: 0613 1b3e e8b4 493e 7b7e 133d 933f da3d
00000060: 83c5 ff3a 9634 24be 04e9 503b 8b19 b93d
00000070: b6ad 2b3e 982f c23d 3bce 5d3e d3f0 0d3e
00000080: 5ef9 b03d c1ba b73d c549 6b3e 9d89 403e
00000090: 73bd d13d 2fc2 ecbb 7a9b d13d f049 823d
000000a0: c499 8ebd 5a6e eb3d 0d11 4fbd cf37 9c3d
000000b0: f3b6 7f3d f1e1 74bd 6723 c93d 89d3 0b3c
000000c0: 90b1 da3c 3ce0 4d3d 9437 50bd 1fe7 b4bd
000000d0: b528 b6ba 8406 bbbd 866e ce3d 45a7 813d
000000e0: 40c9 aebb a3c2 493e 3f22 753d 49ef 693c
000000f0: 9d93 d5bc 2c25 953d 70f3 593d 0faf ee3d
00000100: aaf1 35bd 3eef f1bd 0201 6bbd ee23 153e
00000110: 8c0b dc3c a4b6 a2bc 486c a3bd 21c3 e13d
00000120: 44e3 57bd f687 223d 41a5 8e3d a24a 373e
00000130: f178 dfbd 1399 9e3c 1445 f63d 2bd0 d6bd
00000140: d142 5dbe 5435 13be 43cc 42bd c48a de3d
00000150: aad3 803d 0377 5c3d 1285 a3bd e9f2 0ebe
00000160: 9abd a5bd 961e 85bd 78a8 e1bc dc54 5c3e
00000170: 69ec d43d 230e b13d 405e 2dbd f9aa 4f3d
00000180: a4f3 86bd fcf9 653e 33d3 343e 8a4c 36bd
00000190: 4590 1bbe 9ef8 6c3d 260b b53d 2e39 3d3e
000001a0: dfc6 73bd d99a 89bd b45b 05be 13b4 27be
000001b0: 6617 9cbd 23ff 803d 95c6 2ebd 8847 2ebd
000001c0: 83cc 03be 02b0 a0bd 1dd6 603e 01ce 213e
000001d0: e52f 5f3e d63c 1b3c 54fc fa3d bc44 a1bd
000001e0: 3aa8 1a3e 3f09 9bbc e42a 893d 0110 a1bd
000001f0: 8839 f63d 9160 d53c 33c2 49bd f219 e8bb
00000200: 9d20 973d 78fb 6cbd 5808 3e3d f99b 0ebd
00000210: 8377 0e3e 089a 133e 3346 9a3d d10c 253d
00000220: 8d59 5abd b2a8 11bd ecb4 edbd e492 893e
00000230: 5214 093e 2449 7e3e 037e 3b3e f06f 073e
00000240: a7b7 633e dfd9 d7bc c2f5 453e 7b9e 3c3e
00000250: 88b6 bd3d 5b83 cf3d c184 703e 0997 f33d
00000260: 2681 e9bd fc64 163d 3480 bf3d 4e14 e63d
00000270: 0718 4f3c 48c8 5c3e 40ef 713e 4869 5b3d
0.0067505366 -0.029241182 -0.05252822 0.12322128 0.0014291535 0.06850603 -0.0018332934 0.23184393
-0.022709813 -0.09500621 -0.01122069 0.0646199 0.055190686 -0.10404235 0.09062452 0.07802604
0.018039247 0.1300408 0.074490204 0.25409877 0.15143976 0.19697917 0.036009293 0.10656657
0.0019513819 -0.16035685 0.003187717 0.09038075 0.16765484 0.09481734 0.21660702 0.13861398
0.08641313 0.08971167 0.2297736 0.18802495 0.10241213 -0.007225297 0.10234733 0.06361759
-0.06962922 0.11495657 -0.05055337 0.07627832 0.062430333 -0.059785787 0.098212056 0.008534321
0.026695997 0.050262675 -0.050834253 -0.08833145 -0.001389763 -0.09132102 0.100796744 0.06330732
-0.0053340495 0.19703154 0.059847113 0.014278241 -0.026071364 0.072824806 0.053210676 0.116544835
-0.044419922 -0.1181321 -0.057374008 0.14564487 0.026860975 -0.01986248 -0.079796374 0.11023546
-0.05270697 0.039680444 0.069651134 0.17899564 -0.109117396 0.0193601 0.12024894 -0.10488924
-0.2160752 -0.14375812 -0.04755808 0.10866311 0.06290372 0.053824436 -0.079843655 -0.1395985
-0.08092804 -0.064999744 -0.027546152 0.21516746 0.10396654 0.086452745 -0.042326212 0.05070016
-0.065894395 0.22458643 0.17658691 -0.044506587 -0.15191753 0.057854287 0.08840017 0.18478844
-0.05951583 -0.06718988 -0.13023263 -0.16377287 -0.076216504 0.062986635 -0.04266985 -0.042548686
-0.12870984 -0.07846071 0.21956678 0.1580124 0.21795614 0.009474954 0.12255159 -0.07874438
0.15103236 -0.018925307 0.06697634 -0.07864381 0.12022692 0.026047023 -0.04925747 -0.007083171
0.07379267 -0.057857007 0.046394676 -0.034816716 0.13912778 0.14414227 0.07532921 0.040295426
-0.05330806 -0.03556127 -0.11606774 0.2686988 0.13386658 0.24832588 0.18309788 0.13226295
0.22238027 -0.026349006 0.1933203 0.1841983 0.09263331 0.10132476 0.23488142 0.11894042
-0.11401586 0.0367174 0.09350625 0.112343416 0.012640006 0.21560776 0.23626423 0.0535672

exp_avg f4 [1, 40]
00000000: 3204 3539 63fc 2f39 8098 17b8 276c 8b38
00000010: 86b0 4938 520f dc38 cb20 2bb8 6e6a 3339
00000020: 15d1 bab8 1091 a9b7 03e7 cfb7 34bd d0b7
00000030: cda0 4cb8 55ef b038 7831 c1b8 a8fb a3b7
00000040: 8c6a d538 a710 22b9 062b a2b7 dcf8 3039
00000050: 6e8e 2f39 8ddc 2a39 d90c 2f39 5894 32b9
00000060: aca5 1139 6034 2ab6 3692 2d39 662d 3539
00000070: 83b3 3d38 1c5e 65b7 39ec 27b9 b3e8 2e39
00000080: ad9e 38b8 0b90 2d39 0bff 10b9 b55b 30b9
00000090: 4703 4eb8 927c 3339 45f5 2cb9 156f 14b9
0.00017263068 0.00016783322 -3.6143232e-05 6.6481814e-05 4.8086535e-05 0.00010493271 -4.0800118e-05 0.00017110418
-8.908116e-05 -2.021392e-05 -2.4783896e-05 -2.4883637e-05 -4.8787148e-05 8.436913e-05 -9.2121714e-05 -1.95483e-05
0.000101764774 -0.00015455727 -1.933194e-05 0.00016877375 0.0001674236 0.00016294625 0.00016694087 -0.00017030665
0.00013889995 -2.536246e-06 0.00016553033 0.00017278417 4.5228295e-05 -1.3671375e-05 -0.00016014361 0.0001668062
-4.4016797e-05 0.00016552226 -0.00013827921 -0.00016818832 -4.911728e-05 0.00017117176 -0.00016494568 -0.00014155761

exp_avg_sq f4 [1, 40]
00000000: 890b 0137 55a8 b236 4fb3 e834 4a76 8335
00000010: f9f4 3335 defd 2936 06d9 e434 9263 de36
00000020: 9737 9e35 0e84 8e34 814a 7c33 6bfe 6534
00000030: a7b8 1a35 b22a 7035 b500 cf35 63ec 4a35
00000040: 1402 4d36 aa2b 9836 f38c 6c35 2fb1 c736
00000050: 2aba b236 d869 7d36 98cf bb36 0e67 d436
00000060: 3df0 2a36 eda7 9c34 4538 9736 5cd7 e536
00000070: cff7 0d35 e691 0435 abdd 7136 ab26 a036
00000080: 0d22 9a34 c373 8636 0006 0736 e055 b236
00000090: 604c 2934 749b e636 9702 b436 198b 4336
7.691685e-06 5.32441e-06 4.3343832e-07 9.794687e-07 6.703918e-07 2.5330733e-06 4.2626215e-07 6.627707e-06
1.1788096e-06 2.6545644e-07 5.8741083e-08 2.1419844e-07 5.7638175e-07 8.9469097e-07 1.5422908e-06 7.559485e-07
3.054859e-06 4.535036e-06 8.812196e-07 5.951289e-06 5.3264857e-06 3.7761547e-06 5.5972014e-06 6.3300895e-06
2.547181e-06 2.9179446e-07 4.5067013e-06 6.849803e-06 5.28872e-07 4.938614e-07 3.6040826e-06 4.772873e-06
2.870951e-07 4.0069876e-06 2.012006e-06 5.3148106e-06 1.5767137e-07 6.8726313e-06 5.3647195e-06 2.913823e-06

exp_avg f4 [1, 40]
00000000: 2f09 383e 9b30 373e bf89 44bd e7f0 de3d
00000010: abd1 ed3c 6ba6 dc3d 7e48 bfbc 87b3 373e
00000020: f294 11be 2b23 6abb 7da4 01bd de15 87bc
00000030: 3d01 8dbd a6a4 fe3d 5471 afbd 8637 1ebb
00000040: 8cc0 d33d 95c4 2cbe ad35 7ebb 35d8 353e
00000050: c77c 373e c1b3 343e c3be 353e d469 37be
00000060: 79af 2f3e 4b4f c1ba 8296 353e e601 383e
00000070: f388 433d 3150 e0ba 956c 35be 330a 363e
00000080: 9dee 81bd 295b 363e a72a 1cbe cf1e 37be
00000090: a06e 0fbd 51b0 373e 21f0 36be 528f 1fbe
0.17972253 0.17889635 -0.047982927 0.10885792 0.029030642 0.10773929 -0.023349997 0.17939578
-0.14216974 -0.0035726528 -0.03165101 -0.01648992 -0.06885002 0.12433748 -0.085665375 -0.0024141981
0.1033946 -0.16871865 -0.0038789317 0.17758258 0.17918693 0.17646696 0.17748551 -0.17911464
0.17156781 -0.0014748363 0.17733195 0.17969474 0.047738027 -0.0017113743 -0.17717202 0.17777328
-0.0634434 0.17808212 -0.15250646 -0.17882846 -0.03501761 0.17938353 -0.1786504 -0.15582016

exp_avg_sq f4 [1, 40]
00000000: ad8e bd3f 8978 bb3f 9c61 bf3d 15be f43e
00000010: bcad 633d f529 173f 9e06 1e3d e039 bd3f
00000020: 9c7b 503f dece 723a daa2 283d 0428 ba3c
00000030: c12f 463e e948 213f 11d9 b83e 22e3 803a
00000040: 8b16 103f 1727 a73f 3ce4 0f3b 0fc8 b73f
00000050: f984 bc3f e83f b43f 1072 b73f 644c bc3f
00000060: 042e a73f 0b7f b239 699b b63f 937a bd3f
00000070: 2d28 eb3d f410 0b3a 0f01 b63f 4c39 b83f
00000080: 6add 2a3e 604b b83f 9bc9 8a3f bd53 bb3f
00000090: 58c4 8e3d 4da8 bc3f a7ff ba3f df0c 8f3f
1.4809166 1.464616 0.093447894 0.4780127 0.055585608 0.59048396 0.03858053 1.4783287
0.8143861 0.0009262393 0.041170932 0.022724159 0.19354154 0.6300188 0.3610311 0.0009833316
0.562844 1.3058804 0.0021956107 1.4357928 1.472808 1.4082003 1.4331684 1.4710813
1.3060918 0.0003404546 1.4266177 1.4803032 0.11482272 0.00053049554 1.4219073 1.4392486
0.16686025 1.4398003 1.0842775 1.463493 0.06971043 1.4738861 1.4609269 1.1175803

exp_avg f4 [1, 40]
00000000: fa5a 8aba d30e 58ba 17b0 adb7 ebda 963a
00000010: 86d2 99ba 5654 04ba 67aa 853a 9b4a 80ba
00000020: 61c2 bbba 229d 763a f4c2 7138 f4e7 123a
00000030: 55ad 9eb9 2cea 593a ae20 743a dffa 763a
00000040: 48fa eeb9 433a 183a 4602 613a ad98 79ba
00000050: 616f 4dba 7971 32ba bebb 62ba 478b 793a
00000060: 345c 9739 0ae1 9438 4aa9 4eba 28c5 8bba
00000070: 7075 3eb9 ac87 2c3a 232a 0b3a 740d 5aba
00000080: 9da3 c3b9 5aea 43ba be64 9939 771c 5f3a
00000090: d91a 723a 34bb 81ba 04a2 323a a5a5 e039
-0.0010555678 -0.0008241955 -2.0705205e-05 0.0011509334 -0.0011735715 -0.00050479674 0.0010197879 -0.0009787859
-0.0014324897 0.000940757 5.764044e-05 0.0005604022 -0.0003026525 0.00083127874 0.0009312731 0.0009421538
-0.00045581372 0.00058070215 0.00085834076 -0.00095213467 -0.0007836726 -0.000680707 -0.00086491916 0.000951935
0.0002886966 7.099107e-05 -0.00078835024 -0.0010663616 -0.00018163561 0.0006581496 0.0005308708 -0.0008318045
-0.000373152 -0.0007473581 0.00029257493 0.00085110165 0.0009235568 -0.000989771 0.00068143033 0.00042848024

exp_avg_sq f4 [1, 40]
00000000: 5ef3 193c c32b e03b 606f 8d39 8623 903a
00000010: 8e36 243a 54af 323b f79f dc39 70f1 0c3c
00000020: 32ae 8c3a dc36 4639 938d 6738 7db2 ec38
00000030: 75c4 e939 42dc 503a 261f cb3a d5e6 0a3a
00000040: 12c0 503b 7fcf b13b 4231 3b3a 0012 eb3b
00000050: 6529 ee3b 4f7c 943b b711 e33b 9e4e 013c
00000060: a883 6e3b bebb 0639 a44e bc3b bf0f 103c
00000070: 7f3f b339 cc0c a139 83f0 9f3b e291 cb3b
00000080: e854 5a39 b816 aa3b 6c06 003b e3b0 e13b
00000090: bb5a 0939 b105 0c3c b083 e83b b836 5a3b
0.009396402 0.0068411543 0.00026976597 0.0010996915 0.0006264233 0.0027265148 0.00042080853 0.008602485
0.0010733067 0.00018903188 5.5206543e-05 0.00011286603 0.00044587595 0.0007967391 0.0015496954 0.0005298679
0.0031852764 0.005426347 0.0007140824 0.0071737766 0.007268118 0.0045314203 0.006929602 0.007892279
0.0036394391 0.00012849175 0.0057466794 0.008792817 0.0003418885 0.00030717847 0.004880966 0.006212459
0.0002082173 0.0051906966 0.0019535078 0.0068875416 0.00013099138 0.008546279 0.0070957765 0.0033296775
