research/lightning_logs/version_17/checkpoints/epoch=9-step=500.ckpt (torch, 300447 bytes, 33 tensors)

model.param_proj.proj.0.weight f4 [1, 40]
000000 8b e7 41 3e 57 0e 99 bd 24 59 1d bd 47 b0 85 bd
       0.18935983 -0.07473438 -0.03841509 -0.06527763
000010 c7 a3 c6 bd f3 9d c7 bd 35 e6 46 bd eb 1e cd bd
       -0.09699207 -0.09746923 -0.048559386 -0.10015663
000020 af 7a c6 3c b0 c9 08 3e ac 91 1b bc 7f 33 12 3d
       0.024228422 0.13358188 -0.00949518 0.03569364
000030 31 2e 17 be 78 0c cb bc 83 25 1a 3d ec de bf 3d
       -0.14763714 -0.024786219 0.03763343 0.09368691
000040 20 ee 68 bd ca 2d 56 bd 8a cb df 3d 1c be 2a be
       -0.05686772 -0.05228976 0.10927494 -0.16674083
000050 5c dd 9b bd 06 a3 5b bc 33 f6 87 bc 18 b5 3f 3d
       -0.0761058 -0.013405567 -0.01659689 0.046803564
000060 95 f8 c1 3d 45 b7 9a be ba a6 a3 bd a9 4e 36 3d
       0.094712414 -0.3021795 -0.07990785 0.04450861
000070 91 cd 49 3e 45 0e 37 3e ff 72 e2 3d 20 e8 b0 bd
       0.19707324 0.17876537 0.1105709 -0.08638024
000080 d8 c7 d5 bd 0a b2 e7 bd 42 83 6c bd 7b c0 2f 3e
       -0.10438508 -0.11313255 -0.057742365 0.17163269
000090 a6 92 b7 3b eb 4d 06 bc 89 23 06 3d 1e 58 ea bc
       0.0056021987 -0.008197288 0.032748733 -0.02860647

model.param_proj.proj.1.weight f4 [1, 40]
000000 cb df 9c 3d 7a 7a 21 bd d6 a6 9e 3c 0a 5c e8 bd
       0.076598726 -0.039423443 0.019366663 -0.1134568
000010 4b 40 b3 3c 5c ee 3c bd ac b2 81 3d 28 86 22 3d
       0.021881243 -0.046125755 0.06332907 0.039678723
000020 02 90 d1 bd 02 32 24 3e a0 44 00 3d 94 7c 14 bd
       -0.102325454 0.16034701 0.031315446 -0.03625162
000030 d8 b4 08 be b3 eb ea 3d 1c f5 82 3d 9a 69 27 be
       -0.13350236 0.11470737 0.06394407 -0.16348878
000040 9b a7 24 3c 71 29 b9 3c 9b e0 40 3e 91 b0 6a bc
       0.010049726 0.022602769 0.1883568 -0.014324323
000050 f4 5d ef 3d 95 4e 07 3e db 97 f1 bd 20 23 1e be
       0.11687842 0.1321357 -0.11796542 -0.15443087
000060 1d f1 41 3c 3b 41 31 3d f6 f0 e1 bb b8 cf 38 be
       0.011837271 0.0432751 -0.00689518 -0.18047988
000070 43 32 29 3e 7d be 06 3e c2 d5 27 be 72 e7 88 3d
       0.1652308 0.13158603 -0.16390136 0.0668477
000080 c6 97 84 3d fd 07 0d 3e 69 0e 42 3d f5 9c a7 3d
       0.06474261 0.13772579 0.047377024 0.08184234
000090 b0 fe 9f 3d 29 cf f8 bd 22 c9 75 3d 27 65 79 bd
       0.0781225 -0.12148888 0.06000627 -0.060887482

model.param_proj.proj.2.weight f4 [1, 40]
000000 b5 ef f6 3d 94 d6 73 3e 12 cf ea 3d 10 7a 67 3d
       0.12057439 0.23812324 0.11465277 0.056512892
000010 76 23 41 be 25 b1 38 3e 53 04 2e be 01 4a 92 bd
       -0.18861184 0.18036325 -0.16993837 -0.071430214
000020 5e 66 0e be 12 b4 bd bd 30 0e 7e be ec 01 ef 3d
       -0.13906237 -0.09262861 -0.248101 0.116702884
000030 4b d5 bc bd 13 2e 02 3e d1 1a 86 3d ce 77 0d 3d
       -0.0922037 0.12712888 0.065480836 0.034538083
000040 6b 4c ce 3d 91 46 22 3e 0e 95 02 3d 6c ac 7f be
       0.10073169 0.15847231 0.03188043 -0.24968117
000050 74 a4 ec 3c 3f d8 58 be 34 60 19 bd ef 4e 60 3e
       0.028887011 -0.21176241 -0.037445262 0.21905111
000060 33 aa 40 be 0e 98 21 be 3c f6 de bd 65 5d 5f bd
       -0.18814926 -0.1578066 -0.10886809 -0.054532427
000070 ef fe 60 bd 9c 3a bb bb ab 03 4a 3e 1a e5 79 be
       -0.054930624 -0.005713774 0.19727962 -0.24403802
000080 ef 56 6e be 0b 8a fb bd d5 9a 29 be 6d 6e de 3d
       -0.2327535 -0.12282189 -0.1656297 0.10860906
000090 4c 8a db 3d a4 4c 16 3e e0 b6 33 3e 20 ec 61 be
       0.107197374 0.14677674 0.1755023 -0.22062731

model.rnn.weight_ih_l0 f4 [160, 21]
000000 41 bf ab 3d d4 16 28 3e d5 97 e7 3d e1 f1 42 3e
       0.08386088 0.16414958 0.113082565 0.19037582
000010 db 24 47 bd 7b 3c 78 bd 4f 3d e6 3d 3a ec 86 bc
       -0.048619132 -0.060604554 0.112421624 -0.016470063
000020 ee a0 35 3e 1d c7 f6 3d 91 45 a2 3d bd dc 9e bc
       0.17737171 0.120496966 0.07923425 -0.019392366
000030 3d 9f 6d 3d a5 f2 14 3d 7f cd 42 3e d8 75 5a 3e
       0.05801319 0.036364216 0.19023703 0.21334016
000040 93 f4 5a be 56 45 b4 bd ae 53 bd bd 0a 55 95 bd
       -0.2138236 -0.08802287 -0.09244476 -0.072916105
000050 04 57 2a 3d c6 fc d1 3d 30 cf b0 3d 1c 1f 6e 3e
       0.04158689 0.10253291 0.08633268 0.23254055
000060 72 75 50 3e ad 39 03 3b 10 c7 66 3e ee c9 cd 3d
       0.20357302 0.002002339 0.22536874 0.10048281
000070 71 cf 22 3e 67 c2 c8 bb 9b a4 43 bd 38 7f a1 3c
       0.15899445 -0.00612669 -0.047764402 0.019713983
000080 83 34 da bc 1c 74 5e 3d f9 27 f2 bc 98 41 df 3d
       -0.026636368 0.05430995 -0.029560076 0.10901183
000090 04 13 c6 3c 61 6e 4b be 81 6e 9b 3c ab b4 31 bc
       0.02417899 -0.19866325 0.01897359 -0.010846297
0000a0 b4 52 c9 bd c4 3e e8 3d 78 c5 68 3d 78 c1 b7 bc
       -0.098302275 0.113400966 0.056828946 -0.02243112
0000b0 ec ba f0 bc 5a 4f 20 bc 95 b9 68 3c eb 90 95 3d
       -0.029386006 -0.009784544 0.014204402 0.073030315
0000c0 07 f0 6c 3e a1 d3 c8 3b 0f a5 db 3c 33 04 12 bd
       0.23138438 0.0061287438 0.026812105 -0.035648536
0000d0 af cd 2b 3d 22 76 89 3b be ea 5d 3e 2b bf 0f 3e
       0.041944202 0.0041949907 0.21671578 0.14037769
0000e0 cf 47 66 3d c7 10 b9 3d aa a4 2d be ce 32 98 3d
       0.056220826 0.09036403 -0.16957346 0.07431565
0000f0 ed 64 b4 3c e7 91 8f bc 71 e1 1d 3e 07 79 73 3c
       0.022020781 -0.017525626 0.1541803 0.014860398
000100 e2 fa 5d 3e 9c ad 54 3e 68 30 5f 3e 56 8c 0e 3e
       0.21677735 0.20769352 0.2179581 0.13920721
000110 59 97 2e 3d 69 a1 cb 3c fd 70 09 3e 2d 4f 9f bd
       0.042624805 0.02485724 0.13422008 -0.077787735
000120 09 6e 33 3e 26 df ba bd aa 53 34 bc 45 9d 2a 3e
       0.17522444 -0.091245934 -0.011006275 0.16661556
000130 ff f4 31 3e cd 47 e3 3d ce 05 46 3e 1b 82 31 bd
       0.17378615 0.11097679 0.19338152 -0.04333697
000140 71 ba d3 bb 12 a0 42 3d 0d 62 80 be 5e 19 eb 3c
       -0.0064614345 0.047515936 -0.25074807 0.02869862
000150 db f1 62 3e 9e fb 7f 3e 3e 2f 81 3e c5 ce ca bc
       0.22162573 0.24998328 0.25231355 -0.024756799
000160 d3 f3 81 3b bf 08 1b 3e 03 1b 82 3e 24 4f 28 bd
       0.0039658337 0.15140055 0.25411233 -0.0410911
000170 52 90 20 3c 28 15 53 3e a9 06 61 3d 69 bf 39 3e
       0.009800034 0.20613539 0.054937992 0.18139423
000180 c2 41 a5 3d 42 ee 0a 3d e6 45 f0 3d 0c c2 21 bd
       0.08069183 0.033918627 0.11732082 -0.0394917
000190 a9 0c 9b bd b0 5f 78 39 a5 9f 4d 3e 26 23 40 be
       -0.07570774 0.0002368677 0.20080431 -0.18763408
0001a0 97 bf 56 3e d8 13 25 3e b7 e9 8d bc 80 95 54 3e
       0.20971523 0.16120851 -0.017323358 0.20760155
0001b0 54 6b a0 3d ca 5e de 3c a7 69 cf bc ad 29 2b 3d
       0.07832971 0.027144808 -0.025318934 0.041787792
0001c0 b9 03 2e 3e 8e ca a7 bb 77 f0 26 3e d5 94 b7 3c
       0.16993608 -0.005120582 0.16302668 0.022409836
0001d0 09 f6 2c 3e 03 17 e9 bb 59 c2 9e 3c e1 2c e8 3c
       0.1689073 -0.007113339 0.019379782 0.028341712
0001e0 54 1c 49 3e f0 7c 13 be 77 7b cb bd 82 26 69 3e
       0.19639713 -0.14403129 -0.099356584 0.22768596
0001f0 b7 65 b1 bd 83 1b 4e 3c 6a 1a 2d 3e 52 b4 7c 3e
       -0.08661979 0.0125798015 0.16904607 0.24678162
000200 7d d2 29 3c 24 d3 47 3e d9 ee 3c 3e 7f d6 b6 3c
       0.010365126 0.19514138 0.18450488 0.022319077
000210 7d 3c c5 3d ac d1 1f 3e d1 0b 3d 3e c7 3f fe 3d
       0.09630678 0.15607327 0.18461539 0.12414508
000220 60 07 94 bd 5a 93 2c 3d d0 01 62 3e a8 53 23 3e
       -0.07227969 0.042132713 0.22071004 0.15949881
000230 4f aa 95 3d 0d 9f de 3d ab c2 5d bd c7 c6 9c 3d
       0.073078744 0.1087018 -0.054140728 0.07655101
000240 02 50 0c 3d fc 2d 01 bd fa e0 65 3e 89 99 15 3e
       0.03425599 -0.031537995 0.22449103 0.1460935
000250 56 cb f9 3c 63 c1 07 3c c9 e3 db 3d 8c 6f 21 bd
       0.030492466 0.008285853 0.10736806 -0.03941302
000260 90 2c 64 3e f9 98 36 3e 0d d5 25 3d da d0 5b 3e
       0.22282624 0.17831792 0.040486384 0.2146639
000270 02 6d 5b 3d 8d d4 43 3e cc a1 f5 3d 68 fb ad 3d
       0.053570755 0.1912405 0.11993751 0.084952176
000280 f5 80 d7 3b af 14 c0 3d 4e 2c 31 3e 03 aa 0a bc
       0.006576652 0.09378945 0.17302057 -0.0084633855
000290 43 cf 49 3c 9b eb 6f bd b3 c1 48 3c 80 8a 57 3d
       0.012317481 -0.0585743 0.012253213 0.05262232
0002a0 84 ab ef 3d 64 4d 83 3e b9 32 29 3e cb c4 85 3e
       0.11702636 0.25644982 0.16523255 0.26126704
0002b0 37 33 1d 3e de 62 9b 3d d2 d7 03 3c 68 85 1d 3b
       0.15351568 0.07587217 0.008047061 0.0024035815
0002c0 c5 3e 13 3d 3e fe 78 3d 97 8c 11 3e 84 26 6a bd
       0.035948534 0.06078934 0.14213787 -0.057165638
0002d0 19 ab a7 3d de bb d3 3d 95 6f 11 3d fb a1 2c 3c
       0.08186931 0.10338567 0.035506804 0.010536666
0002e0 d8 e8 42 bd c4 f1 f1 bc 4e 3a af bc b9 70 82 be
       -0.04758534 -0.029534228 -0.021390107 -0.25476626
0002f0 b2 94 ca bc e3 34 a5 3d ac 9f 7b bd 1d 9e 08 3e
       -0.024729107 0.08066728 -0.06143157 0.13341565
000300 8b 83 bc 3d 5b 89 88 3c b2 bd 34 3e 51 6f d7 3d
       0.09204777 0.016667059 0.17650488 0.10519279
000310 2e 09 6d 3e 81 75 31 3e 99 7a f9 bc 62 67 8b bc
       0.23148033 0.1732998 -0.030453967 -0.01701707
000320 23 56 93 bc 27 2d f7 3c 4b 6b 3f bc 26 ca 14 bd
       -0.01798541 0.030172898 -0.0116832955 -0.036325596
000330 1b d1 ac bc 2f 44 6d be f2 90 06 3d 46 83 46 3e
       -0.021095803 -0.23170541 0.032853074 0.19386014
000340 fd 6c 21 bc 35 d8 67 3e 21 24 b2 bd 09 a9 1c 3e
       -0.009852645 0.2264107 -0.08698297 0.15298857
000350 07 7e 42 ba 8c 28 ec 3d 62 fc 15 3e 98 45 d7 bd
       -0.0007419292 0.11531171 0.14647058 -0.10511321
000360 c2 1a bb 3d 77 58 12 bb e5 70 48 bd 7f 55 51 bd
       0.09135963 -0.0022330561 -0.04893579 -0.051106926
000370 64 21 1e 3e 46 21 47 3d f7 e5 28 be 60 30 90 3d
       0.15442425 0.048615716 -0.16493975 0.07040477
000380 c3 51 0f bd f4 2a 90 3d f7 4b ab bc a1 61 24 3c
       -0.034990083 0.07039443 -0.020910246 0.010033042
000390 4c cb 47 bd 63 65 01 be 13 45 01 bd 74 17 f8 3d
       -0.048777863 -0.12636332 -0.031560015 0.12113848
0003a0 6b 6e b7 bd ff e7 31 3e ba 9d c3 3d e1 c0 51 3d
       -0.089566074 0.17373656 0.09551568 0.051209334
0003b0 4a 5b 03 3d 93 a8 ce 3d fd 63 01 be 6b ef 96 bd
       0.032069482 0.10090747 -0.12635799 -0.07369884
0003c0 1d 69 2f 3e 59 7f 07 be eb 26 c0 3d f2 b2 bb bd
       0.17129941 -0.13232173 0.09382423 -0.091649905
0003d0 4a da 57 3c f1 bb 4b 3e 8d 62 e6 3d 4c 8d a6 3d
       0.013174603 0.19895913 0.11249266 0.08132419
0003e0 28 4b dc bb 22 40 98 bd a8 a7 fb bc 92 98 91 bc
       -0.0067228265 -0.07434107 -0.030719593 -0.017772947
0003f0 2b f8 39 3c 09 07 0d bd 9e e7 36 3d 62 b6 f7 3d
       0.011350672 -0.034430537 0.04465448 0.12095334

model.rnn.weight_hh_l0 f4 [160, 40]
000000 38 77 0d 3e 6f 1b f9 3d 1e 3e be ba f0 86 eb 3d
       0.1381501 0.12163436 -0.0014514362 0.11500347
000010 ab d6 d8 3d 8c 18 22 be 18 56 36 3d e0 7c 2d be
       0.1058782 -0.15829676 0.0445157 -0.16942167
000020 f6 50 30 be 59 ab 82 bd 02 7f 5f bd 18 87 4f bd
       -0.17218384 -0.06380338 -0.054564483 -0.050665945
000030 be 86 37 bd be 84 8c 3d c6 ec 06 bd ee 18 97 bd
       -0.044806235 0.06861256 -0.03294065 -0.07377802
000040 ad c3 88 bd 1a 93 e9 bd b5 19 88 bd d8 3f 02 be
       -0.06677947 -0.114050105 -0.06645528 -0.12719667
000050 d4 3c 7f 3d 7a 85 49 3d 93 fa 02 3e 64 80 9f 3d
       0.06231387 0.04919956 0.12790899 0.077881604
000060 2f ab 8e bc cd c0 03 3d 37 5c e9 3c b2 74 19 3e
       -0.017415611 0.03216629 0.028486354 0.14985922
000070 da 5f ce bc 2b fe 19 bd 88 bd 8c bd 9f 80 45 3d
       -0.02519219 -0.03759591 -0.06872088 0.048218366
000080 a1 30 39 3d f8 51 8f bd de b3 c4 3d 27 fe d9 bd
       0.04521239 -0.06998056 0.096046194 -0.10644179
000090 0c 8a 89 bd 32 dc 0c 3e f2 1d c7 3d fb 5a 1d be
       -0.067157835 0.13755873 0.097225085 -0.15366738
0000a0 86 b1 4a 3e 0d 5e a0 3d 95 56 c5 bb 4f 95 b5 bd
       0.19794282 0.07830439 -0.0060222843 -0.08866369
0000b0 c1 a4 56 be b5 fd 99 3c a4 19 c5 bd 9c c3 a4 bc
       -0.20961286 0.018797735 -0.09624031 -0.020112805
0000c0 e9 de 59 3d 2a 82 22 3e 5e 74 0e 3e 07 68 de 3d
       0.0531911 0.15869966 0.13911578 0.108596854
0000d0 84 81 7c bd c1 b6 74 bd 6f 56 a5 bd f1 ed 93 3d
       -0.061646953 -0.0597446 -0.080731265 0.07223118
0000e0 28 a4 21 be 7d 94 3c be 6f fe eb 3c 1f fc be 3d
       -0.15785277 -0.18416019 0.028807847 0.09325432
0000f0 2c 70 28 3d 1d 3f 31 3d 8a e2 c4 bb cc e2 a0 bb
       0.0411226 0.04327308 -0.006008451 -0.004909849
000100 34 0c 65 bd 1c 7b 20 3d 13 60 ef 3c 31 5e 8e bd
       -0.05591984 0.039179906 0.029220616 -0.06951559
000110 64 d6 92 bc 22 77 6e 3d 41 91 07 bb fb b7 18 be
       -0.017924495 0.058219083 -0.0020685943 -0.14913933
000120 8c 58 5c bd 08 22 1e be 8d e6 94 3d f8 2d 97 bd
       -0.053795382 -0.1544267 0.072705366 -0.07381815
000130 1a 9f fe 3d 8c f2 55 3e af 09 fb bd ab d8 a2 bd
       0.1243269 0.20893306 -0.122577064 -0.079514824
000140 3d 02 bc bd e8 aa 4c 3e 4e cf 36 be 39 bc 8a bd
       -0.091801144 0.1998707 -0.17852518 -0.06774182
000150 a0 c1 38 be ba d3 41 be ae 79 a3 3b f5 f8 08 be
       -0.18042612 -0.18928424 0.0049888706 -0.1337622
000160 06 f2 45 ba 17 2f ab 3d f2 6a b4 bd ad b7 8d 3d
       -0.0007551018 0.08358591 -0.08809461 0.06919799
000170 43 86 78 3d ca 18 50 bd db eb 8a bd 63 53 91 3d
       0.060674917 -0.05080489 -0.06783267 0.07095983
000180 a8 72 dd 3c c8 8d 40 be b1 78 3b bd bd 9e 5e 3d
       0.027032211 -0.18804085 -0.045769397 0.054350603
000190 79 a6 2a be b8 78 1c be 4c a4 01 be c7 10 32 be
       -0.16665067 -0.15280426 -0.1266033 -0.17389213
0001a0 56 aa ea bc 3a ec 7e 3c 9d 7c 77 bd 5b da 8d 3d
       -0.028645676 0.0155592505 -0.060421575 0.069264136
0001b0 23 77 2e 3e 91 74 d2 3d 9e 20 8b bc 3b 1f 0a be
       0.17037635 0.102761395 -0.016983327 -0.13488476
0001c0 69 39 3a 3d 4c 68 3f bd af 78 bf bd 27 39 32 bc
       0.045464907 -0.046730325 -0.093491904 -0.010877884
0001d0 b7 77 8d 3c c4 a5 b0 bc e5 f1 89 bd e8 06 73 3d
       0.017268999 -0.021563418 -0.06735591 0.05933276
0001e0 fb 7e e2 3d 80 03 a3 bd 69 9d 29 bd 52 bd 55 bd
       0.11059376 -0.07959652 -0.041409884 -0.052182503
0001f0 3d 62 b3 3d d7 73 00 3d e9 94 f7 3a 49 90 83 3e
       0.08758972 0.031360473 0.0018888983 0.25696018
000200 ca 28 df bd 7b 34 5b 3c a4 32 02 3e 5e b3 29 3e
       -0.10896452 0.013379212 0.1271463 0.1657233
000210 47 76 a6 3d 53 1c 2b 3c 99 d3 a7 ba e8 9d eb bc
       0.08128028 0.010443765 -0.001280415 -0.028761819
000220 1e 65 e6 bc ad 24 3f be 75 27 fb bb 48 4c 19 3b
       -0.028124388 -0.18666334 -0.0076646158 0.0023391414
000230 56 1e 2f 3e 0f 74 4b be 28 0c 97 bd 80 22 39 3c
       0.17101416 -0.19868492 -0.073753655 0.011299729
000240 ad ec dc bd 24 b5 6c 3c 3d 46 66 3e 1e da 8b bd
       -0.1078733 0.014447484 0.22487731 -0.06828712
000250 c4 61 8f bd fb 11 f1 bc 52 98 2c be 5e 90 e2 bd
       -0.07001069 -0.029427519 -0.1685498 -0.11062692
000260 7a 36 2f bd 11 01 f4 bd 40 21 03 3d 98 0a a7 3d
       -0.042776562 -0.11914266 0.03201413 0.081563175
000270 51 5f 65 3c 48 7c 54 3d 3c 46 0d be 92 3c 51 be
       0.013999776 0.051876336 -0.13796324 -0.20433262
000280 82 21 e8 3d 8a e5 f2 3d 4e 7d 82 bd 15 78 ca 3d
       0.11334516 0.11860187 -0.06371556 0.09886185
000290 40 8f 9e bd 61 2b 13 be 38 d5 46 bc 7d 30 42 bc
       -0.077421665 -0.14372016 -0.012135796 -0.011852381
0002a0 b8 90 8a bd 67 f7 e7 3d 0b be 04 3e b7 4b fd bc
       -0.06765884 0.11326485 0.1296312 -0.030919893
0002b0 0d cf 76 3d 17 55 a5 3d e8 4a 59 bd 07 45 1a be
       0.060256053 0.0807287 -0.05304995 -0.15065394
0002c0 a6 41 1d bd 19 ec 0c bd 24 b2 c0 bd 0e 9c 3f 3d
       -0.038392685 -0.034404848 -0.09408978 0.046779685
0002d0 0c d4 77 3d de cb b5 bd 3b 4a 26 bd 05 be 5d 3d
       0.060504958 -0.08876775 -0.040598135 0.054136295
0002e0 cc 3d 6d be 51 6d 0a 3e 65 e6 99 3c 09 f0 c6 3d
       -0.23168105 0.13518263 0.018786618 0.09713752
0002f0 3e 4e 29 3e 83 73 48 bd f0 66 93 bd 74 0e 3a bd
       0.16533753 -0.048938286 -0.07197368 -0.04542394
000300 d9 48 85 bc 60 db 96 bc 90 26 29 bd 85 2e bc bd
       -0.016270088 -0.018415153 -0.04129654 -0.091885604
000310 ae 79 0f 3e 99 2b 49 3d 2f c9 d3 bd d5 26 d8 bd
       0.14011261 0.049113844 -0.10341107 -0.105542816
000320 59 6f b4 bd c1 e8 1b 3e 92 ff 51 bd dd 1a c3 3d
       -0.088103004 0.15225507 -0.05126912 0.09526608
000330 47 51 02 be 61 f2 0c be 22 49 cc 3a 61 4e 94 3d
       -0.12726317 -0.13764335 0.001558576 0.07241512
000340 56 31 53 3d 74 31 8f 3c dd ab 89 bd 7c b9 27 bd
       0.051560722 0.017479636 -0.067222334 -0.040948376
000350 48 0a 91 bc 38 10 26 be 33 a4 32 bd d0 24 89 bc
       -0.017705098 -0.16217124 -0.043613624 -0.016741186
000360 30 07 18 be 36 92 04 3d 21 41 d5 3c c4 6b 0c be
       -0.14846492 0.032366 0.026032032 -0.13712984
000370 e2 aa 9c bb bc 0a 01 3c ee 8d 97 bb f3 4f 26 be
       -0.004781113 0.007876094 -0.0046250736 -0.16241436
000380 73 da 46 bd 33 d9 36 bd 36 3b 77 3c d4 20 04 bd
       -0.048548173 -0.04464073 0.015089801 -0.03225787
000390 ab ef 05 3e 32 46 c3 3d 12 75 0c be 59 a4 ba 3d
       0.13079707 0.09534873 -0.13716534 0.09113378
0003a0 ba b8 42 3d 20 ec d5 3d 2f ee ab 3d d9 8c 0f bd
       0.04753945 0.10445428 0.08395039 -0.035046432
0003b0 87 50 b9 3c 9f 78 a6 3d 08 e4 a8 bd ea 74 c5 bc
       0.022621406 0.081284754 -0.082466185 -0.0241036
0003c0 d0 99 2c bd 3e 48 20 3e af dc 45 3c 28 8d 9e 3b
       -0.042138875 0.15652558 0.012076541 0.0048386045
0003d0 63 86 ee bc 7e 78 c5 bd 83 54 28 3e 47 1b 3d 3e
       -0.029116815 -0.09642123 0.16438489 0.18467437
0003e0 6b e7 76 3d e5 de ce 3d 05 aa 18 3e 7f 4d 8d bd
       0.06027929 0.101011075 0.14908607 -0.06899547
0003f0 23 ae 04 be 36 3f 53 bd c5 d3 2b be b9 8c 16 bb
       -0.12957053 -0.051573955 -0.16780002 -0.002297206

model.rnn.bias_ih_l0 f4 [160]
000000 61 6d 3f 3d a9 22 56 3e fa a6 e6 3d 52 cf 4b 3e
       0.04673517 0.2091166 0.11262317 0.19903305
000010 34 3f 66 bb b2 c3 52 bd eb 1b 1a 3e 30 0e 5b 3e
       -0.0035132887 -0.05145616 0.15049712 0.21392131
000020 f0 7f d2 3c 5e 31 46 3e 56 fa 03 bd 61 c9 00 3e
       0.025695771 0.1935477 -0.03222116 0.1257682
000030 c7 6d 63 3d c8 d6 9f bc fa 68 c8 bd ed a5 e9 bb
       0.055524614 -0.019511595 -0.09785648 -0.0071303756
000040 49 30 39 3e b6 6c 54 3e 38 ee a4 3d 37 fd 56 3b
       0.18084826 0.20744595 0.08053249 0.0032804736
000050 a0 8b a6 3c 21 77 fb 3d 1e 84 21 3e b7 23 87 3b
       0.02033025 0.122785814 0.15773055 0.0041241306
000060 3d f0 2d 3e 9a b9 90 bd ae 48 86 3e 45 59 66 3e
       0.16986175 -0.07066651 0.26227325 0.22494991
000070 3b cd 17 3e 65 dd b0 3d 00 39 a4 3a 5b 6b ef 3d
       0.14824383 0.08635978 0.0012529194 0.11690398
000080 14 5e 39 3d c3 cb d3 bb 37 dd 6d bd 9a cf 54 3c
       0.045255736 -0.0064634993 -0.058072295 0.012988949
000090 35 7a 30 3e c7 6b 36 3e c7 d9 87 bc 35 4d d2 3b
       0.17234118 0.17814551 -0.016583337 0.006417895
0000a0 f0 39 b2 3d f2 9e ed 3d 9c 24 1b bd 0c 57 2c 3e
       0.08702457 0.11602582 -0.03787671 0.16830081
0000b0 81 c4 e8 bc 51 0f f5 3d 3b f1 a8 3d 4d a3 ad 3d
       -0.028414013 0.11965812 0.08249136 0.08478413
0000c0 ab 84 53 3e 93 1b e6 3c 9e 1e 60 bc 01 04 19 be
       0.20656078 0.02808932 -0.013679175 -0.14942934
0000d0 9b af 1c bc 4b 79 1e bd 4e 2e 42 bd 29 f8 89 3d
       -0.009563352 -0.038689893 -0.04740744 0.06736786
0000e0 a7 3a 9c bd 3c e3 24 3c 56 b7 5c bd 75 62 a9 3d
       -0.076283745 0.0100639425 -0.05388578 0.08270732
0000f0 e4 73 4a bd a5 68 ac bd b7 69 3e bd 65 b5 a5 3d
       -0.04942693 -0.08418397 -0.046487536 0.08091239
000100 29 af f4 3d 69 56 6a 3d 67 9d da 3d 48 6c f8 bc
       0.11947472 0.057211313 0.10674553 -0.03032507
000110 1d ff 4e bc 73 30 2a 3e c1 7f 95 3d c6 3e 83 bd
       -0.012634066 0.16620044 0.07299758 -0.064084575
000120 f3 e1 26 3e d2 25 34 3e 53 22 51 bd e0 1b 88 3d
       0.1629713 0.17592552 -0.051058125 0.06645942
000130 29 ed 48 3e d7 fa 34 3d 45 ec 9b bd 07 52 29 3e
       0.1962172 0.044184532 -0.07613424 0.16535197
000140 60 9e 06 3c 84 7c f0 bc 41 72 5a be 2d 7a 87 3d
       0.0082164705 -0.029356249 -0.21332647 0.066151
000150 70 2c 52 3c 0c 5e 4f be ed f7 ad 3c 5f 08 5a 3e
       0.012827978 -0.2025072 0.021236384 0.21292256
000160 a3 d4 3a be f0 81 07 3e ec 99 ee 3d 81 6a 09 3e
       -0.18245177 0.13233161 0.11650452 0.13419534
000170 4f 55 1b be 82 cd 5e be 6a bb 83 bc 93 26 2e be
       -0.15169261 -0.21758083 -0.016080577 -0.17006902
000180 7c 31 b9 3c ac e7 26 be 43 a7 4e be e1 09 a6 bd
       0.022606604 -0.16299313 -0.20180993 -0.08107353
000190 a5 01 1b be 58 13 23 bd 3e de 38 bb a5 89 2c be
       -0.15137346 -0.03981337 -0.0028208639 -0.16849382
0001a0 f4 3b b3 3d 9e cc 68 3e d7 ec 28 3e 30 1e 3f bd
       0.087516695 0.22734305 0.16496597 -0.04665965
0001b0 3a ca 40 3e 42 ae 54 bd 1f f8 8d 3d 3b 86 1c 3e
       0.18827143 -0.051923998 0.06932091 0.1528558
0001c0 6e 8a e5 3d 58 28 69 be 67 b1 66 be 56 e1 eb bd
       0.11208044 -0.22769296 -0.22528611 -0.11517589
0001d0 ab 5b 5c bd dd 22 62 3e 43 b4 2c be c7 0b f8 bd
       -0.05379836 0.22083612 -0.1686564 -0.12111621
0001e0 6f 4a d7 3d 51 4d 45 3d 89 dc 79 3e 98 90 40 bd
       0.10512244 0.048169438 0.24400534 -0.047012895
0001f0 71 f9 0d bc 53 1d 04 3e d2 ea a1 3d f3 bf 9c 3b
       -0.0086654285 0.12901811 0.079061165 0.0047836243
000200 dc a3 18 3d 7f e2 6e 3e 97 10 cb 3d 0c 01 b3 bd
       0.037265643 0.23328589 0.09915274 -0.08740434
000210 81 fa 59 3e 1c 58 d6 3d 09 f3 2e 3e 1a 0c 34 bd
       0.21286966 0.10466024 0.17084898 -0.043956853
000220 2e 51 ec bb 94 da 46 3e 9c 97 02 3e 9b 80 dd bc
       -0.007211826 0.19419318 0.12753147 -0.027038863
000230 b5 55 06 3e 53 3e f9 3d fd 37 45 3e cf 55 fc 3d
       0.13118632 0.121700905 0.19259639 0.12321054
000240 a5 8e 6e 3c a8 cb 62 3e 04 e0 00 3e a9 7f 2a 3e
       0.014560376 0.22148001 0.12585455 0.16650261
000250 63 a0 cd bc ce a6 a8 3c b4 8b e5 3d aa b6 0f 3e
       -0.025100892 0.020587351 0.11208287 0.14034525
000260 72 da ab 3d 04 c1 31 3c 8d e2 0b 3e 27 4e 5f 3d
       0.083912745 0.010849241 0.13660641 0.05451789
000270 8f 95 51 3e 13 c4 fe 3d 9f a2 c7 3d 20 2f 4d bd
       0.20467208 0.12439742 0.097478144 -0.05009377

model.rnn.bias_hh_l0 f4 [160]
000000 1d 37 0c 3e 3e 0c d7 3b 90 37 05 3e 12 95 3a 3e
       0.13692899 0.0065627387 0.13009477 0.18220928
000010 ec 5a 64 bc 39 2c 14 3e d0 5e 59 bd 85 43 33 bd
       -0.013937693 0.14469995 -0.053068936 -0.043765564
000020 c1 95 2a 3e ad 2d 19 3e 44 8d 21 bd 4c 4b 29 3a
       0.16658689 0.1495883 -0.039441362 0.00064580585
000030 6b 0e 07 bb 58 bf 32 3d fa 33 9b bd c4 92 91 bc
       -0.002060796 0.04363951 -0.07578273 -0.017770179
000040 ef d9 50 3d e6 7e 00 3e 5c 4c ec 3d d5 cf 6a bc
       0.050989088 0.12548408 0.11538002 -0.014331778
000050 d4 1c 02 be 98 0d 0e 3e 4b f2 05 bd f0 73 19 3e
       -0.1270631 0.13872373 -0.03270177 0.14985633
000060 f2 f6 8f 3c b8 e2 43 3c 77 ac 70 3d a8 8f bd 3d
       0.017573807 0.011955909 0.058758225 0.09255916
000070 71 be 16 bd ca 36 1c 3e ab 27 31 bb 84 cd f7 3d
       -0.036802713 0.15255275 -0.00270317 0.12099746
000080 a7 9a f5 3d 72 08 c1 3d 7d b2 1d 3e b3 c9 6b 3d
       0.11992388 0.09425439 0.15400119 0.057565402
000090 cb 67 dd bc 36 5d 8b 3e 5b 32 28 3d e9 3a 02 3e
       -0.027027031 0.27219552 0.041063648 0.12717785
0000a0 1c 09 01 bd 9f 57 87 bd ae ef 0b 3d 4f f2 c8 bd
       -0.031502828 -0.06608509 0.034164123 -0.09811842
0000b0 a7 e2 69 bd ce 0e b3 3d fe 10 92 bd ef 65 09 be
       -0.05710092 0.08743058 -0.07132147 -0.13417791
0000c0 8c 9d 1c 3e 5f d9 8a 3d a8 72 eb bc 9c f8 ab bd
       0.15294474 0.067797415 -0.028741196 -0.08397028
0000d0 53 c5 c5 3d 15 17 49 bc 17 b0 c7 bd 3a 7d a0 3c
       0.09656777 -0.01227357 -0.09750383 0.019590963
0000e0 cb c5 d4 3d ae 97 9a 3d 57 3b 2d 3e 5d e5 fb 3c
       0.103892885 0.07548462 0.16917168 0.030749017
0000f0 77 6a db 3d 9f 74 c0 3d d0 ec d4 3d 80 ce e1 bc
       0.10713666 0.09397244 0.10396731 -0.027564287
000100 72 23 49 3e 29 ac f6 3c e6 c4 96 bd ce 19 05 3d
       0.19642428 0.03011139 -0.07361774 0.032495312
000110 38 69 a8 bc 25 d2 2c 3e b1 27 f8 3d bd 90 08 bd
       -0.020557985 0.16877039 0.121169455 -0.03334116
000120 ac 41 81 3d bb 29 40 3e 10 7e 30 3e 27 36 58 3d
       0.06311354 0.18765919 0.17235589 0.05278602
000130 19 b2 99 bd 40 9e 0e 3e ff 06 1b bc b1 03 11 be
       -0.075046726 0.13927555 -0.009462117 -0.14161564
000140 5d b3 cd 3d 49 50 50 3e 1e 1a 3a be 5b 42 18 3e
       0.100439765 0.20343126 -0.18174025 0.14869063
000150 0d c8 27 be 4c 00 85 bd 31 ec 51 3e df fa db bb
       -0.16384907 -0.06494197 0.20500256 -0.006713256
000160 c3 0d 4e bc 2b be 4a 3e cb 67 d7 3d b5 ba b9 3d
       -0.012576523 0.19799106 0.10517844 0.09068815
000170 93 4c 60 bc 84 ef 04 be 27 c0 de bd 76 0c 91 3d
       -0.013690132 -0.12981993 -0.10876494 0.07082455
000180 60 48 e2 bc 41 4e dc bc 47 ca 68 bc 16 29 19 3b
       -0.027622402 -0.026892783 -0.014208383 0.0023370436
000190 5f 0a cc 3d 54 b3 02 be 8e c8 15 be 91 07 43 be
       0.09962916 -0.12763721 -0.14627287 -0.19045855
0001a0 5c 89 8a bd 1e 48 3b 3e bd 74 df 3d 1b 68 44 bd
       -0.067644805 0.1828923 0.10910938 -0.047950845
0001b0 2d 1a 6a 3e b6 9b 66 bd d0 e8 12 be 0e dc 7d bd
       0.22861548 -0.05630084 -0.14346623 -0.06197744
0001c0 4e 4d 8c 3d c9 63 00 be 7a f5 dd bd 3d 3c b4 3b
       0.06850682 -0.12538065 -0.108378366 0.005500345
0001d0 08 92 0a bb 23 06 3e 3e 9b 52 27 be 20 66 be bd
       -0.002114417 0.18557028 -0.16340105 -0.092968225
0001e0 f4 43 8b bc 4d e7 4c 3d 02 52 4a bd e9 91 5c 3e
       -0.017000176 0.050025273 -0.049394615 0.21540035
0001f0 4c bb 83 bc cb 62 ff bc c3 66 2f 3e 64 cb 96 bd
       -0.016080521 -0.031175038 0.17129044 -0.073630124
000200 8e 65 e6 3c fd fa 9b 3d 98 b2 13 be 8b f4 5e bd
       0.028124597 0.076162316 -0.14423597 -0.054432433
000210 0a ab 14 3e 0d 98 bd 3c ed 10 3e 3e 8b 73 2d 3e
       0.14518371 0.023143793 0.18561144 0.16938607
000220 a9 dd 06 3d 3e 27 9f bb 05 18 e8 3d 9b 53 dc bc
       0.032926235 -0.004856973 0.11332706 -0.026895335
000230 08 56 0e 3e e1 95 2d 3e 38 0b 45 3e 7f 82 00 3e
       0.13900006 0.16951706 0.19242561 0.1254978
000240 ea 9c cb 3d d6 f3 84 3d 78 85 58 3c 1a 57 46 3e
       0.09942038 0.064918205 0.013215415 0.19369164
000250 f9 d5 02 3e 1b 60 5a 3e d8 ef c4 bc d8 d7 1c 3e
       0.12776937 0.21325724 -0.024040148 0.15316713
000260 d7 c0 c3 bd fb 0a ee 3d 5d d6 1c bd c2 16 0e bd
       -0.09558266 0.11623188 -0.03829037 -0.034689672
000270 e7 dc fc 3d 46 63 09 bd 68 ce 1a 3e f8 6b 65 38
       0.12346821 -0.03354194 0.151178 5.469841e-05

model.rnn.weight_ih_l1 f4 [160, 40]
000000 5e df b4 3d 14 76 ab 3d 6a 7f 61 3c 49 b8 81 bd
       0.088316664 0.08372131 0.013763288 -0.06333978
000010 20 2e ca 3d df 25 f4 3d f6 4c d2 3d 56 67 b6 bc
       0.09872079 0.11921286 0.102685854 -0.022266071
000020 18 3d 0e be c2 57 a1 bd 13 f5 ac 3d eb 5a cd 3c
       -0.13890493 -0.078780666 0.08445182 0.025067767
000030 46 d8 08 be 55 3e e8 bc e1 a1 1c be 7e 83 11 3d
       -0.13363752 -0.028350035 -0.15296127 0.03552579
000040 fb 88 15 be 9d a6 a7 bc 02 83 89 3d 83 80 a9 bd
       -0.14603035 -0.02046519 0.06714441 -0.08276465
000050 25 52 f8 bb 96 eb 3b 3d f0 54 1a 3d 0f 58 86 bd
       -0.0075781518 0.04587897 0.03767866 -0.065597646
000060 40 95 5b bc 01 a7 cb bd 2b e3 2d 3d 63 47 bd bd
       -0.013402283 -0.09943963 0.042452972 -0.092421316
000070 a0 c8 dd 3c ab c1 15 bd 4c 90 ad bd 51 ff 99 3d
       0.027073205 -0.03656165 -0.08474788 0.07519401
000080 99 3f 7b 3d c4 c5 a7 bd f8 12 7a 3d 65 17 86 ba
       0.06133995 -0.08192018 0.061053246 -0.0010230361
000090 bc 7f 9e bd 6d 51 21 3e ea 82 f7 3d ba d9 6f bd
       -0.07739207 0.15753718 0.12085517 -0.05855725
0000a0 e5 e3 7a 3d 7e bd 46 bd 56 e6 83 bc a1 47 9e 3e
       0.061252493 -0.048520558 -0.016101044 0.30914024
0000b0 5a 66 f0 bd e5 f2 77 be b2 37 72 3d c1 58 9e 3d
       -0.11738272 -0.2421375 0.059135146 0.07731772
0000c0 64 e3 bc bd 80 06 e9 3c 82 da 57 3d e9 36 54 3b
       -0.09223059 0.028445482 0.05269862 0.0032381362
0000d0 87 d4 42 3d 0f 6e aa bd 5a fc 90 be 2c a9 3a bd
       0.047565963 -0.08321773 -0.2831753 -0.04557149
0000e0 ff c9 80 be 66 50 53 bd 5e 4e 43 be 36 37 46 be
       -0.2515411 -0.051590346 -0.19072863 -0.19356999
0000f0 e6 87 e9 3b 18 1b 5e be 0b 7f 9a be 0a 37 d6 3b
       0.007126796 -0.21690023 -0.3017505 0.006537323
000100 4e 8b c2 bd 2b a8 dd 3d bf 95 8e 3e c8 55 4e 3d
       -0.094992265 0.10823091 0.27848622 0.050374776
000110 3c 01 b1 3d 67 18 ca bd 63 4d 19 be 23 67 4b be
       0.086428136 -0.09867936 -0.14970927 -0.19863562
000120 2b 2f d5 3d e0 a2 c5 bc d0 78 05 be 7c 96 80 be
       0.10409387 -0.024125516 -0.13034368 -0.2511481
000130 ba 42 72 3e 13 69 98 3d b9 84 0a bd 33 75 6e be
       0.23658267 0.07441916 -0.03381798 -0.23286895
000140 62 75 ad 3c 0c 46 97 bd 2a 03 4c 3d d3 34 39 3d
       0.021174137 -0.07386407 0.049807705 0.045216393
000150 ce 5e 30 bc ce ec f8 3c 31 e9 9f bd 60 85 06 be
       -0.010764791 0.030386355 -0.078081496 -0.13136816
000160 c6 ca e4 3d 78 57 18 bc 53 11 1a 3e 0d d9 3e bd
       0.111714885 -0.009298198 0.15045671 -0.046593715
000170 8d 4d 88 bd d1 6c 98 3d 8c 03 21 be 9f cd ed 3d
       -0.06655417 0.0744263 -0.1572401 0.11611485
000180 f7 d7 9f bd 48 69 56 bd 77 45 07 be 7d b9 0b bd
       -0.07804864 -0.052346498 -0.13210092 -0.034112442
000190 3a cc 02 be b2 b4 dd bd a3 95 5a bd da 48 60 3d
       -0.12773219 -0.108254805 -0.05336536 0.054756977
0001a0 76 ad 86 bd 95 73 ab bd b5 38 1b be 9b cf e9 3d
       -0.06576054 -0.08371655 -0.15158351 0.11416551
0001b0 7f cb 36 bc ec 64 68 3d e2 83 0f be ce ee fd 3d
       -0.011156916 0.05673687 -0.14015153 0.12399064
0001c0 c9 a4 1d 3d f0 a2 cb bb 90 5b 11 3e ed ef 05 bd
       0.03848723 -0.006214492 0.14195085 -0.032699514
0001d0 29 19 c8 3d 5a 07 aa 3d 48 33 ae bd 55 c3 cd bd
       0.09770424 0.083021834 -0.08505875 -0.10047022
0001e0 92 d7 30 be 5a 86 57 bd 15 7e bc 3d 19 ca 8a 3d
       -0.17269734 -0.052618362 0.09203736 0.06776828
0001f0 14 80 07 be 04 2f c6 bd 2d a9 c2 3d 97 30 07 be
       -0.13232452 -0.09676936 0.09504924 -0.1320213
000200 1d 84 d7 bc 26 36 3d 3d b4 2b 9d bd 0d 28 42 3e
       -0.026308114 0.046194218 -0.07674351 0.1896059
000210 c6 73 73 3d 30 4f aa bd dc c4 7d bd e3 67 50 3d
       0.059436582 -0.08315885 -0.061955318 0.050880324
000220 b1 8b bf bd eb fc 0c 3e 89 8c da bd b3 e1 b8 bd
       -0.09352816 0.13768356 -0.10671336 -0.09027424
000230 b7 4a e9 bd 01 86 10 3e 4a 32 5e bd 9e 4f 73 bc
       -0.11391204 0.14113618 -0.054247178 -0.014850525
000240 7b be a9 bd 73 bd da bd 4e 78 ce bc c8 18 d7 bd
       -0.082882844 -0.10680666 -0.02520385 -0.105027735
000250 74 33 7a 3d 93 08 ca bd 8f 48 36 bd a5 b3 07 bd
       0.061084226 -0.09864917 -0.04450279 -0.033130307
000260 0e cc 31 3d 38 fc 00 be e1 2a 32 bd 8d 39 c0 3d
       0.043407492 -0.12596214 -0.043497924 0.09385977
000270 be fb dc bc 40 4a f3 bd bf 06 dd 3d 2a b6 e7 3d
       -0.026975509 -0.118793964 0.10792302 0.11314042
000280 fe aa 75 bb 42 02 f4 3d 28 89 e5 bd b3 b0 d9 3d
       -0.0037485952 0.11914493 -0.11207801 0.10629406
000290 de ea 50 be ce df 16 bd a0 39 ab 3d 97 d1 20 3e
       -0.20402095 -0.03683453 0.083606005 0.15704952
0002a0 70 40 30 3d 02 b1 11 3e 30 ae 8b 3d 81 6c 94 3d
       0.043030202 0.1422768 0.06820333 0.07247258
0002b0 4f 6a 33 be d5 5f 4e 3c e8 97 13 be 15 28 c2 bd
       -0.17521022 0.01259609 -0.14413416 -0.09480301
0002c0 a1 41 60 be 83 41 68 3c 92 c7 6c be 19 32 54 be
       -0.21900035 0.014175775 -0.23123005 -0.20722236
0002d0 ad a6 be bc fa 80 95 3d ec 51 3c be 6c 0a 04 be
       -0.023272837 0.07299991 -0.18390626 -0.128946
0002e0 27 a2 5f be c7 8a c1 3e 47 f3 ec 3d e0 1e ff 3d
       -0.218392 0.3780119 0.11569839 0.12457061
0002f0 fe 63 bd 3d 31 55 81 3c 68 8c dd bd de 20 45 bd
       0.092475876 0.015787693 -0.10817796 -0.048127048
000300 1c 53 0e 3e e8 d4 46 bd 07 c4 59 be 37 a9 87 be
       0.13898891 -0.048542887 -0.21266185 -0.26496288
000310 2a 7e 44 3e f8 98 5d 3e 8a c9 64 be bb 41 25 bd
       0.19188753 0.21640384 -0.22342506 -0.04034589
000320 12 63 28 3e 48 5f df 3b fa a0 33 be 44 2a 18 bc
       0.16444042 0.0068167783 -0.17541876 -0.009287421
000330 b8 b3 89 bd 44 98 f2 3b 0b 40 1c 3e d6 e3 44 3d
       -0.06723732 0.0074034054 0.15258805 0.048068844
000340 56 61 6d be 06 c7 8d 3d b6 89 1d bd 84 95 8c 3e
       -0.23181662 0.06922726 -0.03846141 0.2745782
000350 ce 9c 85 3d 9c 5a 0a 3d 9b 86 7a be b1 8d 47 bd
       0.06524049 0.033777818 -0.2446541 -0.04871911
000360 a8 26 9e bd e9 8d 14 3d 6c 76 3d 3d 8e ea 88 3c
       -0.07722217 0.03626815 0.046255514 0.016713407
000370 a5 e6 38 be c9 01 5a 3d 41 c2 af bd f9 3b 7c be
       -0.18056734 0.05322436 -0.08581973 -0.24632253
000380 a8 4c 03 3d 61 c4 1a 3e 2c 8f 52 3e 5e 7a 42 bd
       0.032055527 0.15113975 0.20562428 -0.04747998
000390 8b 63 58 bd 04 85 de bd 52 f3 62 be d0 e5 53 be
       -0.052829307 -0.108652145 -0.22163132 -0.20693135
0003a0 13 d2 b4 bd aa c2 0b be ef a5 22 be 07 a7 01 be
       -0.08829131 -0.13648477 -0.15883611 -0.12661372
0003b0 c2 b4 39 3c 1d bb 35 3e 75 d8 fb bd 15 4c bd bd
       0.0113346 0.1774716 -0.12297145 -0.09243027
0003c0 43 f8 99 3d 47 48 50 3e bd bf d2 bd d4 ff 40 3e
       0.07518055 0.20340072 -0.102904774 0.1884759
0003d0 1d 57 cc bd d4 1d ea 3c df 66 8a 3d eb 18 50 3e
       -0.09977553 0.028578676 0.06757902 0.20322005
0003e0 9f a8 5b bd 3d 16 83 3d 57 e2 08 3e bb 54 6c 3e
       -0.053627606 0.06400726 0.13367592 0.23079197
0003f0 7a d5 86 3d 5d 96 d7 bd 46 eb 01 be 37 4a 09 be
       0.06583686 -0.105267264 -0.12687406 -0.13407217

model.rnn.weight_hh_l1 f4 [160, 40]
000000 42 77 72 bd b7 3b 89 bc 8e b2 cd bd 7f 15 d2 3d
       -0.059195764 -0.016752107 -0.10043822 0.10258006
000010 9a 71 11 3d 8c 14 e6 3d c3 3e 04 be 08 32 0a be
       0.03550873 0.11234388 -0.12914567 -0.13495648
000020 3a e0 04 be 4b 1e a3 3d 52 7f 81 3b 09 03 a6 bd
       -0.1297616 0.07964762 0.0039519453 -0.08106048
000030 33 03 03 be 3a 8a 01 3e 77 c1 a1 bc 17 37 2c 3d
       -0.12794189 0.12650385 -0.019745572 0.042044725
000040 90 0b 19 3d db 74 22 bd 08 a2 0f bd f9 e4 49 ba
       0.037364542 -0.039662223 -0.035066634 -0.0007701661
000050 21 ca 8a 3d 7e be 4f 3d 2a 75 dd 3d 9b 7d 5b bd
       0.06776834 0.050718777 0.10813363 -0.053586584
000060 1c 3c 02 bb 29 76 1a bd 55 5c ab bd ed 13 8e 3d
       -0.0019872254 -0.037710343 -0.0836722 0.06937394
000070 38 80 91 bd b9 a8 0b be 42 57 c3 bd 6b f3 7d bd
       -0.07104534 -0.13638581 -0.095381275 -0.06199972
000080 6d d3 cc 3b ba 17 a5 3d 2e 3e e7 3d ff d0 1e be
       0.00625079 0.08061166 0.11291157 -0.15509413
000090 d0 ea a6 3d b1 a5 be bd 89 a1 f6 bd 76 aa 00 3d
       0.08150256 -0.09308947 -0.12042529 0.031412564
0000a0 ff 98 26 3e e1 ff 86 bd d0 e7 d6 3d 3f d6 08 be
       0.16269301 -0.06591774 0.104934335 -0.13362978
0000b0 83 61 27 3e ed a6 09 be a0 14 38 3e 72 63 61 3c
       0.16345792 -0.13442583 0.17976618 0.01375662
0000c0 78 68 23 be af 41 4b 3d b9 5a 60 3d 1b e7 c0 bd
       -0.1595782 0.049623188 0.05477402 -0.0941908
0000d0 19 33 b7 bd 63 78 fc bd db ae 8c 3c 7f 25 96 bd
       -0.08945293 -0.123276494 0.017173221 -0.073313706
0000e0 18 cd 20 3b 38 e1 08 bb b6 5b c0 3d 3b ad 1f 3e
       0.0024536308 -0.0020886194 0.093924925 0.15593426
0000f0 f0 72 35 3e 45 a4 27 bd fa 62 0d be 30 8a 49 3d
       0.17719626 -0.040928144 -0.13807288 0.04920405
000100 a9 f6 ab bd 37 d7 42 bd 24 f2 2d 3e 45 e1 1e 3d
       -0.08396656 -0.047568526 0.169869 0.038789053
000110 10 09 25 bd b7 11 55 3d 57 af 57 bd 86 7b 29 3e
       -0.040291846 0.052018847 -0.05265745 0.16551027
000120 82 c2 8a 3d 7c 6d 4c 3d c7 32 08 3e d9 13 a2 3d
       0.06775381 0.0499091 0.1330062 0.07913942
000130 2b 1b 17 3e 00 ea f3 3c d2 cf 17 be 64 91 cb bd
       0.14756458 0.029774666 -0.14825371 -0.099398404
000140 01 f7 d4 bc c4 a4 f8 3c b4 7b 4d bd ff 57 64 bd
       -0.025996687 0.030352004 -0.0501668 -0.055747982
000150 9a 08 c4 bc 80 f0 9c 3d e0 f2 b2 3d af b2 6d 3d
       -0.023929883 0.07663059 0.08737731 0.058031734
000160 da b8 9b 3c a8 80 e2 bd 72 27 2b be db 63 1a 3e
       0.019009043 -0.110596955 -0.16714266 0.15077154
000170 3b 8f b7 bb 58 f9 77 3c 2b e3 1c be b1 47 15 3e
       -0.005601791 0.015135132 -0.15321033 0.1457813
000180 ad 8a 96 bd 34 fa 06 3c 31 d1 3a bd cf bc 8b bb
       -0.07350669 0.008238364 -0.045609657 -0.004264451
000190 53 a0 7a bd b0 63 a9 3d 33 9c dc bd 84 40 c0 3d
       -0.061188053 0.08270967 -0.1077198 0.093873054
0001a0 55 67 1a be 5d 88 81 3d ea db 20 be 97 58 bf bc
       -0.1507848 0.06324837 -0.1570889 -0.023357673
0001b0 2a ba a4 bd 3f 78 00 3e 0b 9b 1a 3e 89 2c f8 bc
       -0.080433205 0.1254587 0.15098207 -0.030294674
0001c0 28 38 1b be 1e 74 d1 bd a5 3a 04 be a5 22 aa 3d
       -0.1515814 -0.10227226 -0.12912996 0.08307389
0001d0 f2 65 6d bd 1c 41 08 3e d4 87 38 bd 38 2d 99 3d
       -0.05795855 0.13306087 -0.04505141 0.07479328
0001e0 c9 2c e4 bd 60 68 ab bd c4 18 12 be 99 6a 86 3c
       -0.111413546 -0.08369517 -0.1426726 0.016408252
0001f0 fb 9f 34 bb 2d 73 da bd 1c ef e0 bd e7 e5 d2 3d
       -0.0027561176 -0.10666499 -0.109831065 0.10297757
000200 da 62 e4 3c 93 59 a8 3d 2d 87 82 3d c9 d0 1e 3e
       0.027879167 0.0822021 0.06373439 0.15509333
000210 93 47 41 3e 88 92 8e bd cb f9 f4 3c 62 ca c4 3d
       0.1887496 -0.06961542 0.029904267 0.09608914
000220 58 63 18 3e 6f ad b4 3d de c0 8d bd cf 34 9c 3d
       0.14881647 0.08822142 -0.06921552 0.0762726
000230 75 86 36 bd 0d a7 76 bd e5 f6 76 bd 0b 31 ea bc
       -0.044561822 -0.060217906 -0.06029405 -0.028587839
000240 2e bc e4 3d c7 ce 82 bd 21 dc fa bd 8d b4 ae 3d
       0.11168705 -0.06387096 -0.122490175 0.08530531
000250 f2 10 dc bd 7e e2 f6 3d eb e7 a3 3c 8c f9 9b bd
       -0.107454196 0.12054919 0.020008048 -0.07615957
000260 f3 8b 10 be 7f ab 25 be 1b be fc 3b 93 1a 17 3d
       -0.14115886 -0.16178702 0.007713092 0.036890578
000270 88 fa a0 3d 2b fe 26 3e d3 0e 10 3d c2 7e dc bc
       0.07860285 0.16307895 0.035170387 -0.026915912
000280 ae 4f 99 3b aa 3a 5f 3d e8 42 8a bd 66 6a 70 3d
       0.004678688 0.054499306 -0.067510426 0.05869522
000290 c6 08 02 3e 3c 31 26 be 9f 69 8f bd 3a 24 32 3e
       0.1269866 -0.16229719 -0.070025675 0.17396632
0002a0 16 e6 d3 bd 47 7c d5 3d a3 3b 05 bd 70 ce fc 35
       -0.1034662 0.10424095 -0.032527577 1.8835544e-06
0002b0 b6 94 dc bd 3b 0e 4c be ab 56 4c 3e 7e aa 5c be
       -0.10770552 -0.19927303 0.19954936 -0.21549413
0002c0 8a ca 5e be e8 7a bd bd 8d cc 87 bd af c0 3f bd
       -0.2175695 -0.09251958 -0.06630812 -0.046814617
0002d0 e4 60 55 3e 46 14 ac bd 63 b2 b2 3c 79 a9 97 bd
       0.20837742 -0.08402304 0.021813577 -0.07405371
0002e0 fa fa 81 bd 4f 12 98 3c 8e 24 a3 bd 87 5e 12 be
       -0.06346698 0.018563418 -0.07965957 -0.14293872
0002f0 65 cc 19 bd 06 8d 4c 3d 20 58 4a 3d 81 81 fa 3d
       -0.03754844 0.049939178 0.04940045 0.12231732
000300 2c 91 90 3c e8 0a 4a bd ba a9 44 3e 17 11 97 3d
       0.017647348 -0.049326807 0.1920537 0.073763065
000310 75 59 7d bd 3b d1 28 bd 1e 5a 89 3d 1f e5 2e 3e
       -0.06185289 -0.041215163 0.067066416 0.1707959
000320 21 0c e3 bd db a5 70 3d 9f 2f f7 bd 87 93 2f be
       -0.11086298 0.058751922 -0.1206963 -0.17146121
000330 4c 4f 2a 3e e6 84 56 3d e6 ef 00 3e 49 aa 8b bd
       0.16631812 0.052372836 0.12591514 -0.06819589
000340 9f 32 45 bd af c7 05 bc 03 e8 e1 3c 75 23 27 be
       -0.04814398 -0.008165284 0.027576452 -0.1632212
000350 8e ad 15 be b6 71 74 bd d0 f7 ed 3d a4 14 c3 bd
       -0.14616987 -0.059678756 0.11619532 -0.09525421
000360 17 76 b9 3d f4 ff 91 bd 54 f1 d2 3d 1a 0d 7d 3c
       0.09055727 -0.07128897 0.10299936 0.015445018
000370 67 60 42 3d 58 b5 67 3c ca 5f 25 3c 2c c9 87 bc
       0.047455218 0.014142357 0.010093639 -0.016575418
000380 6c d8 19 bd f1 fd 0c be 0e a0 2d 3e 57 cd 06 be
       -0.03755991 -0.13768746 0.16955587 -0.13164268
000390 3c 7c 66 bd d8 59 c3 3d 98 33 b6 bd 5f f5 8d bc
       -0.056270823 0.09538621 -0.088965595 -0.017328916
0003a0 5a c0 44 3e 4b 8e 1c bd fc bb 54 bd 6c 37 e4 bd
       0.19214001 -0.03822164 -0.05193709 -0.111433834
0003b0 f6 10 b0 bd df 02 33 bd 74 ce f9 bc dc 58 a6 bd
       -0.08596985 -0.04370391 -0.030493952 -0.08122417
0003c0 eb c3 f8 bd c2 b1 91 bd 72 c0 f3 3d c3 1a 7f 3c
       -0.121467434 -0.07113983 0.119019404 0.015570345
0003d0 6c d5 cc 3d f6 b2 22 be f7 81 49 bd b9 05 ee 3d
       0.100016445 -0.1588858 -0.04919621 0.11622185
0003e0 6a ba ef bc 86 b5 27 3e 84 b8 7a bc 1c fd c8 bd
       -0.029263694 0.1637784 -0.015302781 -0.09813902
0003f0 fa a2 7e bd f4 46 93 bd 78 0a 70 3c 47 9a 5f 3d
       -0.062167145 -0.071912676 0.014650933 0.05459049

model.rnn.bias_ih_l1 f4 [160]
000000 4c 78 8b bd b2 7a 80 3e f2 af f4 bd e8 bb b7 3d
       -0.06810054 0.2509361 -0.119476214 0.08971387
000010 50 b7 51 3e eb 21 62 3e e1 88 58 3d b4 e9 5f 3e
       0.20480084 0.22083251 0.052864913 0.21866494
000020 8a d5 06 3e 9d f8 87 3e 28 7e 26 3e 23 b5 16 bd
       0.13167396 0.26556864 0.16259062 -0.03679384
000030 a1 b0 09 bd 0a e9 5f bd 19 42 a5 bd 98 02 b4 3b
       -0.033615712 -0.054665603 -0.08069248 0.0054934733
000040 09 55 0c 3e 06 45 25 3e 04 e5 b0 3d 23 39 40 3e
       0.13704313 0.16139612 0.08637431 0.18771796
000050 a7 a0 da 3c 52 bd 20 3e 1e ac 6c 3d 2b c0 36 3e
       0.026687933 0.1569722 0.05778133 0.17846744
000060 31 24 8a 3c b4 a1 25 3e 31 89 33 3e f6 97 f9 bd
       0.01686296 0.16174966 0.17532803 -0.121871874
000070 48 94 5e 3e 88 03 02 3e 56 cc 7b 3d ce fb 49 3d
       0.21736252 0.1269666 0.061474167 0.049312405
000080 de 0f 94 bb 2d 99 99 3c d6 6e 33 3d 0f 1f 44 3c
       -0.004518493 0.018749798 0.043806873 0.011970296
000090 72 ca 97 bd 99 6c df 3a d2 8e 1e 3e 5a 39 da 3d
       -0.0741166 0.0017045914 0.15484169 0.1065547
0000a0 29 16 d1 bd 4b ee 04 3e c6 60 5d 3d b0 26 89 3d
       -0.10209305 0.12981527 0.05404737 0.06696832
0000b0 15 af 55 3e 03 8e 0e 3e 63 b6 32 bd 04 75 62 3d
       0.2086757 0.1392136 -0.04363097 0.055287376
0000c0 03 65 9d bd 74 c2 b8 bd ca e3 8d 3c 98 75 f7 3c
       -0.07685282 -0.09021464 0.017320532 0.03020744
0000d0 69 8c d8 bd 04 aa 09 be 29 61 aa 3b 40 fd 13 3d
       -0.10573656 -0.13443762 0.0051995707 0.03613019
0000e0 bc 70 1c 3e 32 bd f5 bc 02 4c 77 bd 85 a7 66 bd
       0.1527738 -0.029997442 -0.06037522 -0.056312103
0000f0 83 31 91 3d f7 84 cf bd e1 d9 82 3d 5c 25 af 3d
       0.07089522 -0.10132783 0.06389213 0.085520476
000100 9c 1a df 3c 0e 43 e9 bd f1 9a f7 3d 5a c9 ee bc
       0.027234368 -0.11389743 0.120900996 -0.029148746
000110 f5 ff 22 3e e8 63 8a 3c 99 07 92 bd 0a 2a b6 bc
       0.15917952 0.016893342 -0.071303554 -0.022236843
000120 c9 d5 2a 3d 53 aa c7 bd cf ab 4d 3e be 48 c6 bd
       0.041707788 -0.09749284 0.20085071 -0.09681843
000130 00 9f a1 3c a0 9e 85 3d 6b bf 45 3e 04 e9 a8 bd
       0.019729137 0.06524396 0.19311301 -0.08247569
000140 2d 49 79 3c 53 1e 45 be 0a 0e 89 3d 4d 45 a3 3d
       0.0152152 -0.19249849 0.06692131 0.079722025
000150 46 79 05 3e 69 21 c8 bd 7e 42 0f bd d4 9a 50 3e
       0.13034543 -0.097719975 -0.03497552 0.20371562
000160 b7 4c 12 bd c6 f1 36 3e d7 af 06 bd 25 56 30 be
       -0.035717692 0.17865667 -0.032882538 -0.17220362
000170 d1 8f 97 3c 62 51 49 3d e1 2f 19 3d 07 cc 1d 3d
       0.018501194 0.04914988 0.037399177 0.038524654
000180 ca da 29 3d 10 9a 1b bd 84 0c 22 bd 0f b7 d0 3c
       0.04146842 -0.037988722 -0.039562717 0.025477914
000190 d6 7a c0 3d d1 8f 4a 3e f7 3e 0e be 5f f5 c1 bd
       0.09398429 0.19781424 -0.13891207 -0.09470629
0001a0 8d 39 92 37 8f c0 55 bd 60 3e 37 3e d6 f8 52 bd
       1.7431355e-05 -0.05218559 0.17894888 -0.05150684
0001b0 43 a3 88 bd ca 9a 3d 3e e1 ee 42 be 2c 38 74 bd
       -0.06671765 0.18516079 -0.19036438 -0.059623882
0001c0 cd dd 0c 3e ac 38 cf 3d 45 0e 6e bd 91 cb f2 bc
       0.13756485 0.10118231 -0.058119077 -0.029638084
0001d0 46 5c aa 3d f9 33 85 bd 82 b5 6f 3d 5d 65 0e bd
       0.08318381 -0.065040536 0.05852271 -0.034764636
0001e0 20 a9 23 bd 21 fb 64 bd fc e1 4c bc dd 42 07 3d
       -0.039956212 -0.055903558 -0.012505051 0.03302275
0001f0 e6 ec 7d 3d b3 a2 00 3e 7d e8 7e 3d 15 5c be 3d
       0.061993502 0.12562065 0.062233437 0.09294907
000200 a7 2f fa 3d f1 d0 2f 3e 60 93 74 3e 52 80 1e 3e
       0.1221612 0.17169549 0.23884344 0.15478638
000210 7a 62 94 bc cf 42 6b 3d 55 06 90 3d e4 93 48 3d
       -0.018113364 0.05743676 0.07032458 0.048969164
000220 88 78 43 3e b3 41 0d 3d 3e c3 db bd 00 26 06 3c
       0.19088948 0.034486484 -0.10730599 0.008187771
000230 5a 04 15 3e 57 9f fd bc 60 27 e2 3d a4 d8 0f bc
       0.14552441 -0.030959768 0.110426664 -0.0087796785
000240 b5 93 20 3e 51 d9 bb bd fb 98 2b 3e 21 eb c0 bd
       0.15681346 -0.09172309 0.16757576 -0.09419847
000250 97 53 0c bd 42 92 c2 3c 5f ec 64 3e f0 8d b2 3c
       -0.034259405 0.023751382 0.22355793 0.021796197
000260 83 55 e1 3d 08 3d f7 3d af 61 0d bd f8 d4 c1 bd
       0.11002638 0.12072188 -0.034516986 -0.09464449
000270 71 79 c4 bd 9a a3 1a 3d 50 1d 0e bd 44 5a 29 bd
       -0.095934756 0.03775368 -0.034695923 -0.04134585

model.rnn.bias_hh_l1 f4 [160]
000000 70 08 8c bd 8e f1 56 3e e5 cd 00 be ee 1c db bd
       -0.06837547 0.20990583 -0.12578543 -0.10698877
000010 47 62 06 3d 10 ab 11 3d 39 b3 10 3e 61 bd 71 3c
       0.03280857 0.03556353 0.14130868 0.014754624
000020 f8 44 cb 3d 25 db c8 3d 01 b8 11 3b 6d 43 89 bd
       0.09925264 0.098074235 0.002223492 -0.067023136
000030 76 7f 51 3d 8c 3e a2 bd bb e8 0a 3e d0 43 67 3d
       0.051146947 -0.07922086 0.13565342 0.056461155
000040 a2 b0 b3 bc 93 64 7a bd 51 95 cb 3c d0 e9 e9 3d
       -0.021934811 -0.06113107 0.024851473 0.11421549
000050 47 9c ff 3d d7 c9 60 bb 2a 0a 11 be 91 e3 84 3e
       0.124809794 -0.0034299993 -0.14164034 0.2595487
000060 e5 5a 74 3d be e9 44 3e c1 a6 6b 3b 41 f8 ba bd
       0.059656996 0.1922979 0.0035957547 -0.09129382
000070 0b ca f1 3d 83 ea a7 3d 76 9e 83 3d 2b 87 1f 3e
       0.11806115 0.081990264 0.064267084 0.15578906
000080 3f 71 4b 3e 9f b5 06 3e f8 3e 3b 3e d3 1b 69 3c
       0.19867419 0.1315522 0.1828574 0.014227825
000090 e9 ec 23 3e b4 3f 7e 3e 43 41 ff 3d 23 d9 11 3e
       0.16008343 0.24828988 0.124636196 0.14242987
0000a0 55 c3 c9 3d a3 08 9f bd 36 b8 26 3d bf 98 48 bd
       0.0985171 -0.07765319 0.04070302 -0.048973795
0000b0 7a e6 99 3d af 7e 72 bc 83 ca f1 3b f8 47 f0 3d
       0.07514663 -0.014800712 0.0073788776 0.11732477
0000c0 47 04 f1 bd 7f da 1d 3e a0 65 87 3c c3 78 55 bd
       -0.11768394 0.15415381 0.01652795 -0.05211712
0000d0 a8 ea 01 be c2 a0 50 3d 22 49 41 3d c7 3c ee 3d
       -0.1268717 0.05093456 0.047188886 0.11632686
0000e0 ba fc 51 3e 91 62 b2 bc a2 56 03 3e da 7c aa bd
       0.20506564 -0.021775516 0.12826017 -0.08324595
0000f0 b1 32 57 3d 17 b7 f2 3d a2 84 80 3d f3 9a 09 3e
       0.052538577 0.11851328 0.06275298 0.13438015
000100 ab 2f db bd 8f d0 8c 3b 7d 29 85 3d 35 c1 aa bd
       -0.10702451 0.004297323 0.06502054 -0.083376326
000110 b3 90 1b 3e 35 ec 06 3e fa 34 91 3d 6d 5b d1 bd
       0.15191917 0.13176043 0.070901826 -0.10222516
000120 c7 43 99 3d db 56 f3 bd df 85 5c bd c6 eb 33 bd
       0.074836306 -0.11881801 -0.053838607 -0.043926023
000130 7f a6 90 bd c9 12 dc 3d 7d 05 1c 3e 2e d4 e3 3d
       -0.070630066 0.107457705 0.15236469 0.111244544
000140 f3 6e 14 3e 96 a2 4f bb dd 53 7e 3d 25 63 72 3d
       0.14495449 -0.0031682602 0.062091697 0.059176583
000150 a9 e9 0c bd 77 0d 2d bd aa 3c 15 bd 85 69 a2 bd
       -0.034402523 -0.04224917 -0.036434807 -0.079302825
000160 87 ef b7 3c db ea 29 bd 36 55 eb 3d 2e da a0 bd
       0.022453083 -0.04148374 0.11490862 -0.078541145
000170 bc 52 4b 3d ac d6 be 3d 90 e9 08 3e 87 a2 11 be
       0.04963945 0.09318289 0.13370347 -0.14222156
000180 4b 8b bf bd df 7c 8f bd fd da fd 3d a1 1d 48 3d
       -0.0935274 -0.07006239 0.12395284 0.04885638
000190 86 3c d8 bc c8 c1 50 bd a7 bd d8 3d 4a 36 2b be
       -0.026396047 -0.050966054 0.10583048 -0.16719928
0001a0 75 8e 86 3d 94 d2 ef 3d ff 0d eb 3d 81 45 9a bd
       0.0657014 0.117100865 0.11477279 -0.07532788
0001b0 9e 85 3a 3e fe e5 3e 3e be 08 48 bd 92 a2 51 3e
       0.18215033 0.18642423 -0.048836462 0.20472172
0001c0 27 03 db 3b 31 db a8 3d 95 de 3d 3e cb 78 c2 3d
       0.0066837254 0.082449324 0.1854194 0.09495696
0001d0 e4 16 c4 3d 27 c1 1d 3c d3 8c 02 bd ab ff 8b 3d
       0.095746785 0.009628571 -0.03187258 0.06835874
0001e0 60 85 8e 3d 5b b7 0d 3d 7b 55 59 bd 4d 2a 02 be
       0.06959033 0.03459869 -0.053060036 -0.12711449
0001f0 b2 2c 2f 3e 6d a7 c4 bc c0 9e ad bc fb 19 27 3e
       0.17106894 -0.024005616 -0.021193862 0.16318505
000200 c9 72 a0 bd ae d7 c2 3a 70 a3 da 3d 4c c8 d6 3d
       -0.078343935 0.0014865303 0.106757045 0.10487422
000210 5d 6e e7 bd 48 96 0d be bd 71 1b 3e 9f 87 0f be
       -0.11300347 -0.13826859 0.15180106 -0.14016579
000220 ed 46 0f 3d 6d b3 6b bd 25 4c 75 3d c5 b2 16 3e
       0.03497975 -0.05754416 0.05988707 0.14716633
000230 a2 9c 9a 3d e4 c1 8f bd 90 4d cd 3d 4e cd a7 bc
       0.075494066 -0.070194036 0.100245595 -0.02048364
000240 a4 ef 59 3c 07 50 db 3d 56 73 f4 3d 9e d6 0e 3e
       0.013301764 0.107086234 0.11936061 0.13949057
000250 2c b9 34 3e fe 36 85 bd 0f 82 4f 3e a7 78 80 3d
       0.17648762 -0.065046296 0.20264457 0.062730126
000260 f5 af 2a 3d e5 2b 89 3d 56 6b 7e 3e 42 c6 d9 bd
       0.041671712 0.06697825 0.24845633 -0.10633518
000270 df dc 08 3e b2 ad 2b 3d a2 57 d0 bc f6 11 14 3e
       0.13365506 0.041913696 -0.025432412 0.14459977

exp_avg f4 [1, 40]
000000 ef 94 44 ba 96 bd fe ba ff a8 fe b8 9b 3b ca b7
       -0.00074989995 -0.0019435163 -0.00012143142 -2.4108032e-05
000010 f5 c5 ff 3a e4 7e 00 bb 37 87 fb 3a b3 80 d2 3a
       0.0019513952 -0.0019606883 0.0019190077 0.0016060084
000020 e9 9a 71 39 23 4c a9 3a d0 82 00 3b 96 8d f7 ba
       0.0002304126 0.0012916367 0.001960922 -0.00188868
000030 51 0a 97 b7 85 1a ab ba 08 04 69 b9 51 68 0a ba
       -1.8005407e-05 -0.0013054168 -0.00022222113 -0.00052798266
000040 e5 97 fd ba 8e 09 08 bb e4 47 a0 b7 60 34 07 3b
       -0.0019347636 -0.0020757648 -1.9106963e-05 0.0020630583
000050 e0 14 46 39 73 32 c4 3a 60 44 4e 36 6c 1f fa ba
       0.00018890528 0.0014968648 3.0736192e-06 -0.0019082851
000060 4d be 00 3b 26 5c d5 3a 8c fe 00 3b 5c ff 56 b8
       0.0019644678 0.0016278073 0.0019682972 -5.1259398e-05
000070 80 02 63 39 be dc cf 38 27 60 e1 ba 0a 02 fd 3a
       0.00021649338 9.9116456e-05 -0.0017194793 0.0019302976
000080 cf 51 fc 3a 6e 61 fd 3a 60 6e fd 3a af 3f 47 ba
       0.0019250455 0.0019331404 0.0019335262 -0.0007600737
000090 25 21 d2 b8 39 73 c6 ba c5 f2 0c bb 93 55 14 3b
       -0.00010019754 -0.001514054 -0.0021507007 0.0022634014
